…
I0421 22:57:47.806308 14016 net.cpp:294] The NetState phase (0) differed from the phase (1) specified by a rule in layer accuracy
I0421 22:57:47.806308 14016 net.cpp:51] Initializing net from parameters: 
name: "CIFAR10_full"
state {
  phase: TRAIN
  level: 0
  stage: ""
}
layer {
  name: "cifar"
  type: "Data"
  top: "data"
  top: "label"
  include {
    phase: TRAIN
  }
  transform_param {
    mirror: true
    mean_file: "examples/cifar10/mean.binaryproto"
  }
  data_param {
    source: "examples/cifar10/cifar10_train_lmdb"
    batch_size: 100
    backend: LMDB
  }
}
layer {
  name: "conv1"
  type: "Convolution"
  bottom: "data"
  top: "conv1"
  param {
    lr_mult: 1
  }
  convolution_param {
    num_output: 64
    bias_term: true
    pad: 1
    kernel_size: 3
    stride: 1
    weight_filler {
      type: "xavier"
    }
  }
}
layer {
  name: "bn1"
  type: "BatchNorm"
  bottom: "conv1"
  top: "conv1"
  param {
    lr_mult: 0
    decay_mult: 0
  }
  param {
    lr_mult: 0
    decay_mult: 0
  }
  param {
    lr_mult: 0
    decay_mult: 0
  }
  include {
    phase: TRAIN
  }
  batch_norm_param {
    use_global_stats: false
    moving_average_fraction: 0.95
  }
}
layer {
  name: "scale1"
  type: "Scale"
  bottom: "conv1"
  top: "conv1"
  scale_param {
    bias_term: true
  }
}
layer {
  name: "relu1"
  type: "ReLU"
  bottom: "conv1"
  top: "conv1"
}
layer {
  name: "drop2_1"
  type: "Dropout"
  bottom: "conv1"
  top: "conv1"
  dropout_param {
    dropout_ratio: 0.2
  }
}
layer {
  name: "conv1_0"
  type: "Convolution"
  bottom: "conv1"
  top: "conv1_0"
  param {
    lr_mult: 1
  }
  convolution_param {
    num_output: 128
    bias_term: true
    pad: 1
    kernel_size: 3
    stride: 1
    weight_filler {
      type: "xavier"
    }
  }
}
layer {
  name: "bn1_0"
  type: "BatchNorm"
  bottom: "conv1_0"
  top: "conv1_0"
  param {
    lr_mult: 0
    decay_mult: 0
  }
  param {
    lr_mult: 0
    decay_mult: 0
  }
  param {
    lr_mult: 0
    decay_mult: 0
  }
  include {
    phase: TRAIN
  }
  batch_norm_param {
    use_global_stats: false
    moving_average_fraction: 0.95
  }
}
layer {
  name: "scale1_0"
  type: "Scale"
  bottom: "conv1_0"
  top: "conv1_0"
  scale_param {
    bias_term: true
  }
}
layer {
  name: "relu1_0"
  type: "ReLU"
  bottom: "conv1_0"
  top: "conv1_0"
}
layer {
  name: "drop1_0"
  type: "Dropout"
  bottom: "conv1_0"
  top: "conv1_0"
  dropout_param {
    dropout_ratio: 0.2
  }
}
layer {
  name: "conv2"
  type: "Convolution"
  bottom: "conv1_0"
  top: "conv2"
  param {
    lr_mult: 1
  }
  convolution_param {
    num_output: 128
    bias_term: true
    pad: 1
    kernel_size: 3
    stride: 1
    weight_filler {
      type: "gaussian"
      std: 0.01
    }
  }
}
layer {
  name: "bn2"
  type: "BatchNorm"
  bottom: "conv2"
  top: "conv2"
  param {
    lr_mult: 0
    decay_mult: 0
  }
  param {
    lr_mult: 0
    decay_mult: 0
  }
  param {
    lr_mult: 0
    decay_mult: 0
  }
  include {
    phase: TRAIN
  }
  batch_norm_param {
    use_global_stats: false
    moving_average_fraction: 0.95
  }
}
layer {
  name: "scale2"
  type: "Scale"
  bottom: "conv2"
  top: "conv2"
  scale_param {
    bias_term: true
  }
}
layer {
  name: "relu2"
  type: "ReLU"
  bottom: "conv2"
  top: "conv2"
}
layer {
  name: "drop2_0"
  type: "Dropout"
  bottom: "conv2"
  top: "conv2"
  dropout_param {
    dropout_ratio: 0.2
  }
}
layer {
  name: "conv2_1"
  type: "Convolution"
  bottom: "conv2"
  top: "conv2_1"
  param {
    lr_mult: 1
  }
  convolution_param {
    num_output: 128
    bias_term: true
    pad: 1
    kernel_size: 3
    stride: 1
    weight_filler {
      type: "gaussian"
      std: 0.01
    }
  }
}
layer {
  name: "bn2_1"
  type: "BatchNorm"
  bottom: "conv2_1"
  top: "conv2_1"
  param {
    lr_mult: 0
    decay_mult: 0
  }
  param {
    lr_mult: 0
    decay_mult: 0
  }
  param {
    lr_mult: 0
    decay_mult: 0
  }
  include {
    phase: TRAIN
  }
  batch_norm_param {
    use_global_stats: false
    moving_average_fraction: 0.95
  }
}
layer {
  name: "scale2_1"
  type: "Scale"
  bottom: "conv2_1"
  top: "conv2_1"
  scale_param {
    bias_term: true
  }
}
layer {
  name: "relu2_1"
  type: "ReLU"
  bottom: "conv2_1"
  top: "conv2_1"
}
layer {
  name: "pool2_1"
  type: "Pooling"
  bottom: "conv2_1"
  top: "pool2_1"
  pooling_param {
    pool: MAX
    kernel_size: 2
    stride: 2
  }
}
layer {
  name: "drop2_1"
  type: "Dropout"
  bottom: "pool2_1"
  top: "pool2_1"
  dropout_param {
    dropout_ratio: 0.2
  }
}
layer {
  name: "conv2_2"
  type: "Convolution"
  bottom: "pool2_1"
  top: "conv2_2"
  param {
    lr_mult: 1
  }
  convolution_param {
    num_output: 128
    bias_term: true
    pad: 1
    kernel_size: 3
    stride: 1
    weight_filler {
      type: "gaussian"
      std: 0.01
    }
  }
}
layer {
  name: "bn2_2"
  type: "BatchNorm"
  bottom: "conv2_2"
  top: "conv2_2"
  param {
    lr_mult: 0
    decay_mult: 0
  }
  param {
    lr_mult: 0
    decay_mult: 0
  }
  param {
    lr_mult: 0
    decay_mult: 0
  }
  include {
    phase: TRAIN
  }
  batch_norm_param {
    use_global_stats: false
    moving_average_fraction: 0.95
  }
}
layer {
  name: "scale2_2"
  type: "Scale"
  bottom: "conv2_2"
  top: "conv2_2"
  scale_param {
    bias_term: true
  }
}
layer {
  name: "relu2_2"
  type: "ReLU"
  bottom: "conv2_2"
  top: "conv2_2"
}
layer {
  name: "drop2_2"
  type: "Dropout"
  bottom: "conv2_2"
  top: "conv2_2"
  dropout_param {
    dropout_ratio: 0.2
  }
}
layer {
  name: "conv3"
  type: "Convolution"
  bottom: "conv2_2"
  top: "conv3"
  param {
    lr_mult: 1
  }
  convolution_param {
    num_output: 128
    bias_term: true
    pad: 1
    kernel_size: 3
    stride: 1
    weight_filler {
      type: "xavier"
    }
  }
}
layer {
  name: "bn3"
  type: "BatchNorm"
  bottom: "conv3"
  top: "conv3"
  param {
    lr_mult: 0
    decay_mult: 0
  }
  param {
    lr_mult: 0
    decay_mult: 0
  }
  param {
    lr_mult: 0
    decay_mult: 0
  }
  include {
    phase: TRAIN
  }
  batch_norm_param {
    use_global_stats: false
    moving_average_fraction: 0.95
  }
}
layer {
  name: "scale3"
  type: "Scale"
  bottom: "conv3"
  top: "conv3"
  scale_param {
    bias_term: true
  }
}
layer {
  name: "relu3"
  type: "ReLU"
  bottom: "conv3"
  top: "conv3"
}
layer {
  name: "drop3"
  type: "Dropout"
  bottom: "conv3"
  top: "conv3"
  dropout_param {
    dropout_ratio: 0.2
  }
}
layer {
  name: "conv4"
  type: "Convolution"
  bottom: "conv3"
  top: "conv4"
  param {
    lr_mult: 1
  }
  convolution_param {
    num_output: 256
    bias_term: true
    pad: 1
    kernel_size: 3
    stride: 1
    weight_filler {
      type: "xavier"
    }
  }
}
layer {
  name: "pool4"
  type: "Pooling"
  bottom: "conv4"
  top: "pool4"
  pooling_param {
    pool: MAX
    kernel_size: 2
    stride: 2
  }
}
layer {
  name: "bn4"
  type: "BatchNorm"
  bottom: "pool4"
  top: "pool4"
  param {
    lr_mult: 0
    decay_mult: 0
  }
  param {
    lr_mult: 0
    decay_mult: 0
  }
  param {
    lr_mult: 0
    decay_mult: 0
  }
  include {
    phase: TRAIN
  }
  batch_norm_param {
    use_global_stats: false
    moving_average_fraction: 0.95
  }
}
layer {
  name: "scale4"
  type: "Scale"
  bottom: "pool4"
  top: "pool4"
  scale_param {
    bias_term: true
  }
}
layer {
  name: "relu4"
  type: "ReLU"
  bottom: "pool4"
  top: "pool4"
}
layer {
  name: "drop4"
  type: "Dropout"
  bottom: "pool4"
  top: "pool4"
  dropout_param {
    dropout_ratio: 0.2
  }
}
layer {
  name: "conv4_1"
  type: "Convolution"
  bottom: "pool4"
  top: "conv4_1"
  param {
    lr_mult: 1
  }
  convolution_param {
    num_output: 256
    bias_term: true
    pad: 1
    kernel_size: 3
    stride: 1
    weight_filler {
      type: "xavier"
    }
  }
}
layer {
  name: "bn4_1"
  type: "BatchNorm"
  bottom: "conv4_1"
  top: "conv4_1"
  param {
    lr_mult: 0
    decay_mult: 0
  }
  param {
    lr_mult: 0
    decay_mult: 0
  }
  param {
    lr_mult: 0
    decay_mult: 0
  }
  include {
    phase: TRAIN
  }
  batch_norm_param {
    use_global_stats: false
    moving_average_fraction: 0.95
  }
}
layer {
  name: "scale4_1"
  type: "Scale"
  bottom: "conv4_1"
  top: "conv4_1"
  scale_param {
    bias_term: true
  }
}
layer {
  name: "relu4_1"
  type: "ReLU"
  bottom: "conv4_1"
  top: "conv4_1"
}
layer {
  name: "drop4_1"
  type: "Dropout"
  bottom: "conv4_1"
  top: "conv4_1"
  dropout_param {
    dropout_ratio: 0.2
  }
}
layer {
  name: "conv4_2"
  type: "Convolution"
  bottom: "conv4_1"
  top: "conv4_2"
  param {
    lr_mult: 1
  }
  convolution_param {
    num_output: 256
    bias_term: true
    pad: 1
    kernel_size: 3
    stride: 1
    weight_filler {
      type: "xavier"
    }
  }
}
layer {
  name: "bn4_2"
  type: "BatchNorm"
  bottom: "conv4_2"
  top: "conv4_2"
  param {
    lr_mult: 0
    decay_mult: 0
  }
  param {
    lr_mult: 0
    decay_mult: 0
  }
  param {
    lr_mult: 0
    decay_mult: 0
  }
  include {
    phase: TRAIN
  }
  batch_norm_param {
    use_global_stats: false
    moving_average_fraction: 0.95
  }
}
layer {
  name: "scale4_2"
  type: "Scale"
  bottom: "conv4_2"
  top: "conv4_2"
  scale_param {
    bias_term: true
  }
}
layer {
  name: "relu4_2"
  type: "ReLU"
  bottom: "conv4_2"
  top: "conv4_2"
}
layer {
  name: "drop4_2"
  type: "Dropout"
  bottom: "conv4_2"
  top: "conv4_2"
  dropout_param {
    dropout_ratio: 0.2
  }
}
layer {
  name: "pool4_2"
  type: "Pooling"
  bottom: "conv4_2"
  top: "pool4_2"
  pooling_param {
    pool: MAX
    kernel_size: 2
    stride: 2
  }
}
layer {
  name: "conv4_0"
  type: "Convolution"
  bottom: "pool4_2"
  top: "conv4_0"
  param {
    lr_mult: 1
  }
  convolution_param {
    num_output: 512
    bias_term: true
    pad: 1
    kernel_size: 3
    stride: 1
    weight_filler {
      type: "xavier"
    }
  }
}
layer {
  name: "bn4_0"
  type: "BatchNorm"
  bottom: "conv4_0"
  top: "conv4_0"
  param {
    lr_mult: 0
    decay_mult: 0
  }
  param {
    lr_mult: 0
    decay_mult: 0
  }
  param {
    lr_mult: 0
    decay_mult: 0
  }
  include {
    phase: TRAIN
  }
  batch_norm_param {
    use_global_stats: false
    moving_average_fraction: 0.95
  }
}
layer {
  name: "scale4_0"
  type: "Scale"
  bottom: "conv4_0"
  top: "conv4_0"
  scale_param {
    bias_term: true
  }
}
layer {
  name: "relu4_0"
  type: "ReLU"
  bottom: "conv4_0"
  top: "conv4_0"
}
layer {
  name: "drop4_0"
  type: "Dropout"
  bottom: "conv4_0"
  top: "conv4_0"
  dropout_param {
    dropout_ratio: 0.2
  }
}
layer {
  name: "cccp4"
  type: "Convolution"
  bottom: "conv4_0"
  top: "cccp4"
  param {
    lr_mult: 1
    decay_mult: 1
  }
  param {
    lr_mult: 2
    decay_mult: 0
  }
  convolution_param {
    num_output: 2048
    kernel_size: 1
    group: 1
    weight_filler {
      type: "xavier"
    }
    bias_filler {
      type: "constant"
      value: 0
    }
  }
}
layer {
  name: "relu_cccp4"
  type: "ReLU"
  bottom: "cccp4"
  top: "cccp4"
}
layer {
  name: "drop4_3"
  type: "Dropout"
  bottom: "cccp4"
  top: "cccp4"
  dropout_param {
    dropout_ratio: 0.2
  }
}
layer {
  name: "cccp5"
  type: "Convolution"
  bottom: "cccp4"
  top: "cccp5"
  param {
    lr_mult: 1
    decay_mult: 1
  }
  param {
    lr_mult: 2
    decay_mult: 0
  }
  convolution_param {
    num_output: 256
    kernel_size: 1
    group: 1
    weight_filler {
      type: "xavier"
    }
    bias_filler {
      type: "constant"
      value: 0
    }
  }
}
layer {
  name: "relu_cccp5"
  type: "ReLU"
  bottom: "cccp5"
  top: "cccp5"
}
layer {
  name: "poolcp5"
  type: "Pooling"
  bottom: "cccp5"
  top: "poolcp5"
  pooling_param {
    pool: MAX
    kernel_size: 2
    stride: 2
  }
}
layer {
  name: "drop4_5"
  type: "Dropout"
  bottom: "poolcp5"
  top: "poolcp5"
  dropout_param {
    dropout_ratio: 0.2
  }
}
layer {
  name: "cccp6"
  type: "Convolution"
  bottom: "poolcp5"
  top: "cccp6"
  param {
    lr_mult: 1
    decay_mult: 1
  }
  param {
    lr_mult: 2
    decay_mult: 0
  }
  convolution_param {
    num_output: 256
    pad: 1
    kernel_size: 3
    group: 1
    weight_filler {
      type: "xavier"
    }
    bias_filler {
      type: "constant"
      value: 0
    }
  }
}
layer {
  name: "relu_cccp6"
  type: "ReLU"
  bottom: "cccp6"
  top: "cccp6"
}
layer {
  name: "poolcp6"
  type: "Pooling"
  bottom: "cccp6"
  top: "poolcp6"
  pooling_param {
    pool: MAX
    kernel_size: 2
    stride: 2
  }
}
layer {
  name: "ip1"
  type: "InnerProduct"
  bottom: "poolcp6"
  top: "ip1"
  param {
    lr_mult: 1
    decay_mult: 0
  }
  param {
    lr_mult: 2
    decay_mult: 0
  }
  inner_product_param {
    num_output: 10
    weight_filler {
      type: "xavier"
    }
    bias_filler {
      type: "constant"
    }
  }
}
layer {
  name: "accuracy_training"
  type: "Accuracy"
  bottom: "ip1"
  bottom: "label"
  top: "accuracy_training"
  include {
    phase: TRAIN
  }
}
layer {
  name: "loss"
  type: "SoftmaxWithLoss"
  bottom: "ip1"
  bottom: "label"
  top: "loss"
}
I0421 22:57:47.806808 14016 layer_factory.cpp:58] Creating layer cifar
I0421 22:57:47.813808 14016 db_lmdb.cpp:40] Opened lmdb examples/cifar10/cifar10_train_lmdb
I0421 22:57:47.813808 14016 net.cpp:84] Creating Layer cifar
I0421 22:57:47.813808 14016 net.cpp:380] cifar -> data
I0421 22:57:47.813808 14016 net.cpp:380] cifar -> label
I0421 22:57:47.813808 14016 data_transformer.cpp:25] Loading mean file from: examples/cifar10/mean.binaryproto
I0421 22:57:47.815310 14016 data_layer.cpp:45] output data size: 100,3,32,32
I0421 22:57:47.819811 14016 net.cpp:122] Setting up cifar
I0421 22:57:47.819811 14016 net.cpp:129] Top shape: 100 3 32 32 (307200)
I0421 22:57:47.819811 14016 net.cpp:129] Top shape: 100 (100)
I0421 22:57:47.819811 14016 net.cpp:137] Memory required for data: 1229200
I0421 22:57:47.819811 14016 layer_factory.cpp:58] Creating layer label_cifar_1_split
I0421 22:57:47.819811 14016 net.cpp:84] Creating Layer label_cifar_1_split
I0421 22:57:47.819811 14016 net.cpp:406] label_cifar_1_split <- label
I0421 22:57:47.819811 14016 net.cpp:380] label_cifar_1_split -> label_cifar_1_split_0
I0421 22:57:47.820310 14016 net.cpp:380] label_cifar_1_split -> label_cifar_1_split_1
I0421 22:57:47.820310 14016 net.cpp:122] Setting up label_cifar_1_split
I0421 22:57:47.820310 14016 net.cpp:129] Top shape: 100 (100)
I0421 22:57:47.820310 14016 net.cpp:129] Top shape: 100 (100)
I0421 22:57:47.820310 14016 net.cpp:137] Memory required for data: 1230000
I0421 22:57:47.820310 14016 layer_factory.cpp:58] Creating layer conv1
I0421 22:57:47.820310 14016 net.cpp:84] Creating Layer conv1
I0421 22:57:47.820310 14016 net.cpp:406] conv1 <- data
I0421 22:57:47.820310 14016 net.cpp:380] conv1 -> conv1
I0421 22:57:47.820809 12176 common.cpp:36] System entropy source not available, using fallback algorithm to generate seed instead.
I0421 22:57:48.272903 14016 net.cpp:122] Setting up conv1
I0421 22:57:48.273406 14016 net.cpp:129] Top shape: 100 64 32 32 (6553600)
I0421 22:57:48.273406 14016 net.cpp:137] Memory required for data: 27444400
I0421 22:57:48.273406 14016 layer_factory.cpp:58] Creating layer bn1
I0421 22:57:48.273406 14016 net.cpp:84] Creating Layer bn1
I0421 22:57:48.273406 14016 net.cpp:406] bn1 <- conv1
I0421 22:57:48.273406 14016 net.cpp:367] bn1 -> conv1 (in-place)
I0421 22:57:48.273905 14016 net.cpp:122] Setting up bn1
I0421 22:57:48.273905 14016 net.cpp:129] Top shape: 100 64 32 32 (6553600)
I0421 22:57:48.273905 14016 net.cpp:137] Memory required for data: 53658800
I0421 22:57:48.273905 14016 layer_factory.cpp:58] Creating layer scale1
I0421 22:57:48.273905 14016 net.cpp:84] Creating Layer scale1
I0421 22:57:48.273905 14016 net.cpp:406] scale1 <- conv1
I0421 22:57:48.273905 14016 net.cpp:367] scale1 -> conv1 (in-place)
I0421 22:57:48.273905 14016 layer_factory.cpp:58] Creating layer scale1
I0421 22:57:48.274404 14016 net.cpp:122] Setting up scale1
I0421 22:57:48.274404 14016 net.cpp:129] Top shape: 100 64 32 32 (6553600)
I0421 22:57:48.274404 14016 net.cpp:137] Memory required for data: 79873200
I0421 22:57:48.274404 14016 layer_factory.cpp:58] Creating layer relu1
I0421 22:57:48.274404 14016 net.cpp:84] Creating Layer relu1
I0421 22:57:48.274404 14016 net.cpp:406] relu1 <- conv1
I0421 22:57:48.274404 14016 net.cpp:367] relu1 -> conv1 (in-place)
I0421 22:57:48.274909 14016 net.cpp:122] Setting up relu1
I0421 22:57:48.274909 14016 net.cpp:129] Top shape: 100 64 32 32 (6553600)
I0421 22:57:48.274909 14016 net.cpp:137] Memory required for data: 106087600
I0421 22:57:48.274909 14016 layer_factory.cpp:58] Creating layer drop2_1
I0421 22:57:48.274909 14016 net.cpp:84] Creating Layer drop2_1
I0421 22:57:48.274909 14016 net.cpp:406] drop2_1 <- conv1
I0421 22:57:48.274909 14016 net.cpp:367] drop2_1 -> conv1 (in-place)
I0421 22:57:48.274909 14016 net.cpp:122] Setting up drop2_1
I0421 22:57:48.274909 14016 net.cpp:129] Top shape: 100 64 32 32 (6553600)
I0421 22:57:48.274909 14016 net.cpp:137] Memory required for data: 132302000
I0421 22:57:48.274909 14016 layer_factory.cpp:58] Creating layer conv1_0
I0421 22:57:48.274909 14016 net.cpp:84] Creating Layer conv1_0
I0421 22:57:48.274909 14016 net.cpp:406] conv1_0 <- conv1
I0421 22:57:48.274909 14016 net.cpp:380] conv1_0 -> conv1_0
I0421 22:57:48.279403 14016 net.cpp:122] Setting up conv1_0
I0421 22:57:48.279403 14016 net.cpp:129] Top shape: 100 128 32 32 (13107200)
I0421 22:57:48.279403 14016 net.cpp:137] Memory required for data: 184730800
I0421 22:57:48.279403 14016 layer_factory.cpp:58] Creating layer bn1_0
I0421 22:57:48.279403 14016 net.cpp:84] Creating Layer bn1_0
I0421 22:57:48.279403 14016 net.cpp:406] bn1_0 <- conv1_0
I0421 22:57:48.279403 14016 net.cpp:367] bn1_0 -> conv1_0 (in-place)
I0421 22:57:48.279904 14016 net.cpp:122] Setting up bn1_0
I0421 22:57:48.279904 14016 net.cpp:129] Top shape: 100 128 32 32 (13107200)
I0421 22:57:48.279904 14016 net.cpp:137] Memory required for data: 237159600
I0421 22:57:48.279904 14016 layer_factory.cpp:58] Creating layer scale1_0
I0421 22:57:48.280403 14016 net.cpp:84] Creating Layer scale1_0
I0421 22:57:48.280403 14016 net.cpp:406] scale1_0 <- conv1_0
I0421 22:57:48.280403 14016 net.cpp:367] scale1_0 -> conv1_0 (in-place)
I0421 22:57:48.280403 14016 layer_factory.cpp:58] Creating layer scale1_0
I0421 22:57:48.280403 14016 net.cpp:122] Setting up scale1_0
I0421 22:57:48.280403 14016 net.cpp:129] Top shape: 100 128 32 32 (13107200)
I0421 22:57:48.280403 14016 net.cpp:137] Memory required for data: 289588400
I0421 22:57:48.280403 14016 layer_factory.cpp:58] Creating layer relu1_0
I0421 22:57:48.280403 14016 net.cpp:84] Creating Layer relu1_0
I0421 22:57:48.280403 14016 net.cpp:406] relu1_0 <- conv1_0
I0421 22:57:48.280403 14016 net.cpp:367] relu1_0 -> conv1_0 (in-place)
I0421 22:57:48.281407 14016 net.cpp:122] Setting up relu1_0
I0421 22:57:48.281407 14016 net.cpp:129] Top shape: 100 128 32 32 (13107200)
I0421 22:57:48.281407 14016 net.cpp:137] Memory required for data: 342017200
I0421 22:57:48.281407 14016 layer_factory.cpp:58] Creating layer drop1_0
I0421 22:57:48.281407 14016 net.cpp:84] Creating Layer drop1_0
I0421 22:57:48.281407 14016 net.cpp:406] drop1_0 <- conv1_0
I0421 22:57:48.281407 14016 net.cpp:367] drop1_0 -> conv1_0 (in-place)
I0421 22:57:48.281407 14016 net.cpp:122] Setting up drop1_0
I0421 22:57:48.281407 14016 net.cpp:129] Top shape: 100 128 32 32 (13107200)
I0421 22:57:48.281407 14016 net.cpp:137] Memory required for data: 394446000
I0421 22:57:48.281407 14016 layer_factory.cpp:58] Creating layer conv2
I0421 22:57:48.281407 14016 net.cpp:84] Creating Layer conv2
I0421 22:57:48.281407 14016 net.cpp:406] conv2 <- conv1_0
I0421 22:57:48.281407 14016 net.cpp:380] conv2 -> conv2
I0421 22:57:48.285907 14016 net.cpp:122] Setting up conv2
I0421 22:57:48.285907 14016 net.cpp:129] Top shape: 100 128 32 32 (13107200)
I0421 22:57:48.285907 14016 net.cpp:137] Memory required for data: 446874800
I0421 22:57:48.285907 14016 layer_factory.cpp:58] Creating layer bn2
I0421 22:57:48.285907 14016 net.cpp:84] Creating Layer bn2
I0421 22:57:48.286403 14016 net.cpp:406] bn2 <- conv2
I0421 22:57:48.286403 14016 net.cpp:367] bn2 -> conv2 (in-place)
I0421 22:57:48.286403 14016 net.cpp:122] Setting up bn2
I0421 22:57:48.286403 14016 net.cpp:129] Top shape: 100 128 32 32 (13107200)
I0421 22:57:48.286403 14016 net.cpp:137] Memory required for data: 499303600
I0421 22:57:48.286905 14016 layer_factory.cpp:58] Creating layer scale2
I0421 22:57:48.286905 14016 net.cpp:84] Creating Layer scale2
I0421 22:57:48.286905 14016 net.cpp:406] scale2 <- conv2
I0421 22:57:48.286905 14016 net.cpp:367] scale2 -> conv2 (in-place)
I0421 22:57:48.286905 14016 layer_factory.cpp:58] Creating layer scale2
I0421 22:57:48.287405 14016 net.cpp:122] Setting up scale2
I0421 22:57:48.287405 14016 net.cpp:129] Top shape: 100 128 32 32 (13107200)
I0421 22:57:48.287405 14016 net.cpp:137] Memory required for data: 551732400
I0421 22:57:48.287405 14016 layer_factory.cpp:58] Creating layer relu2
I0421 22:57:48.287405 14016 net.cpp:84] Creating Layer relu2
I0421 22:57:48.287405 14016 net.cpp:406] relu2 <- conv2
I0421 22:57:48.287405 14016 net.cpp:367] relu2 -> conv2 (in-place)
I0421 22:57:48.287902 14016 net.cpp:122] Setting up relu2
I0421 22:57:48.287902 14016 net.cpp:129] Top shape: 100 128 32 32 (13107200)
I0421 22:57:48.287902 14016 net.cpp:137] Memory required for data: 604161200
I0421 22:57:48.287902 14016 layer_factory.cpp:58] Creating layer drop2_0
I0421 22:57:48.288403 14016 net.cpp:84] Creating Layer drop2_0
I0421 22:57:48.288403 14016 net.cpp:406] drop2_0 <- conv2
I0421 22:57:48.288403 14016 net.cpp:367] drop2_0 -> conv2 (in-place)
I0421 22:57:48.288403 14016 net.cpp:122] Setting up drop2_0
I0421 22:57:48.288403 14016 net.cpp:129] Top shape: 100 128 32 32 (13107200)
I0421 22:57:48.288403 14016 net.cpp:137] Memory required for data: 656590000
I0421 22:57:48.288403 14016 layer_factory.cpp:58] Creating layer conv2_1
I0421 22:57:48.288403 14016 net.cpp:84] Creating Layer conv2_1
I0421 22:57:48.288403 14016 net.cpp:406] conv2_1 <- conv2
I0421 22:57:48.288403 14016 net.cpp:380] conv2_1 -> conv2_1
I0421 22:57:48.295902 14016 net.cpp:122] Setting up conv2_1
I0421 22:57:48.295902 14016 net.cpp:129] Top shape: 100 128 32 32 (13107200)
I0421 22:57:48.295902 14016 net.cpp:137] Memory required for data: 709018800
I0421 22:57:48.295902 14016 layer_factory.cpp:58] Creating layer bn2_1
I0421 22:57:48.295902 14016 net.cpp:84] Creating Layer bn2_1
I0421 22:57:48.295902 14016 net.cpp:406] bn2_1 <- conv2_1
I0421 22:57:48.295902 14016 net.cpp:367] bn2_1 -> conv2_1 (in-place)
I0421 22:57:48.296902 14016 net.cpp:122] Setting up bn2_1
I0421 22:57:48.296902 14016 net.cpp:129] Top shape: 100 128 32 32 (13107200)
I0421 22:57:48.296902 14016 net.cpp:137] Memory required for data: 761447600
I0421 22:57:48.296902 14016 layer_factory.cpp:58] Creating layer scale2_1
I0421 22:57:48.296902 14016 net.cpp:84] Creating Layer scale2_1
I0421 22:57:48.296902 14016 net.cpp:406] scale2_1 <- conv2_1
I0421 22:57:48.296902 14016 net.cpp:367] scale2_1 -> conv2_1 (in-place)
I0421 22:57:48.296902 14016 layer_factory.cpp:58] Creating layer scale2_1
I0421 22:57:48.297404 14016 net.cpp:122] Setting up scale2_1
I0421 22:57:48.297904 14016 net.cpp:129] Top shape: 100 128 32 32 (13107200)
I0421 22:57:48.297904 14016 net.cpp:137] Memory required for data: 813876400
I0421 22:57:48.297904 14016 layer_factory.cpp:58] Creating layer relu2_1
I0421 22:57:48.297904 14016 net.cpp:84] Creating Layer relu2_1
I0421 22:57:48.297904 14016 net.cpp:406] relu2_1 <- conv2_1
I0421 22:57:48.297904 14016 net.cpp:367] relu2_1 -> conv2_1 (in-place)
I0421 22:57:48.298904 14016 net.cpp:122] Setting up relu2_1
I0421 22:57:48.298904 14016 net.cpp:129] Top shape: 100 128 32 32 (13107200)
I0421 22:57:48.298904 14016 net.cpp:137] Memory required for data: 866305200
I0421 22:57:48.298904 14016 layer_factory.cpp:58] Creating layer pool2_1
I0421 22:57:48.298904 14016 net.cpp:84] Creating Layer pool2_1
I0421 22:57:48.298904 14016 net.cpp:406] pool2_1 <- conv2_1
I0421 22:57:48.298904 14016 net.cpp:380] pool2_1 -> pool2_1
I0421 22:57:48.299404 14016 net.cpp:122] Setting up pool2_1
I0421 22:57:48.299404 14016 net.cpp:129] Top shape: 100 128 16 16 (3276800)
I0421 22:57:48.299404 14016 net.cpp:137] Memory required for data: 879412400
I0421 22:57:48.299404 14016 layer_factory.cpp:58] Creating layer drop2_1
I0421 22:57:48.299404 14016 net.cpp:84] Creating Layer drop2_1
I0421 22:57:48.299404 14016 net.cpp:406] drop2_1 <- pool2_1
I0421 22:57:48.299404 14016 net.cpp:367] drop2_1 -> pool2_1 (in-place)
I0421 22:57:48.299404 14016 net.cpp:122] Setting up drop2_1
I0421 22:57:48.299404 14016 net.cpp:129] Top shape: 100 128 16 16 (3276800)
I0421 22:57:48.299404 14016 net.cpp:137] Memory required for data: 892519600
I0421 22:57:48.299404 14016 layer_factory.cpp:58] Creating layer conv2_2
I0421 22:57:48.299404 14016 net.cpp:84] Creating Layer conv2_2
I0421 22:57:48.299404 14016 net.cpp:406] conv2_2 <- pool2_1
I0421 22:57:48.299404 14016 net.cpp:380] conv2_2 -> conv2_2
I0421 22:57:48.304903 14016 net.cpp:122] Setting up conv2_2
I0421 22:57:48.304903 14016 net.cpp:129] Top shape: 100 128 16 16 (3276800)
I0421 22:57:48.304903 14016 net.cpp:137] Memory required for data: 905626800
I0421 22:57:48.304903 14016 layer_factory.cpp:58] Creating layer bn2_2
I0421 22:57:48.304903 14016 net.cpp:84] Creating Layer bn2_2
I0421 22:57:48.304903 14016 net.cpp:406] bn2_2 <- conv2_2
I0421 22:57:48.304903 14016 net.cpp:367] bn2_2 -> conv2_2 (in-place)
I0421 22:57:48.304903 14016 net.cpp:122] Setting up bn2_2
I0421 22:57:48.304903 14016 net.cpp:129] Top shape: 100 128 16 16 (3276800)
I0421 22:57:48.305403 14016 net.cpp:137] Memory required for data: 918734000
I0421 22:57:48.305403 14016 layer_factory.cpp:58] Creating layer scale2_2
I0421 22:57:48.305403 14016 net.cpp:84] Creating Layer scale2_2
I0421 22:57:48.305403 14016 net.cpp:406] scale2_2 <- conv2_2
I0421 22:57:48.305403 14016 net.cpp:367] scale2_2 -> conv2_2 (in-place)
I0421 22:57:48.305403 14016 layer_factory.cpp:58] Creating layer scale2_2
I0421 22:57:48.305403 14016 net.cpp:122] Setting up scale2_2
I0421 22:57:48.305403 14016 net.cpp:129] Top shape: 100 128 16 16 (3276800)
I0421 22:57:48.305403 14016 net.cpp:137] Memory required for data: 931841200
I0421 22:57:48.305902 14016 layer_factory.cpp:58] Creating layer relu2_2
I0421 22:57:48.305902 14016 net.cpp:84] Creating Layer relu2_2
I0421 22:57:48.305902 14016 net.cpp:406] relu2_2 <- conv2_2
I0421 22:57:48.305902 14016 net.cpp:367] relu2_2 -> conv2_2 (in-place)
I0421 22:57:48.306403 14016 net.cpp:122] Setting up relu2_2
I0421 22:57:48.306403 14016 net.cpp:129] Top shape: 100 128 16 16 (3276800)
I0421 22:57:48.306403 14016 net.cpp:137] Memory required for data: 944948400
I0421 22:57:48.306403 14016 layer_factory.cpp:58] Creating layer drop2_2
I0421 22:57:48.306403 14016 net.cpp:84] Creating Layer drop2_2
I0421 22:57:48.306403 14016 net.cpp:406] drop2_2 <- conv2_2
I0421 22:57:48.306403 14016 net.cpp:367] drop2_2 -> conv2_2 (in-place)
I0421 22:57:48.306403 14016 net.cpp:122] Setting up drop2_2
I0421 22:57:48.306403 14016 net.cpp:129] Top shape: 100 128 16 16 (3276800)
I0421 22:57:48.306403 14016 net.cpp:137] Memory required for data: 958055600
I0421 22:57:48.306403 14016 layer_factory.cpp:58] Creating layer conv3
I0421 22:57:48.306403 14016 net.cpp:84] Creating Layer conv3
I0421 22:57:48.306403 14016 net.cpp:406] conv3 <- conv2_2
I0421 22:57:48.306403 14016 net.cpp:380] conv3 -> conv3
I0421 22:57:48.310904 14016 net.cpp:122] Setting up conv3
I0421 22:57:48.310904 14016 net.cpp:129] Top shape: 100 128 16 16 (3276800)
I0421 22:57:48.310904 14016 net.cpp:137] Memory required for data: 971162800
I0421 22:57:48.311405 14016 layer_factory.cpp:58] Creating layer bn3
I0421 22:57:48.311405 14016 net.cpp:84] Creating Layer bn3
I0421 22:57:48.311405 14016 net.cpp:406] bn3 <- conv3
I0421 22:57:48.311405 14016 net.cpp:367] bn3 -> conv3 (in-place)
I0421 22:57:48.311903 14016 net.cpp:122] Setting up bn3
I0421 22:57:48.311903 14016 net.cpp:129] Top shape: 100 128 16 16 (3276800)
I0421 22:57:48.311903 14016 net.cpp:137] Memory required for data: 984270000
I0421 22:57:48.311903 14016 layer_factory.cpp:58] Creating layer scale3
I0421 22:57:48.311903 14016 net.cpp:84] Creating Layer scale3
I0421 22:57:48.311903 14016 net.cpp:406] scale3 <- conv3
I0421 22:57:48.311903 14016 net.cpp:367] scale3 -> conv3 (in-place)
I0421 22:57:48.311903 14016 layer_factory.cpp:58] Creating layer scale3
I0421 22:57:48.312403 14016 net.cpp:122] Setting up scale3
I0421 22:57:48.312403 14016 net.cpp:129] Top shape: 100 128 16 16 (3276800)
I0421 22:57:48.312403 14016 net.cpp:137] Memory required for data: 997377200
I0421 22:57:48.312403 14016 layer_factory.cpp:58] Creating layer relu3
I0421 22:57:48.312403 14016 net.cpp:84] Creating Layer relu3
I0421 22:57:48.312403 14016 net.cpp:406] relu3 <- conv3
I0421 22:57:48.312403 14016 net.cpp:367] relu3 -> conv3 (in-place)
I0421 22:57:48.313405 14016 net.cpp:122] Setting up relu3
I0421 22:57:48.313405 14016 net.cpp:129] Top shape: 100 128 16 16 (3276800)
I0421 22:57:48.313405 14016 net.cpp:137] Memory required for data: 1010484400
I0421 22:57:48.313405 14016 layer_factory.cpp:58] Creating layer drop3
I0421 22:57:48.313405 14016 net.cpp:84] Creating Layer drop3
I0421 22:57:48.313405 14016 net.cpp:406] drop3 <- conv3
I0421 22:57:48.313405 14016 net.cpp:367] drop3 -> conv3 (in-place)
I0421 22:57:48.313405 14016 net.cpp:122] Setting up drop3
I0421 22:57:48.313405 14016 net.cpp:129] Top shape: 100 128 16 16 (3276800)
I0421 22:57:48.313405 14016 net.cpp:137] Memory required for data: 1023591600
I0421 22:57:48.313405 14016 layer_factory.cpp:58] Creating layer conv4
I0421 22:57:48.313405 14016 net.cpp:84] Creating Layer conv4
I0421 22:57:48.313405 14016 net.cpp:406] conv4 <- conv3
I0421 22:57:48.313405 14016 net.cpp:380] conv4 -> conv4
I0421 22:57:48.320402 14016 net.cpp:122] Setting up conv4
I0421 22:57:48.320402 14016 net.cpp:129] Top shape: 100 256 16 16 (6553600)
I0421 22:57:48.320402 14016 net.cpp:137] Memory required for data: 1049806000
I0421 22:57:48.320402 14016 layer_factory.cpp:58] Creating layer pool4
I0421 22:57:48.320402 14016 net.cpp:84] Creating Layer pool4
I0421 22:57:48.320402 14016 net.cpp:406] pool4 <- conv4
I0421 22:57:48.320902 14016 net.cpp:380] pool4 -> pool4
I0421 22:57:48.320902 14016 net.cpp:122] Setting up pool4
I0421 22:57:48.320902 14016 net.cpp:129] Top shape: 100 256 8 8 (1638400)
I0421 22:57:48.320902 14016 net.cpp:137] Memory required for data: 1056359600
I0421 22:57:48.320902 14016 layer_factory.cpp:58] Creating layer bn4
I0421 22:57:48.320902 14016 net.cpp:84] Creating Layer bn4
I0421 22:57:48.320902 14016 net.cpp:406] bn4 <- pool4
I0421 22:57:48.320902 14016 net.cpp:367] bn4 -> pool4 (in-place)
I0421 22:57:48.321403 14016 net.cpp:122] Setting up bn4
I0421 22:57:48.321403 14016 net.cpp:129] Top shape: 100 256 8 8 (1638400)
I0421 22:57:48.321403 14016 net.cpp:137] Memory required for data: 1062913200
I0421 22:57:48.321403 14016 layer_factory.cpp:58] Creating layer scale4
I0421 22:57:48.321403 14016 net.cpp:84] Creating Layer scale4
I0421 22:57:48.321403 14016 net.cpp:406] scale4 <- pool4
I0421 22:57:48.321403 14016 net.cpp:367] scale4 -> pool4 (in-place)
I0421 22:57:48.321403 14016 layer_factory.cpp:58] Creating layer scale4
I0421 22:57:48.321403 14016 net.cpp:122] Setting up scale4
I0421 22:57:48.321403 14016 net.cpp:129] Top shape: 100 256 8 8 (1638400)
I0421 22:57:48.321403 14016 net.cpp:137] Memory required for data: 1069466800
I0421 22:57:48.321403 14016 layer_factory.cpp:58] Creating layer relu4
I0421 22:57:48.321403 14016 net.cpp:84] Creating Layer relu4
I0421 22:57:48.321403 14016 net.cpp:406] relu4 <- pool4
I0421 22:57:48.321403 14016 net.cpp:367] relu4 -> pool4 (in-place)
I0421 22:57:48.322403 14016 net.cpp:122] Setting up relu4
I0421 22:57:48.322403 14016 net.cpp:129] Top shape: 100 256 8 8 (1638400)
I0421 22:57:48.322403 14016 net.cpp:137] Memory required for data: 1076020400
I0421 22:57:48.322403 14016 layer_factory.cpp:58] Creating layer drop4
I0421 22:57:48.322403 14016 net.cpp:84] Creating Layer drop4
I0421 22:57:48.322403 14016 net.cpp:406] drop4 <- pool4
I0421 22:57:48.322403 14016 net.cpp:367] drop4 -> pool4 (in-place)
I0421 22:57:48.322403 14016 net.cpp:122] Setting up drop4
I0421 22:57:48.322902 14016 net.cpp:129] Top shape: 100 256 8 8 (1638400)
I0421 22:57:48.322902 14016 net.cpp:137] Memory required for data: 1082574000
I0421 22:57:48.322902 14016 layer_factory.cpp:58] Creating layer conv4_1
I0421 22:57:48.322902 14016 net.cpp:84] Creating Layer conv4_1
I0421 22:57:48.322902 14016 net.cpp:406] conv4_1 <- pool4
I0421 22:57:48.322902 14016 net.cpp:380] conv4_1 -> conv4_1
I0421 22:57:48.332402 14016 net.cpp:122] Setting up conv4_1
I0421 22:57:48.332402 14016 net.cpp:129] Top shape: 100 256 8 8 (1638400)
I0421 22:57:48.332923 14016 net.cpp:137] Memory required for data: 1089127600
I0421 22:57:48.332923 14016 layer_factory.cpp:58] Creating layer bn4_1
I0421 22:57:48.332923 14016 net.cpp:84] Creating Layer bn4_1
I0421 22:57:48.332923 14016 net.cpp:406] bn4_1 <- conv4_1
I0421 22:57:48.332923 14016 net.cpp:367] bn4_1 -> conv4_1 (in-place)
I0421 22:57:48.332923 14016 net.cpp:122] Setting up bn4_1
I0421 22:57:48.332923 14016 net.cpp:129] Top shape: 100 256 8 8 (1638400)
I0421 22:57:48.332923 14016 net.cpp:137] Memory required for data: 1095681200
I0421 22:57:48.332923 14016 layer_factory.cpp:58] Creating layer scale4_1
I0421 22:57:48.332923 14016 net.cpp:84] Creating Layer scale4_1
I0421 22:57:48.332923 14016 net.cpp:406] scale4_1 <- conv4_1
I0421 22:57:48.332923 14016 net.cpp:367] scale4_1 -> conv4_1 (in-place)
I0421 22:57:48.332923 14016 layer_factory.cpp:58] Creating layer scale4_1
I0421 22:57:48.333423 14016 net.cpp:122] Setting up scale4_1
I0421 22:57:48.333423 14016 net.cpp:129] Top shape: 100 256 8 8 (1638400)
I0421 22:57:48.333423 14016 net.cpp:137] Memory required for data: 1102234800
I0421 22:57:48.333423 14016 layer_factory.cpp:58] Creating layer relu4_1
I0421 22:57:48.333423 14016 net.cpp:84] Creating Layer relu4_1
I0421 22:57:48.333423 14016 net.cpp:406] relu4_1 <- conv4_1
I0421 22:57:48.333423 14016 net.cpp:367] relu4_1 -> conv4_1 (in-place)
I0421 22:57:48.333923 14016 net.cpp:122] Setting up relu4_1
I0421 22:57:48.333923 14016 net.cpp:129] Top shape: 100 256 8 8 (1638400)
I0421 22:57:48.333923 14016 net.cpp:137] Memory required for data: 1108788400
I0421 22:57:48.333923 14016 layer_factory.cpp:58] Creating layer drop4_1
I0421 22:57:48.333923 14016 net.cpp:84] Creating Layer drop4_1
I0421 22:57:48.333923 14016 net.cpp:406] drop4_1 <- conv4_1
I0421 22:57:48.333923 14016 net.cpp:367] drop4_1 -> conv4_1 (in-place)
I0421 22:57:48.333923 14016 net.cpp:122] Setting up drop4_1
I0421 22:57:48.333923 14016 net.cpp:129] Top shape: 100 256 8 8 (1638400)
I0421 22:57:48.333923 14016 net.cpp:137] Memory required for data: 1115342000
I0421 22:57:48.333923 14016 layer_factory.cpp:58] Creating layer conv4_2
I0421 22:57:48.333923 14016 net.cpp:84] Creating Layer conv4_2
I0421 22:57:48.333923 14016 net.cpp:406] conv4_2 <- conv4_1
I0421 22:57:48.333923 14016 net.cpp:380] conv4_2 -> conv4_2
I0421 22:57:48.339920 14016 net.cpp:122] Setting up conv4_2
I0421 22:57:48.339920 14016 net.cpp:129] Top shape: 100 256 8 8 (1638400)
I0421 22:57:48.339920 14016 net.cpp:137] Memory required for data: 1121895600
I0421 22:57:48.339920 14016 layer_factory.cpp:58] Creating layer bn4_2
I0421 22:57:48.339920 14016 net.cpp:84] Creating Layer bn4_2
I0421 22:57:48.339920 14016 net.cpp:406] bn4_2 <- conv4_2
I0421 22:57:48.339920 14016 net.cpp:367] bn4_2 -> conv4_2 (in-place)
I0421 22:57:48.340404 14016 net.cpp:122] Setting up bn4_2
I0421 22:57:48.340404 14016 net.cpp:129] Top shape: 100 256 8 8 (1638400)
I0421 22:57:48.340404 14016 net.cpp:137] Memory required for data: 1128449200
I0421 22:57:48.340404 14016 layer_factory.cpp:58] Creating layer scale4_2
I0421 22:57:48.340404 14016 net.cpp:84] Creating Layer scale4_2
I0421 22:57:48.340404 14016 net.cpp:406] scale4_2 <- conv4_2
I0421 22:57:48.340404 14016 net.cpp:367] scale4_2 -> conv4_2 (in-place)
I0421 22:57:48.340404 14016 layer_factory.cpp:58] Creating layer scale4_2
I0421 22:57:48.340404 14016 net.cpp:122] Setting up scale4_2
I0421 22:57:48.340404 14016 net.cpp:129] Top shape: 100 256 8 8 (1638400)
I0421 22:57:48.340404 14016 net.cpp:137] Memory required for data: 1135002800
I0421 22:57:48.340404 14016 layer_factory.cpp:58] Creating layer relu4_2
I0421 22:57:48.340404 14016 net.cpp:84] Creating Layer relu4_2
I0421 22:57:48.340404 14016 net.cpp:406] relu4_2 <- conv4_2
I0421 22:57:48.340404 14016 net.cpp:367] relu4_2 -> conv4_2 (in-place)
I0421 22:57:48.340903 14016 net.cpp:122] Setting up relu4_2
I0421 22:57:48.340903 14016 net.cpp:129] Top shape: 100 256 8 8 (1638400)
I0421 22:57:48.340903 14016 net.cpp:137] Memory required for data: 1141556400
I0421 22:57:48.340903 14016 layer_factory.cpp:58] Creating layer drop4_2
I0421 22:57:48.340903 14016 net.cpp:84] Creating Layer drop4_2
I0421 22:57:48.340903 14016 net.cpp:406] drop4_2 <- conv4_2
I0421 22:57:48.340903 14016 net.cpp:367] drop4_2 -> conv4_2 (in-place)
I0421 22:57:48.340903 14016 net.cpp:122] Setting up drop4_2
I0421 22:57:48.340903 14016 net.cpp:129] Top shape: 100 256 8 8 (1638400)
I0421 22:57:48.340903 14016 net.cpp:137] Memory required for data: 1148110000
I0421 22:57:48.340903 14016 layer_factory.cpp:58] Creating layer pool4_2
I0421 22:57:48.340903 14016 net.cpp:84] Creating Layer pool4_2
I0421 22:57:48.340903 14016 net.cpp:406] pool4_2 <- conv4_2
I0421 22:57:48.340903 14016 net.cpp:380] pool4_2 -> pool4_2
I0421 22:57:48.340903 14016 net.cpp:122] Setting up pool4_2
I0421 22:57:48.340903 14016 net.cpp:129] Top shape: 100 256 4 4 (409600)
I0421 22:57:48.340903 14016 net.cpp:137] Memory required for data: 1149748400
I0421 22:57:48.340903 14016 layer_factory.cpp:58] Creating layer conv4_0
I0421 22:57:48.341403 14016 net.cpp:84] Creating Layer conv4_0
I0421 22:57:48.341403 14016 net.cpp:406] conv4_0 <- pool4_2
I0421 22:57:48.341403 14016 net.cpp:380] conv4_0 -> conv4_0
I0421 22:57:48.349903 14016 net.cpp:122] Setting up conv4_0
I0421 22:57:48.349903 14016 net.cpp:129] Top shape: 100 512 4 4 (819200)
I0421 22:57:48.349903 14016 net.cpp:137] Memory required for data: 1153025200
I0421 22:57:48.350404 14016 layer_factory.cpp:58] Creating layer bn4_0
I0421 22:57:48.350404 14016 net.cpp:84] Creating Layer bn4_0
I0421 22:57:48.350404 14016 net.cpp:406] bn4_0 <- conv4_0
I0421 22:57:48.350404 14016 net.cpp:367] bn4_0 -> conv4_0 (in-place)
I0421 22:57:48.350404 14016 net.cpp:122] Setting up bn4_0
I0421 22:57:48.350404 14016 net.cpp:129] Top shape: 100 512 4 4 (819200)
I0421 22:57:48.350404 14016 net.cpp:137] Memory required for data: 1156302000
I0421 22:57:48.350404 14016 layer_factory.cpp:58] Creating layer scale4_0
I0421 22:57:48.350404 14016 net.cpp:84] Creating Layer scale4_0
I0421 22:57:48.350404 14016 net.cpp:406] scale4_0 <- conv4_0
I0421 22:57:48.350404 14016 net.cpp:367] scale4_0 -> conv4_0 (in-place)
I0421 22:57:48.350404 14016 layer_factory.cpp:58] Creating layer scale4_0
I0421 22:57:48.350404 14016 net.cpp:122] Setting up scale4_0
I0421 22:57:48.350404 14016 net.cpp:129] Top shape: 100 512 4 4 (819200)
I0421 22:57:48.350404 14016 net.cpp:137] Memory required for data: 1159578800
I0421 22:57:48.350404 14016 layer_factory.cpp:58] Creating layer relu4_0
I0421 22:57:48.350404 14016 net.cpp:84] Creating Layer relu4_0
I0421 22:57:48.350903 14016 net.cpp:406] relu4_0 <- conv4_0
I0421 22:57:48.350903 14016 net.cpp:367] relu4_0 -> conv4_0 (in-place)
I0421 22:57:48.350903 14016 net.cpp:122] Setting up relu4_0
I0421 22:57:48.350903 14016 net.cpp:129] Top shape: 100 512 4 4 (819200)
I0421 22:57:48.350903 14016 net.cpp:137] Memory required for data: 1162855600
I0421 22:57:48.351403 14016 layer_factory.cpp:58] Creating layer drop4_0
I0421 22:57:48.351403 14016 net.cpp:84] Creating Layer drop4_0
I0421 22:57:48.351403 14016 net.cpp:406] drop4_0 <- conv4_0
I0421 22:57:48.351403 14016 net.cpp:367] drop4_0 -> conv4_0 (in-place)
I0421 22:57:48.351403 14016 net.cpp:122] Setting up drop4_0
I0421 22:57:48.351403 14016 net.cpp:129] Top shape: 100 512 4 4 (819200)
I0421 22:57:48.351403 14016 net.cpp:137] Memory required for data: 1166132400
I0421 22:57:48.351403 14016 layer_factory.cpp:58] Creating layer cccp4
I0421 22:57:48.351403 14016 net.cpp:84] Creating Layer cccp4
I0421 22:57:48.351403 14016 net.cpp:406] cccp4 <- conv4_0
I0421 22:57:48.351403 14016 net.cpp:380] cccp4 -> cccp4
I0421 22:57:48.359403 14016 net.cpp:122] Setting up cccp4
I0421 22:57:48.359403 14016 net.cpp:129] Top shape: 100 2048 4 4 (3276800)
I0421 22:57:48.359403 14016 net.cpp:137] Memory required for data: 1179239600
I0421 22:57:48.359403 14016 layer_factory.cpp:58] Creating layer relu_cccp4
I0421 22:57:48.359403 14016 net.cpp:84] Creating Layer relu_cccp4
I0421 22:57:48.359403 14016 net.cpp:406] relu_cccp4 <- cccp4
I0421 22:57:48.359403 14016 net.cpp:367] relu_cccp4 -> cccp4 (in-place)
I0421 22:57:48.359403 14016 net.cpp:122] Setting up relu_cccp4
I0421 22:57:48.359403 14016 net.cpp:129] Top shape: 100 2048 4 4 (3276800)
I0421 22:57:48.359403 14016 net.cpp:137] Memory required for data: 1192346800
I0421 22:57:48.359403 14016 layer_factory.cpp:58] Creating layer drop4_3
I0421 22:57:48.359403 14016 net.cpp:84] Creating Layer drop4_3
I0421 22:57:48.359403 14016 net.cpp:406] drop4_3 <- cccp4
I0421 22:57:48.359403 14016 net.cpp:367] drop4_3 -> cccp4 (in-place)
I0421 22:57:48.359403 14016 net.cpp:122] Setting up drop4_3
I0421 22:57:48.359403 14016 net.cpp:129] Top shape: 100 2048 4 4 (3276800)
I0421 22:57:48.359403 14016 net.cpp:137] Memory required for data: 1205454000
I0421 22:57:48.359403 14016 layer_factory.cpp:58] Creating layer cccp5
I0421 22:57:48.359403 14016 net.cpp:84] Creating Layer cccp5
I0421 22:57:48.359902 14016 net.cpp:406] cccp5 <- cccp4
I0421 22:57:48.359902 14016 net.cpp:380] cccp5 -> cccp5
I0421 22:57:48.364403 14016 net.cpp:122] Setting up cccp5
I0421 22:57:48.364403 14016 net.cpp:129] Top shape: 100 256 4 4 (409600)
I0421 22:57:48.364403 14016 net.cpp:137] Memory required for data: 1207092400
I0421 22:57:48.364403 14016 layer_factory.cpp:58] Creating layer relu_cccp5
I0421 22:57:48.364403 14016 net.cpp:84] Creating Layer relu_cccp5
I0421 22:57:48.364403 14016 net.cpp:406] relu_cccp5 <- cccp5
I0421 22:57:48.364403 14016 net.cpp:367] relu_cccp5 -> cccp5 (in-place)
I0421 22:57:48.364903 14016 net.cpp:122] Setting up relu_cccp5
I0421 22:57:48.364903 14016 net.cpp:129] Top shape: 100 256 4 4 (409600)
I0421 22:57:48.364903 14016 net.cpp:137] Memory required for data: 1208730800
I0421 22:57:48.364903 14016 layer_factory.cpp:58] Creating layer poolcp5
I0421 22:57:48.364903 14016 net.cpp:84] Creating Layer poolcp5
I0421 22:57:48.364903 14016 net.cpp:406] poolcp5 <- cccp5
I0421 22:57:48.364903 14016 net.cpp:380] poolcp5 -> poolcp5
I0421 22:57:48.364903 14016 net.cpp:122] Setting up poolcp5
I0421 22:57:48.365403 14016 net.cpp:129] Top shape: 100 256 2 2 (102400)
I0421 22:57:48.365403 14016 net.cpp:137] Memory required for data: 1209140400
I0421 22:57:48.365403 14016 layer_factory.cpp:58] Creating layer drop4_5
I0421 22:57:48.365403 14016 net.cpp:84] Creating Layer drop4_5
I0421 22:57:48.365403 14016 net.cpp:406] drop4_5 <- poolcp5
I0421 22:57:48.365403 14016 net.cpp:367] drop4_5 -> poolcp5 (in-place)
I0421 22:57:48.365403 14016 net.cpp:122] Setting up drop4_5
I0421 22:57:48.365403 14016 net.cpp:129] Top shape: 100 256 2 2 (102400)
I0421 22:57:48.365403 14016 net.cpp:137] Memory required for data: 1209550000
I0421 22:57:48.365403 14016 layer_factory.cpp:58] Creating layer cccp6
I0421 22:57:48.365403 14016 net.cpp:84] Creating Layer cccp6
I0421 22:57:48.365403 14016 net.cpp:406] cccp6 <- poolcp5
I0421 22:57:48.365403 14016 net.cpp:380] cccp6 -> cccp6
I0421 22:57:48.371418 14016 net.cpp:122] Setting up cccp6
I0421 22:57:48.371418 14016 net.cpp:129] Top shape: 100 256 2 2 (102400)
I0421 22:57:48.371418 14016 net.cpp:137] Memory required for data: 1209959600
I0421 22:57:48.371418 14016 layer_factory.cpp:58] Creating layer relu_cccp6
I0421 22:57:48.371418 14016 net.cpp:84] Creating Layer relu_cccp6
I0421 22:57:48.371418 14016 net.cpp:406] relu_cccp6 <- cccp6
I0421 22:57:48.371418 14016 net.cpp:367] relu_cccp6 -> cccp6 (in-place)
I0421 22:57:48.371903 14016 net.cpp:122] Setting up relu_cccp6
I0421 22:57:48.371903 14016 net.cpp:129] Top shape: 100 256 2 2 (102400)
I0421 22:57:48.371903 14016 net.cpp:137] Memory required for data: 1210369200
I0421 22:57:48.371903 14016 layer_factory.cpp:58] Creating layer poolcp6
I0421 22:57:48.371903 14016 net.cpp:84] Creating Layer poolcp6
I0421 22:57:48.371903 14016 net.cpp:406] poolcp6 <- cccp6
I0421 22:57:48.371903 14016 net.cpp:380] poolcp6 -> poolcp6
I0421 22:57:48.371903 14016 net.cpp:122] Setting up poolcp6
I0421 22:57:48.371903 14016 net.cpp:129] Top shape: 100 256 1 1 (25600)
I0421 22:57:48.371903 14016 net.cpp:137] Memory required for data: 1210471600
I0421 22:57:48.371903 14016 layer_factory.cpp:58] Creating layer ip1
I0421 22:57:48.371903 14016 net.cpp:84] Creating Layer ip1
I0421 22:57:48.371903 14016 net.cpp:406] ip1 <- poolcp6
I0421 22:57:48.371903 14016 net.cpp:380] ip1 -> ip1
I0421 22:57:48.371903 14016 net.cpp:122] Setting up ip1
I0421 22:57:48.371903 14016 net.cpp:129] Top shape: 100 10 (1000)
I0421 22:57:48.371903 14016 net.cpp:137] Memory required for data: 1210475600
I0421 22:57:48.371903 14016 layer_factory.cpp:58] Creating layer ip1_ip1_0_split
I0421 22:57:48.371903 14016 net.cpp:84] Creating Layer ip1_ip1_0_split
I0421 22:57:48.371903 14016 net.cpp:406] ip1_ip1_0_split <- ip1
I0421 22:57:48.371903 14016 net.cpp:380] ip1_ip1_0_split -> ip1_ip1_0_split_0
I0421 22:57:48.371903 14016 net.cpp:380] ip1_ip1_0_split -> ip1_ip1_0_split_1
I0421 22:57:48.371903 14016 net.cpp:122] Setting up ip1_ip1_0_split
I0421 22:57:48.371903 14016 net.cpp:129] Top shape: 100 10 (1000)
I0421 22:57:48.371903 14016 net.cpp:129] Top shape: 100 10 (1000)
I0421 22:57:48.371903 14016 net.cpp:137] Memory required for data: 1210483600
I0421 22:57:48.371903 14016 layer_factory.cpp:58] Creating layer accuracy_training
I0421 22:57:48.371903 14016 net.cpp:84] Creating Layer accuracy_training
I0421 22:57:48.371903 14016 net.cpp:406] accuracy_training <- ip1_ip1_0_split_0
I0421 22:57:48.371903 14016 net.cpp:406] accuracy_training <- label_cifar_1_split_0
…
