…
I0316 09:15:02.444317 11765 net.cpp:313] The NetState phase (0) differed from the phase (1) specified by a rule in layer accuracy_top-5
I0316 09:15:02.444568 11765 net.cpp:49] Initializing net from parameters: 
name: "ImageNet_SlimNet_300K_NoDrp"
state {
  phase: TRAIN
  level: 0
  stage: ""
}
layer {
  name: "data"
  type: "Data"
  top: "data"
  top: "label"
  include {
    phase: TRAIN
  }
  transform_param {
    mirror: true
    crop_size: 227
    mean_file: "imagenet_mean.binaryproto"
  }
  data_param {
    source: "/home/ali/dataset/train_IMDB"
    batch_size: 128
    backend: LMDB
  }
}
layer {
  name: "conv1"
  type: "Convolution"
  bottom: "data"
  top: "conv1"
  param {
    lr_mult: 1
  }
  convolution_param {
    num_output: 64
    bias_term: true
    pad: 1
    kernel_size: 7
    stride: 3
    weight_filler {
      type: "xavier"
    }
  }
}
layer {
  name: "bn1"
  type: "BatchNorm"
  bottom: "conv1"
  top: "bn1"
  param {
    lr_mult: 0
    decay_mult: 0
  }
  param {
    lr_mult: 0
    decay_mult: 0
  }
  param {
    lr_mult: 0
    decay_mult: 0
  }
  include {
    phase: TRAIN
  }
  batch_norm_param {
    use_global_stats: false
    moving_average_fraction: 0.95
  }
}
layer {
  name: "scale1"
  type: "Scale"
  bottom: "bn1"
  top: "scale1"
  scale_param {
    bias_term: true
  }
}
layer {
  name: "relu1"
  type: "ReLU"
  bottom: "scale1"
  top: "relu1"
}
layer {
  name: "conv1_0"
  type: "Convolution"
  bottom: "relu1"
  top: "conv1_0"
  param {
    lr_mult: 1
  }
  convolution_param {
    num_output: 32
    bias_term: true
    pad: 1
    kernel_size: 3
    stride: 1
    weight_filler {
      type: "xavier"
    }
  }
}
layer {
  name: "bn1_0"
  type: "BatchNorm"
  bottom: "conv1_0"
  top: "bn1_0"
  param {
    lr_mult: 0
    decay_mult: 0
  }
  param {
    lr_mult: 0
    decay_mult: 0
  }
  param {
    lr_mult: 0
    decay_mult: 0
  }
  include {
    phase: TRAIN
  }
  batch_norm_param {
    use_global_stats: false
    moving_average_fraction: 0.95
  }
}
layer {
  name: "scale1_0"
  type: "Scale"
  bottom: "bn1_0"
  top: "scale1_0"
  scale_param {
    bias_term: true
  }
}
layer {
  name: "relu1_0"
  type: "ReLU"
  bottom: "scale1_0"
  top: "relu1_0"
}
layer {
  name: "conv2"
  type: "Convolution"
  bottom: "relu1_0"
  top: "conv2"
  param {
    lr_mult: 1
  }
  convolution_param {
    num_output: 32
    bias_term: true
    pad: 1
    kernel_size: 3
    stride: 1
    weight_filler {
      type: "gaussian"
      std: 0.01
    }
  }
}
layer {
  name: "bn2"
  type: "BatchNorm"
  bottom: "conv2"
  top: "bn2"
  param {
    lr_mult: 0
    decay_mult: 0
  }
  param {
    lr_mult: 0
    decay_mult: 0
  }
  param {
    lr_mult: 0
    decay_mult: 0
  }
  include {
    phase: TRAIN
  }
  batch_norm_param {
    use_global_stats: false
    moving_average_fraction: 0.95
  }
}
layer {
  name: "scale2"
  type: "Scale"
  bottom: "bn2"
  top: "scale2"
  scale_param {
    bias_term: true
  }
}
layer {
  name: "relu2"
  type: "ReLU"
  bottom: "scale2"
  top: "relu2"
}
layer {
  name: "conv2_1"
  type: "Convolution"
  bottom: "relu2"
  top: "conv2_1"
  param {
    lr_mult: 1
  }
  convolution_param {
    num_output: 32
    bias_term: true
    pad: 1
    kernel_size: 3
    stride: 1
    weight_filler {
      type: "gaussian"
      std: 0.01
    }
  }
}
layer {
  name: "bn2_1"
  type: "BatchNorm"
  bottom: "conv2_1"
  top: "bn2_1"
  param {
    lr_mult: 0
    decay_mult: 0
  }
  param {
    lr_mult: 0
    decay_mult: 0
  }
  param {
    lr_mult: 0
    decay_mult: 0
  }
  include {
    phase: TRAIN
  }
  batch_norm_param {
    use_global_stats: false
    moving_average_fraction: 0.95
  }
}
layer {
  name: "scale2_1"
  type: "Scale"
  bottom: "bn2_1"
  top: "scale2_1"
  scale_param {
    bias_term: true
  }
}
layer {
  name: "relu2_1"
  type: "ReLU"
  bottom: "scale2_1"
  top: "relu2_1"
}
layer {
  name: "pool2_1"
  type: "Pooling"
  bottom: "relu2_1"
  top: "pool2_1"
  pooling_param {
    pool: MAX
    kernel_size: 2
    stride: 2
  }
}
layer {
  name: "conv2_2"
  type: "Convolution"
  bottom: "pool2_1"
  top: "conv2_2"
  param {
    lr_mult: 1
  }
  convolution_param {
    num_output: 32
    bias_term: true
    pad: 1
    kernel_size: 3
    stride: 1
    weight_filler {
      type: "gaussian"
      std: 0.01
    }
  }
}
layer {
  name: "bn2_2"
  type: "BatchNorm"
  bottom: "conv2_2"
  top: "bn2_2"
  param {
    lr_mult: 0
    decay_mult: 0
  }
  param {
    lr_mult: 0
    decay_mult: 0
  }
  param {
    lr_mult: 0
    decay_mult: 0
  }
  include {
    phase: TRAIN
  }
  batch_norm_param {
    use_global_stats: false
    moving_average_fraction: 0.95
  }
}
layer {
  name: "scale2_2"
  type: "Scale"
  bottom: "bn2_2"
  top: "scale2_2"
  scale_param {
    bias_term: true
  }
}
layer {
  name: "relu2_2"
  type: "ReLU"
  bottom: "scale2_2"
  top: "relu2_2"
}
layer {
  name: "conv3"
  type: "Convolution"
  bottom: "relu2_2"
  top: "conv3"
  param {
    lr_mult: 1
  }
  convolution_param {
    num_output: 32
    bias_term: true
    pad: 1
    kernel_size: 3
    stride: 1
    weight_filler {
      type: "xavier"
    }
  }
}
layer {
  name: "bn3"
  type: "BatchNorm"
  bottom: "conv3"
  top: "bn3"
  param {
    lr_mult: 0
    decay_mult: 0
  }
  param {
    lr_mult: 0
    decay_mult: 0
  }
  param {
    lr_mult: 0
    decay_mult: 0
  }
  include {
    phase: TRAIN
  }
  batch_norm_param {
    use_global_stats: false
    moving_average_fraction: 0.95
  }
}
layer {
  name: "scale3"
  type: "Scale"
  bottom: "bn3"
  top: "scale3"
  scale_param {
    bias_term: true
  }
}
layer {
  name: "relu3"
  type: "ReLU"
  bottom: "scale3"
  top: "relu3"
}
layer {
  name: "conv4"
  type: "Convolution"
  bottom: "relu3"
  top: "conv4"
  param {
    lr_mult: 1
  }
  convolution_param {
    num_output: 64
    bias_term: true
    pad: 1
    kernel_size: 3
    stride: 1
    weight_filler {
      type: "xavier"
    }
  }
}
layer {
  name: "pool4"
  type: "Pooling"
  bottom: "conv4"
  top: "pool4"
  pooling_param {
    pool: MAX
    kernel_size: 2
    stride: 2
  }
}
layer {
  name: "bn4"
  type: "BatchNorm"
  bottom: "pool4"
  top: "bn4"
  param {
    lr_mult: 0
    decay_mult: 0
  }
  param {
    lr_mult: 0
    decay_mult: 0
  }
  param {
    lr_mult: 0
    decay_mult: 0
  }
  include {
    phase: TRAIN
  }
  batch_norm_param {
    use_global_stats: false
    moving_average_fraction: 0.95
  }
}
layer {
  name: "scale4"
  type: "Scale"
  bottom: "bn4"
  top: "scale4"
  scale_param {
    bias_term: true
  }
}
layer {
  name: "relu4"
  type: "ReLU"
  bottom: "scale4"
  top: "relu4"
}
layer {
  name: "conv4_1"
  type: "Convolution"
  bottom: "relu4"
  top: "conv4_1"
  param {
    lr_mult: 1
  }
  convolution_param {
    num_output: 64
    bias_term: true
    pad: 1
    kernel_size: 3
    stride: 1
    weight_filler {
      type: "xavier"
    }
  }
}
layer {
  name: "bn4_1"
  type: "BatchNorm"
  bottom: "conv4_1"
  top: "bn4_1"
  param {
    lr_mult: 0
    decay_mult: 0
  }
  param {
    lr_mult: 0
    decay_mult: 0
  }
  param {
    lr_mult: 0
    decay_mult: 0
  }
  include {
    phase: TRAIN
  }
  batch_norm_param {
    use_global_stats: false
    moving_average_fraction: 0.95
  }
}
layer {
  name: "scale4_1"
  type: "Scale"
  bottom: "bn4_1"
  top: "scale4_1"
  scale_param {
    bias_term: true
  }
}
layer {
  name: "relu4_1"
  type: "ReLU"
  bottom: "scale4_1"
  top: "relu4_1"
}
layer {
  name: "conv4_2"
  type: "Convolution"
  bottom: "relu4_1"
  top: "conv4_2"
  param {
    lr_mult: 1
  }
  convolution_param {
    num_output: 64
    bias_term: true
    pad: 1
    kernel_size: 3
    stride: 1
    weight_filler {
      type: "xavier"
    }
  }
}
layer {
  name: "bn4_2"
  type: "BatchNorm"
  bottom: "conv4_2"
  top: "bn4_2"
  param {
    lr_mult: 0
    decay_mult: 0
  }
  param {
    lr_mult: 0
    decay_mult: 0
  }
  param {
    lr_mult: 0
    decay_mult: 0
  }
  include {
    phase: TRAIN
  }
  batch_norm_param {
    use_global_stats: false
    moving_average_fraction: 0.95
  }
}
layer {
  name: "scale4_2"
  type: "Scale"
  bottom: "bn4_2"
  top: "scale4_2"
  scale_param {
    bias_term: true
  }
}
layer {
  name: "relu4_2"
  type: "ReLU"
  bottom: "scale4_2"
  top: "relu4_2"
}
layer {
  name: "pool4_2"
  type: "Pooling"
  bottom: "relu4_2"
  top: "pool4_2"
  pooling_param {
    pool: MAX
    kernel_size: 2
    stride: 2
  }
}
layer {
  name: "conv4_0"
  type: "Convolution"
  bottom: "pool4_2"
  top: "conv4_0"
  param {
    lr_mult: 1
  }
  convolution_param {
    num_output: 128
    bias_term: true
    pad: 1
    kernel_size: 3
    stride: 1
    weight_filler {
      type: "xavier"
    }
  }
}
layer {
  name: "bn4_0"
  type: "BatchNorm"
  bottom: "conv4_0"
  top: "bn4_0"
  param {
    lr_mult: 0
    decay_mult: 0
  }
  param {
    lr_mult: 0
    decay_mult: 0
  }
  param {
    lr_mult: 0
    decay_mult: 0
  }
  include {
    phase: TRAIN
  }
  batch_norm_param {
    use_global_stats: false
    moving_average_fraction: 0.95
  }
}
layer {
  name: "scale4_0"
  type: "Scale"
  bottom: "bn4_0"
  top: "scale4_0"
  scale_param {
    bias_term: true
  }
}
layer {
  name: "relu4_0"
  type: "ReLU"
  bottom: "scale4_0"
  top: "relu4_0"
}
layer {
  name: "cccp4"
  type: "Convolution"
  bottom: "relu4_0"
  top: "cccp4"
  param {
    lr_mult: 1
    decay_mult: 1
  }
  param {
    lr_mult: 2
    decay_mult: 0
  }
  convolution_param {
    num_output: 256
    kernel_size: 1
    group: 1
    weight_filler {
      type: "xavier"
    }
    bias_filler {
      type: "constant"
      value: 0
    }
  }
}
layer {
  name: "relu_cccp4"
  type: "ReLU"
  bottom: "cccp4"
  top: "cccp4"
}
layer {
  name: "cccp5"
  type: "Convolution"
  bottom: "cccp4"
  top: "cccp5"
  param {
    lr_mult: 1
    decay_mult: 1
  }
  param {
    lr_mult: 2
    decay_mult: 0
  }
  convolution_param {
    num_output: 64
    kernel_size: 1
    group: 1
    weight_filler {
      type: "xavier"
    }
    bias_filler {
      type: "constant"
      value: 0
    }
  }
}
layer {
  name: "relu_cccp5"
  type: "ReLU"
  bottom: "cccp5"
  top: "cccp5"
}
layer {
  name: "poolcp5"
  type: "Pooling"
  bottom: "cccp5"
  top: "poolcp5"
  pooling_param {
    pool: MAX
    kernel_size: 2
    stride: 2
  }
}
layer {
  name: "cccp6"
  type: "Convolution"
  bottom: "poolcp5"
  top: "cccp6"
  param {
    lr_mult: 1
    decay_mult: 1
  }
  param {
    lr_mult: 2
    decay_mult: 0
  }
  convolution_param {
    num_output: 64
    pad: 1
    kernel_size: 3
    group: 1
    weight_filler {
      type: "xavier"
    }
    bias_filler {
      type: "constant"
      value: 0
    }
  }
}
layer {
  name: "relu_cccp6"
  type: "ReLU"
  bottom: "cccp6"
  top: "cccp6"
}
layer {
  name: "poolcp6"
  type: "Pooling"
  bottom: "cccp6"
  top: "poolcp6"
  pooling_param {
    pool: MAX
    global_pooling: true
  }
}
layer {
  name: "ip1"
  type: "InnerProduct"
  bottom: "poolcp6"
  top: "ip1"
  param {
    lr_mult: 1
    decay_mult: 0
  }
  param {
    lr_mult: 2
    decay_mult: 0
  }
  inner_product_param {
    num_output: 1000
    weight_filler {
      type: "xavier"
    }
    bias_filler {
      type: "constant"
    }
  }
}
layer {
  name: "loss"
  type: "SoftmaxWithLoss"
  bottom: "ip1"
  bottom: "label"
  top: "loss"
}
I0316 09:15:02.444841 11765 layer_factory.hpp:77] Creating layer data
I0316 09:15:02.445053 11765 net.cpp:91] Creating Layer data
I0316 09:15:02.445067 11765 net.cpp:399] data -> data
I0316 09:15:02.445102 11765 net.cpp:399] data -> label
I0316 09:15:02.445124 11765 data_transformer.cpp:25] Loading mean file from: imagenet_mean.binaryproto
I0316 09:15:02.446650 11771 db_lmdb.cpp:38] Opened lmdb /home/ali/dataset/train_IMDB
I0316 09:15:02.463418 11765 data_layer.cpp:41] output data size: 128,3,227,227
I0316 09:15:02.586946 11765 net.cpp:141] Setting up data
I0316 09:15:02.586980 11765 net.cpp:148] Top shape: 128 3 227 227 (19787136)
I0316 09:15:02.586989 11765 net.cpp:148] Top shape: 128 (128)
I0316 09:15:02.586994 11765 net.cpp:156] Memory required for data: 79149056
I0316 09:15:02.587018 11765 layer_factory.hpp:77] Creating layer conv1
I0316 09:15:02.587045 11765 net.cpp:91] Creating Layer conv1
I0316 09:15:02.587056 11765 net.cpp:425] conv1 <- data
I0316 09:15:02.587074 11765 net.cpp:399] conv1 -> conv1
I0316 09:15:02.588028 11765 net.cpp:141] Setting up conv1
I0316 09:15:02.588044 11765 net.cpp:148] Top shape: 128 64 75 75 (46080000)
I0316 09:15:02.588050 11765 net.cpp:156] Memory required for data: 263469056
I0316 09:15:02.588079 11765 layer_factory.hpp:77] Creating layer bn1
I0316 09:15:02.588100 11765 net.cpp:91] Creating Layer bn1
I0316 09:15:02.588109 11765 net.cpp:425] bn1 <- conv1
I0316 09:15:02.588126 11765 net.cpp:399] bn1 -> bn1
I0316 09:15:02.588274 11765 net.cpp:141] Setting up bn1
I0316 09:15:02.588284 11765 net.cpp:148] Top shape: 128 64 75 75 (46080000)
I0316 09:15:02.588289 11765 net.cpp:156] Memory required for data: 447789056
I0316 09:15:02.588310 11765 layer_factory.hpp:77] Creating layer scale1
I0316 09:15:02.588325 11765 net.cpp:91] Creating Layer scale1
I0316 09:15:02.588333 11765 net.cpp:425] scale1 <- bn1
I0316 09:15:02.588341 11765 net.cpp:399] scale1 -> scale1
I0316 09:15:02.588392 11765 layer_factory.hpp:77] Creating layer scale1
I0316 09:15:02.588506 11765 net.cpp:141] Setting up scale1
I0316 09:15:02.588517 11765 net.cpp:148] Top shape: 128 64 75 75 (46080000)
I0316 09:15:02.588523 11765 net.cpp:156] Memory required for data: 632109056
I0316 09:15:02.588534 11765 layer_factory.hpp:77] Creating layer relu1
I0316 09:15:02.588546 11765 net.cpp:91] Creating Layer relu1
I0316 09:15:02.588551 11765 net.cpp:425] relu1 <- scale1
I0316 09:15:02.588559 11765 net.cpp:399] relu1 -> relu1
I0316 09:15:02.588583 11765 net.cpp:141] Setting up relu1
I0316 09:15:02.588594 11765 net.cpp:148] Top shape: 128 64 75 75 (46080000)
I0316 09:15:02.588599 11765 net.cpp:156] Memory required for data: 816429056
I0316 09:15:02.588605 11765 layer_factory.hpp:77] Creating layer conv1_0
I0316 09:15:02.588624 11765 net.cpp:91] Creating Layer conv1_0
I0316 09:15:02.588630 11765 net.cpp:425] conv1_0 <- relu1
I0316 09:15:02.588639 11765 net.cpp:399] conv1_0 -> conv1_0
I0316 09:15:02.589344 11765 net.cpp:141] Setting up conv1_0
I0316 09:15:02.589359 11765 net.cpp:148] Top shape: 128 32 75 75 (23040000)
I0316 09:15:02.589363 11765 net.cpp:156] Memory required for data: 908589056
I0316 09:15:02.589385 11765 layer_factory.hpp:77] Creating layer bn1_0
I0316 09:15:02.589403 11765 net.cpp:91] Creating Layer bn1_0
I0316 09:15:02.589429 11765 net.cpp:425] bn1_0 <- conv1_0
I0316 09:15:02.589447 11765 net.cpp:399] bn1_0 -> bn1_0
I0316 09:15:02.589604 11765 net.cpp:141] Setting up bn1_0
I0316 09:15:02.589613 11765 net.cpp:148] Top shape: 128 32 75 75 (23040000)
I0316 09:15:02.589619 11765 net.cpp:156] Memory required for data: 1000749056
I0316 09:15:02.589638 11765 layer_factory.hpp:77] Creating layer scale1_0
I0316 09:15:02.589656 11765 net.cpp:91] Creating Layer scale1_0
I0316 09:15:02.589663 11765 net.cpp:425] scale1_0 <- bn1_0
I0316 09:15:02.589679 11765 net.cpp:399] scale1_0 -> scale1_0
I0316 09:15:02.589726 11765 layer_factory.hpp:77] Creating layer scale1_0
I0316 09:15:02.589836 11765 net.cpp:141] Setting up scale1_0
I0316 09:15:02.589846 11765 net.cpp:148] Top shape: 128 32 75 75 (23040000)
I0316 09:15:02.589851 11765 net.cpp:156] Memory required for data: 1092909056
I0316 09:15:02.589869 11765 layer_factory.hpp:77] Creating layer relu1_0
I0316 09:15:02.589879 11765 net.cpp:91] Creating Layer relu1_0
I0316 09:15:02.589886 11765 net.cpp:425] relu1_0 <- scale1_0
I0316 09:15:02.589898 11765 net.cpp:399] relu1_0 -> relu1_0
I0316 09:15:02.601979 11765 net.cpp:141] Setting up relu1_0
I0316 09:15:02.602007 11765 net.cpp:148] Top shape: 128 32 75 75 (23040000)
I0316 09:15:02.602015 11765 net.cpp:156] Memory required for data: 1185069056
I0316 09:15:02.602025 11765 layer_factory.hpp:77] Creating layer conv2
I0316 09:15:02.602042 11765 net.cpp:91] Creating Layer conv2
I0316 09:15:02.602054 11765 net.cpp:425] conv2 <- relu1_0
I0316 09:15:02.602066 11765 net.cpp:399] conv2 -> conv2
I0316 09:15:02.602967 11765 net.cpp:141] Setting up conv2
I0316 09:15:02.602991 11765 net.cpp:148] Top shape: 128 32 75 75 (23040000)
I0316 09:15:02.602998 11765 net.cpp:156] Memory required for data: 1277229056
I0316 09:15:02.603019 11765 layer_factory.hpp:77] Creating layer bn2
I0316 09:15:02.603042 11765 net.cpp:91] Creating Layer bn2
I0316 09:15:02.603051 11765 net.cpp:425] bn2 <- conv2
I0316 09:15:02.603062 11765 net.cpp:399] bn2 -> bn2
I0316 09:15:02.603315 11774 blocking_queue.cpp:50] Waiting for data
I0316 09:15:02.603349 11765 net.cpp:141] Setting up bn2
I0316 09:15:02.603361 11765 net.cpp:148] Top shape: 128 32 75 75 (23040000)
I0316 09:15:02.603370 11765 net.cpp:156] Memory required for data: 1369389056
I0316 09:15:02.603389 11765 layer_factory.hpp:77] Creating layer scale2
I0316 09:15:02.603402 11765 net.cpp:91] Creating Layer scale2
I0316 09:15:02.603411 11765 net.cpp:425] scale2 <- bn2
I0316 09:15:02.603421 11765 net.cpp:399] scale2 -> scale2
I0316 09:15:02.603477 11765 layer_factory.hpp:77] Creating layer scale2
I0316 09:15:02.603652 11765 net.cpp:141] Setting up scale2
I0316 09:15:02.603665 11765 net.cpp:148] Top shape: 128 32 75 75 (23040000)
I0316 09:15:02.603672 11765 net.cpp:156] Memory required for data: 1461549056
I0316 09:15:02.603682 11765 layer_factory.hpp:77] Creating layer relu2
I0316 09:15:02.603699 11765 net.cpp:91] Creating Layer relu2
I0316 09:15:02.603708 11765 net.cpp:425] relu2 <- scale2
I0316 09:15:02.603718 11765 net.cpp:399] relu2 -> relu2
I0316 09:15:02.603749 11765 net.cpp:141] Setting up relu2
I0316 09:15:02.603760 11765 net.cpp:148] Top shape: 128 32 75 75 (23040000)
I0316 09:15:02.603766 11765 net.cpp:156] Memory required for data: 1553709056
I0316 09:15:02.603772 11765 layer_factory.hpp:77] Creating layer conv2_1
I0316 09:15:02.603785 11765 net.cpp:91] Creating Layer conv2_1
I0316 09:15:02.603795 11765 net.cpp:425] conv2_1 <- relu2
I0316 09:15:02.603804 11765 net.cpp:399] conv2_1 -> conv2_1
I0316 09:15:02.604651 11765 net.cpp:141] Setting up conv2_1
I0316 09:15:02.604665 11765 net.cpp:148] Top shape: 128 32 75 75 (23040000)
I0316 09:15:02.604671 11765 net.cpp:156] Memory required for data: 1645869056
I0316 09:15:02.604712 11765 layer_factory.hpp:77] Creating layer bn2_1
I0316 09:15:02.604733 11765 net.cpp:91] Creating Layer bn2_1
I0316 09:15:02.604743 11765 net.cpp:425] bn2_1 <- conv2_1
I0316 09:15:02.604753 11765 net.cpp:399] bn2_1 -> bn2_1
I0316 09:15:02.605036 11765 net.cpp:141] Setting up bn2_1
I0316 09:15:02.605048 11765 net.cpp:148] Top shape: 128 32 75 75 (23040000)
I0316 09:15:02.605056 11765 net.cpp:156] Memory required for data: 1738029056
I0316 09:15:02.605077 11765 layer_factory.hpp:77] Creating layer scale2_1
I0316 09:15:02.605088 11765 net.cpp:91] Creating Layer scale2_1
I0316 09:15:02.605098 11765 net.cpp:425] scale2_1 <- bn2_1
I0316 09:15:02.605114 11765 net.cpp:399] scale2_1 -> scale2_1
I0316 09:15:02.605166 11765 layer_factory.hpp:77] Creating layer scale2_1
I0316 09:15:02.605343 11765 net.cpp:141] Setting up scale2_1
I0316 09:15:02.605356 11765 net.cpp:148] Top shape: 128 32 75 75 (23040000)
I0316 09:15:02.605365 11765 net.cpp:156] Memory required for data: 1830189056
I0316 09:15:02.605376 11765 layer_factory.hpp:77] Creating layer relu2_1
I0316 09:15:02.605389 11765 net.cpp:91] Creating Layer relu2_1
I0316 09:15:02.605398 11765 net.cpp:425] relu2_1 <- scale2_1
I0316 09:15:02.605408 11765 net.cpp:399] relu2_1 -> relu2_1
I0316 09:15:02.605480 11765 net.cpp:141] Setting up relu2_1
I0316 09:15:02.605499 11765 net.cpp:148] Top shape: 128 32 75 75 (23040000)
I0316 09:15:02.605515 11765 net.cpp:156] Memory required for data: 1922349056
I0316 09:15:02.605526 11765 layer_factory.hpp:77] Creating layer pool2_1
I0316 09:15:02.605538 11765 net.cpp:91] Creating Layer pool2_1
I0316 09:15:02.605546 11765 net.cpp:425] pool2_1 <- relu2_1
I0316 09:15:02.605556 11765 net.cpp:399] pool2_1 -> pool2_1
I0316 09:15:02.605621 11765 net.cpp:141] Setting up pool2_1
I0316 09:15:02.605633 11765 net.cpp:148] Top shape: 128 32 38 38 (5914624)
I0316 09:15:02.605639 11765 net.cpp:156] Memory required for data: 1946007552
I0316 09:15:02.605648 11765 layer_factory.hpp:77] Creating layer conv2_2
I0316 09:15:02.605666 11765 net.cpp:91] Creating Layer conv2_2
I0316 09:15:02.605675 11765 net.cpp:425] conv2_2 <- pool2_1
I0316 09:15:02.605685 11765 net.cpp:399] conv2_2 -> conv2_2
I0316 09:15:02.607580 11765 net.cpp:141] Setting up conv2_2
I0316 09:15:02.607615 11765 net.cpp:148] Top shape: 128 32 38 38 (5914624)
I0316 09:15:02.607625 11765 net.cpp:156] Memory required for data: 1969666048
I0316 09:15:02.607648 11765 layer_factory.hpp:77] Creating layer bn2_2
I0316 09:15:02.607673 11765 net.cpp:91] Creating Layer bn2_2
I0316 09:15:02.607683 11765 net.cpp:425] bn2_2 <- conv2_2
I0316 09:15:02.607707 11765 net.cpp:399] bn2_2 -> bn2_2
I0316 09:15:02.608100 11765 net.cpp:141] Setting up bn2_2
I0316 09:15:02.608124 11765 net.cpp:148] Top shape: 128 32 38 38 (5914624)
I0316 09:15:02.608134 11765 net.cpp:156] Memory required for data: 1993324544
I0316 09:15:02.608170 11765 layer_factory.hpp:77] Creating layer scale2_2
I0316 09:15:02.608186 11765 net.cpp:91] Creating Layer scale2_2
I0316 09:15:02.608196 11765 net.cpp:425] scale2_2 <- bn2_2
I0316 09:15:02.608209 11765 net.cpp:399] scale2_2 -> scale2_2
I0316 09:15:02.608274 11765 layer_factory.hpp:77] Creating layer scale2_2
I0316 09:15:02.608482 11765 net.cpp:141] Setting up scale2_2
I0316 09:15:02.608506 11765 net.cpp:148] Top shape: 128 32 38 38 (5914624)
I0316 09:15:02.608515 11765 net.cpp:156] Memory required for data: 2016983040
I0316 09:15:02.608536 11765 layer_factory.hpp:77] Creating layer relu2_2
I0316 09:15:02.608548 11765 net.cpp:91] Creating Layer relu2_2
I0316 09:15:02.608559 11765 net.cpp:425] relu2_2 <- scale2_2
I0316 09:15:02.608579 11765 net.cpp:399] relu2_2 -> relu2_2
I0316 09:15:02.608619 11765 net.cpp:141] Setting up relu2_2
I0316 09:15:02.608633 11765 net.cpp:148] Top shape: 128 32 38 38 (5914624)
I0316 09:15:02.608644 11765 net.cpp:156] Memory required for data: 2040641536
I0316 09:15:02.608650 11765 layer_factory.hpp:77] Creating layer conv3
I0316 09:15:02.608669 11765 net.cpp:91] Creating Layer conv3
I0316 09:15:02.608680 11765 net.cpp:425] conv3 <- relu2_2
I0316 09:15:02.608716 11765 net.cpp:399] conv3 -> conv3
I0316 09:15:02.609262 11765 net.cpp:141] Setting up conv3
I0316 09:15:02.609294 11765 net.cpp:148] Top shape: 128 32 38 38 (5914624)
I0316 09:15:02.609305 11765 net.cpp:156] Memory required for data: 2064300032
I0316 09:15:02.609325 11765 layer_factory.hpp:77] Creating layer bn3
I0316 09:15:02.609342 11765 net.cpp:91] Creating Layer bn3
I0316 09:15:02.609352 11765 net.cpp:425] bn3 <- conv3
I0316 09:15:02.609364 11765 net.cpp:399] bn3 -> bn3
I0316 09:15:02.609730 11765 net.cpp:141] Setting up bn3
I0316 09:15:02.609760 11765 net.cpp:148] Top shape: 128 32 38 38 (5914624)
I0316 09:15:02.609771 11765 net.cpp:156] Memory required for data: 2087958528
I0316 09:15:02.609786 11765 layer_factory.hpp:77] Creating layer scale3
I0316 09:15:02.609800 11765 net.cpp:91] Creating Layer scale3
I0316 09:15:02.609812 11765 net.cpp:425] scale3 <- bn3
I0316 09:15:02.609823 11765 net.cpp:399] scale3 -> scale3
I0316 09:15:02.609892 11765 layer_factory.hpp:77] Creating layer scale3
I0316 09:15:02.610102 11765 net.cpp:141] Setting up scale3
I0316 09:15:02.610117 11765 net.cpp:148] Top shape: 128 32 38 38 (5914624)
I0316 09:15:02.610127 11765 net.cpp:156] Memory required for data: 2111617024
I0316 09:15:02.610141 11765 layer_factory.hpp:77] Creating layer relu3
I0316 09:15:02.610153 11765 net.cpp:91] Creating Layer relu3
I0316 09:15:02.610164 11765 net.cpp:425] relu3 <- scale3
I0316 09:15:02.610177 11765 net.cpp:399] relu3 -> relu3
I0316 09:15:02.610216 11765 net.cpp:141] Setting up relu3
I0316 09:15:02.610230 11765 net.cpp:148] Top shape: 128 32 38 38 (5914624)
I0316 09:15:02.610240 11765 net.cpp:156] Memory required for data: 2135275520
I0316 09:15:02.610249 11765 layer_factory.hpp:77] Creating layer conv4
I0316 09:15:02.610270 11765 net.cpp:91] Creating Layer conv4
I0316 09:15:02.610280 11765 net.cpp:425] conv4 <- relu3
I0316 09:15:02.610292 11765 net.cpp:399] conv4 -> conv4
I0316 09:15:02.610986 11765 net.cpp:141] Setting up conv4
I0316 09:15:02.611011 11765 net.cpp:148] Top shape: 128 64 38 38 (11829248)
I0316 09:15:02.611027 11765 net.cpp:156] Memory required for data: 2182592512
I0316 09:15:02.611042 11765 layer_factory.hpp:77] Creating layer pool4
I0316 09:15:02.611057 11765 net.cpp:91] Creating Layer pool4
I0316 09:15:02.611066 11765 net.cpp:425] pool4 <- conv4
I0316 09:15:02.611079 11765 net.cpp:399] pool4 -> pool4
I0316 09:15:02.611151 11765 net.cpp:141] Setting up pool4
I0316 09:15:02.611165 11765 net.cpp:148] Top shape: 128 64 19 19 (2957312)
I0316 09:15:02.611174 11765 net.cpp:156] Memory required for data: 2194421760
I0316 09:15:02.611184 11765 layer_factory.hpp:77] Creating layer bn4
I0316 09:15:02.611199 11765 net.cpp:91] Creating Layer bn4
I0316 09:15:02.611209 11765 net.cpp:425] bn4 <- pool4
I0316 09:15:02.611222 11765 net.cpp:399] bn4 -> bn4
I0316 09:15:02.612382 11765 net.cpp:141] Setting up bn4
I0316 09:15:02.612416 11765 net.cpp:148] Top shape: 128 64 19 19 (2957312)
I0316 09:15:02.612424 11765 net.cpp:156] Memory required for data: 2206251008
I0316 09:15:02.612444 11765 layer_factory.hpp:77] Creating layer scale4
I0316 09:15:02.612460 11765 net.cpp:91] Creating Layer scale4
I0316 09:15:02.612471 11765 net.cpp:425] scale4 <- bn4
I0316 09:15:02.612486 11765 net.cpp:399] scale4 -> scale4
I0316 09:15:02.612562 11765 layer_factory.hpp:77] Creating layer scale4
I0316 09:15:02.612771 11765 net.cpp:141] Setting up scale4
I0316 09:15:02.612785 11765 net.cpp:148] Top shape: 128 64 19 19 (2957312)
I0316 09:15:02.612795 11765 net.cpp:156] Memory required for data: 2218080256
I0316 09:15:02.612813 11765 layer_factory.hpp:77] Creating layer relu4
I0316 09:15:02.612828 11765 net.cpp:91] Creating Layer relu4
I0316 09:15:02.612838 11765 net.cpp:425] relu4 <- scale4
I0316 09:15:02.612855 11765 net.cpp:399] relu4 -> relu4
I0316 09:15:02.612902 11765 net.cpp:141] Setting up relu4
I0316 09:15:02.612916 11765 net.cpp:148] Top shape: 128 64 19 19 (2957312)
I0316 09:15:02.612926 11765 net.cpp:156] Memory required for data: 2229909504
I0316 09:15:02.612933 11765 layer_factory.hpp:77] Creating layer conv4_1
I0316 09:15:02.612982 11765 net.cpp:91] Creating Layer conv4_1
I0316 09:15:02.612993 11765 net.cpp:425] conv4_1 <- relu4
I0316 09:15:02.613004 11765 net.cpp:399] conv4_1 -> conv4_1
I0316 09:15:02.614034 11765 net.cpp:141] Setting up conv4_1
I0316 09:15:02.614065 11765 net.cpp:148] Top shape: 128 64 19 19 (2957312)
I0316 09:15:02.614073 11765 net.cpp:156] Memory required for data: 2241738752
I0316 09:15:02.614094 11765 layer_factory.hpp:77] Creating layer bn4_1
I0316 09:15:02.614122 11765 net.cpp:91] Creating Layer bn4_1
I0316 09:15:02.614133 11765 net.cpp:425] bn4_1 <- conv4_1
I0316 09:15:02.614153 11765 net.cpp:399] bn4_1 -> bn4_1
I0316 09:15:02.614512 11765 net.cpp:141] Setting up bn4_1
I0316 09:15:02.614527 11765 net.cpp:148] Top shape: 128 64 19 19 (2957312)
I0316 09:15:02.614537 11765 net.cpp:156] Memory required for data: 2253568000
I0316 09:15:02.614555 11765 layer_factory.hpp:77] Creating layer scale4_1
I0316 09:15:02.614569 11765 net.cpp:91] Creating Layer scale4_1
I0316 09:15:02.614579 11765 net.cpp:425] scale4_1 <- bn4_1
I0316 09:15:02.614600 11765 net.cpp:399] scale4_1 -> scale4_1
I0316 09:15:02.614675 11765 layer_factory.hpp:77] Creating layer scale4_1
I0316 09:15:02.614900 11765 net.cpp:141] Setting up scale4_1
I0316 09:15:02.614923 11765 net.cpp:148] Top shape: 128 64 19 19 (2957312)
I0316 09:15:02.614933 11765 net.cpp:156] Memory required for data: 2265397248
I0316 09:15:02.614951 11765 layer_factory.hpp:77] Creating layer relu4_1
I0316 09:15:02.614974 11765 net.cpp:91] Creating Layer relu4_1
I0316 09:15:02.614985 11765 net.cpp:425] relu4_1 <- scale4_1
I0316 09:15:02.614998 11765 net.cpp:399] relu4_1 -> relu4_1
I0316 09:15:02.615047 11765 net.cpp:141] Setting up relu4_1
I0316 09:15:02.615061 11765 net.cpp:148] Top shape: 128 64 19 19 (2957312)
I0316 09:15:02.615070 11765 net.cpp:156] Memory required for data: 2277226496
I0316 09:15:02.615078 11765 layer_factory.hpp:77] Creating layer conv4_2
I0316 09:15:02.615101 11765 net.cpp:91] Creating Layer conv4_2
I0316 09:15:02.615113 11765 net.cpp:425] conv4_2 <- relu4_1
I0316 09:15:02.615133 11765 net.cpp:399] conv4_2 -> conv4_2
I0316 09:15:02.616127 11765 net.cpp:141] Setting up conv4_2
I0316 09:15:02.616154 11765 net.cpp:148] Top shape: 128 64 19 19 (2957312)
I0316 09:15:02.616163 11765 net.cpp:156] Memory required for data: 2289055744
I0316 09:15:02.616185 11765 layer_factory.hpp:77] Creating layer bn4_2
I0316 09:15:02.616209 11765 net.cpp:91] Creating Layer bn4_2
I0316 09:15:02.616219 11765 net.cpp:425] bn4_2 <- conv4_2
I0316 09:15:02.616242 11765 net.cpp:399] bn4_2 -> bn4_2
I0316 09:15:02.616614 11765 net.cpp:141] Setting up bn4_2
I0316 09:15:02.616629 11765 net.cpp:148] Top shape: 128 64 19 19 (2957312)
I0316 09:15:02.616647 11765 net.cpp:156] Memory required for data: 2300884992
I0316 09:15:02.616665 11765 layer_factory.hpp:77] Creating layer scale4_2
I0316 09:15:02.616678 11765 net.cpp:91] Creating Layer scale4_2
I0316 09:15:02.616689 11765 net.cpp:425] scale4_2 <- bn4_2
I0316 09:15:02.616703 11765 net.cpp:399] scale4_2 -> scale4_2
I0316 09:15:02.616786 11765 layer_factory.hpp:77] Creating layer scale4_2
I0316 09:15:02.617022 11765 net.cpp:141] Setting up scale4_2
I0316 09:15:02.617038 11765 net.cpp:148] Top shape: 128 64 19 19 (2957312)
I0316 09:15:02.617046 11765 net.cpp:156] Memory required for data: 2312714240
I0316 09:15:02.617065 11765 layer_factory.hpp:77] Creating layer relu4_2
I0316 09:15:02.617079 11765 net.cpp:91] Creating Layer relu4_2
I0316 09:15:02.617089 11765 net.cpp:425] relu4_2 <- scale4_2
I0316 09:15:02.617101 11765 net.cpp:399] relu4_2 -> relu4_2
I0316 09:15:02.617152 11765 net.cpp:141] Setting up relu4_2
I0316 09:15:02.617166 11765 net.cpp:148] Top shape: 128 64 19 19 (2957312)
I0316 09:15:02.617175 11765 net.cpp:156] Memory required for data: 2324543488
I0316 09:15:02.617183 11765 layer_factory.hpp:77] Creating layer pool4_2
I0316 09:15:02.617207 11765 net.cpp:91] Creating Layer pool4_2
I0316 09:15:02.617216 11765 net.cpp:425] pool4_2 <- relu4_2
I0316 09:15:02.617235 11765 net.cpp:399] pool4_2 -> pool4_2
I0316 09:15:02.617336 11765 net.cpp:141] Setting up pool4_2
I0316 09:15:02.617358 11765 net.cpp:148] Top shape: 128 64 10 10 (819200)
I0316 09:15:02.617368 11765 net.cpp:156] Memory required for data: 2327820288
I0316 09:15:02.617375 11765 layer_factory.hpp:77] Creating layer conv4_0
I0316 09:15:02.617395 11765 net.cpp:91] Creating Layer conv4_0
I0316 09:15:02.617406 11765 net.cpp:425] conv4_0 <- pool4_2
I0316 09:15:02.617449 11765 net.cpp:399] conv4_0 -> conv4_0
I0316 09:15:02.619719 11765 net.cpp:141] Setting up conv4_0
I0316 09:15:02.619751 11765 net.cpp:148] Top shape: 128 128 10 10 (1638400)
I0316 09:15:02.619760 11765 net.cpp:156] Memory required for data: 2334373888
I0316 09:15:02.619798 11765 layer_factory.hpp:77] Creating layer bn4_0
I0316 09:15:02.619822 11765 net.cpp:91] Creating Layer bn4_0
I0316 09:15:02.619832 11765 net.cpp:425] bn4_0 <- conv4_0
I0316 09:15:02.619854 11765 net.cpp:399] bn4_0 -> bn4_0
I0316 09:15:02.620189 11765 net.cpp:141] Setting up bn4_0
I0316 09:15:02.620204 11765 net.cpp:148] Top shape: 128 128 10 10 (1638400)
I0316 09:15:02.620213 11765 net.cpp:156] Memory required for data: 2340927488
I0316 09:15:02.620232 11765 layer_factory.hpp:77] Creating layer scale4_0
I0316 09:15:02.620254 11765 net.cpp:91] Creating Layer scale4_0
I0316 09:15:02.620263 11765 net.cpp:425] scale4_0 <- bn4_0
I0316 09:15:02.620281 11765 net.cpp:399] scale4_0 -> scale4_0
I0316 09:15:02.620354 11765 layer_factory.hpp:77] Creating layer scale4_0
I0316 09:15:02.620538 11765 net.cpp:141] Setting up scale4_0
I0316 09:15:02.620553 11765 net.cpp:148] Top shape: 128 128 10 10 (1638400)
I0316 09:15:02.620561 11765 net.cpp:156] Memory required for data: 2347481088
I0316 09:15:02.620579 11765 layer_factory.hpp:77] Creating layer relu4_0
I0316 09:15:02.620592 11765 net.cpp:91] Creating Layer relu4_0
I0316 09:15:02.620602 11765 net.cpp:425] relu4_0 <- scale4_0
I0316 09:15:02.620620 11765 net.cpp:399] relu4_0 -> relu4_0
I0316 09:15:02.620651 11765 net.cpp:141] Setting up relu4_0
I0316 09:15:02.620663 11765 net.cpp:148] Top shape: 128 128 10 10 (1638400)
I0316 09:15:02.620673 11765 net.cpp:156] Memory required for data: 2354034688
I0316 09:15:02.620682 11765 layer_factory.hpp:77] Creating layer cccp4
I0316 09:15:02.620704 11765 net.cpp:91] Creating Layer cccp4
I0316 09:15:02.620714 11765 net.cpp:425] cccp4 <- relu4_0
I0316 09:15:02.620733 11765 net.cpp:399] cccp4 -> cccp4
I0316 09:15:02.621613 11765 net.cpp:141] Setting up cccp4
I0316 09:15:02.621639 11765 net.cpp:148] Top shape: 128 256 10 10 (3276800)
I0316 09:15:02.621649 11765 net.cpp:156] Memory required for data: 2367141888
I0316 09:15:02.621667 11765 layer_factory.hpp:77] Creating layer relu_cccp4
I0316 09:15:02.621681 11765 net.cpp:91] Creating Layer relu_cccp4
I0316 09:15:02.621692 11765 net.cpp:425] relu_cccp4 <- cccp4
I0316 09:15:02.621703 11765 net.cpp:386] relu_cccp4 -> cccp4 (in-place)
I0316 09:15:02.621726 11765 net.cpp:141] Setting up relu_cccp4
I0316 09:15:02.621737 11765 net.cpp:148] Top shape: 128 256 10 10 (3276800)
I0316 09:15:02.621745 11765 net.cpp:156] Memory required for data: 2380249088
I0316 09:15:02.621752 11765 layer_factory.hpp:77] Creating layer cccp5
I0316 09:15:02.621775 11765 net.cpp:91] Creating Layer cccp5
I0316 09:15:02.621785 11765 net.cpp:425] cccp5 <- cccp4
I0316 09:15:02.621803 11765 net.cpp:399] cccp5 -> cccp5
I0316 09:15:02.622436 11765 net.cpp:141] Setting up cccp5
I0316 09:15:02.622459 11765 net.cpp:148] Top shape: 128 64 10 10 (819200)
I0316 09:15:02.622469 11765 net.cpp:156] Memory required for data: 2383525888
I0316 09:15:02.622488 11765 layer_factory.hpp:77] Creating layer relu_cccp5
I0316 09:15:02.622499 11765 net.cpp:91] Creating Layer relu_cccp5
I0316 09:15:02.622509 11765 net.cpp:425] relu_cccp5 <- cccp5
I0316 09:15:02.622520 11765 net.cpp:386] relu_cccp5 -> cccp5 (in-place)
I0316 09:15:02.622534 11765 net.cpp:141] Setting up relu_cccp5
I0316 09:15:02.622545 11765 net.cpp:148] Top shape: 128 64 10 10 (819200)
I0316 09:15:02.622553 11765 net.cpp:156] Memory required for data: 2386802688
I0316 09:15:02.622560 11765 layer_factory.hpp:77] Creating layer poolcp5
I0316 09:15:02.622591 11765 net.cpp:91] Creating Layer poolcp5
I0316 09:15:02.622609 11765 net.cpp:425] poolcp5 <- cccp5
I0316 09:15:02.622628 11765 net.cpp:399] poolcp5 -> poolcp5
I0316 09:15:02.622704 11765 net.cpp:141] Setting up poolcp5
I0316 09:15:02.622716 11765 net.cpp:148] Top shape: 128 64 5 5 (204800)
I0316 09:15:02.622725 11765 net.cpp:156] Memory required for data: 2387621888
I0316 09:15:02.622733 11765 layer_factory.hpp:77] Creating layer cccp6
I0316 09:15:02.622756 11765 net.cpp:91] Creating Layer cccp6
I0316 09:15:02.622766 11765 net.cpp:425] cccp6 <- poolcp5
I0316 09:15:02.622786 11765 net.cpp:399] cccp6 -> cccp6
I0316 09:15:02.623726 11765 net.cpp:141] Setting up cccp6
I0316 09:15:02.623752 11765 net.cpp:148] Top shape: 128 64 5 5 (204800)
I0316 09:15:02.623759 11765 net.cpp:156] Memory required for data: 2388441088
I0316 09:15:02.623770 11765 layer_factory.hpp:77] Creating layer relu_cccp6
I0316 09:15:02.623783 11765 net.cpp:91] Creating Layer relu_cccp6
I0316 09:15:02.623793 11765 net.cpp:425] relu_cccp6 <- cccp6
I0316 09:15:02.623811 11765 net.cpp:386] relu_cccp6 -> cccp6 (in-place)
I0316 09:15:02.623824 11765 net.cpp:141] Setting up relu_cccp6
I0316 09:15:02.623836 11765 net.cpp:148] Top shape: 128 64 5 5 (204800)
I0316 09:15:02.623845 11765 net.cpp:156] Memory required for data: 2389260288
I0316 09:15:02.623852 11765 layer_factory.hpp:77] Creating layer poolcp6
I0316 09:15:02.623867 11765 net.cpp:91] Creating Layer poolcp6
I0316 09:15:02.623878 11765 net.cpp:425] poolcp6 <- cccp6
I0316 09:15:02.623888 11765 net.cpp:399] poolcp6 -> poolcp6
I0316 09:15:02.623950 11765 net.cpp:141] Setting up poolcp6
I0316 09:15:02.623963 11765 net.cpp:148] Top shape: 128 64 1 1 (8192)
I0316 09:15:02.623970 11765 net.cpp:156] Memory required for data: 2389293056
I0316 09:15:02.623980 11765 layer_factory.hpp:77] Creating layer ip1
I0316 09:15:02.623994 11765 net.cpp:91] Creating Layer ip1
I0316 09:15:02.624004 11765 net.cpp:425] ip1 <- poolcp6
I0316 09:15:02.624014 11765 net.cpp:399] ip1 -> ip1
I0316 09:15:02.625152 11765 net.cpp:141] Setting up ip1
I0316 09:15:02.625175 11765 net.cpp:148] Top shape: 128 1000 (128000)
I0316 09:15:02.625182 11765 net.cpp:156] Memory required for data: 2389805056
I0316 09:15:02.625196 11765 layer_factory.hpp:77] Creating layer loss
I0316 09:15:02.625217 11765 net.cpp:91] Creating Layer loss
I0316 09:15:02.625227 11765 net.cpp:425] loss <- ip1
I0316 09:15:02.625244 11765 net.cpp:425] loss <- label
I0316 09:15:02.625257 11765 net.cpp:399] loss -> loss
I0316 09:15:02.625275 11765 layer_factory.hpp:77] Creating layer loss
…
I0316 09:15:02.629518 11765 net.cpp:313] The NetState phase (1) differed from the phase (0) specified by a rule in layer bn4_0
I0316 09:15:02.630075 11765 net.cpp:49] Initializing net from parameters: 
name: "ImageNet_SlimNet_300K_NoDrp"
state {
  phase: TEST
}
layer {
  name: "data"
  type: "Data"
  top: "data"
  top: "label"
  include {
    phase: TEST
  }
  transform_param {
    mirror: false
    crop_size: 227
    mean_file: "imagenet_mean.binaryproto"
  }
  data_param {
    source: "/home/ali/dataset/val_IMDB"
    batch_size: 50
    backend: LMDB
  }
}
layer {
  name: "conv1"
  type: "Convolution"
  bottom: "data"
  top: "conv1"
  param {
    lr_mult: 1
  }
  convolution_param {
    num_output: 64
    bias_term: true
    pad: 1
    kernel_size: 7
    stride: 3
    weight_filler {
      type: "xavier"
    }
  }
}
layer {
  name: "bn1"
  type: "BatchNorm"
  bottom: "conv1"
  top: "bn1"
  param {
    lr_mult: 0
    decay_mult: 0
  }
  param {
    lr_mult: 0
    decay_mult: 0
  }
  param {
    lr_mult: 0
    decay_mult: 0
  }
  include {
    phase: TEST
  }
  batch_norm_param {
    use_global_stats: true
    moving_average_fraction: 0.95
  }
}
layer {
  name: "scale1"
  type: "Scale"
  bottom: "bn1"
  top: "scale1"
  scale_param {
    bias_term: true
  }
}
layer {
  name: "relu1"
  type: "ReLU"
  bottom: "scale1"
  top: "relu1"
}
layer {
  name: "conv1_0"
  type: "Convolution"
  bottom: "relu1"
  top: "conv1_0"
  param {
    lr_mult: 1
  }
  convolution_param {
    num_output: 32
    bias_term: true
    pad: 1
    kernel_size: 3
    stride: 1
    weight_filler {
      type: "xavier"
    }
  }
}
layer {
  name: "bn1_0"
  type: "BatchNorm"
  bottom: "conv1_0"
  top: "bn1_0"
  param {
    lr_mult: 0
    decay_mult: 0
  }
  param {
    lr_mult: 0
    decay_mult: 0
  }
  param {
    lr_mult: 0
    decay_mult: 0
  }
  include {
    phase: TEST
  }
  batch_norm_param {
    use_global_stats: true
    moving_average_fraction: 0.95
  }
}
layer {
  name: "scale1_0"
  type: "Scale"
  bottom: "bn1_0"
  top: "scale1_0"
  scale_param {
    bias_term: true
  }
}
layer {
  name: "relu1_0"
  type: "ReLU"
  bottom: "scale1_0"
  top: "relu1_0"
}
layer {
  name: "conv2"
  type: "Convolution"
  bottom: "relu1_0"
  top: "conv2"
  param {
    lr_mult: 1
  }
  convolution_param {
    num_output: 32
    bias_term: true
    pad: 1
    kernel_size: 3
    stride: 1
    weight_filler {
      type: "gaussian"
      std: 0.01
    }
  }
}
layer {
  name: "bn2"
  type: "BatchNorm"
  bottom: "conv2"
  top: "bn2"
  param {
    lr_mult: 0
    decay_mult: 0
  }
  param {
    lr_mult: 0
    decay_mult: 0
  }
  param {
    lr_mult: 0
    decay_mult: 0
  }
  include {
    phase: TEST
  }
  batch_norm_param {
    use_global_stats: true
    moving_average_fraction: 0.95
  }
}
layer {
  name: "scale2"
  type: "Scale"
  bottom: "bn2"
  top: "scale2"
  scale_param {
    bias_term: true
  }
}
layer {
  name: "relu2"
  type: "ReLU"
  bottom: "scale2"
  top: "relu2"
}
layer {
  name: "conv2_1"
  type: "Convolution"
  bottom: "relu2"
  top: "conv2_1"
  param {
    lr_mult: 1
  }
  convolution_param {
    num_output: 32
    bias_term: true
    pad: 1
    kernel_size: 3
    stride: 1
    weight_filler {
      type: "gaussian"
      std: 0.01
    }
  }
}
layer {
  name: "bn2_1"
  type: "BatchNorm"
  bottom: "conv2_1"
  top: "bn2_1"
  param {
    lr_mult: 0
    decay_mult: 0
  }
  param {
    lr_mult: 0
    decay_mult: 0
  }
  param {
    lr_mult: 0
    decay_mult: 0
  }
  include {
    phase: TEST
  }
  batch_norm_param {
    use_global_stats: true
    moving_average_fraction: 0.95
  }
}
layer {
  name: "scale2_1"
  type: "Scale"
  bottom: "bn2_1"
  top: "scale2_1"
  scale_param {
    bias_term: true
  }
}
layer {
  name: "relu2_1"
  type: "ReLU"
  bottom: "scale2_1"
  top: "relu2_1"
}
layer {
  name: "pool2_1"
  type: "Pooling"
  bottom: "relu2_1"
  top: "pool2_1"
  pooling_param {
    pool: MAX
    kernel_size: 2
    stride: 2
  }
}
layer {
  name: "conv2_2"
  type: "Convolution"
  bottom: "pool2_1"
  top: "conv2_2"
  param {
    lr_mult: 1
  }
  convolution_param {
    num_output: 32
    bias_term: true
    pad: 1
    kernel_size: 3
    stride: 1
    weight_filler {
      type: "gaussian"
      std: 0.01
    }
  }
}
layer {
  name: "bn2_2"
  type: "BatchNorm"
  bottom: "conv2_2"
  top: "bn2_2"
  param {
    lr_mult: 0
    decay_mult: 0
  }
  param {
    lr_mult: 0
    decay_mult: 0
  }
  param {
    lr_mult: 0
    decay_mult: 0
  }
  include {
    phase: TEST
  }
  batch_norm_param {
    use_global_stats: true
    moving_average_fraction: 0.95
  }
}
layer {
  name: "scale2_2"
  type: "Scale"
  bottom: "bn2_2"
  top: "scale2_2"
  scale_param {
    bias_term: true
  }
}
layer {
  name: "relu2_2"
  type: "ReLU"
  bottom: "scale2_2"
  top: "relu2_2"
}
layer {
  name: "conv3"
  type: "Convolution"
  bottom: "relu2_2"
  top: "conv3"
  param {
    lr_mult: 1
  }
  convolution_param {
    num_output: 32
    bias_term: true
    pad: 1
    kernel_size: 3
    stride: 1
    weight_filler {
      type: "xavier"
    }
  }
}
layer {
  name: "bn3"
  type: "BatchNorm"
  bottom: "conv3"
  top: "bn3"
  param {
    lr_mult: 0
    decay_mult: 0
  }
  param {
    lr_mult: 0
    decay_mult: 0
  }
  param {
    lr_mult: 0
    decay_mult: 0
  }
  include {
    phase: TEST
  }
  batch_norm_param {
    use_global_stats: true
    moving_average_fraction: 0.95
  }
}
layer {
  name: "scale3"
  type: "Scale"
  bottom: "bn3"
  top: "scale3"
  scale_param {
    bias_term: true
  }
}
layer {
  name: "relu3"
  type: "ReLU"
  bottom: "scale3"
  top: "relu3"
}
layer {
  name: "conv4"
  type: "Convolution"
  bottom: "relu3"
  top: "conv4"
  param {
    lr_mult: 1
  }
  convolution_param {
    num_output: 64
    bias_term: true
    pad: 1
    kernel_size: 3
    stride: 1
    weight_filler {
      type: "xavier"
    }
  }
}
layer {
  name: "pool4"
  type: "Pooling"
  bottom: "conv4"
  top: "pool4"
  pooling_param {
    pool: MAX
    kernel_size: 2
    stride: 2
  }
}
layer {
  name: "bn4"
  type: "BatchNorm"
  bottom: "pool4"
  top: "bn4"
  param {
    lr_mult: 0
    decay_mult: 0
  }
  param {
    lr_mult: 0
    decay_mult: 0
  }
  param {
    lr_mult: 0
    decay_mult: 0
  }
  include {
    phase: TEST
  }
  batch_norm_param {
    use_global_stats: true
    moving_average_fraction: 0.95
  }
}
layer {
  name: "scale4"
  type: "Scale"
  bottom: "bn4"
  top: "scale4"
  scale_param {
    bias_term: true
  }
}
layer {
  name: "relu4"
  type: "ReLU"
  bottom: "scale4"
  top: "relu4"
}
layer {
  name: "conv4_1"
  type: "Convolution"
  bottom: "relu4"
  top: "conv4_1"
  param {
    lr_mult: 1
  }
  convolution_param {
    num_output: 64
    bias_term: true
    pad: 1
    kernel_size: 3
    stride: 1
    weight_filler {
      type: "xavier"
    }
  }
}
layer {
  name: "bn4_1"
  type: "BatchNorm"
  bottom: "conv4_1"
  top: "bn4_1"
  param {
    lr_mult: 0
    decay_mult: 0
  }
  param {
    lr_mult: 0
    decay_mult: 0
  }
  param {
    lr_mult: 0
    decay_mult: 0
  }
  include {
    phase: TEST
  }
  batch_norm_param {
    use_global_stats: true
    moving_average_fraction: 0.95
  }
}
layer {
  name: "scale4_1"
  type: "Scale"
  bottom: "bn4_1"
  top: "scale4_1"
  scale_param {
    bias_term: true
  }
}
layer {
  name: "relu4_1"
  type: "ReLU"
  bottom: "scale4_1"
  top: "relu4_1"
}
layer {
  name: "conv4_2"
  type: "Convolution"
  bottom: "relu4_1"
  top: "conv4_2"
  param {
    lr_mult: 1
  }
  convolution_param {
    num_output: 64
    bias_term: true
    pad: 1
    kernel_size: 3
    stride: 1
    weight_filler {
      type: "xavier"
    }
  }
}
layer {
  name: "bn4_2"
  type: "BatchNorm"
  bottom: "conv4_2"
  top: "bn4_2"
  param {
    lr_mult: 0
    decay_mult: 0
  }
  param {
    lr_mult: 0
    decay_mult: 0
  }
  param {
    lr_mult: 0
    decay_mult: 0
  }
  include {
    phase: TEST
  }
  batch_norm_param {
    use_global_stats: true
    moving_average_fraction: 0.95
  }
}
layer {
  name: "scale4_2"
  type: "Scale"
  bottom: "bn4_2"
  top: "scale4_2"
  scale_param {
    bias_term: true
  }
}
layer {
  name: "relu4_2"
  type: "ReLU"
  bottom: "scale4_2"
  top: "relu4_2"
}
layer {
  name: "pool4_2"
  type: "Pooling"
  bottom: "relu4_2"
  top: "pool4_2"
  pooling_param {
    pool: MAX
    kernel_size: 2
    stride: 2
  }
}
layer {
  name: "conv4_0"
  type: "Convolution"
  bottom: "pool4_2"
  top: "conv4_0"
  param {
    lr_mult: 1
  }
  convolution_param {
    num_output: 128
    bias_term: true
    pad: 1
    kernel_size: 3
    stride: 1
    weight_filler {
      type: "xavier"
    }
  }
}
layer {
  name: "bn4_0"
  type: "BatchNorm"
  bottom: "conv4_0"
  top: "bn4_0"
  param {
    lr_mult: 0
    decay_mult: 0
  }
  param {
    lr_mult: 0
    decay_mult: 0
  }
  param {
    lr_mult: 0
    decay_mult: 0
  }
  include {
    phase: TEST
  }
  batch_norm_param {
    use_global_stats: true
    moving_average_fraction: 0.95
  }
}
layer {
  name: "scale4_0"
  type: "Scale"
  bottom: "bn4_0"
  top: "scale4_0"
  scale_param {
    bias_term: true
  }
}
layer {
  name: "relu4_0"
  type: "ReLU"
  bottom: "scale4_0"
  top: "relu4_0"
}
layer {
  name: "cccp4"
  type: "Convolution"
  bottom: "relu4_0"
  top: "cccp4"
  param {
    lr_mult: 1
    decay_mult: 1
  }
  param {
    lr_mult: 2
    decay_mult: 0
  }
  convolution_param {
    num_output: 256
    kernel_size: 1
    group: 1
    weight_filler {
      type: "xavier"
    }
    bias_filler {
      type: "constant"
      value: 0
    }
  }
}
layer {
  name: "relu_cccp4"
  type: "ReLU"
  bottom: "cccp4"
  top: "cccp4"
}
layer {
  name: "cccp5"
  type: "Convolution"
  bottom: "cccp4"
  top: "cccp5"
  param {
    lr_mult: 1
    decay_mult: 1
  }
  param {
    lr_mult: 2
    decay_mult: 0
  }
  convolution_param {
    num_output: 64
    kernel_size: 1
    group: 1
    weight_filler {
      type: "xavier"
    }
    bias_filler {
      type: "constant"
      value: 0
    }
  }
}
layer {
  name: "relu_cccp5"
  type: "ReLU"
  bottom: "cccp5"
  top: "cccp5"
}
layer {
  name: "poolcp5"
  type: "Pooling"
  bottom: "cccp5"
  top: "poolcp5"
  pooling_param {
    pool: MAX
    kernel_size: 2
    stride: 2
  }
}
layer {
  name: "cccp6"
  type: "Convolution"
  bottom: "poolcp5"
  top: "cccp6"
  param {
    lr_mult: 1
    decay_mult: 1
  }
  param {
    lr_mult: 2
    decay_mult: 0
  }
  convolution_param {
    num_output: 64
    pad: 1
    kernel_size: 3
    group: 1
    weight_filler {
      type: "xavier"
    }
    bias_filler {
      type: "constant"
      value: 0
    }
  }
}
layer {
  name: "relu_cccp6"
  type: "ReLU"
  bottom: "cccp6"
  top: "cccp6"
}
layer {
  name: "poolcp6"
  type: "Pooling"
  bottom: "cccp6"
  top: "poolcp6"
  pooling_param {
    pool: MAX
    global_pooling: true
  }
}
layer {
  name: "ip1"
  type: "InnerProduct"
  bottom: "poolcp6"
  top: "ip1"
  param {
    lr_mult: 1
    decay_mult: 0
  }
  param {
    lr_mult: 2
    decay_mult: 0
  }
  inner_product_param {
    num_output: 1000
    weight_filler {
      type: "xavier"
    }
    bias_filler {
      type: "constant"
    }
  }
}
layer {
  name: "loss"
  type: "SoftmaxWithLoss"
  bottom: "ip1"
  bottom: "label"
  top: "loss"
}
layer {
  name: "accuracy_top-1"
  type: "Accuracy"
  bottom: "ip1"
  bottom: "label"
  top: "accuracy_top-1"
  include {
    phase: TEST
  }
}
layer {
  name: "accuracy_top-5"
  type: "Accuracy"
  bottom: "ip1"
  bottom: "label"
  top: "accuracy_top-5"
  include {
    phase: TEST
  }
  accuracy_param {
    top_k: 5
  }
}
I0316 09:15:02.630475 11765 layer_factory.hpp:77] Creating layer data
I0316 09:15:02.630619 11765 net.cpp:91] Creating Layer data
I0316 09:15:02.630666 11765 net.cpp:399] data -> data
I0316 09:15:02.630688 11765 net.cpp:399] data -> label
I0316 09:15:02.630703 11765 data_transformer.cpp:25] Loading mean file from: imagenet_mean.binaryproto
I0316 09:15:02.631984 11775 db_lmdb.cpp:38] Opened lmdb /home/ali/dataset/val_IMDB
I0316 09:15:02.634836 11765 data_layer.cpp:41] output data size: 50,3,227,227
I0316 09:15:02.705723 11765 net.cpp:141] Setting up data
I0316 09:15:02.705767 11765 net.cpp:148] Top shape: 50 3 227 227 (7729350)
I0316 09:15:02.705776 11765 net.cpp:148] Top shape: 50 (50)
I0316 09:15:02.705782 11765 net.cpp:156] Memory required for data: 30917600
I0316 09:15:02.705791 11765 layer_factory.hpp:77] Creating layer label_data_1_split
I0316 09:15:02.705808 11765 net.cpp:91] Creating Layer label_data_1_split
I0316 09:15:02.705816 11765 net.cpp:425] label_data_1_split <- label
I0316 09:15:02.705831 11765 net.cpp:399] label_data_1_split -> label_data_1_split_0
I0316 09:15:02.705847 11765 net.cpp:399] label_data_1_split -> label_data_1_split_1
I0316 09:15:02.705857 11765 net.cpp:399] label_data_1_split -> label_data_1_split_2
I0316 09:15:02.705968 11765 net.cpp:141] Setting up label_data_1_split
I0316 09:15:02.705979 11765 net.cpp:148] Top shape: 50 (50)
I0316 09:15:02.705986 11765 net.cpp:148] Top shape: 50 (50)
I0316 09:15:02.705992 11765 net.cpp:148] Top shape: 50 (50)
I0316 09:15:02.705997 11765 net.cpp:156] Memory required for data: 30918200
I0316 09:15:02.706003 11765 layer_factory.hpp:77] Creating layer conv1
I0316 09:15:02.706023 11765 net.cpp:91] Creating Layer conv1
I0316 09:15:02.706030 11765 net.cpp:425] conv1 <- data
I0316 09:15:02.706039 11765 net.cpp:399] conv1 -> conv1
I0316 09:15:02.706492 11765 net.cpp:141] Setting up conv1
I0316 09:15:02.706516 11765 net.cpp:148] Top shape: 50 64 75 75 (18000000)
I0316 09:15:02.706521 11765 net.cpp:156] Memory required for data: 102918200
I0316 09:15:02.706535 11765 layer_factory.hpp:77] Creating layer bn1
I0316 09:15:02.706547 11765 net.cpp:91] Creating Layer bn1
I0316 09:15:02.706553 11765 net.cpp:425] bn1 <- conv1
I0316 09:15:02.706560 11765 net.cpp:399] bn1 -> bn1
I0316 09:15:02.706804 11765 net.cpp:141] Setting up bn1
I0316 09:15:02.706816 11765 net.cpp:148] Top shape: 50 64 75 75 (18000000)
I0316 09:15:02.706822 11765 net.cpp:156] Memory required for data: 174918200
I0316 09:15:02.706835 11765 layer_factory.hpp:77] Creating layer scale1
I0316 09:15:02.706848 11765 net.cpp:91] Creating Layer scale1
I0316 09:15:02.706856 11765 net.cpp:425] scale1 <- bn1
I0316 09:15:02.706864 11765 net.cpp:399] scale1 -> scale1
I0316 09:15:02.706921 11765 layer_factory.hpp:77] Creating layer scale1
I0316 09:15:02.707092 11765 net.cpp:141] Setting up scale1
I0316 09:15:02.707103 11765 net.cpp:148] Top shape: 50 64 75 75 (18000000)
I0316 09:15:02.707109 11765 net.cpp:156] Memory required for data: 246918200
I0316 09:15:02.707124 11765 layer_factory.hpp:77] Creating layer relu1
I0316 09:15:02.707135 11765 net.cpp:91] Creating Layer relu1
I0316 09:15:02.707141 11765 net.cpp:425] relu1 <- scale1
I0316 09:15:02.707150 11765 net.cpp:399] relu1 -> relu1
I0316 09:15:02.707190 11765 net.cpp:141] Setting up relu1
I0316 09:15:02.707201 11765 net.cpp:148] Top shape: 50 64 75 75 (18000000)
I0316 09:15:02.707206 11765 net.cpp:156] Memory required for data: 318918200
I0316 09:15:02.707211 11765 layer_factory.hpp:77] Creating layer conv1_0
I0316 09:15:02.707223 11765 net.cpp:91] Creating Layer conv1_0
I0316 09:15:02.707231 11765 net.cpp:425] conv1_0 <- relu1
I0316 09:15:02.707239 11765 net.cpp:399] conv1_0 -> conv1_0
I0316 09:15:02.713171 11765 net.cpp:141] Setting up conv1_0
I0316 09:15:02.713207 11765 net.cpp:148] Top shape: 50 32 75 75 (9000000)
I0316 09:15:02.713212 11765 net.cpp:156] Memory required for data: 354918200
I0316 09:15:02.713233 11765 layer_factory.hpp:77] Creating layer bn1_0
I0316 09:15:02.713253 11765 net.cpp:91] Creating Layer bn1_0
I0316 09:15:02.713259 11765 net.cpp:425] bn1_0 <- conv1_0
I0316 09:15:02.713276 11765 net.cpp:399] bn1_0 -> bn1_0
I0316 09:15:02.713568 11765 net.cpp:141] Setting up bn1_0
I0316 09:15:02.713582 11765 net.cpp:148] Top shape: 50 32 75 75 (9000000)
I0316 09:15:02.713587 11765 net.cpp:156] Memory required for data: 390918200
I0316 09:15:02.713598 11765 layer_factory.hpp:77] Creating layer scale1_0
I0316 09:15:02.713615 11765 net.cpp:91] Creating Layer scale1_0
I0316 09:15:02.713621 11765 net.cpp:425] scale1_0 <- bn1_0
I0316 09:15:02.713656 11765 net.cpp:399] scale1_0 -> scale1_0
I0316 09:15:02.713721 11765 layer_factory.hpp:77] Creating layer scale1_0
I0316 09:15:02.713877 11765 net.cpp:141] Setting up scale1_0
I0316 09:15:02.713888 11765 net.cpp:148] Top shape: 50 32 75 75 (9000000)
I0316 09:15:02.713892 11765 net.cpp:156] Memory required for data: 426918200
I0316 09:15:02.713909 11765 layer_factory.hpp:77] Creating layer relu1_0
I0316 09:15:02.713917 11765 net.cpp:91] Creating Layer relu1_0
I0316 09:15:02.713923 11765 net.cpp:425] relu1_0 <- scale1_0
I0316 09:15:02.713930 11765 net.cpp:399] relu1_0 -> relu1_0
I0316 09:15:02.713964 11765 net.cpp:141] Setting up relu1_0
I0316 09:15:02.713973 11765 net.cpp:148] Top shape: 50 32 75 75 (9000000)
I0316 09:15:02.713977 11765 net.cpp:156] Memory required for data: 462918200
I0316 09:15:02.713982 11765 layer_factory.hpp:77] Creating layer conv2
I0316 09:15:02.714002 11765 net.cpp:91] Creating Layer conv2
I0316 09:15:02.714009 11765 net.cpp:425] conv2 <- relu1_0
I0316 09:15:02.714023 11765 net.cpp:399] conv2 -> conv2
I0316 09:15:02.714661 11765 net.cpp:141] Setting up conv2
I0316 09:15:02.714673 11765 net.cpp:148] Top shape: 50 32 75 75 (9000000)
I0316 09:15:02.714678 11765 net.cpp:156] Memory required for data: 498918200
I0316 09:15:02.714694 11765 layer_factory.hpp:77] Creating layer bn2
I0316 09:15:02.714704 11765 net.cpp:91] Creating Layer bn2
I0316 09:15:02.714709 11765 net.cpp:425] bn2 <- conv2
I0316 09:15:02.714717 11765 net.cpp:399] bn2 -> bn2
I0316 09:15:02.714952 11765 net.cpp:141] Setting up bn2
I0316 09:15:02.714963 11765 net.cpp:148] Top shape: 50 32 75 75 (9000000)
I0316 09:15:02.714967 11765 net.cpp:156] Memory required for data: 534918200
I0316 09:15:02.714984 11765 layer_factory.hpp:77] Creating layer scale2
I0316 09:15:02.714994 11765 net.cpp:91] Creating Layer scale2
I0316 09:15:02.714999 11765 net.cpp:425] scale2 <- bn2
I0316 09:15:02.715008 11765 net.cpp:399] scale2 -> scale2
I0316 09:15:02.715057 11765 layer_factory.hpp:77] Creating layer scale2
I0316 09:15:02.715198 11765 net.cpp:141] Setting up scale2
I0316 09:15:02.715207 11765 net.cpp:148] Top shape: 50 32 75 75 (9000000)
I0316 09:15:02.715212 11765 net.cpp:156] Memory required for data: 570918200
I0316 09:15:02.715220 11765 layer_factory.hpp:77] Creating layer relu2
I0316 09:15:02.715229 11765 net.cpp:91] Creating Layer relu2
I0316 09:15:02.715234 11765 net.cpp:425] relu2 <- scale2
I0316 09:15:02.715240 11765 net.cpp:399] relu2 -> relu2
I0316 09:15:02.715276 11765 net.cpp:141] Setting up relu2
I0316 09:15:02.715284 11765 net.cpp:148] Top shape: 50 32 75 75 (9000000)
I0316 09:15:02.715289 11765 net.cpp:156] Memory required for data: 606918200
I0316 09:15:02.715294 11765 layer_factory.hpp:77] Creating layer conv2_1
I0316 09:15:02.715306 11765 net.cpp:91] Creating Layer conv2_1
I0316 09:15:02.715312 11765 net.cpp:425] conv2_1 <- relu2
I0316 09:15:02.715319 11765 net.cpp:399] conv2_1 -> conv2_1
I0316 09:15:02.715945 11765 net.cpp:141] Setting up conv2_1
I0316 09:15:02.715956 11765 net.cpp:148] Top shape: 50 32 75 75 (9000000)
I0316 09:15:02.715961 11765 net.cpp:156] Memory required for data: 642918200
I0316 09:15:02.715970 11765 layer_factory.hpp:77] Creating layer bn2_1
I0316 09:15:02.715981 11765 net.cpp:91] Creating Layer bn2_1
I0316 09:15:02.715986 11765 net.cpp:425] bn2_1 <- conv2_1
I0316 09:15:02.715994 11765 net.cpp:399] bn2_1 -> bn2_1
I0316 09:15:02.716223 11765 net.cpp:141] Setting up bn2_1
I0316 09:15:02.716233 11765 net.cpp:148] Top shape: 50 32 75 75 (9000000)
I0316 09:15:02.716238 11765 net.cpp:156] Memory required for data: 678918200
I0316 09:15:02.716254 11765 layer_factory.hpp:77] Creating layer scale2_1
I0316 09:15:02.716264 11765 net.cpp:91] Creating Layer scale2_1
I0316 09:15:02.716271 11765 net.cpp:425] scale2_1 <- bn2_1
I0316 09:15:02.716279 11765 net.cpp:399] scale2_1 -> scale2_1
I0316 09:15:02.716331 11765 layer_factory.hpp:77] Creating layer scale2_1
I0316 09:15:02.717052 11765 net.cpp:141] Setting up scale2_1
I0316 09:15:02.717079 11765 net.cpp:148] Top shape: 50 32 75 75 (9000000)
I0316 09:15:02.717102 11765 net.cpp:156] Memory required for data: 714918200
I0316 09:15:02.717119 11765 layer_factory.hpp:77] Creating layer relu2_1
I0316 09:15:02.717129 11765 net.cpp:91] Creating Layer relu2_1
I0316 09:15:02.717134 11765 net.cpp:425] relu2_1 <- scale2_1
I0316 09:15:02.717144 11765 net.cpp:399] relu2_1 -> relu2_1
I0316 09:15:02.717185 11765 net.cpp:141] Setting up relu2_1
I0316 09:15:02.717192 11765 net.cpp:148] Top shape: 50 32 75 75 (9000000)
I0316 09:15:02.717197 11765 net.cpp:156] Memory required for data: 750918200
I0316 09:15:02.717202 11765 layer_factory.hpp:77] Creating layer pool2_1
I0316 09:15:02.717212 11765 net.cpp:91] Creating Layer pool2_1
I0316 09:15:02.717219 11765 net.cpp:425] pool2_1 <- relu2_1
I0316 09:15:02.717226 11765 net.cpp:399] pool2_1 -> pool2_1
I0316 09:15:02.717274 11765 net.cpp:141] Setting up pool2_1
I0316 09:15:02.717283 11765 net.cpp:148] Top shape: 50 32 38 38 (2310400)
I0316 09:15:02.717288 11765 net.cpp:156] Memory required for data: 760159800
I0316 09:15:02.717293 11765 layer_factory.hpp:77] Creating layer conv2_2
I0316 09:15:02.717310 11765 net.cpp:91] Creating Layer conv2_2
I0316 09:15:02.717316 11765 net.cpp:425] conv2_2 <- pool2_1
I0316 09:15:02.717331 11765 net.cpp:399] conv2_2 -> conv2_2
I0316 09:15:02.717991 11765 net.cpp:141] Setting up conv2_2
I0316 09:15:02.718003 11765 net.cpp:148] Top shape: 50 32 38 38 (2310400)
I0316 09:15:02.718008 11765 net.cpp:156] Memory required for data: 769401400
I0316 09:15:02.718024 11765 layer_factory.hpp:77] Creating layer bn2_2
I0316 09:15:02.718035 11765 net.cpp:91] Creating Layer bn2_2
I0316 09:15:02.718041 11765 net.cpp:425] bn2_2 <- conv2_2
I0316 09:15:02.718050 11765 net.cpp:399] bn2_2 -> bn2_2
I0316 09:15:02.718279 11765 net.cpp:141] Setting up bn2_2
I0316 09:15:02.718289 11765 net.cpp:148] Top shape: 50 32 38 38 (2310400)
I0316 09:15:02.718294 11765 net.cpp:156] Memory required for data: 778643000
I0316 09:15:02.718308 11765 layer_factory.hpp:77] Creating layer scale2_2
I0316 09:15:02.718318 11765 net.cpp:91] Creating Layer scale2_2
I0316 09:15:02.718323 11765 net.cpp:425] scale2_2 <- bn2_2
I0316 09:15:02.718331 11765 net.cpp:399] scale2_2 -> scale2_2
I0316 09:15:02.718384 11765 layer_factory.hpp:77] Creating layer scale2_2
I0316 09:15:02.718518 11765 net.cpp:141] Setting up scale2_2
I0316 09:15:02.718528 11765 net.cpp:148] Top shape: 50 32 38 38 (2310400)
I0316 09:15:02.718533 11765 net.cpp:156] Memory required for data: 787884600
I0316 09:15:02.718541 11765 layer_factory.hpp:77] Creating layer relu2_2
I0316 09:15:02.718550 11765 net.cpp:91] Creating Layer relu2_2
I0316 09:15:02.718555 11765 net.cpp:425] relu2_2 <- scale2_2
I0316 09:15:02.718562 11765 net.cpp:399] relu2_2 -> relu2_2
I0316 09:15:02.718587 11765 net.cpp:141] Setting up relu2_2
I0316 09:15:02.718596 11765 net.cpp:148] Top shape: 50 32 38 38 (2310400)
I0316 09:15:02.718601 11765 net.cpp:156] Memory required for data: 797126200
I0316 09:15:02.718605 11765 layer_factory.hpp:77] Creating layer conv3
I0316 09:15:02.718623 11765 net.cpp:91] Creating Layer conv3
I0316 09:15:02.718629 11765 net.cpp:425] conv3 <- relu2_2
I0316 09:15:02.718644 11765 net.cpp:399] conv3 -> conv3
I0316 09:15:02.718983 11765 net.cpp:141] Setting up conv3
I0316 09:15:02.718994 11765 net.cpp:148] Top shape: 50 32 38 38 (2310400)
I0316 09:15:02.718999 11765 net.cpp:156] Memory required for data: 806367800
I0316 09:15:02.719015 11765 layer_factory.hpp:77] Creating layer bn3
I0316 09:15:02.719027 11765 net.cpp:91] Creating Layer bn3
I0316 09:15:02.719033 11765 net.cpp:425] bn3 <- conv3
I0316 09:15:02.719048 11765 net.cpp:399] bn3 -> bn3
I0316 09:15:02.719269 11765 net.cpp:141] Setting up bn3
I0316 09:15:02.719279 11765 net.cpp:148] Top shape: 50 32 38 38 (2310400)
I0316 09:15:02.719283 11765 net.cpp:156] Memory required for data: 815609400
I0316 09:15:02.719295 11765 layer_factory.hpp:77] Creating layer scale3
I0316 09:15:02.719305 11765 net.cpp:91] Creating Layer scale3
I0316 09:15:02.719310 11765 net.cpp:425] scale3 <- bn3
I0316 09:15:02.719318 11765 net.cpp:399] scale3 -> scale3
I0316 09:15:02.719372 11765 layer_factory.hpp:77] Creating layer scale3
I0316 09:15:02.719519 11765 net.cpp:141] Setting up scale3
I0316 09:15:02.719529 11765 net.cpp:148] Top shape: 50 32 38 38 (2310400)
I0316 09:15:02.719534 11765 net.cpp:156] Memory required for data: 824851000
I0316 09:15:02.719543 11765 layer_factory.hpp:77] Creating layer relu3
I0316 09:15:02.719553 11765 net.cpp:91] Creating Layer relu3
I0316 09:15:02.719558 11765 net.cpp:425] relu3 <- scale3
I0316 09:15:02.719564 11765 net.cpp:399] relu3 -> relu3
I0316 09:15:02.719604 11765 net.cpp:141] Setting up relu3
I0316 09:15:02.719614 11765 net.cpp:148] Top shape: 50 32 38 38 (2310400)
I0316 09:15:02.719619 11765 net.cpp:156] Memory required for data: 834092600
I0316 09:15:02.719624 11765 layer_factory.hpp:77] Creating layer conv4
I0316 09:15:02.719633 11765 net.cpp:91] Creating Layer conv4
I0316 09:15:02.719640 11765 net.cpp:425] conv4 <- relu3
I0316 09:15:02.719655 11765 net.cpp:399] conv4 -> conv4
I0316 09:15:02.720087 11765 net.cpp:141] Setting up conv4
I0316 09:15:02.720098 11765 net.cpp:148] Top shape: 50 64 38 38 (4620800)
I0316 09:15:02.720101 11765 net.cpp:156] Memory required for data: 852575800
I0316 09:15:02.720118 11765 layer_factory.hpp:77] Creating layer pool4
I0316 09:15:02.720127 11765 net.cpp:91] Creating Layer pool4
I0316 09:15:02.720132 11765 net.cpp:425] pool4 <- conv4
I0316 09:15:02.720141 11765 net.cpp:399] pool4 -> pool4
I0316 09:15:02.720181 11765 net.cpp:141] Setting up pool4
I0316 09:15:02.720191 11765 net.cpp:148] Top shape: 50 64 19 19 (1155200)
I0316 09:15:02.720196 11765 net.cpp:156] Memory required for data: 857196600
I0316 09:15:02.720201 11765 layer_factory.hpp:77] Creating layer bn4
I0316 09:15:02.720216 11765 net.cpp:91] Creating Layer bn4
I0316 09:15:02.720221 11765 net.cpp:425] bn4 <- pool4
I0316 09:15:02.720228 11765 net.cpp:399] bn4 -> bn4
I0316 09:15:02.720463 11765 net.cpp:141] Setting up bn4
I0316 09:15:02.720474 11765 net.cpp:148] Top shape: 50 64 19 19 (1155200)
I0316 09:15:02.720479 11765 net.cpp:156] Memory required for data: 861817400
I0316 09:15:02.720495 11765 layer_factory.hpp:77] Creating layer scale4
I0316 09:15:02.720504 11765 net.cpp:91] Creating Layer scale4
I0316 09:15:02.720510 11765 net.cpp:425] scale4 <- bn4
I0316 09:15:02.720525 11765 net.cpp:399] scale4 -> scale4
I0316 09:15:02.720576 11765 layer_factory.hpp:77] Creating layer scale4
I0316 09:15:02.720705 11765 net.cpp:141] Setting up scale4
I0316 09:15:02.720715 11765 net.cpp:148] Top shape: 50 64 19 19 (1155200)
I0316 09:15:02.720721 11765 net.cpp:156] Memory required for data: 866438200
I0316 09:15:02.720728 11765 layer_factory.hpp:77] Creating layer relu4
I0316 09:15:02.720736 11765 net.cpp:91] Creating Layer relu4
I0316 09:15:02.720749 11765 net.cpp:425] relu4 <- scale4
I0316 09:15:02.720757 11765 net.cpp:399] relu4 -> relu4
I0316 09:15:02.720788 11765 net.cpp:141] Setting up relu4
I0316 09:15:02.720798 11765 net.cpp:148] Top shape: 50 64 19 19 (1155200)
I0316 09:15:02.720803 11765 net.cpp:156] Memory required for data: 871059000
I0316 09:15:02.720808 11765 layer_factory.hpp:77] Creating layer conv4_1
I0316 09:15:02.720821 11765 net.cpp:91] Creating Layer conv4_1
I0316 09:15:02.720829 11765 net.cpp:425] conv4_1 <- relu4
I0316 09:15:02.720836 11765 net.cpp:399] conv4_1 -> conv4_1
I0316 09:15:02.721454 11765 net.cpp:141] Setting up conv4_1
I0316 09:15:02.721467 11765 net.cpp:148] Top shape: 50 64 19 19 (1155200)
I0316 09:15:02.721472 11765 net.cpp:156] Memory required for data: 875679800
I0316 09:15:02.721480 11765 layer_factory.hpp:77] Creating layer bn4_1
I0316 09:15:02.721490 11765 net.cpp:91] Creating Layer bn4_1
I0316 09:15:02.721496 11765 net.cpp:425] bn4_1 <- conv4_1
I0316 09:15:02.721503 11765 net.cpp:399] bn4_1 -> bn4_1
I0316 09:15:02.721737 11765 net.cpp:141] Setting up bn4_1
I0316 09:15:02.721747 11765 net.cpp:148] Top shape: 50 64 19 19 (1155200)
I0316 09:15:02.721752 11765 net.cpp:156] Memory required for data: 880300600
I0316 09:15:02.721768 11765 layer_factory.hpp:77] Creating layer scale4_1
I0316 09:15:02.721778 11765 net.cpp:91] Creating Layer scale4_1
I0316 09:15:02.721801 11765 net.cpp:425] scale4_1 <- bn4_1
I0316 09:15:02.721817 11765 net.cpp:399] scale4_1 -> scale4_1
I0316 09:15:02.721873 11765 layer_factory.hpp:77] Creating layer scale4_1
I0316 09:15:02.722005 11765 net.cpp:141] Setting up scale4_1
I0316 09:15:02.722014 11765 net.cpp:148] Top shape: 50 64 19 19 (1155200)
I0316 09:15:02.722019 11765 net.cpp:156] Memory required for data: 884921400
I0316 09:15:02.722029 11765 layer_factory.hpp:77] Creating layer relu4_1
I0316 09:15:02.722038 11765 net.cpp:91] Creating Layer relu4_1
I0316 09:15:02.722043 11765 net.cpp:425] relu4_1 <- scale4_1
I0316 09:15:02.722051 11765 net.cpp:399] relu4_1 -> relu4_1
I0316 09:15:02.722084 11765 net.cpp:141] Setting up relu4_1
I0316 09:15:02.722093 11765 net.cpp:148] Top shape: 50 64 19 19 (1155200)
I0316 09:15:02.722097 11765 net.cpp:156] Memory required for data: 889542200
I0316 09:15:02.722102 11765 layer_factory.hpp:77] Creating layer conv4_2
I0316 09:15:02.722113 11765 net.cpp:91] Creating Layer conv4_2
I0316 09:15:02.722120 11765 net.cpp:425] conv4_2 <- relu4_1
I0316 09:15:02.722134 11765 net.cpp:399] conv4_2 -> conv4_2
I0316 09:15:02.722753 11765 net.cpp:141] Setting up conv4_2
I0316 09:15:02.722764 11765 net.cpp:148] Top shape: 50 64 19 19 (1155200)
I0316 09:15:02.722769 11765 net.cpp:156] Memory required for data: 894163000
I0316 09:15:02.722776 11765 layer_factory.hpp:77] Creating layer bn4_2
I0316 09:15:02.722786 11765 net.cpp:91] Creating Layer bn4_2
I0316 09:15:02.722793 11765 net.cpp:425] bn4_2 <- conv4_2
I0316 09:15:02.722801 11765 net.cpp:399] bn4_2 -> bn4_2
I0316 09:15:02.723029 11765 net.cpp:141] Setting up bn4_2
I0316 09:15:02.723040 11765 net.cpp:148] Top shape: 50 64 19 19 (1155200)
I0316 09:15:02.723045 11765 net.cpp:156] Memory required for data: 898783800
I0316 09:15:02.723054 11765 layer_factory.hpp:77] Creating layer scale4_2
I0316 09:15:02.723062 11765 net.cpp:91] Creating Layer scale4_2
I0316 09:15:02.723068 11765 net.cpp:425] scale4_2 <- bn4_2
I0316 09:15:02.723074 11765 net.cpp:399] scale4_2 -> scale4_2
I0316 09:15:02.723126 11765 layer_factory.hpp:77] Creating layer scale4_2
I0316 09:15:02.723251 11765 net.cpp:141] Setting up scale4_2
I0316 09:15:02.723260 11765 net.cpp:148] Top shape: 50 64 19 19 (1155200)
I0316 09:15:02.723265 11765 net.cpp:156] Memory required for data: 903404600
I0316 09:15:02.723281 11765 layer_factory.hpp:77] Creating layer relu4_2
I0316 09:15:02.723290 11765 net.cpp:91] Creating Layer relu4_2
I0316 09:15:02.723295 11765 net.cpp:425] relu4_2 <- scale4_2
I0316 09:15:02.723302 11765 net.cpp:399] relu4_2 -> relu4_2
I0316 09:15:02.723335 11765 net.cpp:141] Setting up relu4_2
I0316 09:15:02.723345 11765 net.cpp:148] Top shape: 50 64 19 19 (1155200)
I0316 09:15:02.723350 11765 net.cpp:156] Memory required for data: 908025400
I0316 09:15:02.723353 11765 layer_factory.hpp:77] Creating layer pool4_2
I0316 09:15:02.723362 11765 net.cpp:91] Creating Layer pool4_2
I0316 09:15:02.723367 11765 net.cpp:425] pool4_2 <- relu4_2
I0316 09:15:02.723376 11765 net.cpp:399] pool4_2 -> pool4_2
I0316 09:15:02.723423 11765 net.cpp:141] Setting up pool4_2
I0316 09:15:02.723430 11765 net.cpp:148] Top shape: 50 64 10 10 (320000)
I0316 09:15:02.723435 11765 net.cpp:156] Memory required for data: 909305400
I0316 09:15:02.723439 11765 layer_factory.hpp:77] Creating layer conv4_0
I0316 09:15:02.723450 11765 net.cpp:91] Creating Layer conv4_0
I0316 09:15:02.723458 11765 net.cpp:425] conv4_0 <- pool4_2
I0316 09:15:02.723472 11765 net.cpp:399] conv4_0 -> conv4_0
I0316 09:15:02.725035 11765 net.cpp:141] Setting up conv4_0
I0316 09:15:02.725064 11765 net.cpp:148] Top shape: 50 128 10 10 (640000)
I0316 09:15:02.725069 11765 net.cpp:156] Memory required for data: 911865400
I0316 09:15:02.725090 11765 layer_factory.hpp:77] Creating layer bn4_0
I0316 09:15:02.725102 11765 net.cpp:91] Creating Layer bn4_0
I0316 09:15:02.725111 11765 net.cpp:425] bn4_0 <- conv4_0
I0316 09:15:02.725126 11765 net.cpp:399] bn4_0 -> bn4_0
I0316 09:15:02.725347 11765 net.cpp:141] Setting up bn4_0
I0316 09:15:02.725356 11765 net.cpp:148] Top shape: 50 128 10 10 (640000)
I0316 09:15:02.725378 11765 net.cpp:156] Memory required for data: 914425400
I0316 09:15:02.725396 11765 layer_factory.hpp:77] Creating layer scale4_0
I0316 09:15:02.725407 11765 net.cpp:91] Creating Layer scale4_0
I0316 09:15:02.725437 11765 net.cpp:425] scale4_0 <- bn4_0
I0316 09:15:02.725447 11765 net.cpp:399] scale4_0 -> scale4_0
I0316 09:15:02.725505 11765 layer_factory.hpp:77] Creating layer scale4_0
I0316 09:15:02.725625 11765 net.cpp:141] Setting up scale4_0
I0316 09:15:02.725635 11765 net.cpp:148] Top shape: 50 128 10 10 (640000)
I0316 09:15:02.725639 11765 net.cpp:156] Memory required for data: 916985400
I0316 09:15:02.725648 11765 layer_factory.hpp:77] Creating layer relu4_0
I0316 09:15:02.725657 11765 net.cpp:91] Creating Layer relu4_0
I0316 09:15:02.725662 11765 net.cpp:425] relu4_0 <- scale4_0
I0316 09:15:02.725672 11765 net.cpp:399] relu4_0 -> relu4_0
I0316 09:15:02.725697 11765 net.cpp:141] Setting up relu4_0
I0316 09:15:02.725705 11765 net.cpp:148] Top shape: 50 128 10 10 (640000)
I0316 09:15:02.725710 11765 net.cpp:156] Memory required for data: 919545400
I0316 09:15:02.725714 11765 layer_factory.hpp:77] Creating layer cccp4
I0316 09:15:02.725734 11765 net.cpp:91] Creating Layer cccp4
I0316 09:15:02.725741 11765 net.cpp:425] cccp4 <- relu4_0
I0316 09:15:02.725757 11765 net.cpp:399] cccp4 -> cccp4
I0316 09:15:02.726308 11765 net.cpp:141] Setting up cccp4
I0316 09:15:02.726320 11765 net.cpp:148] Top shape: 50 256 10 10 (1280000)
I0316 09:15:02.726325 11765 net.cpp:156] Memory required for data: 924665400
I0316 09:15:02.726341 11765 layer_factory.hpp:77] Creating layer relu_cccp4
I0316 09:15:02.726349 11765 net.cpp:91] Creating Layer relu_cccp4
I0316 09:15:02.726354 11765 net.cpp:425] relu_cccp4 <- cccp4
I0316 09:15:02.726361 11765 net.cpp:386] relu_cccp4 -> cccp4 (in-place)
I0316 09:15:02.726369 11765 net.cpp:141] Setting up relu_cccp4
I0316 09:15:02.726375 11765 net.cpp:148] Top shape: 50 256 10 10 (1280000)
I0316 09:15:02.726382 11765 net.cpp:156] Memory required for data: 929785400
I0316 09:15:02.726387 11765 layer_factory.hpp:77] Creating layer cccp5
I0316 09:15:02.726404 11765 net.cpp:91] Creating Layer cccp5
I0316 09:15:02.726411 11765 net.cpp:425] cccp5 <- cccp4
I0316 09:15:02.726418 11765 net.cpp:399] cccp5 -> cccp5
I0316 09:15:02.726814 11765 net.cpp:141] Setting up cccp5
I0316 09:15:02.726825 11765 net.cpp:148] Top shape: 50 64 10 10 (320000)
I0316 09:15:02.726830 11765 net.cpp:156] Memory required for data: 931065400
I0316 09:15:02.726840 11765 layer_factory.hpp:77] Creating layer relu_cccp5
I0316 09:15:02.726847 11765 net.cpp:91] Creating Layer relu_cccp5
I0316 09:15:02.726852 11765 net.cpp:425] relu_cccp5 <- cccp5
I0316 09:15:02.726858 11765 net.cpp:386] relu_cccp5 -> cccp5 (in-place)
I0316 09:15:02.726867 11765 net.cpp:141] Setting up relu_cccp5
I0316 09:15:02.726873 11765 net.cpp:148] Top shape: 50 64 10 10 (320000)
I0316 09:15:02.726879 11765 net.cpp:156] Memory required for data: 932345400
I0316 09:15:02.726884 11765 layer_factory.hpp:77] Creating layer poolcp5
I0316 09:15:02.726899 11765 net.cpp:91] Creating Layer poolcp5
I0316 09:15:02.726905 11765 net.cpp:425] poolcp5 <- cccp5
I0316 09:15:02.726912 11765 net.cpp:399] poolcp5 -> poolcp5
I0316 09:15:02.726958 11765 net.cpp:141] Setting up poolcp5
I0316 09:15:02.726968 11765 net.cpp:148] Top shape: 50 64 5 5 (80000)
I0316 09:15:02.726971 11765 net.cpp:156] Memory required for data: 932665400
I0316 09:15:02.726976 11765 layer_factory.hpp:77] Creating layer cccp6
I0316 09:15:02.726987 11765 net.cpp:91] Creating Layer cccp6
I0316 09:15:02.726994 11765 net.cpp:425] cccp6 <- poolcp5
I0316 09:15:02.727010 11765 net.cpp:399] cccp6 -> cccp6
I0316 09:15:02.727584 11765 net.cpp:141] Setting up cccp6
I0316 09:15:02.727596 11765 net.cpp:148] Top shape: 50 64 5 5 (80000)
I0316 09:15:02.727599 11765 net.cpp:156] Memory required for data: 932985400
I0316 09:15:02.727608 11765 layer_factory.hpp:77] Creating layer relu_cccp6
I0316 09:15:02.727617 11765 net.cpp:91] Creating Layer relu_cccp6
I0316 09:15:02.727623 11765 net.cpp:425] relu_cccp6 <- cccp6
I0316 09:15:02.727644 11765 net.cpp:386] relu_cccp6 -> cccp6 (in-place)
I0316 09:15:02.727660 11765 net.cpp:141] Setting up relu_cccp6
I0316 09:15:02.727668 11765 net.cpp:148] Top shape: 50 64 5 5 (80000)
I0316 09:15:02.727672 11765 net.cpp:156] Memory required for data: 933305400
I0316 09:15:02.727677 11765 layer_factory.hpp:77] Creating layer poolcp6
I0316 09:15:02.727692 11765 net.cpp:91] Creating Layer poolcp6
I0316 09:15:02.727699 11765 net.cpp:425] poolcp6 <- cccp6
I0316 09:15:02.727705 11765 net.cpp:399] poolcp6 -> poolcp6
I0316 09:15:02.727756 11765 net.cpp:141] Setting up poolcp6
I0316 09:15:02.727766 11765 net.cpp:148] Top shape: 50 64 1 1 (3200)
I0316 09:15:02.727771 11765 net.cpp:156] Memory required for data: 933318200
I0316 09:15:02.727774 11765 layer_factory.hpp:77] Creating layer ip1
I0316 09:15:02.727792 11765 net.cpp:91] Creating Layer ip1
I0316 09:15:02.727797 11765 net.cpp:425] ip1 <- poolcp6
I0316 09:15:02.727804 11765 net.cpp:399] ip1 -> ip1
I0316 09:15:02.728499 11765 net.cpp:141] Setting up ip1
I0316 09:15:02.728510 11765 net.cpp:148] Top shape: 50 1000 (50000)
I0316 09:15:02.728515 11765 net.cpp:156] Memory required for data: 933518200
I0316 09:15:02.728531 11765 layer_factory.hpp:77] Creating layer ip1_ip1_0_split
I0316 09:15:02.728540 11765 net.cpp:91] Creating Layer ip1_ip1_0_split
I0316 09:15:02.728545 11765 net.cpp:425] ip1_ip1_0_split <- ip1
I0316 09:15:02.728554 11765 net.cpp:399] ip1_ip1_0_split -> ip1_ip1_0_split_0
I0316 09:15:02.728561 11765 net.cpp:399] ip1_ip1_0_split -> ip1_ip1_0_split_1
I0316 09:15:02.728571 11765 net.cpp:399] ip1_ip1_0_split -> ip1_ip1_0_split_2
I0316 09:15:02.728632 11765 net.cpp:141] Setting up ip1_ip1_0_split
I0316 09:15:02.728641 11765 net.cpp:148] Top shape: 50 1000 (50000)
I0316 09:15:02.728646 11765 net.cpp:148] Top shape: 50 1000 (50000)
I0316 09:15:02.728653 11765 net.cpp:148] Top shape: 50 1000 (50000)
I0316 09:15:02.728658 11765 net.cpp:156] Memory required for data: 934118200
I0316 09:15:02.728662 11765 layer_factory.hpp:77] Creating layer loss
I0316 09:15:02.728670 11765 net.cpp:91] Creating Layer loss
I0316 09:15:02.728688 11765 net.cpp:425] loss <- ip1_ip1_0_split_0
I0316 09:15:02.728695 11765 net.cpp:425] loss <- label_data_1_split_0
I0316 09:15:02.728701 11765 net.cpp:399] loss -> loss
…
