…
I0930 04:42:43.914649 15120 net.cpp:313] The NetState phase (0) differed from the phase (1) specified by a rule in layer bn_cccp6
I0930 04:42:43.914649 15120 net.cpp:313] The NetState phase (0) differed from the phase (1) specified by a rule in layer accuracy
I0930 04:42:43.914649 15120 net.cpp:49] Initializing net from parameters: 
name: "CIFAR100_full"
state {
  phase: TRAIN
}
layer {
  name: "cifar"
  type: "Data"
  top: "data"
  top: "label_fine"
  include {
    phase: TRAIN
  }
  transform_param {
    mirror: true
    crop_size: 32
  }
  data_param {
    source: "examples/cifar100/cifar100_train_leveldb_padding"
    batch_size: 50
    backend: LEVELDB
  }
}
layer {
  name: "conv1"
  type: "Convolution"
  bottom: "data"
  top: "conv1"
  param {
    lr_mult: 1
  }
  convolution_param {
    num_output: 64
    bias_term: true
    pad: 1
    kernel_size: 3
    stride: 1
    weight_filler {
      type: "xavier"
    }
  }
}
layer {
  name: "bn1"
  type: "BatchNorm"
  bottom: "conv1"
  top: "bn1"
  param {
    lr_mult: 0
    decay_mult: 0
  }
  param {
    lr_mult: 0
    decay_mult: 0
  }
  param {
    lr_mult: 0
    decay_mult: 0
  }
  include {
    phase: TRAIN
  }
  batch_norm_param {
    use_global_stats: false
    moving_average_fraction: 0.95
  }
}
layer {
  name: "scale1"
  type: "Scale"
  bottom: "bn1"
  top: "scale1"
  scale_param {
    bias_term: true
  }
}
layer {
  name: "relu1"
  type: "ReLU"
  bottom: "scale1"
  top: "scale1"
}
layer {
  name: "conv1_0"
  type: "Convolution"
  bottom: "scale1"
  top: "conv1_0"
  param {
    lr_mult: 1
  }
  convolution_param {
    num_output: 128
    bias_term: true
    pad: 1
    kernel_size: 3
    stride: 1
    weight_filler {
      type: "xavier"
    }
  }
}
layer {
  name: "bn1_0"
  type: "BatchNorm"
  bottom: "conv1_0"
  top: "bn1_0"
  param {
    lr_mult: 0
    decay_mult: 0
  }
  param {
    lr_mult: 0
    decay_mult: 0
  }
  param {
    lr_mult: 0
    decay_mult: 0
  }
  include {
    phase: TRAIN
  }
  batch_norm_param {
    use_global_stats: false
    moving_average_fraction: 0.95
  }
}
layer {
  name: "scale1_0"
  type: "Scale"
  bottom: "bn1_0"
  top: "scale1_0"
  scale_param {
    bias_term: true
  }
}
layer {
  name: "relu1_0"
  type: "ReLU"
  bottom: "scale1_0"
  top: "scale1_0"
}
layer {
  name: "conv2"
  type: "Convolution"
  bottom: "scale1_0"
  top: "conv2"
  param {
    lr_mult: 1
  }
  convolution_param {
    num_output: 128
    bias_term: true
    pad: 1
    kernel_size: 3
    stride: 1
    weight_filler {
      type: "gaussian"
      std: 0.01
    }
  }
}
layer {
  name: "bn2"
  type: "BatchNorm"
  bottom: "conv2"
  top: "bn2"
  param {
    lr_mult: 0
    decay_mult: 0
  }
  param {
    lr_mult: 0
    decay_mult: 0
  }
  param {
    lr_mult: 0
    decay_mult: 0
  }
  include {
    phase: TRAIN
  }
  batch_norm_param {
    use_global_stats: false
    moving_average_fraction: 0.95
  }
}
layer {
  name: "scale2"
  type: "Scale"
  bottom: "bn2"
  top: "scale2"
  scale_param {
    bias_term: true
  }
}
layer {
  name: "relu2"
  type: "ReLU"
  bottom: "scale2"
  top: "scale2"
}
layer {
  name: "conv2_1"
  type: "Convolution"
  bottom: "scale2"
  top: "conv2_1"
  param {
    lr_mult: 1
  }
  convolution_param {
    num_output: 128
    bias_term: true
    pad: 1
    kernel_size: 3
    stride: 1
    weight_filler {
      type: "gaussian"
      std: 0.01
    }
  }
}
layer {
  name: "bn2_1"
  type: "BatchNorm"
  bottom: "conv2_1"
  top: "bn2_1"
  param {
    lr_mult: 0
    decay_mult: 0
  }
  param {
    lr_mult: 0
    decay_mult: 0
  }
  param {
    lr_mult: 0
    decay_mult: 0
  }
  include {
    phase: TRAIN
  }
  batch_norm_param {
    use_global_stats: false
    moving_average_fraction: 0.95
  }
}
layer {
  name: "scale2_1"
  type: "Scale"
  bottom: "bn2_1"
  top: "scale2_1"
  scale_param {
    bias_term: true
  }
}
layer {
  name: "relu2_1"
  type: "ReLU"
  bottom: "scale2_1"
  top: "scale2_1"
}
layer {
  name: "pool2_1"
  type: "Pooling"
  bottom: "scale2_1"
  top: "pool2_1"
  pooling_param {
    pool: MAX
    kernel_size: 2
    stride: 2
  }
}
layer {
  name: "conv2_2"
  type: "Convolution"
  bottom: "pool2_1"
  top: "conv2_2"
  param {
    lr_mult: 1
  }
  convolution_param {
    num_output: 256
    bias_term: true
    pad: 1
    kernel_size: 3
    stride: 1
    weight_filler {
      type: "gaussian"
      std: 0.01
    }
  }
}
layer {
  name: "bn2_2"
  type: "BatchNorm"
  bottom: "conv2_2"
  top: "bn2_2"
  param {
    lr_mult: 0
    decay_mult: 0
  }
  param {
    lr_mult: 0
    decay_mult: 0
  }
  param {
    lr_mult: 0
    decay_mult: 0
  }
  include {
    phase: TRAIN
  }
  batch_norm_param {
    use_global_stats: false
    moving_average_fraction: 0.95
  }
}
layer {
  name: "scale2_2"
  type: "Scale"
  bottom: "bn2_2"
  top: "scale2_2"
  scale_param {
    bias_term: true
  }
}
layer {
  name: "relu2_2"
  type: "ReLU"
  bottom: "scale2_2"
  top: "scale2_2"
}
layer {
  name: "conv3"
  type: "Convolution"
  bottom: "scale2_2"
  top: "conv3"
  param {
    lr_mult: 1
  }
  convolution_param {
    num_output: 256
    bias_term: true
    pad: 1
    kernel_size: 3
    stride: 1
    weight_filler {
      type: "xavier"
    }
  }
}
layer {
  name: "bn3"
  type: "BatchNorm"
  bottom: "conv3"
  top: "bn3"
  param {
    lr_mult: 0
    decay_mult: 0
  }
  param {
    lr_mult: 0
    decay_mult: 0
  }
  param {
    lr_mult: 0
    decay_mult: 0
  }
  include {
    phase: TRAIN
  }
  batch_norm_param {
    use_global_stats: false
    moving_average_fraction: 0.95
  }
}
layer {
  name: "scale3"
  type: "Scale"
  bottom: "bn3"
  top: "scale3"
  scale_param {
    bias_term: true
  }
}
layer {
  name: "relu3"
  type: "ReLU"
  bottom: "scale3"
  top: "scale3"
}
layer {
  name: "conv4"
  type: "Convolution"
  bottom: "scale3"
  top: "conv4"
  param {
    lr_mult: 1
  }
  convolution_param {
    num_output: 256
    bias_term: true
    pad: 1
    kernel_size: 3
    stride: 1
    weight_filler {
      type: "xavier"
    }
  }
}
layer {
  name: "pool4"
  type: "Pooling"
  bottom: "conv4"
  top: "pool4"
  pooling_param {
    pool: MAX
    kernel_size: 2
    stride: 2
  }
}
layer {
  name: "bn4"
  type: "BatchNorm"
  bottom: "pool4"
  top: "bn4"
  param {
    lr_mult: 0
    decay_mult: 0
  }
  param {
    lr_mult: 0
    decay_mult: 0
  }
  param {
    lr_mult: 0
    decay_mult: 0
  }
  include {
    phase: TRAIN
  }
  batch_norm_param {
    use_global_stats: false
    moving_average_fraction: 0.95
  }
}
layer {
  name: "scale4"
  type: "Scale"
  bottom: "bn4"
  top: "scale4"
  scale_param {
    bias_term: true
  }
}
layer {
  name: "relu4"
  type: "ReLU"
  bottom: "scale4"
  top: "scale4"
}
layer {
  name: "conv4_1"
  type: "Convolution"
  bottom: "scale4"
  top: "conv4_1"
  param {
    lr_mult: 1
  }
  convolution_param {
    num_output: 256
    bias_term: true
    pad: 1
    kernel_size: 3
    stride: 1
    weight_filler {
      type: "xavier"
    }
  }
}
layer {
  name: "bn4_1"
  type: "BatchNorm"
  bottom: "conv4_1"
  top: "bn4_1"
  param {
    lr_mult: 0
    decay_mult: 0
  }
  param {
    lr_mult: 0
    decay_mult: 0
  }
  param {
    lr_mult: 0
    decay_mult: 0
  }
  include {
    phase: TRAIN
  }
  batch_norm_param {
    use_global_stats: false
    moving_average_fraction: 0.95
  }
}
layer {
  name: "scale4_1"
  type: "Scale"
  bottom: "bn4_1"
  top: "scale4_1"
  scale_param {
    bias_term: true
  }
}
layer {
  name: "relu4_1"
  type: "ReLU"
  bottom: "scale4_1"
  top: "scale4_1"
}
layer {
  name: "conv4_2"
  type: "Convolution"
  bottom: "scale4_1"
  top: "conv4_2"
  param {
    lr_mult: 1
  }
  convolution_param {
    num_output: 256
    bias_term: true
    pad: 1
    kernel_size: 3
    stride: 1
    weight_filler {
      type: "xavier"
    }
  }
}
layer {
  name: "bn4_2"
  type: "BatchNorm"
  bottom: "conv4_2"
  top: "bn4_2"
  param {
    lr_mult: 0
    decay_mult: 0
  }
  param {
    lr_mult: 0
    decay_mult: 0
  }
  param {
    lr_mult: 0
    decay_mult: 0
  }
  include {
    phase: TRAIN
  }
  batch_norm_param {
    use_global_stats: false
    moving_average_fraction: 0.95
  }
}
layer {
  name: "scale4_2"
  type: "Scale"
  bottom: "bn4_2"
  top: "scale4_2"
  scale_param {
    bias_term: true
  }
}
layer {
  name: "relu4_2"
  type: "ReLU"
  bottom: "scale4_2"
  top: "scale4_2"
}
layer {
  name: "pool4_2"
  type: "Pooling"
  bottom: "scale4_2"
  top: "pool4_2"
  pooling_param {
    pool: MAX
    kernel_size: 2
    stride: 2
  }
}
layer {
  name: "conv4_0"
  type: "Convolution"
  bottom: "pool4_2"
  top: "conv4_0"
  param {
    lr_mult: 1
  }
  convolution_param {
    num_output: 512
    bias_term: true
    pad: 1
    kernel_size: 3
    stride: 1
    weight_filler {
      type: "xavier"
    }
  }
}
layer {
  name: "bn4_0"
  type: "BatchNorm"
  bottom: "conv4_0"
  top: "bn4_0"
  param {
    lr_mult: 0
    decay_mult: 0
  }
  param {
    lr_mult: 0
    decay_mult: 0
  }
  param {
    lr_mult: 0
    decay_mult: 0
  }
  include {
    phase: TRAIN
  }
  batch_norm_param {
    use_global_stats: false
    moving_average_fraction: 0.95
  }
}
layer {
  name: "scale4_0"
  type: "Scale"
  bottom: "bn4_0"
  top: "scale4_0"
  scale_param {
    bias_term: true
  }
}
layer {
  name: "relu4_0"
  type: "ReLU"
  bottom: "scale4_0"
  top: "scale4_0"
}
layer {
  name: "cccp4"
  type: "Convolution"
  bottom: "scale4_0"
  top: "cccp4"
  param {
    lr_mult: 1
    decay_mult: 1
  }
  param {
    lr_mult: 2
    decay_mult: 0
  }
  convolution_param {
    num_output: 2048
    kernel_size: 1
    group: 1
    weight_filler {
      type: "xavier"
    }
    bias_filler {
      type: "constant"
      value: 0
    }
  }
}
layer {
  name: "bn_cccp4"
  type: "BatchNorm"
  bottom: "cccp4"
  top: "bn_cccp4"
  param {
    lr_mult: 0
    decay_mult: 0
  }
  param {
    lr_mult: 0
    decay_mult: 0
  }
  param {
    lr_mult: 0
    decay_mult: 0
  }
  include {
    phase: TRAIN
  }
  batch_norm_param {
    use_global_stats: false
    moving_average_fraction: 0.95
  }
}
layer {
  name: "scale_ccp4"
  type: "Scale"
  bottom: "bn_cccp4"
  top: "scale_ccp4"
  scale_param {
    bias_term: true
  }
}
layer {
  name: "relu_cccp4"
  type: "ReLU"
  bottom: "scale_ccp4"
  top: "scale_ccp4"
}
layer {
  name: "cccp5"
  type: "Convolution"
  bottom: "scale_ccp4"
  top: "cccp5"
  param {
    lr_mult: 1
    decay_mult: 1
  }
  param {
    lr_mult: 2
    decay_mult: 0
  }
  convolution_param {
    num_output: 512
    kernel_size: 3
    group: 1
    weight_filler {
      type: "xavier"
    }
    bias_filler {
      type: "constant"
      value: 0
    }
  }
}
layer {
  name: "bn_cccp5"
  type: "BatchNorm"
  bottom: "cccp5"
  top: "bn_cccp5"
  param {
    lr_mult: 0
    decay_mult: 0
  }
  param {
    lr_mult: 0
    decay_mult: 0
  }
  param {
    lr_mult: 0
    decay_mult: 0
  }
  include {
    phase: TRAIN
  }
  batch_norm_param {
    use_global_stats: false
    moving_average_fraction: 0.95
  }
}
layer {
  name: "scale_ccp5"
  type: "Scale"
  bottom: "bn_cccp5"
  top: "scale_ccp5"
  scale_param {
    bias_term: true
  }
}
layer {
  name: "relu_cccp5"
  type: "ReLU"
  bottom: "scale_ccp5"
  top: "scale_ccp5"
}
layer {
  name: "poolcp5"
  type: "Pooling"
  bottom: "scale_ccp5"
  top: "poolcp5"
  pooling_param {
    pool: MAX
    kernel_size: 2
    stride: 2
  }
}
layer {
  name: "cccp6"
  type: "Convolution"
  bottom: "poolcp5"
  top: "cccp6"
  param {
    lr_mult: 1
    decay_mult: 1
  }
  param {
    lr_mult: 2
    decay_mult: 0
  }
  convolution_param {
    num_output: 512
    pad: 1
    kernel_size: 3
    group: 1
    weight_filler {
      type: "xavier"
    }
    bias_filler {
      type: "constant"
      value: 0
    }
  }
}
layer {
  name: "bn_cccp6"
  type: "BatchNorm"
  bottom: "cccp6"
  top: "bn_cccp6"
  param {
    lr_mult: 0
    decay_mult: 0
  }
  param {
    lr_mult: 0
    decay_mult: 0
  }
  param {
    lr_mult: 0
    decay_mult: 0
  }
  include {
    phase: TRAIN
  }
  batch_norm_param {
    use_global_stats: false
    moving_average_fraction: 0.95
  }
}
layer {
  name: "scale_ccp6"
  type: "Scale"
  bottom: "bn_cccp6"
  top: "scale_ccp6"
  scale_param {
    bias_term: true
  }
}
layer {
  name: "relu_cccp6"
  type: "ReLU"
  bottom: "scale_ccp6"
  top: "scale_ccp6"
}
layer {
  name: "poolcp6"
  type: "Pooling"
  bottom: "scale_ccp6"
  top: "poolcp6"
  pooling_param {
    pool: MAX
    kernel_size: 2
    stride: 2
  }
}
layer {
  name: "fc_conv"
  type: "Convolution"
  bottom: "poolcp6"
  top: "fc_conv"
  param {
    lr_mult: 1
    decay_mult: 1
  }
  param {
    lr_mult: 2
    decay_mult: 0
  }
  convolution_param {
    num_output: 2048
    pad: 1
    kernel_size: 1
    group: 1
    weight_filler {
      type: "xavier"
    }
    bias_filler {
      type: "constant"
      value: 0
    }
  }
}
layer {
  name: "ipf0"
  type: "InnerProduct"
  bottom: "fc_conv"
  top: "ipf0"
  param {
    lr_mult: 1
    decay_mult: 0
  }
  param {
    lr_mult: 2
    decay_mult: 0
  }
  inner_product_param {
    num_output: 100
    weight_filler {
      type: "xavier"
    }
    bias_filler {
      type: "constant"
    }
  }
}
layer {
  name: "loss"
  type: "SoftmaxWithLoss"
  bottom: "ipf0"
  bottom: "label_fine"
  top: "loss"
}
I0930 04:42:43.914649 15120 layer_factory.hpp:77] Creating layer cifar
I0930 04:42:43.915648 15120 net.cpp:91] Creating Layer cifar
I0930 04:42:43.916649 15120 net.cpp:399] cifar -> data
I0930 04:42:43.916649 15120 net.cpp:399] cifar -> label_fine
I0930 04:42:43.916649 10036 common.cpp:36] System entropy source not available, using fallback algorithm to generate seed instead.
I0930 04:42:43.924654 10036 db_leveldb.cpp:18] Opened leveldb examples/cifar100/cifar100_train_leveldb_padding
I0930 04:42:43.948665 15120 data_layer.cpp:41] output data size: 50,3,32,32
I0930 04:42:43.951843 15120 net.cpp:141] Setting up cifar
I0930 04:42:43.951843 15120 net.cpp:148] Top shape: 50 3 32 32 (153600)
I0930 04:42:43.951843 15120 net.cpp:148] Top shape: 50 (50)
I0930 04:42:43.951843 15120 net.cpp:156] Memory required for data: 614600
I0930 04:42:43.951843 15120 layer_factory.hpp:77] Creating layer conv1
I0930 04:42:43.951843 15120 net.cpp:91] Creating Layer conv1
I0930 04:42:43.952343 15120 net.cpp:425] conv1 <- data
I0930 04:42:43.952343 15120 net.cpp:399] conv1 -> conv1
I0930 04:42:43.952843 14652 common.cpp:36] System entropy source not available, using fallback algorithm to generate seed instead.
I0930 04:42:44.224957 15120 net.cpp:141] Setting up conv1
I0930 04:42:44.224957 15120 net.cpp:148] Top shape: 50 64 32 32 (3276800)
I0930 04:42:44.224957 15120 net.cpp:156] Memory required for data: 13721800
I0930 04:42:44.224957 15120 layer_factory.hpp:77] Creating layer bn1
I0930 04:42:44.224957 15120 net.cpp:91] Creating Layer bn1
I0930 04:42:44.224957 15120 net.cpp:425] bn1 <- conv1
I0930 04:42:44.224957 15120 net.cpp:399] bn1 -> bn1
I0930 04:42:44.224957 15120 net.cpp:141] Setting up bn1
I0930 04:42:44.224957 15120 net.cpp:148] Top shape: 50 64 32 32 (3276800)
I0930 04:42:44.224957 15120 net.cpp:156] Memory required for data: 26829000
I0930 04:42:44.224957 15120 layer_factory.hpp:77] Creating layer scale1
I0930 04:42:44.224957 15120 net.cpp:91] Creating Layer scale1
I0930 04:42:44.224957 15120 net.cpp:425] scale1 <- bn1
I0930 04:42:44.224957 15120 net.cpp:399] scale1 -> scale1
I0930 04:42:44.224957 15120 layer_factory.hpp:77] Creating layer scale1
I0930 04:42:44.225958 15120 net.cpp:141] Setting up scale1
I0930 04:42:44.225958 15120 net.cpp:148] Top shape: 50 64 32 32 (3276800)
I0930 04:42:44.225958 15120 net.cpp:156] Memory required for data: 39936200
I0930 04:42:44.225958 15120 layer_factory.hpp:77] Creating layer relu1
I0930 04:42:44.225958 15120 net.cpp:91] Creating Layer relu1
I0930 04:42:44.225958 15120 net.cpp:425] relu1 <- scale1
I0930 04:42:44.225958 15120 net.cpp:386] relu1 -> scale1 (in-place)
I0930 04:42:44.225958 15120 net.cpp:141] Setting up relu1
I0930 04:42:44.225958 15120 net.cpp:148] Top shape: 50 64 32 32 (3276800)
I0930 04:42:44.225958 15120 net.cpp:156] Memory required for data: 53043400
I0930 04:42:44.225958 15120 layer_factory.hpp:77] Creating layer conv1_0
I0930 04:42:44.225958 15120 net.cpp:91] Creating Layer conv1_0
I0930 04:42:44.225958 15120 net.cpp:425] conv1_0 <- scale1
I0930 04:42:44.225958 15120 net.cpp:399] conv1_0 -> conv1_0
I0930 04:42:44.227943 15120 net.cpp:141] Setting up conv1_0
I0930 04:42:44.227943 15120 net.cpp:148] Top shape: 50 128 32 32 (6553600)
I0930 04:42:44.227943 15120 net.cpp:156] Memory required for data: 79257800
I0930 04:42:44.227943 15120 layer_factory.hpp:77] Creating layer bn1_0
I0930 04:42:44.227943 15120 net.cpp:91] Creating Layer bn1_0
I0930 04:42:44.227943 15120 net.cpp:425] bn1_0 <- conv1_0
I0930 04:42:44.227943 15120 net.cpp:399] bn1_0 -> bn1_0
I0930 04:42:44.227943 15120 net.cpp:141] Setting up bn1_0
I0930 04:42:44.227943 15120 net.cpp:148] Top shape: 50 128 32 32 (6553600)
I0930 04:42:44.227943 15120 net.cpp:156] Memory required for data: 105472200
I0930 04:42:44.227943 15120 layer_factory.hpp:77] Creating layer scale1_0
I0930 04:42:44.227943 15120 net.cpp:91] Creating Layer scale1_0
I0930 04:42:44.227943 15120 net.cpp:425] scale1_0 <- bn1_0
I0930 04:42:44.227943 15120 net.cpp:399] scale1_0 -> scale1_0
I0930 04:42:44.227943 15120 layer_factory.hpp:77] Creating layer scale1_0
I0930 04:42:44.228945 15120 net.cpp:141] Setting up scale1_0
I0930 04:42:44.228945 15120 net.cpp:148] Top shape: 50 128 32 32 (6553600)
I0930 04:42:44.228945 15120 net.cpp:156] Memory required for data: 131686600
I0930 04:42:44.228945 15120 layer_factory.hpp:77] Creating layer relu1_0
I0930 04:42:44.228945 15120 net.cpp:91] Creating Layer relu1_0
I0930 04:42:44.228945 15120 net.cpp:425] relu1_0 <- scale1_0
I0930 04:42:44.228945 15120 net.cpp:386] relu1_0 -> scale1_0 (in-place)
I0930 04:42:44.228945 15120 net.cpp:141] Setting up relu1_0
I0930 04:42:44.228945 15120 net.cpp:148] Top shape: 50 128 32 32 (6553600)
I0930 04:42:44.228945 15120 net.cpp:156] Memory required for data: 157901000
I0930 04:42:44.228945 15120 layer_factory.hpp:77] Creating layer conv2
I0930 04:42:44.228945 15120 net.cpp:91] Creating Layer conv2
I0930 04:42:44.228945 15120 net.cpp:425] conv2 <- scale1_0
I0930 04:42:44.228945 15120 net.cpp:399] conv2 -> conv2
I0930 04:42:44.232947 15120 net.cpp:141] Setting up conv2
I0930 04:42:44.232947 15120 net.cpp:148] Top shape: 50 128 32 32 (6553600)
I0930 04:42:44.232947 15120 net.cpp:156] Memory required for data: 184115400
I0930 04:42:44.232947 15120 layer_factory.hpp:77] Creating layer bn2
I0930 04:42:44.232947 15120 net.cpp:91] Creating Layer bn2
I0930 04:42:44.232947 15120 net.cpp:425] bn2 <- conv2
I0930 04:42:44.232947 15120 net.cpp:399] bn2 -> bn2
I0930 04:42:44.232947 15120 net.cpp:141] Setting up bn2
I0930 04:42:44.232947 15120 net.cpp:148] Top shape: 50 128 32 32 (6553600)
I0930 04:42:44.232947 15120 net.cpp:156] Memory required for data: 210329800
I0930 04:42:44.232947 15120 layer_factory.hpp:77] Creating layer scale2
I0930 04:42:44.232947 15120 net.cpp:91] Creating Layer scale2
I0930 04:42:44.232947 15120 net.cpp:425] scale2 <- bn2
I0930 04:42:44.232947 15120 net.cpp:399] scale2 -> scale2
I0930 04:42:44.232947 15120 layer_factory.hpp:77] Creating layer scale2
I0930 04:42:44.232947 15120 net.cpp:141] Setting up scale2
I0930 04:42:44.232947 15120 net.cpp:148] Top shape: 50 128 32 32 (6553600)
I0930 04:42:44.232947 15120 net.cpp:156] Memory required for data: 236544200
I0930 04:42:44.232947 15120 layer_factory.hpp:77] Creating layer relu2
I0930 04:42:44.232947 15120 net.cpp:91] Creating Layer relu2
I0930 04:42:44.232947 15120 net.cpp:425] relu2 <- scale2
I0930 04:42:44.232947 15120 net.cpp:386] relu2 -> scale2 (in-place)
I0930 04:42:44.233948 15120 net.cpp:141] Setting up relu2
I0930 04:42:44.233948 15120 net.cpp:148] Top shape: 50 128 32 32 (6553600)
I0930 04:42:44.233948 15120 net.cpp:156] Memory required for data: 262758600
I0930 04:42:44.233948 15120 layer_factory.hpp:77] Creating layer conv2_1
I0930 04:42:44.233948 15120 net.cpp:91] Creating Layer conv2_1
I0930 04:42:44.233948 15120 net.cpp:425] conv2_1 <- scale2
I0930 04:42:44.233948 15120 net.cpp:399] conv2_1 -> conv2_1
I0930 04:42:44.236950 15120 net.cpp:141] Setting up conv2_1
I0930 04:42:44.236950 15120 net.cpp:148] Top shape: 50 128 32 32 (6553600)
I0930 04:42:44.236950 15120 net.cpp:156] Memory required for data: 288973000
I0930 04:42:44.236950 15120 layer_factory.hpp:77] Creating layer bn2_1
I0930 04:42:44.236950 15120 net.cpp:91] Creating Layer bn2_1
I0930 04:42:44.236950 15120 net.cpp:425] bn2_1 <- conv2_1
I0930 04:42:44.236950 15120 net.cpp:399] bn2_1 -> bn2_1
I0930 04:42:44.237951 15120 net.cpp:141] Setting up bn2_1
I0930 04:42:44.237951 15120 net.cpp:148] Top shape: 50 128 32 32 (6553600)
I0930 04:42:44.237951 15120 net.cpp:156] Memory required for data: 315187400
I0930 04:42:44.237951 15120 layer_factory.hpp:77] Creating layer scale2_1
I0930 04:42:44.237951 15120 net.cpp:91] Creating Layer scale2_1
I0930 04:42:44.237951 15120 net.cpp:425] scale2_1 <- bn2_1
I0930 04:42:44.237951 15120 net.cpp:399] scale2_1 -> scale2_1
I0930 04:42:44.237951 15120 layer_factory.hpp:77] Creating layer scale2_1
I0930 04:42:44.237951 15120 net.cpp:141] Setting up scale2_1
I0930 04:42:44.237951 15120 net.cpp:148] Top shape: 50 128 32 32 (6553600)
I0930 04:42:44.237951 15120 net.cpp:156] Memory required for data: 341401800
I0930 04:42:44.237951 15120 layer_factory.hpp:77] Creating layer relu2_1
I0930 04:42:44.237951 15120 net.cpp:91] Creating Layer relu2_1
I0930 04:42:44.237951 15120 net.cpp:425] relu2_1 <- scale2_1
I0930 04:42:44.237951 15120 net.cpp:386] relu2_1 -> scale2_1 (in-place)
I0930 04:42:44.237951 15120 net.cpp:141] Setting up relu2_1
I0930 04:42:44.237951 15120 net.cpp:148] Top shape: 50 128 32 32 (6553600)
I0930 04:42:44.237951 15120 net.cpp:156] Memory required for data: 367616200
I0930 04:42:44.237951 15120 layer_factory.hpp:77] Creating layer pool2_1
I0930 04:42:44.237951 15120 net.cpp:91] Creating Layer pool2_1
I0930 04:42:44.237951 15120 net.cpp:425] pool2_1 <- scale2_1
I0930 04:42:44.237951 15120 net.cpp:399] pool2_1 -> pool2_1
I0930 04:42:44.237951 15120 net.cpp:141] Setting up pool2_1
I0930 04:42:44.237951 15120 net.cpp:148] Top shape: 50 128 16 16 (1638400)
I0930 04:42:44.237951 15120 net.cpp:156] Memory required for data: 374169800
I0930 04:42:44.237951 15120 layer_factory.hpp:77] Creating layer conv2_2
I0930 04:42:44.237951 15120 net.cpp:91] Creating Layer conv2_2
I0930 04:42:44.237951 15120 net.cpp:425] conv2_2 <- pool2_1
I0930 04:42:44.237951 15120 net.cpp:399] conv2_2 -> conv2_2
I0930 04:42:44.244504 15120 net.cpp:141] Setting up conv2_2
I0930 04:42:44.244504 15120 net.cpp:148] Top shape: 50 256 16 16 (3276800)
I0930 04:42:44.244504 15120 net.cpp:156] Memory required for data: 387277000
I0930 04:42:44.244504 15120 layer_factory.hpp:77] Creating layer bn2_2
I0930 04:42:44.244504 15120 net.cpp:91] Creating Layer bn2_2
I0930 04:42:44.244504 15120 net.cpp:425] bn2_2 <- conv2_2
I0930 04:42:44.244504 15120 net.cpp:399] bn2_2 -> bn2_2
I0930 04:42:44.244504 15120 net.cpp:141] Setting up bn2_2
I0930 04:42:44.244504 15120 net.cpp:148] Top shape: 50 256 16 16 (3276800)
I0930 04:42:44.244504 15120 net.cpp:156] Memory required for data: 400384200
I0930 04:42:44.244504 15120 layer_factory.hpp:77] Creating layer scale2_2
I0930 04:42:44.244504 15120 net.cpp:91] Creating Layer scale2_2
I0930 04:42:44.244504 15120 net.cpp:425] scale2_2 <- bn2_2
I0930 04:42:44.244504 15120 net.cpp:399] scale2_2 -> scale2_2
I0930 04:42:44.244504 15120 layer_factory.hpp:77] Creating layer scale2_2
I0930 04:42:44.244504 15120 net.cpp:141] Setting up scale2_2
I0930 04:42:44.244504 15120 net.cpp:148] Top shape: 50 256 16 16 (3276800)
I0930 04:42:44.244504 15120 net.cpp:156] Memory required for data: 413491400
I0930 04:42:44.244504 15120 layer_factory.hpp:77] Creating layer relu2_2
I0930 04:42:44.244504 15120 net.cpp:91] Creating Layer relu2_2
I0930 04:42:44.244504 15120 net.cpp:425] relu2_2 <- scale2_2
I0930 04:42:44.244504 15120 net.cpp:386] relu2_2 -> scale2_2 (in-place)
I0930 04:42:44.245416 15120 net.cpp:141] Setting up relu2_2
I0930 04:42:44.245416 15120 net.cpp:148] Top shape: 50 256 16 16 (3276800)
I0930 04:42:44.245416 15120 net.cpp:156] Memory required for data: 426598600
I0930 04:42:44.245416 15120 layer_factory.hpp:77] Creating layer conv3
I0930 04:42:44.245416 15120 net.cpp:91] Creating Layer conv3
I0930 04:42:44.245416 15120 net.cpp:425] conv3 <- scale2_2
I0930 04:42:44.245416 15120 net.cpp:399] conv3 -> conv3
I0930 04:42:44.251572 15120 net.cpp:141] Setting up conv3
I0930 04:42:44.251572 15120 net.cpp:148] Top shape: 50 256 16 16 (3276800)
I0930 04:42:44.251572 15120 net.cpp:156] Memory required for data: 439705800
I0930 04:42:44.251572 15120 layer_factory.hpp:77] Creating layer bn3
I0930 04:42:44.251572 15120 net.cpp:91] Creating Layer bn3
I0930 04:42:44.251572 15120 net.cpp:425] bn3 <- conv3
I0930 04:42:44.251572 15120 net.cpp:399] bn3 -> bn3
I0930 04:42:44.251572 15120 net.cpp:141] Setting up bn3
I0930 04:42:44.251572 15120 net.cpp:148] Top shape: 50 256 16 16 (3276800)
I0930 04:42:44.251572 15120 net.cpp:156] Memory required for data: 452813000
I0930 04:42:44.251572 15120 layer_factory.hpp:77] Creating layer scale3
I0930 04:42:44.251572 15120 net.cpp:91] Creating Layer scale3
I0930 04:42:44.251572 15120 net.cpp:425] scale3 <- bn3
I0930 04:42:44.251572 15120 net.cpp:399] scale3 -> scale3
I0930 04:42:44.251572 15120 layer_factory.hpp:77] Creating layer scale3
I0930 04:42:44.252574 15120 net.cpp:141] Setting up scale3
I0930 04:42:44.252574 15120 net.cpp:148] Top shape: 50 256 16 16 (3276800)
I0930 04:42:44.252574 15120 net.cpp:156] Memory required for data: 465920200
I0930 04:42:44.252574 15120 layer_factory.hpp:77] Creating layer relu3
I0930 04:42:44.252574 15120 net.cpp:91] Creating Layer relu3
I0930 04:42:44.252574 15120 net.cpp:425] relu3 <- scale3
I0930 04:42:44.252574 15120 net.cpp:386] relu3 -> scale3 (in-place)
I0930 04:42:44.252905 15120 net.cpp:141] Setting up relu3
I0930 04:42:44.252905 15120 net.cpp:148] Top shape: 50 256 16 16 (3276800)
I0930 04:42:44.252905 15120 net.cpp:156] Memory required for data: 479027400
I0930 04:42:44.252905 15120 layer_factory.hpp:77] Creating layer conv4
I0930 04:42:44.252905 15120 net.cpp:91] Creating Layer conv4
I0930 04:42:44.252905 15120 net.cpp:425] conv4 <- scale3
I0930 04:42:44.252905 15120 net.cpp:399] conv4 -> conv4
I0930 04:42:44.261914 15120 net.cpp:141] Setting up conv4
I0930 04:42:44.261914 15120 net.cpp:148] Top shape: 50 256 16 16 (3276800)
I0930 04:42:44.261914 15120 net.cpp:156] Memory required for data: 492134600
I0930 04:42:44.261914 15120 layer_factory.hpp:77] Creating layer pool4
I0930 04:42:44.261914 15120 net.cpp:91] Creating Layer pool4
I0930 04:42:44.261914 15120 net.cpp:425] pool4 <- conv4
I0930 04:42:44.261914 15120 net.cpp:399] pool4 -> pool4
I0930 04:42:44.261914 15120 net.cpp:141] Setting up pool4
I0930 04:42:44.261914 15120 net.cpp:148] Top shape: 50 256 8 8 (819200)
I0930 04:42:44.261914 15120 net.cpp:156] Memory required for data: 495411400
I0930 04:42:44.261914 15120 layer_factory.hpp:77] Creating layer bn4
I0930 04:42:44.262914 15120 net.cpp:91] Creating Layer bn4
I0930 04:42:44.262914 15120 net.cpp:425] bn4 <- pool4
I0930 04:42:44.262914 15120 net.cpp:399] bn4 -> bn4
I0930 04:42:44.262914 15120 net.cpp:141] Setting up bn4
I0930 04:42:44.262914 15120 net.cpp:148] Top shape: 50 256 8 8 (819200)
I0930 04:42:44.262914 15120 net.cpp:156] Memory required for data: 498688200
I0930 04:42:44.262914 15120 layer_factory.hpp:77] Creating layer scale4
I0930 04:42:44.262914 15120 net.cpp:91] Creating Layer scale4
I0930 04:42:44.262914 15120 net.cpp:425] scale4 <- bn4
I0930 04:42:44.262914 15120 net.cpp:399] scale4 -> scale4
I0930 04:42:44.262914 15120 layer_factory.hpp:77] Creating layer scale4
I0930 04:42:44.262914 15120 net.cpp:141] Setting up scale4
I0930 04:42:44.262914 15120 net.cpp:148] Top shape: 50 256 8 8 (819200)
I0930 04:42:44.262914 15120 net.cpp:156] Memory required for data: 501965000
I0930 04:42:44.262914 15120 layer_factory.hpp:77] Creating layer relu4
I0930 04:42:44.262914 15120 net.cpp:91] Creating Layer relu4
I0930 04:42:44.262914 15120 net.cpp:425] relu4 <- scale4
I0930 04:42:44.262914 15120 net.cpp:386] relu4 -> scale4 (in-place)
I0930 04:42:44.263916 15120 net.cpp:141] Setting up relu4
I0930 04:42:44.263916 15120 net.cpp:148] Top shape: 50 256 8 8 (819200)
I0930 04:42:44.263916 15120 net.cpp:156] Memory required for data: 505241800
I0930 04:42:44.263916 15120 layer_factory.hpp:77] Creating layer conv4_1
I0930 04:42:44.263916 15120 net.cpp:91] Creating Layer conv4_1
I0930 04:42:44.263916 15120 net.cpp:425] conv4_1 <- scale4
I0930 04:42:44.263916 15120 net.cpp:399] conv4_1 -> conv4_1
I0930 04:42:44.269919 15120 net.cpp:141] Setting up conv4_1
I0930 04:42:44.269919 15120 net.cpp:148] Top shape: 50 256 8 8 (819200)
I0930 04:42:44.269919 15120 net.cpp:156] Memory required for data: 508518600
I0930 04:42:44.269919 15120 layer_factory.hpp:77] Creating layer bn4_1
I0930 04:42:44.269919 15120 net.cpp:91] Creating Layer bn4_1
I0930 04:42:44.269919 15120 net.cpp:425] bn4_1 <- conv4_1
I0930 04:42:44.269919 15120 net.cpp:399] bn4_1 -> bn4_1
I0930 04:42:44.270920 15120 net.cpp:141] Setting up bn4_1
I0930 04:42:44.270920 15120 net.cpp:148] Top shape: 50 256 8 8 (819200)
I0930 04:42:44.270920 15120 net.cpp:156] Memory required for data: 511795400
I0930 04:42:44.270920 15120 layer_factory.hpp:77] Creating layer scale4_1
I0930 04:42:44.270920 15120 net.cpp:91] Creating Layer scale4_1
I0930 04:42:44.270920 15120 net.cpp:425] scale4_1 <- bn4_1
I0930 04:42:44.270920 15120 net.cpp:399] scale4_1 -> scale4_1
I0930 04:42:44.270920 15120 layer_factory.hpp:77] Creating layer scale4_1
I0930 04:42:44.270920 15120 net.cpp:141] Setting up scale4_1
I0930 04:42:44.270920 15120 net.cpp:148] Top shape: 50 256 8 8 (819200)
I0930 04:42:44.270920 15120 net.cpp:156] Memory required for data: 515072200
I0930 04:42:44.270920 15120 layer_factory.hpp:77] Creating layer relu4_1
I0930 04:42:44.270920 15120 net.cpp:91] Creating Layer relu4_1
I0930 04:42:44.270920 15120 net.cpp:425] relu4_1 <- scale4_1
I0930 04:42:44.270920 15120 net.cpp:386] relu4_1 -> scale4_1 (in-place)
I0930 04:42:44.272037 15120 net.cpp:141] Setting up relu4_1
I0930 04:42:44.272037 15120 net.cpp:148] Top shape: 50 256 8 8 (819200)
I0930 04:42:44.272037 15120 net.cpp:156] Memory required for data: 518349000
I0930 04:42:44.272037 15120 layer_factory.hpp:77] Creating layer conv4_2
I0930 04:42:44.272037 15120 net.cpp:91] Creating Layer conv4_2
I0930 04:42:44.272037 15120 net.cpp:425] conv4_2 <- scale4_1
I0930 04:42:44.272037 15120 net.cpp:399] conv4_2 -> conv4_2
I0930 04:42:44.279043 15120 net.cpp:141] Setting up conv4_2
I0930 04:42:44.279043 15120 net.cpp:148] Top shape: 50 256 8 8 (819200)
I0930 04:42:44.279043 15120 net.cpp:156] Memory required for data: 521625800
I0930 04:42:44.279043 15120 layer_factory.hpp:77] Creating layer bn4_2
I0930 04:42:44.279043 15120 net.cpp:91] Creating Layer bn4_2
I0930 04:42:44.279043 15120 net.cpp:425] bn4_2 <- conv4_2
I0930 04:42:44.279043 15120 net.cpp:399] bn4_2 -> bn4_2
I0930 04:42:44.280045 15120 net.cpp:141] Setting up bn4_2
I0930 04:42:44.280045 15120 net.cpp:148] Top shape: 50 256 8 8 (819200)
I0930 04:42:44.280045 15120 net.cpp:156] Memory required for data: 524902600
I0930 04:42:44.280045 15120 layer_factory.hpp:77] Creating layer scale4_2
I0930 04:42:44.280045 15120 net.cpp:91] Creating Layer scale4_2
I0930 04:42:44.280045 15120 net.cpp:425] scale4_2 <- bn4_2
I0930 04:42:44.280045 15120 net.cpp:399] scale4_2 -> scale4_2
I0930 04:42:44.280045 15120 layer_factory.hpp:77] Creating layer scale4_2
I0930 04:42:44.280045 15120 net.cpp:141] Setting up scale4_2
I0930 04:42:44.280045 15120 net.cpp:148] Top shape: 50 256 8 8 (819200)
I0930 04:42:44.280045 15120 net.cpp:156] Memory required for data: 528179400
I0930 04:42:44.280045 15120 layer_factory.hpp:77] Creating layer relu4_2
I0930 04:42:44.280045 15120 net.cpp:91] Creating Layer relu4_2
I0930 04:42:44.280045 15120 net.cpp:425] relu4_2 <- scale4_2
I0930 04:42:44.280045 15120 net.cpp:386] relu4_2 -> scale4_2 (in-place)
I0930 04:42:44.281045 15120 net.cpp:141] Setting up relu4_2
I0930 04:42:44.281045 15120 net.cpp:148] Top shape: 50 256 8 8 (819200)
I0930 04:42:44.281045 15120 net.cpp:156] Memory required for data: 531456200
I0930 04:42:44.281045 15120 layer_factory.hpp:77] Creating layer pool4_2
I0930 04:42:44.281045 15120 net.cpp:91] Creating Layer pool4_2
I0930 04:42:44.281045 15120 net.cpp:425] pool4_2 <- scale4_2
I0930 04:42:44.281045 15120 net.cpp:399] pool4_2 -> pool4_2
I0930 04:42:44.281045 15120 net.cpp:141] Setting up pool4_2
I0930 04:42:44.281045 15120 net.cpp:148] Top shape: 50 256 4 4 (204800)
I0930 04:42:44.281045 15120 net.cpp:156] Memory required for data: 532275400
I0930 04:42:44.281045 15120 layer_factory.hpp:77] Creating layer conv4_0
I0930 04:42:44.281045 15120 net.cpp:91] Creating Layer conv4_0
I0930 04:42:44.281045 15120 net.cpp:425] conv4_0 <- pool4_2
I0930 04:42:44.281045 15120 net.cpp:399] conv4_0 -> conv4_0
I0930 04:42:44.292673 15120 net.cpp:141] Setting up conv4_0
I0930 04:42:44.292673 15120 net.cpp:148] Top shape: 50 512 4 4 (409600)
I0930 04:42:44.292673 15120 net.cpp:156] Memory required for data: 533913800
I0930 04:42:44.292673 15120 layer_factory.hpp:77] Creating layer bn4_0
I0930 04:42:44.292673 15120 net.cpp:91] Creating Layer bn4_0
I0930 04:42:44.292673 15120 net.cpp:425] bn4_0 <- conv4_0
I0930 04:42:44.292673 15120 net.cpp:399] bn4_0 -> bn4_0
I0930 04:42:44.292673 15120 net.cpp:141] Setting up bn4_0
I0930 04:42:44.292673 15120 net.cpp:148] Top shape: 50 512 4 4 (409600)
I0930 04:42:44.292673 15120 net.cpp:156] Memory required for data: 535552200
I0930 04:42:44.292673 15120 layer_factory.hpp:77] Creating layer scale4_0
I0930 04:42:44.292673 15120 net.cpp:91] Creating Layer scale4_0
I0930 04:42:44.292673 15120 net.cpp:425] scale4_0 <- bn4_0
I0930 04:42:44.292673 15120 net.cpp:399] scale4_0 -> scale4_0
I0930 04:42:44.292673 15120 layer_factory.hpp:77] Creating layer scale4_0
I0930 04:42:44.292673 15120 net.cpp:141] Setting up scale4_0
I0930 04:42:44.292673 15120 net.cpp:148] Top shape: 50 512 4 4 (409600)
I0930 04:42:44.292673 15120 net.cpp:156] Memory required for data: 537190600
I0930 04:42:44.292673 15120 layer_factory.hpp:77] Creating layer relu4_0
I0930 04:42:44.292673 15120 net.cpp:91] Creating Layer relu4_0
I0930 04:42:44.292673 15120 net.cpp:425] relu4_0 <- scale4_0
I0930 04:42:44.292673 15120 net.cpp:386] relu4_0 -> scale4_0 (in-place)
I0930 04:42:44.293674 15120 net.cpp:141] Setting up relu4_0
I0930 04:42:44.293674 15120 net.cpp:148] Top shape: 50 512 4 4 (409600)
I0930 04:42:44.293674 15120 net.cpp:156] Memory required for data: 538829000
I0930 04:42:44.293674 15120 layer_factory.hpp:77] Creating layer cccp4
I0930 04:42:44.293674 15120 net.cpp:91] Creating Layer cccp4
I0930 04:42:44.293674 15120 net.cpp:425] cccp4 <- scale4_0
I0930 04:42:44.293674 15120 net.cpp:399] cccp4 -> cccp4
I0930 04:42:44.304302 15120 net.cpp:141] Setting up cccp4
I0930 04:42:44.304302 15120 net.cpp:148] Top shape: 50 2048 4 4 (1638400)
I0930 04:42:44.304302 15120 net.cpp:156] Memory required for data: 545382600
I0930 04:42:44.304302 15120 layer_factory.hpp:77] Creating layer bn_cccp4
I0930 04:42:44.304302 15120 net.cpp:91] Creating Layer bn_cccp4
I0930 04:42:44.304302 15120 net.cpp:425] bn_cccp4 <- cccp4
I0930 04:42:44.304302 15120 net.cpp:399] bn_cccp4 -> bn_cccp4
I0930 04:42:44.304302 15120 net.cpp:141] Setting up bn_cccp4
I0930 04:42:44.304302 15120 net.cpp:148] Top shape: 50 2048 4 4 (1638400)
I0930 04:42:44.304302 15120 net.cpp:156] Memory required for data: 551936200
I0930 04:42:44.304302 15120 layer_factory.hpp:77] Creating layer scale_ccp4
I0930 04:42:44.304302 15120 net.cpp:91] Creating Layer scale_ccp4
I0930 04:42:44.304302 15120 net.cpp:425] scale_ccp4 <- bn_cccp4
I0930 04:42:44.304302 15120 net.cpp:399] scale_ccp4 -> scale_ccp4
I0930 04:42:44.305304 15120 layer_factory.hpp:77] Creating layer scale_ccp4
I0930 04:42:44.305304 15120 net.cpp:141] Setting up scale_ccp4
I0930 04:42:44.305304 15120 net.cpp:148] Top shape: 50 2048 4 4 (1638400)
I0930 04:42:44.305304 15120 net.cpp:156] Memory required for data: 558489800
I0930 04:42:44.305304 15120 layer_factory.hpp:77] Creating layer relu_cccp4
I0930 04:42:44.305304 15120 net.cpp:91] Creating Layer relu_cccp4
I0930 04:42:44.305304 15120 net.cpp:425] relu_cccp4 <- scale_ccp4
I0930 04:42:44.305304 15120 net.cpp:386] relu_cccp4 -> scale_ccp4 (in-place)
I0930 04:42:44.305304 15120 net.cpp:141] Setting up relu_cccp4
I0930 04:42:44.305304 15120 net.cpp:148] Top shape: 50 2048 4 4 (1638400)
I0930 04:42:44.305304 15120 net.cpp:156] Memory required for data: 565043400
I0930 04:42:44.305304 15120 layer_factory.hpp:77] Creating layer cccp5
I0930 04:42:44.305304 15120 net.cpp:91] Creating Layer cccp5
I0930 04:42:44.305304 15120 net.cpp:425] cccp5 <- scale_ccp4
I0930 04:42:44.305304 15120 net.cpp:399] cccp5 -> cccp5
I0930 04:42:44.384358 15120 net.cpp:141] Setting up cccp5
I0930 04:42:44.384358 15120 net.cpp:148] Top shape: 50 512 2 2 (102400)
I0930 04:42:44.384358 15120 net.cpp:156] Memory required for data: 565453000
I0930 04:42:44.384358 15120 layer_factory.hpp:77] Creating layer bn_cccp5
I0930 04:42:44.385360 15120 net.cpp:91] Creating Layer bn_cccp5
I0930 04:42:44.385360 15120 net.cpp:425] bn_cccp5 <- cccp5
I0930 04:42:44.385360 15120 net.cpp:399] bn_cccp5 -> bn_cccp5
I0930 04:42:44.385360 15120 net.cpp:141] Setting up bn_cccp5
I0930 04:42:44.385360 15120 net.cpp:148] Top shape: 50 512 2 2 (102400)
I0930 04:42:44.385360 15120 net.cpp:156] Memory required for data: 565862600
I0930 04:42:44.385360 15120 layer_factory.hpp:77] Creating layer scale_ccp5
I0930 04:42:44.385360 15120 net.cpp:91] Creating Layer scale_ccp5
I0930 04:42:44.385360 15120 net.cpp:425] scale_ccp5 <- bn_cccp5
I0930 04:42:44.385360 15120 net.cpp:399] scale_ccp5 -> scale_ccp5
I0930 04:42:44.385360 15120 layer_factory.hpp:77] Creating layer scale_ccp5
I0930 04:42:44.385360 15120 net.cpp:141] Setting up scale_ccp5
I0930 04:42:44.385360 15120 net.cpp:148] Top shape: 50 512 2 2 (102400)
I0930 04:42:44.385360 15120 net.cpp:156] Memory required for data: 566272200
I0930 04:42:44.385360 15120 layer_factory.hpp:77] Creating layer relu_cccp5
I0930 04:42:44.385360 15120 net.cpp:91] Creating Layer relu_cccp5
I0930 04:42:44.385360 15120 net.cpp:425] relu_cccp5 <- scale_ccp5
I0930 04:42:44.385360 15120 net.cpp:386] relu_cccp5 -> scale_ccp5 (in-place)
I0930 04:42:44.386360 15120 net.cpp:141] Setting up relu_cccp5
I0930 04:42:44.386360 15120 net.cpp:148] Top shape: 50 512 2 2 (102400)
I0930 04:42:44.386360 15120 net.cpp:156] Memory required for data: 566681800
I0930 04:42:44.386360 15120 layer_factory.hpp:77] Creating layer poolcp5
I0930 04:42:44.386360 15120 net.cpp:91] Creating Layer poolcp5
I0930 04:42:44.386360 15120 net.cpp:425] poolcp5 <- scale_ccp5
I0930 04:42:44.386360 15120 net.cpp:399] poolcp5 -> poolcp5
I0930 04:42:44.386360 15120 net.cpp:141] Setting up poolcp5
I0930 04:42:44.386360 15120 net.cpp:148] Top shape: 50 512 1 1 (25600)
I0930 04:42:44.386360 15120 net.cpp:156] Memory required for data: 566784200
I0930 04:42:44.386360 15120 layer_factory.hpp:77] Creating layer cccp6
I0930 04:42:44.386360 15120 net.cpp:91] Creating Layer cccp6
I0930 04:42:44.386360 15120 net.cpp:425] cccp6 <- poolcp5
I0930 04:42:44.386360 15120 net.cpp:399] cccp6 -> cccp6
I0930 04:42:44.408136 15120 net.cpp:141] Setting up cccp6
I0930 04:42:44.408136 15120 net.cpp:148] Top shape: 50 512 1 1 (25600)
I0930 04:42:44.408136 15120 net.cpp:156] Memory required for data: 566886600
I0930 04:42:44.408136 15120 layer_factory.hpp:77] Creating layer bn_cccp6
I0930 04:42:44.408136 15120 net.cpp:91] Creating Layer bn_cccp6
I0930 04:42:44.408136 15120 net.cpp:425] bn_cccp6 <- cccp6
I0930 04:42:44.408136 15120 net.cpp:399] bn_cccp6 -> bn_cccp6
I0930 04:42:44.408136 15120 net.cpp:141] Setting up bn_cccp6
I0930 04:42:44.408136 15120 net.cpp:148] Top shape: 50 512 1 1 (25600)
I0930 04:42:44.408136 15120 net.cpp:156] Memory required for data: 566989000
I0930 04:42:44.408136 15120 layer_factory.hpp:77] Creating layer scale_ccp6
I0930 04:42:44.408136 15120 net.cpp:91] Creating Layer scale_ccp6
I0930 04:42:44.408136 15120 net.cpp:425] scale_ccp6 <- bn_cccp6
I0930 04:42:44.408136 15120 net.cpp:399] scale_ccp6 -> scale_ccp6
I0930 04:42:44.408136 15120 layer_factory.hpp:77] Creating layer scale_ccp6
I0930 04:42:44.409138 15120 net.cpp:141] Setting up scale_ccp6
I0930 04:42:44.409138 15120 net.cpp:148] Top shape: 50 512 1 1 (25600)
I0930 04:42:44.409138 15120 net.cpp:156] Memory required for data: 567091400
I0930 04:42:44.409138 15120 layer_factory.hpp:77] Creating layer relu_cccp6
I0930 04:42:44.409138 15120 net.cpp:91] Creating Layer relu_cccp6
I0930 04:42:44.409138 15120 net.cpp:425] relu_cccp6 <- scale_ccp6
I0930 04:42:44.409138 15120 net.cpp:386] relu_cccp6 -> scale_ccp6 (in-place)
I0930 04:42:44.409138 15120 net.cpp:141] Setting up relu_cccp6
I0930 04:42:44.409138 15120 net.cpp:148] Top shape: 50 512 1 1 (25600)
I0930 04:42:44.409138 15120 net.cpp:156] Memory required for data: 567193800
I0930 04:42:44.409138 15120 layer_factory.hpp:77] Creating layer poolcp6
I0930 04:42:44.409138 15120 net.cpp:91] Creating Layer poolcp6
I0930 04:42:44.409138 15120 net.cpp:425] poolcp6 <- scale_ccp6
I0930 04:42:44.409138 15120 net.cpp:399] poolcp6 -> poolcp6
I0930 04:42:44.409138 15120 net.cpp:141] Setting up poolcp6
I0930 04:42:44.409138 15120 net.cpp:148] Top shape: 50 512 1 1 (25600)
I0930 04:42:44.409138 15120 net.cpp:156] Memory required for data: 567296200
I0930 04:42:44.409138 15120 layer_factory.hpp:77] Creating layer fc_conv
I0930 04:42:44.409138 15120 net.cpp:91] Creating Layer fc_conv
I0930 04:42:44.409138 15120 net.cpp:425] fc_conv <- poolcp6
I0930 04:42:44.409138 15120 net.cpp:399] fc_conv -> fc_conv
I0930 04:42:44.420017 15120 net.cpp:141] Setting up fc_conv
I0930 04:42:44.420017 15120 net.cpp:148] Top shape: 50 2048 3 3 (921600)
I0930 04:42:44.420017 15120 net.cpp:156] Memory required for data: 570982600
I0930 04:42:44.420017 15120 layer_factory.hpp:77] Creating layer ipf0
I0930 04:42:44.420017 15120 net.cpp:91] Creating Layer ipf0
I0930 04:42:44.420017 15120 net.cpp:425] ipf0 <- fc_conv
I0930 04:42:44.420017 15120 net.cpp:399] ipf0 -> ipf0
I0930 04:42:44.436357 15120 net.cpp:141] Setting up ipf0
I0930 04:42:44.436357 15120 net.cpp:148] Top shape: 50 100 (5000)
I0930 04:42:44.436357 15120 net.cpp:156] Memory required for data: 571002600
I0930 04:42:44.436357 15120 layer_factory.hpp:77] Creating layer loss
I0930 04:42:44.436357 15120 net.cpp:91] Creating Layer loss
I0930 04:42:44.436357 15120 net.cpp:425] loss <- ipf0
I0930 04:42:44.436357 15120 net.cpp:425] loss <- label_fine
I0930 04:42:44.436357 15120 net.cpp:399] loss -> loss
I0930 04:42:44.436357 15120 layer_factory.hpp:77] Creating layer loss
…
I0930 04:42:44.440359 15120 net.cpp:313] The NetState phase (1) differed from the phase (0) specified by a rule in layer bn_cccp5
I0930 04:42:44.440359 15120 net.cpp:313] The NetState phase (1) differed from the phase (0) specified by a rule in layer bn_cccp6
I0930 04:42:44.441360 15120 net.cpp:49] Initializing net from parameters: 
name: "CIFAR100_full"
state {
  phase: TEST
}
layer {
  name: "cifar"
  type: "Data"
  top: "data"
  top: "label_fine"
  include {
    phase: TEST
  }
  transform_param {
    mirror: true
    crop_size: 32
  }
  data_param {
    source: "examples/cifar100/cifar100_test_leveldb_padding"
    batch_size: 50
    backend: LEVELDB
  }
}
layer {
  name: "conv1"
  type: "Convolution"
  bottom: "data"
  top: "conv1"
  param {
    lr_mult: 1
  }
  convolution_param {
    num_output: 64
    bias_term: true
    pad: 1
    kernel_size: 3
    stride: 1
    weight_filler {
      type: "xavier"
    }
  }
}
layer {
  name: "bn1"
  type: "BatchNorm"
  bottom: "conv1"
  top: "bn1"
  param {
    lr_mult: 0
    decay_mult: 0
  }
  param {
    lr_mult: 0
    decay_mult: 0
  }
  param {
    lr_mult: 0
    decay_mult: 0
  }
  include {
    phase: TEST
  }
  batch_norm_param {
    use_global_stats: true
    moving_average_fraction: 0.95
  }
}
layer {
  name: "scale1"
  type: "Scale"
  bottom: "bn1"
  top: "scale1"
  scale_param {
    bias_term: true
  }
}
layer {
  name: "relu1"
  type: "ReLU"
  bottom: "scale1"
  top: "scale1"
}
layer {
  name: "conv1_0"
  type: "Convolution"
  bottom: "scale1"
  top: "conv1_0"
  param {
    lr_mult: 1
  }
  convolution_param {
    num_output: 128
    bias_term: true
    pad: 1
    kernel_size: 3
    stride: 1
    weight_filler {
      type: "xavier"
    }
  }
}
layer {
  name: "bn1_0"
  type: "BatchNorm"
  bottom: "conv1_0"
  top: "bn1_0"
  param {
    lr_mult: 0
    decay_mult: 0
  }
  param {
    lr_mult: 0
    decay_mult: 0
  }
  param {
    lr_mult: 0
    decay_mult: 0
  }
  include {
    phase: TEST
  }
  batch_norm_param {
    use_global_stats: true
    moving_average_fraction: 0.95
  }
}
layer {
  name: "scale1_0"
  type: "Scale"
  bottom: "bn1_0"
  top: "scale1_0"
  scale_param {
    bias_term: true
  }
}
layer {
  name: "relu1_0"
  type: "ReLU"
  bottom: "scale1_0"
  top: "scale1_0"
}
layer {
  name: "conv2"
  type: "Convolution"
  bottom: "scale1_0"
  top: "conv2"
  param {
    lr_mult: 1
  }
  convolution_param {
    num_output: 128
    bias_term: true
    pad: 1
    kernel_size: 3
    stride: 1
    weight_filler {
      type: "gaussian"
      std: 0.01
    }
  }
}
layer {
  name: "bn2"
  type: "BatchNorm"
  bottom: "conv2"
  top: "bn2"
  param {
    lr_mult: 0
    decay_mult: 0
  }
  param {
    lr_mult: 0
    decay_mult: 0
  }
  param {
    lr_mult: 0
    decay_mult: 0
  }
  include {
    phase: TEST
  }
  batch_norm_param {
    use_global_stats: true
    moving_average_fraction: 0.95
  }
}
layer {
  name: "scale2"
  type: "Scale"
  bottom: "bn2"
  top: "scale2"
  scale_param {
    bias_term: true
  }
}
layer {
  name: "relu2"
  type: "ReLU"
  bottom: "scale2"
  top: "scale2"
}
layer {
  name: "conv2_1"
  type: "Convolution"
  bottom: "scale2"
  top: "conv2_1"
  param {
    lr_mult: 1
  }
  convolution_param {
    num_output: 128
    bias_term: true
    pad: 1
    kernel_size: 3
    stride: 1
    weight_filler {
      type: "gaussian"
      std: 0.01
    }
  }
}
layer {
  name: "bn2_1"
  type: "BatchNorm"
  bottom: "conv2_1"
  top: "bn2_1"
  param {
    lr_mult: 0
    decay_mult: 0
  }
  param {
    lr_mult: 0
    decay_mult: 0
  }
  param {
    lr_mult: 0
    decay_mult: 0
  }
  include {
    phase: TEST
  }
  batch_norm_param {
    use_global_stats: true
    moving_average_fraction: 0.95
  }
}
layer {
  name: "scale2_1"
  type: "Scale"
  bottom: "bn2_1"
  top: "scale2_1"
  scale_param {
    bias_term: true
  }
}
layer {
  name: "relu2_1"
  type: "ReLU"
  bottom: "scale2_1"
  top: "scale2_1"
}
layer {
  name: "pool2_1"
  type: "Pooling"
  bottom: "scale2_1"
  top: "pool2_1"
  pooling_param {
    pool: MAX
    kernel_size: 2
    stride: 2
  }
}
layer {
  name: "conv2_2"
  type: "Convolution"
  bottom: "pool2_1"
  top: "conv2_2"
  param {
    lr_mult: 1
  }
  convolution_param {
    num_output: 256
    bias_term: true
    pad: 1
    kernel_size: 3
    stride: 1
    weight_filler {
      type: "gaussian"
      std: 0.01
    }
  }
}
layer {
  name: "bn2_2"
  type: "BatchNorm"
  bottom: "conv2_2"
  top: "bn2_2"
  param {
    lr_mult: 0
    decay_mult: 0
  }
  param {
    lr_mult: 0
    decay_mult: 0
  }
  param {
    lr_mult: 0
    decay_mult: 0
  }
  include {
    phase: TEST
  }
  batch_norm_param {
    use_global_stats: true
    moving_average_fraction: 0.95
  }
}
layer {
  name: "scale2_2"
  type: "Scale"
  bottom: "bn2_2"
  top: "scale2_2"
  scale_param {
    bias_term: true
  }
}
layer {
  name: "relu2_2"
  type: "ReLU"
  bottom: "scale2_2"
  top: "scale2_2"
}
layer {
  name: "conv3"
  type: "Convolution"
  bottom: "scale2_2"
  top: "conv3"
  param {
    lr_mult: 1
  }
  convolution_param {
    num_output: 256
    bias_term: true
    pad: 1
    kernel_size: 3
    stride: 1
    weight_filler {
      type: "xavier"
    }
  }
}
layer {
  name: "bn3"
  type: "BatchNorm"
  bottom: "conv3"
  top: "bn3"
  param {
    lr_mult: 0
    decay_mult: 0
  }
  param {
    lr_mult: 0
    decay_mult: 0
  }
  param {
    lr_mult: 0
    decay_mult: 0
  }
  include {
    phase: TEST
  }
  batch_norm_param {
    use_global_stats: true
    moving_average_fraction: 0.95
  }
}
layer {
  name: "scale3"
  type: "Scale"
  bottom: "bn3"
  top: "scale3"
  scale_param {
    bias_term: true
  }
}
layer {
  name: "relu3"
  type: "ReLU"
  bottom: "scale3"
  top: "scale3"
}
layer {
  name: "conv4"
  type: "Convolution"
  bottom: "scale3"
  top: "conv4"
  param {
    lr_mult: 1
  }
  convolution_param {
    num_output: 256
    bias_term: true
    pad: 1
    kernel_size: 3
    stride: 1
    weight_filler {
      type: "xavier"
    }
  }
}
layer {
  name: "pool4"
  type: "Pooling"
  bottom: "conv4"
  top: "pool4"
  pooling_param {
    pool: MAX
    kernel_size: 2
    stride: 2
  }
}
layer {
  name: "bn4"
  type: "BatchNorm"
  bottom: "pool4"
  top: "bn4"
  param {
    lr_mult: 0
    decay_mult: 0
  }
  param {
    lr_mult: 0
    decay_mult: 0
  }
  param {
    lr_mult: 0
    decay_mult: 0
  }
  include {
    phase: TEST
  }
  batch_norm_param {
    use_global_stats: true
    moving_average_fraction: 0.95
  }
}
layer {
  name: "scale4"
  type: "Scale"
  bottom: "bn4"
  top: "scale4"
  scale_param {
    bias_term: true
  }
}
layer {
  name: "relu4"
  type: "ReLU"
  bottom: "scale4"
  top: "scale4"
}
layer {
  name: "conv4_1"
  type: "Convolution"
  bottom: "scale4"
  top: "conv4_1"
  param {
    lr_mult: 1
  }
  convolution_param {
    num_output: 256
    bias_term: true
    pad: 1
    kernel_size: 3
    stride: 1
    weight_filler {
      type: "xavier"
    }
  }
}
layer {
  name: "bn4_1"
  type: "BatchNorm"
  bottom: "conv4_1"
  top: "bn4_1"
  param {
    lr_mult: 0
    decay_mult: 0
  }
  param {
    lr_mult: 0
    decay_mult: 0
  }
  param {
    lr_mult: 0
    decay_mult: 0
  }
  include {
    phase: TEST
  }
  batch_norm_param {
    use_global_stats: true
    moving_average_fraction: 0.95
  }
}
layer {
  name: "scale4_1"
  type: "Scale"
  bottom: "bn4_1"
  top: "scale4_1"
  scale_param {
    bias_term: true
  }
}
layer {
  name: "relu4_1"
  type: "ReLU"
  bottom: "scale4_1"
  top: "scale4_1"
}
layer {
  name: "conv4_2"
  type: "Convolution"
  bottom: "scale4_1"
  top: "conv4_2"
  param {
    lr_mult: 1
  }
  convolution_param {
    num_output: 256
    bias_term: true
    pad: 1
    kernel_size: 3
    stride: 1
    weight_filler {
      type: "xavier"
    }
  }
}
layer {
  name: "bn4_2"
  type: "BatchNorm"
  bottom: "conv4_2"
  top: "bn4_2"
  param {
    lr_mult: 0
    decay_mult: 0
  }
  param {
    lr_mult: 0
    decay_mult: 0
  }
  param {
    lr_mult: 0
    decay_mult: 0
  }
  include {
    phase: TEST
  }
  batch_norm_param {
    use_global_stats: true
    moving_average_fraction: 0.95
  }
}
layer {
  name: "scale4_2"
  type: "Scale"
  bottom: "bn4_2"
  top: "scale4_2"
  scale_param {
    bias_term: true
  }
}
layer {
  name: "relu4_2"
  type: "ReLU"
  bottom: "scale4_2"
  top: "scale4_2"
}
layer {
  name: "pool4_2"
  type: "Pooling"
  bottom: "scale4_2"
  top: "pool4_2"
  pooling_param {
    pool: MAX
    kernel_size: 2
    stride: 2
  }
}
layer {
  name: "conv4_0"
  type: "Convolution"
  bottom: "pool4_2"
  top: "conv4_0"
  param {
    lr_mult: 1
  }
  convolution_param {
    num_output: 512
    bias_term: true
    pad: 1
    kernel_size: 3
    stride: 1
    weight_filler {
      type: "xavier"
    }
  }
}
layer {
  name: "bn4_0"
  type: "BatchNorm"
  bottom: "conv4_0"
  top: "bn4_0"
  param {
    lr_mult: 0
    decay_mult: 0
  }
  param {
    lr_mult: 0
    decay_mult: 0
  }
  param {
    lr_mult: 0
    decay_mult: 0
  }
  include {
    phase: TEST
  }
  batch_norm_param {
    use_global_stats: true
    moving_average_fraction: 0.95
  }
}
layer {
  name: "scale4_0"
  type: "Scale"
  bottom: "bn4_0"
  top: "scale4_0"
  scale_param {
    bias_term: true
  }
}
layer {
  name: "relu4_0"
  type: "ReLU"
  bottom: "scale4_0"
  top: "scale4_0"
}
layer {
  name: "cccp4"
  type: "Convolution"
  bottom: "scale4_0"
  top: "cccp4"
  param {
    lr_mult: 1
    decay_mult: 1
  }
  param {
    lr_mult: 2
    decay_mult: 0
  }
  convolution_param {
    num_output: 2048
    kernel_size: 1
    group: 1
    weight_filler {
      type: "xavier"
    }
    bias_filler {
      type: "constant"
      value: 0
    }
  }
}
layer {
  name: "bn_cccp4"
  type: "BatchNorm"
  bottom: "cccp4"
  top: "bn_cccp4"
  param {
    lr_mult: 0
    decay_mult: 0
  }
  param {
    lr_mult: 0
    decay_mult: 0
  }
  param {
    lr_mult: 0
    decay_mult: 0
  }
  include {
    phase: TEST
  }
  batch_norm_param {
    use_global_stats: true
    moving_average_fraction: 0.95
  }
}
layer {
  name: "scale_ccp4"
  type: "Scale"
  bottom: "bn_cccp4"
  top: "scale_ccp4"
  scale_param {
    bias_term: true
  }
}
layer {
  name: "relu_cccp4"
  type: "ReLU"
  bottom: "scale_ccp4"
  top: "scale_ccp4"
}
layer {
  name: "cccp5"
  type: "Convolution"
  bottom: "scale_ccp4"
  top: "cccp5"
  param {
    lr_mult: 1
    decay_mult: 1
  }
  param {
    lr_mult: 2
    decay_mult: 0
  }
  convolution_param {
    num_output: 512
    kernel_size: 3
    group: 1
    weight_filler {
      type: "xavier"
    }
    bias_filler {
      type: "constant"
      value: 0
    }
  }
}
layer {
  name: "bn_cccp5"
  type: "BatchNorm"
  bottom: "cccp5"
  top: "bn_cccp5"
  param {
    lr_mult: 0
    decay_mult: 0
  }
  param {
    lr_mult: 0
    decay_mult: 0
  }
  param {
    lr_mult: 0
    decay_mult: 0
  }
  include {
    phase: TEST
  }
  batch_norm_param {
    use_global_stats: true
    moving_average_fraction: 0.95
  }
}
layer {
  name: "scale_ccp5"
  type: "Scale"
  bottom: "bn_cccp5"
  top: "scale_ccp5"
  scale_param {
    bias_term: true
  }
}
layer {
  name: "relu_cccp5"
  type: "ReLU"
  bottom: "scale_ccp5"
  top: "scale_ccp5"
}
layer {
  name: "poolcp5"
  type: "Pooling"
  bottom: "scale_ccp5"
  top: "poolcp5"
  pooling_param {
    pool: MAX
    kernel_size: 2
    stride: 2
  }
}
layer {
  name: "cccp6"
  type: "Convolution"
  bottom: "poolcp5"
  top: "cccp6"
  param {
    lr_mult: 1
    decay_mult: 1
  }
  param {
    lr_mult: 2
    decay_mult: 0
  }
  convolution_param {
    num_output: 512
    pad: 1
    kernel_size: 3
    group: 1
    weight_filler {
      type: "xavier"
    }
    bias_filler {
      type: "constant"
      value: 0
    }
  }
}
layer {
  name: "bn_cccp6"
  type: "BatchNorm"
  bottom: "cccp6"
  top: "bn_cccp6"
  param {
    lr_mult: 0
    decay_mult: 0
  }
  param {
    lr_mult: 0
    decay_mult: 0
  }
  param {
    lr_mult: 0
    decay_mult: 0
  }
  include {
    phase: TEST
  }
  batch_norm_param {
    use_global_stats: true
    moving_average_fraction: 0.95
  }
}
layer {
  name: "scale_ccp6"
  type: "Scale"
  bottom: "bn_cccp6"
  top: "scale_ccp6"
  scale_param {
    bias_term: true
  }
}
layer {
  name: "relu_cccp6"
  type: "ReLU"
  bottom: "scale_ccp6"
  top: "scale_ccp6"
}
layer {
  name: "poolcp6"
  type: "Pooling"
  bottom: "scale_ccp6"
  top: "poolcp6"
  pooling_param {
    pool: MAX
    kernel_size: 2
    stride: 2
  }
}
layer {
  name: "fc_conv"
  type: "Convolution"
  bottom: "poolcp6"
  top: "fc_conv"
  param {
    lr_mult: 1
    decay_mult: 1
  }
  param {
    lr_mult: 2
    decay_mult: 0
  }
  convolution_param {
    num_output: 2048
    pad: 1
    kernel_size: 1
    group: 1
    weight_filler {
      type: "xavier"
    }
    bias_filler {
      type: "constant"
      value: 0
    }
  }
}
layer {
  name: "ipf0"
  type: "InnerProduct"
  bottom: "fc_conv"
  top: "ipf0"
  param {
    lr_mult: 1
    decay_mult: 0
  }
  param {
    lr_mult: 2
    decay_mult: 0
  }
  inner_product_param {
    num_output: 100
    weight_filler {
      type: "xavier"
    }
    bias_filler {
      type: "constant"
    }
  }
}
layer {
  name: "accuracy"
  type: "Accuracy"
  bottom: "ipf0"
  bottom: "label_fine"
  top: "accuracy"
  include {
    phase: TEST
  }
}
layer {
  name: "loss"
  type: "SoftmaxWithLoss"
  bottom: "ipf0"
  bottom: "label_fine"
  top: "loss"
}
I0930 04:42:44.441360 15120 layer_factory.hpp:77] Creating layer cifar
I0930 04:42:44.442360 15120 net.cpp:91] Creating Layer cifar
I0930 04:42:44.442360 15120 net.cpp:399] cifar -> data
I0930 04:42:44.442360 15120 net.cpp:399] cifar -> label_fine
I0930 04:42:44.443361  6132 common.cpp:36] System entropy source not available, using fallback algorithm to generate seed instead.
I0930 04:42:44.446363  6132 db_leveldb.cpp:18] Opened leveldb examples/cifar100/cifar100_test_leveldb_padding
I0930 04:42:44.447365 15120 data_layer.cpp:41] output data size: 50,3,32,32
I0930 04:42:44.453368 15120 net.cpp:141] Setting up cifar
I0930 04:42:44.453368 15120 net.cpp:148] Top shape: 50 3 32 32 (153600)
I0930 04:42:44.453368 15120 net.cpp:148] Top shape: 50 (50)
I0930 04:42:44.453368 15120 net.cpp:156] Memory required for data: 614600
I0930 04:42:44.453368 15120 layer_factory.hpp:77] Creating layer label_fine_cifar_1_split
I0930 04:42:44.453368 15120 net.cpp:91] Creating Layer label_fine_cifar_1_split
I0930 04:42:44.453368 15120 net.cpp:425] label_fine_cifar_1_split <- label_fine
I0930 04:42:44.453368 15120 net.cpp:399] label_fine_cifar_1_split -> label_fine_cifar_1_split_0
I0930 04:42:44.453368 15120 net.cpp:399] label_fine_cifar_1_split -> label_fine_cifar_1_split_1
I0930 04:42:44.453368 15120 net.cpp:141] Setting up label_fine_cifar_1_split
I0930 04:42:44.453368 15120 net.cpp:148] Top shape: 50 (50)
I0930 04:42:44.453368 15120 net.cpp:148] Top shape: 50 (50)
I0930 04:42:44.453368 15120 net.cpp:156] Memory required for data: 615000
I0930 04:42:44.453368 15120 layer_factory.hpp:77] Creating layer conv1
I0930 04:42:44.453368 15120 net.cpp:91] Creating Layer conv1
I0930 04:42:44.453368 15120 net.cpp:425] conv1 <- data
I0930 04:42:44.453368 15120 net.cpp:399] conv1 -> conv1
I0930 04:42:44.455370 15120 net.cpp:141] Setting up conv1
I0930 04:42:44.455370 15120 net.cpp:148] Top shape: 50 64 32 32 (3276800)
I0930 04:42:44.456370 15120 net.cpp:156] Memory required for data: 13722200
I0930 04:42:44.456370 15120 layer_factory.hpp:77] Creating layer bn1
I0930 04:42:44.456370 15120 net.cpp:91] Creating Layer bn1
I0930 04:42:44.456370 15120 net.cpp:425] bn1 <- conv1
I0930 04:42:44.456370 15120 net.cpp:399] bn1 -> bn1
I0930 04:42:44.456370 12176 common.cpp:36] System entropy source not available, using fallback algorithm to generate seed instead.
I0930 04:42:44.456370 15120 net.cpp:141] Setting up bn1
I0930 04:42:44.456370 15120 net.cpp:148] Top shape: 50 64 32 32 (3276800)
I0930 04:42:44.456370 15120 net.cpp:156] Memory required for data: 26829400
I0930 04:42:44.456370 15120 layer_factory.hpp:77] Creating layer scale1
I0930 04:42:44.456370 15120 net.cpp:91] Creating Layer scale1
I0930 04:42:44.456370 15120 net.cpp:425] scale1 <- bn1
I0930 04:42:44.456370 15120 net.cpp:399] scale1 -> scale1
I0930 04:42:44.456370 15120 layer_factory.hpp:77] Creating layer scale1
I0930 04:42:44.457371 15120 net.cpp:141] Setting up scale1
I0930 04:42:44.457371 15120 net.cpp:148] Top shape: 50 64 32 32 (3276800)
I0930 04:42:44.457371 15120 net.cpp:156] Memory required for data: 39936600
I0930 04:42:44.457371 15120 layer_factory.hpp:77] Creating layer relu1
I0930 04:42:44.457371 15120 net.cpp:91] Creating Layer relu1
I0930 04:42:44.457371 15120 net.cpp:425] relu1 <- scale1
I0930 04:42:44.457371 15120 net.cpp:386] relu1 -> scale1 (in-place)
I0930 04:42:44.457371 15120 net.cpp:141] Setting up relu1
I0930 04:42:44.457371 15120 net.cpp:148] Top shape: 50 64 32 32 (3276800)
I0930 04:42:44.457371 15120 net.cpp:156] Memory required for data: 53043800
I0930 04:42:44.457371 15120 layer_factory.hpp:77] Creating layer conv1_0
I0930 04:42:44.457371 15120 net.cpp:91] Creating Layer conv1_0
I0930 04:42:44.457371 15120 net.cpp:425] conv1_0 <- scale1
I0930 04:42:44.457371 15120 net.cpp:399] conv1_0 -> conv1_0
I0930 04:42:44.459959 15120 net.cpp:141] Setting up conv1_0
I0930 04:42:44.459959 15120 net.cpp:148] Top shape: 50 128 32 32 (6553600)
I0930 04:42:44.459959 15120 net.cpp:156] Memory required for data: 79258200
I0930 04:42:44.459959 15120 layer_factory.hpp:77] Creating layer bn1_0
I0930 04:42:44.459959 15120 net.cpp:91] Creating Layer bn1_0
I0930 04:42:44.459959 15120 net.cpp:425] bn1_0 <- conv1_0
I0930 04:42:44.459959 15120 net.cpp:399] bn1_0 -> bn1_0
I0930 04:42:44.459959 15120 net.cpp:141] Setting up bn1_0
I0930 04:42:44.459959 15120 net.cpp:148] Top shape: 50 128 32 32 (6553600)
I0930 04:42:44.459959 15120 net.cpp:156] Memory required for data: 105472600
I0930 04:42:44.459959 15120 layer_factory.hpp:77] Creating layer scale1_0
I0930 04:42:44.459959 15120 net.cpp:91] Creating Layer scale1_0
I0930 04:42:44.459959 15120 net.cpp:425] scale1_0 <- bn1_0
I0930 04:42:44.459959 15120 net.cpp:399] scale1_0 -> scale1_0
I0930 04:42:44.459959 15120 layer_factory.hpp:77] Creating layer scale1_0
I0930 04:42:44.459959 15120 net.cpp:141] Setting up scale1_0
I0930 04:42:44.459959 15120 net.cpp:148] Top shape: 50 128 32 32 (6553600)
I0930 04:42:44.459959 15120 net.cpp:156] Memory required for data: 131687000
I0930 04:42:44.459959 15120 layer_factory.hpp:77] Creating layer relu1_0
I0930 04:42:44.459959 15120 net.cpp:91] Creating Layer relu1_0
I0930 04:42:44.459959 15120 net.cpp:425] relu1_0 <- scale1_0
I0930 04:42:44.459959 15120 net.cpp:386] relu1_0 -> scale1_0 (in-place)
I0930 04:42:44.460961 15120 net.cpp:141] Setting up relu1_0
I0930 04:42:44.460961 15120 net.cpp:148] Top shape: 50 128 32 32 (6553600)
I0930 04:42:44.460961 15120 net.cpp:156] Memory required for data: 157901400
I0930 04:42:44.460961 15120 layer_factory.hpp:77] Creating layer conv2
I0930 04:42:44.460961 15120 net.cpp:91] Creating Layer conv2
I0930 04:42:44.460961 15120 net.cpp:425] conv2 <- scale1_0
I0930 04:42:44.460961 15120 net.cpp:399] conv2 -> conv2
I0930 04:42:44.464354 15120 net.cpp:141] Setting up conv2
I0930 04:42:44.464354 15120 net.cpp:148] Top shape: 50 128 32 32 (6553600)
I0930 04:42:44.464354 15120 net.cpp:156] Memory required for data: 184115800
I0930 04:42:44.464354 15120 layer_factory.hpp:77] Creating layer bn2
I0930 04:42:44.464354 15120 net.cpp:91] Creating Layer bn2
I0930 04:42:44.464354 15120 net.cpp:425] bn2 <- conv2
I0930 04:42:44.464354 15120 net.cpp:399] bn2 -> bn2
I0930 04:42:44.464354 15120 net.cpp:141] Setting up bn2
I0930 04:42:44.464354 15120 net.cpp:148] Top shape: 50 128 32 32 (6553600)
I0930 04:42:44.464354 15120 net.cpp:156] Memory required for data: 210330200
I0930 04:42:44.464354 15120 layer_factory.hpp:77] Creating layer scale2
I0930 04:42:44.464354 15120 net.cpp:91] Creating Layer scale2
I0930 04:42:44.464354 15120 net.cpp:425] scale2 <- bn2
I0930 04:42:44.464354 15120 net.cpp:399] scale2 -> scale2
I0930 04:42:44.464354 15120 layer_factory.hpp:77] Creating layer scale2
I0930 04:42:44.464354 15120 net.cpp:141] Setting up scale2
I0930 04:42:44.464354 15120 net.cpp:148] Top shape: 50 128 32 32 (6553600)
I0930 04:42:44.464354 15120 net.cpp:156] Memory required for data: 236544600
I0930 04:42:44.464354 15120 layer_factory.hpp:77] Creating layer relu2
I0930 04:42:44.464354 15120 net.cpp:91] Creating Layer relu2
I0930 04:42:44.465356 15120 net.cpp:425] relu2 <- scale2
I0930 04:42:44.465356 15120 net.cpp:386] relu2 -> scale2 (in-place)
I0930 04:42:44.465657 15120 net.cpp:141] Setting up relu2
I0930 04:42:44.465657 15120 net.cpp:148] Top shape: 50 128 32 32 (6553600)
I0930 04:42:44.465657 15120 net.cpp:156] Memory required for data: 262759000
I0930 04:42:44.465657 15120 layer_factory.hpp:77] Creating layer conv2_1
I0930 04:42:44.465657 15120 net.cpp:91] Creating Layer conv2_1
I0930 04:42:44.465657 15120 net.cpp:425] conv2_1 <- scale2
I0930 04:42:44.465657 15120 net.cpp:399] conv2_1 -> conv2_1
I0930 04:42:44.469435 15120 net.cpp:141] Setting up conv2_1
I0930 04:42:44.469435 15120 net.cpp:148] Top shape: 50 128 32 32 (6553600)
I0930 04:42:44.469435 15120 net.cpp:156] Memory required for data: 288973400
I0930 04:42:44.469435 15120 layer_factory.hpp:77] Creating layer bn2_1
I0930 04:42:44.469435 15120 net.cpp:91] Creating Layer bn2_1
I0930 04:42:44.469435 15120 net.cpp:425] bn2_1 <- conv2_1
I0930 04:42:44.469435 15120 net.cpp:399] bn2_1 -> bn2_1
I0930 04:42:44.469435 15120 net.cpp:141] Setting up bn2_1
I0930 04:42:44.469435 15120 net.cpp:148] Top shape: 50 128 32 32 (6553600)
I0930 04:42:44.469435 15120 net.cpp:156] Memory required for data: 315187800
I0930 04:42:44.469435 15120 layer_factory.hpp:77] Creating layer scale2_1
I0930 04:42:44.469435 15120 net.cpp:91] Creating Layer scale2_1
I0930 04:42:44.469435 15120 net.cpp:425] scale2_1 <- bn2_1
I0930 04:42:44.469435 15120 net.cpp:399] scale2_1 -> scale2_1
I0930 04:42:44.469435 15120 layer_factory.hpp:77] Creating layer scale2_1
I0930 04:42:44.469435 15120 net.cpp:141] Setting up scale2_1
I0930 04:42:44.469435 15120 net.cpp:148] Top shape: 50 128 32 32 (6553600)
I0930 04:42:44.469435 15120 net.cpp:156] Memory required for data: 341402200
I0930 04:42:44.469435 15120 layer_factory.hpp:77] Creating layer relu2_1
I0930 04:42:44.469435 15120 net.cpp:91] Creating Layer relu2_1
I0930 04:42:44.469435 15120 net.cpp:425] relu2_1 <- scale2_1
I0930 04:42:44.469435 15120 net.cpp:386] relu2_1 -> scale2_1 (in-place)
I0930 04:42:44.470438 15120 net.cpp:141] Setting up relu2_1
I0930 04:42:44.470438 15120 net.cpp:148] Top shape: 50 128 32 32 (6553600)
I0930 04:42:44.470438 15120 net.cpp:156] Memory required for data: 367616600
I0930 04:42:44.470438 15120 layer_factory.hpp:77] Creating layer pool2_1
I0930 04:42:44.470438 15120 net.cpp:91] Creating Layer pool2_1
I0930 04:42:44.470438 15120 net.cpp:425] pool2_1 <- scale2_1
I0930 04:42:44.470438 15120 net.cpp:399] pool2_1 -> pool2_1
I0930 04:42:44.470438 15120 net.cpp:141] Setting up pool2_1
I0930 04:42:44.470438 15120 net.cpp:148] Top shape: 50 128 16 16 (1638400)
I0930 04:42:44.470438 15120 net.cpp:156] Memory required for data: 374170200
I0930 04:42:44.470438 15120 layer_factory.hpp:77] Creating layer conv2_2
I0930 04:42:44.470438 15120 net.cpp:91] Creating Layer conv2_2
I0930 04:42:44.470438 15120 net.cpp:425] conv2_2 <- pool2_1
I0930 04:42:44.470438 15120 net.cpp:399] conv2_2 -> conv2_2
I0930 04:42:44.476632 15120 net.cpp:141] Setting up conv2_2
I0930 04:42:44.476632 15120 net.cpp:148] Top shape: 50 256 16 16 (3276800)
I0930 04:42:44.476632 15120 net.cpp:156] Memory required for data: 387277400
I0930 04:42:44.476632 15120 layer_factory.hpp:77] Creating layer bn2_2
I0930 04:42:44.476632 15120 net.cpp:91] Creating Layer bn2_2
I0930 04:42:44.476632 15120 net.cpp:425] bn2_2 <- conv2_2
I0930 04:42:44.476632 15120 net.cpp:399] bn2_2 -> bn2_2
I0930 04:42:44.477633 15120 net.cpp:141] Setting up bn2_2
I0930 04:42:44.477633 15120 net.cpp:148] Top shape: 50 256 16 16 (3276800)
I0930 04:42:44.477633 15120 net.cpp:156] Memory required for data: 400384600
I0930 04:42:44.477633 15120 layer_factory.hpp:77] Creating layer scale2_2
I0930 04:42:44.477633 15120 net.cpp:91] Creating Layer scale2_2
I0930 04:42:44.477633 15120 net.cpp:425] scale2_2 <- bn2_2
I0930 04:42:44.477633 15120 net.cpp:399] scale2_2 -> scale2_2
I0930 04:42:44.477633 15120 layer_factory.hpp:77] Creating layer scale2_2
I0930 04:42:44.477633 15120 net.cpp:141] Setting up scale2_2
I0930 04:42:44.477633 15120 net.cpp:148] Top shape: 50 256 16 16 (3276800)
I0930 04:42:44.477633 15120 net.cpp:156] Memory required for data: 413491800
I0930 04:42:44.477633 15120 layer_factory.hpp:77] Creating layer relu2_2
I0930 04:42:44.477633 15120 net.cpp:91] Creating Layer relu2_2
I0930 04:42:44.477633 15120 net.cpp:425] relu2_2 <- scale2_2
I0930 04:42:44.477633 15120 net.cpp:386] relu2_2 -> scale2_2 (in-place)
I0930 04:42:44.477633 15120 net.cpp:141] Setting up relu2_2
I0930 04:42:44.478634 15120 net.cpp:148] Top shape: 50 256 16 16 (3276800)
I0930 04:42:44.478634 15120 net.cpp:156] Memory required for data: 426599000
I0930 04:42:44.478634 15120 layer_factory.hpp:77] Creating layer conv3
I0930 04:42:44.478634 15120 net.cpp:91] Creating Layer conv3
I0930 04:42:44.478634 15120 net.cpp:425] conv3 <- scale2_2
I0930 04:42:44.478634 15120 net.cpp:399] conv3 -> conv3
I0930 04:42:44.484925 15120 net.cpp:141] Setting up conv3
I0930 04:42:44.484925 15120 net.cpp:148] Top shape: 50 256 16 16 (3276800)
I0930 04:42:44.484925 15120 net.cpp:156] Memory required for data: 439706200
I0930 04:42:44.484925 15120 layer_factory.hpp:77] Creating layer bn3
I0930 04:42:44.484925 15120 net.cpp:91] Creating Layer bn3
I0930 04:42:44.484925 15120 net.cpp:425] bn3 <- conv3
I0930 04:42:44.484925 15120 net.cpp:399] bn3 -> bn3
I0930 04:42:44.484925 15120 net.cpp:141] Setting up bn3
I0930 04:42:44.484925 15120 net.cpp:148] Top shape: 50 256 16 16 (3276800)
I0930 04:42:44.484925 15120 net.cpp:156] Memory required for data: 452813400
I0930 04:42:44.484925 15120 layer_factory.hpp:77] Creating layer scale3
I0930 04:42:44.484925 15120 net.cpp:91] Creating Layer scale3
I0930 04:42:44.484925 15120 net.cpp:425] scale3 <- bn3
I0930 04:42:44.484925 15120 net.cpp:399] scale3 -> scale3
I0930 04:42:44.485926 15120 layer_factory.hpp:77] Creating layer scale3
I0930 04:42:44.485926 15120 net.cpp:141] Setting up scale3
I0930 04:42:44.485926 15120 net.cpp:148] Top shape: 50 256 16 16 (3276800)
I0930 04:42:44.485926 15120 net.cpp:156] Memory required for data: 465920600
I0930 04:42:44.485926 15120 layer_factory.hpp:77] Creating layer relu3
I0930 04:42:44.485926 15120 net.cpp:91] Creating Layer relu3
I0930 04:42:44.485926 15120 net.cpp:425] relu3 <- scale3
I0930 04:42:44.485926 15120 net.cpp:386] relu3 -> scale3 (in-place)
I0930 04:42:44.486448 15120 net.cpp:141] Setting up relu3
I0930 04:42:44.486448 15120 net.cpp:148] Top shape: 50 256 16 16 (3276800)
I0930 04:42:44.486448 15120 net.cpp:156] Memory required for data: 479027800
I0930 04:42:44.486448 15120 layer_factory.hpp:77] Creating layer conv4
I0930 04:42:44.486448 15120 net.cpp:91] Creating Layer conv4
I0930 04:42:44.486448 15120 net.cpp:425] conv4 <- scale3
I0930 04:42:44.486448 15120 net.cpp:399] conv4 -> conv4
I0930 04:42:44.458372 12176 blocking_queue.cpp:50] Waiting for data
I0930 04:42:44.494454 15120 net.cpp:141] Setting up conv4
I0930 04:42:44.494454 15120 net.cpp:148] Top shape: 50 256 16 16 (3276800)
I0930 04:42:44.494454 15120 net.cpp:156] Memory required for data: 492135000
I0930 04:42:44.494454 15120 layer_factory.hpp:77] Creating layer pool4
I0930 04:42:44.494454 15120 net.cpp:91] Creating Layer pool4
I0930 04:42:44.494454 15120 net.cpp:425] pool4 <- conv4
I0930 04:42:44.494454 15120 net.cpp:399] pool4 -> pool4
I0930 04:42:44.494454 15120 net.cpp:141] Setting up pool4
I0930 04:42:44.494454 15120 net.cpp:148] Top shape: 50 256 8 8 (819200)
I0930 04:42:44.494454 15120 net.cpp:156] Memory required for data: 495411800
I0930 04:42:44.494454 15120 layer_factory.hpp:77] Creating layer bn4
I0930 04:42:44.494454 15120 net.cpp:91] Creating Layer bn4
I0930 04:42:44.494454 15120 net.cpp:425] bn4 <- pool4
I0930 04:42:44.494454 15120 net.cpp:399] bn4 -> bn4
I0930 04:42:44.494454 15120 net.cpp:141] Setting up bn4
I0930 04:42:44.494454 15120 net.cpp:148] Top shape: 50 256 8 8 (819200)
I0930 04:42:44.494454 15120 net.cpp:156] Memory required for data: 498688600
I0930 04:42:44.494454 15120 layer_factory.hpp:77] Creating layer scale4
I0930 04:42:44.495455 15120 net.cpp:91] Creating Layer scale4
I0930 04:42:44.495455 15120 net.cpp:425] scale4 <- bn4
I0930 04:42:44.495455 15120 net.cpp:399] scale4 -> scale4
I0930 04:42:44.495455 15120 layer_factory.hpp:77] Creating layer scale4
I0930 04:42:44.495455 15120 net.cpp:141] Setting up scale4
I0930 04:42:44.495455 15120 net.cpp:148] Top shape: 50 256 8 8 (819200)
I0930 04:42:44.495455 15120 net.cpp:156] Memory required for data: 501965400
I0930 04:42:44.495455 15120 layer_factory.hpp:77] Creating layer relu4
I0930 04:42:44.495455 15120 net.cpp:91] Creating Layer relu4
I0930 04:42:44.495455 15120 net.cpp:425] relu4 <- scale4
I0930 04:42:44.495455 15120 net.cpp:386] relu4 -> scale4 (in-place)
I0930 04:42:44.495455 15120 net.cpp:141] Setting up relu4
I0930 04:42:44.495455 15120 net.cpp:148] Top shape: 50 256 8 8 (819200)
I0930 04:42:44.495455 15120 net.cpp:156] Memory required for data: 505242200
I0930 04:42:44.495455 15120 layer_factory.hpp:77] Creating layer conv4_1
I0930 04:42:44.495455 15120 net.cpp:91] Creating Layer conv4_1
I0930 04:42:44.495455 15120 net.cpp:425] conv4_1 <- scale4
I0930 04:42:44.495455 15120 net.cpp:399] conv4_1 -> conv4_1
I0930 04:42:44.503031 15120 net.cpp:141] Setting up conv4_1
I0930 04:42:44.503031 15120 net.cpp:148] Top shape: 50 256 8 8 (819200)
I0930 04:42:44.503031 15120 net.cpp:156] Memory required for data: 508519000
I0930 04:42:44.503031 15120 layer_factory.hpp:77] Creating layer bn4_1
I0930 04:42:44.503031 15120 net.cpp:91] Creating Layer bn4_1
I0930 04:42:44.503031 15120 net.cpp:425] bn4_1 <- conv4_1
I0930 04:42:44.503031 15120 net.cpp:399] bn4_1 -> bn4_1
I0930 04:42:44.503031 15120 net.cpp:141] Setting up bn4_1
I0930 04:42:44.503031 15120 net.cpp:148] Top shape: 50 256 8 8 (819200)
I0930 04:42:44.503031 15120 net.cpp:156] Memory required for data: 511795800
I0930 04:42:44.503031 15120 layer_factory.hpp:77] Creating layer scale4_1
I0930 04:42:44.503031 15120 net.cpp:91] Creating Layer scale4_1
I0930 04:42:44.503031 15120 net.cpp:425] scale4_1 <- bn4_1
I0930 04:42:44.503031 15120 net.cpp:399] scale4_1 -> scale4_1
I0930 04:42:44.503031 15120 layer_factory.hpp:77] Creating layer scale4_1
I0930 04:42:44.503031 15120 net.cpp:141] Setting up scale4_1
I0930 04:42:44.504032 15120 net.cpp:148] Top shape: 50 256 8 8 (819200)
I0930 04:42:44.504032 15120 net.cpp:156] Memory required for data: 515072600
I0930 04:42:44.504032 15120 layer_factory.hpp:77] Creating layer relu4_1
I0930 04:42:44.504032 15120 net.cpp:91] Creating Layer relu4_1
I0930 04:42:44.504032 15120 net.cpp:425] relu4_1 <- scale4_1
I0930 04:42:44.504032 15120 net.cpp:386] relu4_1 -> scale4_1 (in-place)
I0930 04:42:44.504032 15120 net.cpp:141] Setting up relu4_1
I0930 04:42:44.504032 15120 net.cpp:148] Top shape: 50 256 8 8 (819200)
I0930 04:42:44.504032 15120 net.cpp:156] Memory required for data: 518349400
I0930 04:42:44.504032 15120 layer_factory.hpp:77] Creating layer conv4_2
I0930 04:42:44.504032 15120 net.cpp:91] Creating Layer conv4_2
I0930 04:42:44.504032 15120 net.cpp:425] conv4_2 <- scale4_1
I0930 04:42:44.504032 15120 net.cpp:399] conv4_2 -> conv4_2
I0930 04:42:44.511296 15120 net.cpp:141] Setting up conv4_2
I0930 04:42:44.511296 15120 net.cpp:148] Top shape: 50 256 8 8 (819200)
I0930 04:42:44.511296 15120 net.cpp:156] Memory required for data: 521626200
I0930 04:42:44.511296 15120 layer_factory.hpp:77] Creating layer bn4_2
I0930 04:42:44.511296 15120 net.cpp:91] Creating Layer bn4_2
I0930 04:42:44.511296 15120 net.cpp:425] bn4_2 <- conv4_2
I0930 04:42:44.511296 15120 net.cpp:399] bn4_2 -> bn4_2
I0930 04:42:44.511296 15120 net.cpp:141] Setting up bn4_2
I0930 04:42:44.512297 15120 net.cpp:148] Top shape: 50 256 8 8 (819200)
I0930 04:42:44.512297 15120 net.cpp:156] Memory required for data: 524903000
I0930 04:42:44.512297 15120 layer_factory.hpp:77] Creating layer scale4_2
I0930 04:42:44.512297 15120 net.cpp:91] Creating Layer scale4_2
I0930 04:42:44.512297 15120 net.cpp:425] scale4_2 <- bn4_2
I0930 04:42:44.512297 15120 net.cpp:399] scale4_2 -> scale4_2
I0930 04:42:44.512297 15120 layer_factory.hpp:77] Creating layer scale4_2
I0930 04:42:44.512297 15120 net.cpp:141] Setting up scale4_2
I0930 04:42:44.512297 15120 net.cpp:148] Top shape: 50 256 8 8 (819200)
I0930 04:42:44.512297 15120 net.cpp:156] Memory required for data: 528179800
I0930 04:42:44.512297 15120 layer_factory.hpp:77] Creating layer relu4_2
I0930 04:42:44.512297 15120 net.cpp:91] Creating Layer relu4_2
I0930 04:42:44.512297 15120 net.cpp:425] relu4_2 <- scale4_2
I0930 04:42:44.512297 15120 net.cpp:386] relu4_2 -> scale4_2 (in-place)
I0930 04:42:44.512297 15120 net.cpp:141] Setting up relu4_2
I0930 04:42:44.512297 15120 net.cpp:148] Top shape: 50 256 8 8 (819200)
I0930 04:42:44.512297 15120 net.cpp:156] Memory required for data: 531456600
I0930 04:42:44.512297 15120 layer_factory.hpp:77] Creating layer pool4_2
I0930 04:42:44.512297 15120 net.cpp:91] Creating Layer pool4_2
I0930 04:42:44.512297 15120 net.cpp:425] pool4_2 <- scale4_2
I0930 04:42:44.512297 15120 net.cpp:399] pool4_2 -> pool4_2
I0930 04:42:44.512297 15120 net.cpp:141] Setting up pool4_2
I0930 04:42:44.512297 15120 net.cpp:148] Top shape: 50 256 4 4 (204800)
I0930 04:42:44.512297 15120 net.cpp:156] Memory required for data: 532275800
I0930 04:42:44.512297 15120 layer_factory.hpp:77] Creating layer conv4_0
I0930 04:42:44.512297 15120 net.cpp:91] Creating Layer conv4_0
I0930 04:42:44.513298 15120 net.cpp:425] conv4_0 <- pool4_2
I0930 04:42:44.513298 15120 net.cpp:399] conv4_0 -> conv4_0
I0930 04:42:44.524951 15120 net.cpp:141] Setting up conv4_0
I0930 04:42:44.524951 15120 net.cpp:148] Top shape: 50 512 4 4 (409600)
I0930 04:42:44.524951 15120 net.cpp:156] Memory required for data: 533914200
I0930 04:42:44.524951 15120 layer_factory.hpp:77] Creating layer bn4_0
I0930 04:42:44.524951 15120 net.cpp:91] Creating Layer bn4_0
I0930 04:42:44.524951 15120 net.cpp:425] bn4_0 <- conv4_0
I0930 04:42:44.524951 15120 net.cpp:399] bn4_0 -> bn4_0
I0930 04:42:44.524951 15120 net.cpp:141] Setting up bn4_0
I0930 04:42:44.524951 15120 net.cpp:148] Top shape: 50 512 4 4 (409600)
I0930 04:42:44.524951 15120 net.cpp:156] Memory required for data: 535552600
I0930 04:42:44.524951 15120 layer_factory.hpp:77] Creating layer scale4_0
I0930 04:42:44.524951 15120 net.cpp:91] Creating Layer scale4_0
I0930 04:42:44.524951 15120 net.cpp:425] scale4_0 <- bn4_0
I0930 04:42:44.524951 15120 net.cpp:399] scale4_0 -> scale4_0
I0930 04:42:44.524951 15120 layer_factory.hpp:77] Creating layer scale4_0
I0930 04:42:44.524951 15120 net.cpp:141] Setting up scale4_0
I0930 04:42:44.524951 15120 net.cpp:148] Top shape: 50 512 4 4 (409600)
I0930 04:42:44.524951 15120 net.cpp:156] Memory required for data: 537191000
I0930 04:42:44.524951 15120 layer_factory.hpp:77] Creating layer relu4_0
I0930 04:42:44.524951 15120 net.cpp:91] Creating Layer relu4_0
I0930 04:42:44.524951 15120 net.cpp:425] relu4_0 <- scale4_0
I0930 04:42:44.524951 15120 net.cpp:386] relu4_0 -> scale4_0 (in-place)
I0930 04:42:44.525954 15120 net.cpp:141] Setting up relu4_0
I0930 04:42:44.525954 15120 net.cpp:148] Top shape: 50 512 4 4 (409600)
I0930 04:42:44.525954 15120 net.cpp:156] Memory required for data: 538829400
I0930 04:42:44.525954 15120 layer_factory.hpp:77] Creating layer cccp4
I0930 04:42:44.525954 15120 net.cpp:91] Creating Layer cccp4
I0930 04:42:44.525954 15120 net.cpp:425] cccp4 <- scale4_0
I0930 04:42:44.525954 15120 net.cpp:399] cccp4 -> cccp4
I0930 04:42:44.536469 15120 net.cpp:141] Setting up cccp4
I0930 04:42:44.536469 15120 net.cpp:148] Top shape: 50 2048 4 4 (1638400)
I0930 04:42:44.536469 15120 net.cpp:156] Memory required for data: 545383000
I0930 04:42:44.536469 15120 layer_factory.hpp:77] Creating layer bn_cccp4
I0930 04:42:44.536469 15120 net.cpp:91] Creating Layer bn_cccp4
I0930 04:42:44.536469 15120 net.cpp:425] bn_cccp4 <- cccp4
I0930 04:42:44.536469 15120 net.cpp:399] bn_cccp4 -> bn_cccp4
I0930 04:42:44.536469 15120 net.cpp:141] Setting up bn_cccp4
I0930 04:42:44.536469 15120 net.cpp:148] Top shape: 50 2048 4 4 (1638400)
I0930 04:42:44.536469 15120 net.cpp:156] Memory required for data: 551936600
I0930 04:42:44.536469 15120 layer_factory.hpp:77] Creating layer scale_ccp4
I0930 04:42:44.536469 15120 net.cpp:91] Creating Layer scale_ccp4
I0930 04:42:44.536469 15120 net.cpp:425] scale_ccp4 <- bn_cccp4
I0930 04:42:44.536469 15120 net.cpp:399] scale_ccp4 -> scale_ccp4
I0930 04:42:44.536469 15120 layer_factory.hpp:77] Creating layer scale_ccp4
I0930 04:42:44.536469 15120 net.cpp:141] Setting up scale_ccp4
I0930 04:42:44.536469 15120 net.cpp:148] Top shape: 50 2048 4 4 (1638400)
I0930 04:42:44.536469 15120 net.cpp:156] Memory required for data: 558490200
I0930 04:42:44.536469 15120 layer_factory.hpp:77] Creating layer relu_cccp4
I0930 04:42:44.536469 15120 net.cpp:91] Creating Layer relu_cccp4
I0930 04:42:44.536469 15120 net.cpp:425] relu_cccp4 <- scale_ccp4
I0930 04:42:44.536469 15120 net.cpp:386] relu_cccp4 -> scale_ccp4 (in-place)
I0930 04:42:44.537469 15120 net.cpp:141] Setting up relu_cccp4
I0930 04:42:44.537469 15120 net.cpp:148] Top shape: 50 2048 4 4 (1638400)
I0930 04:42:44.537469 15120 net.cpp:156] Memory required for data: 565043800
I0930 04:42:44.537469 15120 layer_factory.hpp:77] Creating layer cccp5
I0930 04:42:44.537469 15120 net.cpp:91] Creating Layer cccp5
I0930 04:42:44.537469 15120 net.cpp:425] cccp5 <- scale_ccp4
I0930 04:42:44.537469 15120 net.cpp:399] cccp5 -> cccp5
I0930 04:42:44.617971 15120 net.cpp:141] Setting up cccp5
I0930 04:42:44.617971 15120 net.cpp:148] Top shape: 50 512 2 2 (102400)
I0930 04:42:44.617971 15120 net.cpp:156] Memory required for data: 565453400
I0930 04:42:44.617971 15120 layer_factory.hpp:77] Creating layer bn_cccp5
I0930 04:42:44.617971 15120 net.cpp:91] Creating Layer bn_cccp5
I0930 04:42:44.617971 15120 net.cpp:425] bn_cccp5 <- cccp5
I0930 04:42:44.617971 15120 net.cpp:399] bn_cccp5 -> bn_cccp5
I0930 04:42:44.618986 15120 net.cpp:141] Setting up bn_cccp5
I0930 04:42:44.618986 15120 net.cpp:148] Top shape: 50 512 2 2 (102400)
I0930 04:42:44.618986 15120 net.cpp:156] Memory required for data: 565863000
I0930 04:42:44.618986 15120 layer_factory.hpp:77] Creating layer scale_ccp5
I0930 04:42:44.618986 15120 net.cpp:91] Creating Layer scale_ccp5
I0930 04:42:44.618986 15120 net.cpp:425] scale_ccp5 <- bn_cccp5
I0930 04:42:44.618986 15120 net.cpp:399] scale_ccp5 -> scale_ccp5
I0930 04:42:44.618986 15120 layer_factory.hpp:77] Creating layer scale_ccp5
I0930 04:42:44.618986 15120 net.cpp:141] Setting up scale_ccp5
I0930 04:42:44.618986 15120 net.cpp:148] Top shape: 50 512 2 2 (102400)
I0930 04:42:44.618986 15120 net.cpp:156] Memory required for data: 566272600
I0930 04:42:44.618986 15120 layer_factory.hpp:77] Creating layer relu_cccp5
I0930 04:42:44.618986 15120 net.cpp:91] Creating Layer relu_cccp5
I0930 04:42:44.618986 15120 net.cpp:425] relu_cccp5 <- scale_ccp5
I0930 04:42:44.618986 15120 net.cpp:386] relu_cccp5 -> scale_ccp5 (in-place)
I0930 04:42:44.618986 15120 net.cpp:141] Setting up relu_cccp5
I0930 04:42:44.618986 15120 net.cpp:148] Top shape: 50 512 2 2 (102400)
I0930 04:42:44.618986 15120 net.cpp:156] Memory required for data: 566682200
I0930 04:42:44.618986 15120 layer_factory.hpp:77] Creating layer poolcp5
I0930 04:42:44.619987 15120 net.cpp:91] Creating Layer poolcp5
I0930 04:42:44.619987 15120 net.cpp:425] poolcp5 <- scale_ccp5
I0930 04:42:44.619987 15120 net.cpp:399] poolcp5 -> poolcp5
I0930 04:42:44.619987 15120 net.cpp:141] Setting up poolcp5
I0930 04:42:44.619987 15120 net.cpp:148] Top shape: 50 512 1 1 (25600)
I0930 04:42:44.619987 15120 net.cpp:156] Memory required for data: 566784600
I0930 04:42:44.619987 15120 layer_factory.hpp:77] Creating layer cccp6
I0930 04:42:44.619987 15120 net.cpp:91] Creating Layer cccp6
I0930 04:42:44.619987 15120 net.cpp:425] cccp6 <- poolcp5
I0930 04:42:44.619987 15120 net.cpp:399] cccp6 -> cccp6
I0930 04:42:44.642653 15120 net.cpp:141] Setting up cccp6
I0930 04:42:44.642653 15120 net.cpp:148] Top shape: 50 512 1 1 (25600)
I0930 04:42:44.642653 15120 net.cpp:156] Memory required for data: 566887000
I0930 04:42:44.642653 15120 layer_factory.hpp:77] Creating layer bn_cccp6
I0930 04:42:44.642653 15120 net.cpp:91] Creating Layer bn_cccp6
I0930 04:42:44.642653 15120 net.cpp:425] bn_cccp6 <- cccp6
I0930 04:42:44.642653 15120 net.cpp:399] bn_cccp6 -> bn_cccp6
I0930 04:42:44.642653 15120 net.cpp:141] Setting up bn_cccp6
I0930 04:42:44.642653 15120 net.cpp:148] Top shape: 50 512 1 1 (25600)
I0930 04:42:44.642653 15120 net.cpp:156] Memory required for data: 566989400
I0930 04:42:44.642653 15120 layer_factory.hpp:77] Creating layer scale_ccp6
I0930 04:42:44.642653 15120 net.cpp:91] Creating Layer scale_ccp6
I0930 04:42:44.642653 15120 net.cpp:425] scale_ccp6 <- bn_cccp6
I0930 04:42:44.642653 15120 net.cpp:399] scale_ccp6 -> scale_ccp6
I0930 04:42:44.642653 15120 layer_factory.hpp:77] Creating layer scale_ccp6
I0930 04:42:44.642653 15120 net.cpp:141] Setting up scale_ccp6
I0930 04:42:44.642653 15120 net.cpp:148] Top shape: 50 512 1 1 (25600)
I0930 04:42:44.642653 15120 net.cpp:156] Memory required for data: 567091800
I0930 04:42:44.642653 15120 layer_factory.hpp:77] Creating layer relu_cccp6
I0930 04:42:44.642653 15120 net.cpp:91] Creating Layer relu_cccp6
I0930 04:42:44.642653 15120 net.cpp:425] relu_cccp6 <- scale_ccp6
I0930 04:42:44.642653 15120 net.cpp:386] relu_cccp6 -> scale_ccp6 (in-place)
I0930 04:42:44.643666 15120 net.cpp:141] Setting up relu_cccp6
I0930 04:42:44.643666 15120 net.cpp:148] Top shape: 50 512 1 1 (25600)
I0930 04:42:44.643666 15120 net.cpp:156] Memory required for data: 567194200
I0930 04:42:44.643666 15120 layer_factory.hpp:77] Creating layer poolcp6
I0930 04:42:44.643666 15120 net.cpp:91] Creating Layer poolcp6
I0930 04:42:44.643666 15120 net.cpp:425] poolcp6 <- scale_ccp6
I0930 04:42:44.643666 15120 net.cpp:399] poolcp6 -> poolcp6
I0930 04:42:44.643666 15120 net.cpp:141] Setting up poolcp6
I0930 04:42:44.643666 15120 net.cpp:148] Top shape: 50 512 1 1 (25600)
I0930 04:42:44.643666 15120 net.cpp:156] Memory required for data: 567296600
I0930 04:42:44.643666 15120 layer_factory.hpp:77] Creating layer fc_conv
I0930 04:42:44.643666 15120 net.cpp:91] Creating Layer fc_conv
I0930 04:42:44.643666 15120 net.cpp:425] fc_conv <- poolcp6
I0930 04:42:44.643666 15120 net.cpp:399] fc_conv -> fc_conv
I0930 04:42:44.654495 15120 net.cpp:141] Setting up fc_conv
I0930 04:42:44.654495 15120 net.cpp:148] Top shape: 50 2048 3 3 (921600)
I0930 04:42:44.654495 15120 net.cpp:156] Memory required for data: 570983000
I0930 04:42:44.654495 15120 layer_factory.hpp:77] Creating layer ipf0
I0930 04:42:44.654495 15120 net.cpp:91] Creating Layer ipf0
I0930 04:42:44.654495 15120 net.cpp:425] ipf0 <- fc_conv
I0930 04:42:44.654495 15120 net.cpp:399] ipf0 -> ipf0
I0930 04:42:44.670433 15120 net.cpp:141] Setting up ipf0
I0930 04:42:44.670433 15120 net.cpp:148] Top shape: 50 100 (5000)
I0930 04:42:44.670433 15120 net.cpp:156] Memory required for data: 571003000
I0930 04:42:44.670433 15120 layer_factory.hpp:77] Creating layer ipf0_ipf0_0_split
I0930 04:42:44.670433 15120 net.cpp:91] Creating Layer ipf0_ipf0_0_split
I0930 04:42:44.670433 15120 net.cpp:425] ipf0_ipf0_0_split <- ipf0
I0930 04:42:44.670433 15120 net.cpp:399] ipf0_ipf0_0_split -> ipf0_ipf0_0_split_0
I0930 04:42:44.670433 15120 net.cpp:399] ipf0_ipf0_0_split -> ipf0_ipf0_0_split_1
I0930 04:42:44.670433 15120 net.cpp:141] Setting up ipf0_ipf0_0_split
I0930 04:42:44.670433 15120 net.cpp:148] Top shape: 50 100 (5000)
I0930 04:42:44.670433 15120 net.cpp:148] Top shape: 50 100 (5000)
I0930 04:42:44.670433 15120 net.cpp:156] Memory required for data: 571043000
I0930 04:42:44.670433 15120 layer_factory.hpp:77] Creating layer accuracy
I0930 04:42:44.670433 15120 net.cpp:91] Creating Layer accuracy
I0930 04:42:44.670433 15120 net.cpp:425] accuracy <- ipf0_ipf0_0_split_0
I0930 04:42:44.670433 15120 net.cpp:425] accuracy <- label_fine_cifar_1_split_0
I0930 04:42:44.670433 15120 net.cpp:399] accuracy -> accuracy
…
