…
I0227 13:53:37.973484  6260 net.cpp:322] The NetState phase (0) differed from the phase (1) specified by a rule in layer bn4_0
I0227 13:53:37.973484  6260 net.cpp:322] The NetState phase (0) differed from the phase (1) specified by a rule in layer accuracy
I0227 13:53:37.973484  6260 net.cpp:58] Initializing net from parameters: 
name: "SVHN_all_drpout"
state {
  phase: TRAIN
  level: 0
  stage: ""
}
layer {
  name: "SVHN"
  type: "Data"
  top: "data"
  top: "label"
  include {
    phase: TRAIN
  }
  transform_param {
    scale: 0.0039215684
  }
  data_param {
    source: "examples/svhn/svhn_train_leveldb"
    batch_size: 100
    backend: LEVELDB
  }
}
layer {
  name: "conv1"
  type: "Convolution"
  bottom: "data"
  top: "conv1"
  param {
    lr_mult: 1
  }
  convolution_param {
    num_output: 64
    bias_term: true
    pad: 1
    kernel_size: 3
    stride: 1
    weight_filler {
      type: "xavier"
    }
  }
}
layer {
  name: "bn1"
  type: "BatchNorm"
  bottom: "conv1"
  top: "bn1"
  include {
    phase: TRAIN
  }
  batch_norm_param {
    use_global_stats: false
    moving_average_fraction: 0.95
  }
}
layer {
  name: "scale1"
  type: "Scale"
  bottom: "bn1"
  top: "scale1"
  scale_param {
    bias_term: true
  }
}
layer {
  name: "relu1"
  type: "ReLU"
  bottom: "scale1"
  top: "relu1"
}
layer {
  name: "drop2_1"
  type: "Dropout"
  bottom: "relu1"
  top: "relu1"
  dropout_param {
    dropout_ratio: 0.2
  }
}
layer {
  name: "conv1_0"
  type: "Convolution"
  bottom: "relu1"
  top: "conv1_0"
  param {
    lr_mult: 1
  }
  convolution_param {
    num_output: 128
    bias_term: true
    pad: 1
    kernel_size: 3
    stride: 1
    weight_filler {
      type: "xavier"
    }
  }
}
layer {
  name: "bn1_0"
  type: "BatchNorm"
  bottom: "conv1_0"
  top: "bn1_0"
  include {
    phase: TRAIN
  }
  batch_norm_param {
    use_global_stats: false
    moving_average_fraction: 0.95
  }
}
layer {
  name: "scale1_0"
  type: "Scale"
  bottom: "bn1_0"
  top: "scale1_0"
  scale_param {
    bias_term: true
  }
}
layer {
  name: "relu1_0"
  type: "ReLU"
  bottom: "scale1_0"
  top: "relu1_0"
}
layer {
  name: "drop1_0"
  type: "Dropout"
  bottom: "relu1_0"
  top: "relu1_0"
  dropout_param {
    dropout_ratio: 0.2
  }
}
layer {
  name: "conv2"
  type: "Convolution"
  bottom: "relu1_0"
  top: "conv2"
  param {
    lr_mult: 1
  }
  convolution_param {
    num_output: 128
    bias_term: true
    pad: 1
    kernel_size: 3
    stride: 1
    weight_filler {
      type: "gaussian"
      std: 0.01
    }
  }
}
layer {
  name: "bn2"
  type: "BatchNorm"
  bottom: "conv2"
  top: "bn2"
  include {
    phase: TRAIN
  }
  batch_norm_param {
    use_global_stats: false
    moving_average_fraction: 0.95
  }
}
layer {
  name: "scale2"
  type: "Scale"
  bottom: "bn2"
  top: "scale2"
  scale_param {
    bias_term: true
  }
}
layer {
  name: "relu2"
  type: "ReLU"
  bottom: "scale2"
  top: "relu2"
}
layer {
  name: "drop2_0"
  type: "Dropout"
  bottom: "relu2"
  top: "relu2"
  dropout_param {
    dropout_ratio: 0.2
  }
}
layer {
  name: "conv2_1"
  type: "Convolution"
  bottom: "relu2"
  top: "conv2_1"
  param {
    lr_mult: 1
  }
  convolution_param {
    num_output: 128
    bias_term: true
    pad: 1
    kernel_size: 3
    stride: 1
    weight_filler {
      type: "gaussian"
      std: 0.01
    }
  }
}
layer {
  name: "bn2_1"
  type: "BatchNorm"
  bottom: "conv2_1"
  top: "bn2_1"
  include {
    phase: TRAIN
  }
  batch_norm_param {
    use_global_stats: false
    moving_average_fraction: 0.95
  }
}
layer {
  name: "scale2_1"
  type: "Scale"
  bottom: "bn2_1"
  top: "scale2_1"
  scale_param {
    bias_term: true
  }
}
layer {
  name: "relu2_1"
  type: "ReLU"
  bottom: "scale2_1"
  top: "relu2_1"
}
layer {
  name: "pool2_1"
  type: "Pooling"
  bottom: "relu2_1"
  top: "pool2_1"
  pooling_param {
    pool: MAX
    kernel_size: 2
    stride: 2
  }
}
layer {
  name: "drop2_1"
  type: "Dropout"
  bottom: "pool2_1"
  top: "pool2_1"
  dropout_param {
    dropout_ratio: 0.2
  }
}
layer {
  name: "conv2_2"
  type: "Convolution"
  bottom: "pool2_1"
  top: "conv2_2"
  param {
    lr_mult: 1
  }
  convolution_param {
    num_output: 128
    bias_term: true
    pad: 1
    kernel_size: 3
    stride: 1
    weight_filler {
      type: "gaussian"
      std: 0.01
    }
  }
}
layer {
  name: "bn2_2"
  type: "BatchNorm"
  bottom: "conv2_2"
  top: "bn2_2"
  include {
    phase: TRAIN
  }
  batch_norm_param {
    use_global_stats: false
    moving_average_fraction: 0.95
  }
}
layer {
  name: "scale2_2"
  type: "Scale"
  bottom: "bn2_2"
  top: "scale2_2"
  scale_param {
    bias_term: true
  }
}
layer {
  name: "relu2_2"
  type: "ReLU"
  bottom: "scale2_2"
  top: "relu2_2"
}
layer {
  name: "drop2_2"
  type: "Dropout"
  bottom: "relu2_2"
  top: "relu2_2"
  dropout_param {
    dropout_ratio: 0.2
  }
}
layer {
  name: "conv3"
  type: "Convolution"
  bottom: "relu2_2"
  top: "conv3"
  param {
    lr_mult: 1
  }
  convolution_param {
    num_output: 128
    bias_term: true
    pad: 1
    kernel_size: 3
    stride: 1
    weight_filler {
      type: "xavier"
    }
  }
}
layer {
  name: "bn3"
  type: "BatchNorm"
  bottom: "conv3"
  top: "bn3"
  include {
    phase: TRAIN
  }
  batch_norm_param {
    use_global_stats: false
    moving_average_fraction: 0.95
  }
}
layer {
  name: "scale3"
  type: "Scale"
  bottom: "bn3"
  top: "scale3"
  scale_param {
    bias_term: true
  }
}
layer {
  name: "relu3"
  type: "ReLU"
  bottom: "scale3"
  top: "relu3"
}
layer {
  name: "drop3"
  type: "Dropout"
  bottom: "relu3"
  top: "relu3"
  dropout_param {
    dropout_ratio: 0.2
  }
}
layer {
  name: "conv4"
  type: "Convolution"
  bottom: "relu3"
  top: "conv4"
  param {
    lr_mult: 1
  }
  convolution_param {
    num_output: 256
    bias_term: true
    pad: 1
    kernel_size: 3
    stride: 1
    weight_filler {
      type: "xavier"
    }
  }
}
layer {
  name: "pool4"
  type: "Pooling"
  bottom: "conv4"
  top: "pool4"
  pooling_param {
    pool: MAX
    kernel_size: 2
    stride: 2
  }
}
layer {
  name: "bn4"
  type: "BatchNorm"
  bottom: "pool4"
  top: "bn4"
  include {
    phase: TRAIN
  }
  batch_norm_param {
    use_global_stats: false
    moving_average_fraction: 0.95
  }
}
layer {
  name: "scale4"
  type: "Scale"
  bottom: "bn4"
  top: "scale4"
  scale_param {
    bias_term: true
  }
}
layer {
  name: "relu4"
  type: "ReLU"
  bottom: "scale4"
  top: "relu4"
}
layer {
  name: "drop4"
  type: "Dropout"
  bottom: "relu4"
  top: "relu4"
  dropout_param {
    dropout_ratio: 0.2
  }
}
layer {
  name: "conv4_1"
  type: "Convolution"
  bottom: "relu4"
  top: "conv4_1"
  param {
    lr_mult: 1
  }
  convolution_param {
    num_output: 256
    bias_term: true
    pad: 1
    kernel_size: 3
    stride: 1
    weight_filler {
      type: "xavier"
    }
  }
}
layer {
  name: "bn4_1"
  type: "BatchNorm"
  bottom: "conv4_1"
  top: "bn4_1"
  include {
    phase: TRAIN
  }
  batch_norm_param {
    use_global_stats: false
    moving_average_fraction: 0.95
  }
}
layer {
  name: "scale4_1"
  type: "Scale"
  bottom: "bn4_1"
  top: "scale4_1"
  scale_param {
    bias_term: true
  }
}
layer {
  name: "relu4_1"
  type: "ReLU"
  bottom: "scale4_1"
  top: "relu4_1"
}
layer {
  name: "drop4_1"
  type: "Dropout"
  bottom: "relu4_1"
  top: "relu4_1"
  dropout_param {
    dropout_ratio: 0.2
  }
}
layer {
  name: "conv4_2"
  type: "Convolution"
  bottom: "relu4_1"
  top: "conv4_2"
  param {
    lr_mult: 1
  }
  convolution_param {
    num_output: 256
    bias_term: true
    pad: 1
    kernel_size: 3
    stride: 1
    weight_filler {
      type: "xavier"
    }
  }
}
layer {
  name: "bn4_2"
  type: "BatchNorm"
  bottom: "conv4_2"
  top: "bn4_2"
  include {
    phase: TRAIN
  }
  batch_norm_param {
    use_global_stats: false
    moving_average_fraction: 0.95
  }
}
layer {
  name: "scale4_2"
  type: "Scale"
  bottom: "bn4_2"
  top: "scale4_2"
  scale_param {
    bias_term: true
  }
}
layer {
  name: "relu4_2"
  type: "ReLU"
  bottom: "scale4_2"
  top: "relu4_2"
}
layer {
  name: "drop4_2"
  type: "Dropout"
  bottom: "relu4_2"
  top: "relu4_2"
  dropout_param {
    dropout_ratio: 0.2
  }
}
layer {
  name: "pool4_2"
  type: "Pooling"
  bottom: "relu4_2"
  top: "pool4_2"
  pooling_param {
    pool: MAX
    kernel_size: 2
    stride: 2
  }
}
layer {
  name: "conv4_0"
  type: "Convolution"
  bottom: "pool4_2"
  top: "conv4_0"
  param {
    lr_mult: 1
  }
  convolution_param {
    num_output: 512
    bias_term: true
    pad: 1
    kernel_size: 3
    stride: 1
    weight_filler {
      type: "xavier"
    }
  }
}
layer {
  name: "bn4_0"
  type: "BatchNorm"
  bottom: "conv4_0"
  top: "bn4_0"
  include {
    phase: TRAIN
  }
  batch_norm_param {
    use_global_stats: false
    moving_average_fraction: 0.95
  }
}
layer {
  name: "scale4_0"
  type: "Scale"
  bottom: "bn4_0"
  top: "scale4_0"
  scale_param {
    bias_term: true
  }
}
layer {
  name: "relu4_0"
  type: "ReLU"
  bottom: "scale4_0"
  top: "relu4_0"
}
layer {
  name: "drop4_0"
  type: "Dropout"
  bottom: "relu4_0"
  top: "relu4_0"
  dropout_param {
    dropout_ratio: 0.2
  }
}
layer {
  name: "cccp4"
  type: "Convolution"
  bottom: "relu4_0"
  top: "cccp4"
  param {
    lr_mult: 1
    decay_mult: 1
  }
  param {
    lr_mult: 2
    decay_mult: 0
  }
  convolution_param {
    num_output: 2048
    kernel_size: 1
    group: 1
    weight_filler {
      type: "xavier"
    }
    bias_filler {
      type: "constant"
      value: 0
    }
  }
}
layer {
  name: "relu_cccp4"
  type: "ReLU"
  bottom: "cccp4"
  top: "cccp4"
}
layer {
  name: "drop4_3"
  type: "Dropout"
  bottom: "cccp4"
  top: "cccp4"
  dropout_param {
    dropout_ratio: 0.2
  }
}
layer {
  name: "cccp5"
  type: "Convolution"
  bottom: "cccp4"
  top: "cccp5"
  param {
    lr_mult: 1
    decay_mult: 1
  }
  param {
    lr_mult: 2
    decay_mult: 0
  }
  convolution_param {
    num_output: 256
    kernel_size: 1
    group: 1
    weight_filler {
      type: "xavier"
    }
    bias_filler {
      type: "constant"
      value: 0
    }
  }
}
layer {
  name: "relu_cccp5"
  type: "ReLU"
  bottom: "cccp5"
  top: "cccp5"
}
layer {
  name: "poolcp5"
  type: "Pooling"
  bottom: "cccp5"
  top: "poolcp5"
  pooling_param {
    pool: MAX
    kernel_size: 2
    stride: 2
  }
}
layer {
  name: "drop4_5"
  type: "Dropout"
  bottom: "poolcp5"
  top: "poolcp5"
  dropout_param {
    dropout_ratio: 0.2
  }
}
layer {
  name: "cccp6"
  type: "Convolution"
  bottom: "poolcp5"
  top: "cccp6"
  param {
    lr_mult: 1
    decay_mult: 1
  }
  param {
    lr_mult: 2
    decay_mult: 0
  }
  convolution_param {
    num_output: 256
    pad: 1
    kernel_size: 3
    group: 1
    weight_filler {
      type: "xavier"
    }
    bias_filler {
      type: "constant"
      value: 0
    }
  }
}
layer {
  name: "relu_cccp6"
  type: "ReLU"
  bottom: "cccp6"
  top: "cccp6"
}
layer {
  name: "poolcp6"
  type: "Pooling"
  bottom: "cccp6"
  top: "poolcp6"
  pooling_param {
    pool: MAX
    kernel_size: 2
    stride: 2
  }
}
layer {
  name: "ip1"
  type: "InnerProduct"
  bottom: "poolcp6"
  top: "ip1"
  param {
    lr_mult: 1
    decay_mult: 0
  }
  param {
    lr_mult: 2
    decay_mult: 0
  }
  inner_product_param {
    num_output: 10
    weight_filler {
      type: "xavier"
    }
    bias_filler {
      type: "constant"
    }
  }
}
layer {
  name: "loss"
  type: "SoftmaxWithLoss"
  bottom: "ip1"
  bottom: "label"
  top: "loss"
}
I0227 13:53:37.974484  6260 layer_factory.cpp:58] Creating layer SVHN
I0227 13:53:37.975486  6260 net.cpp:100] Creating Layer SVHN
I0227 13:53:37.975486  6260 net.cpp:408] SVHN -> data
I0227 13:53:37.975486  6260 net.cpp:408] SVHN -> label
I0227 13:53:37.976485 10292 common.cpp:36] System entropy source not available, using fallback algorithm to generate seed instead.
I0227 13:53:37.978484 10292 db_leveldb.cpp:18] Opened leveldb examples/svhn/svhn_train_leveldb
I0227 13:53:37.999999  6260 data_layer.cpp:41] output data size: 100,3,32,32
I0227 13:53:38.003998  6260 net.cpp:150] Setting up SVHN
I0227 13:53:38.003998  6260 net.cpp:157] Top shape: 100 3 32 32 (307200)
I0227 13:53:38.003998  6260 net.cpp:157] Top shape: 100 (100)
I0227 13:53:38.003998  6260 net.cpp:165] Memory required for data: 1229200
I0227 13:53:38.003998  6260 layer_factory.cpp:58] Creating layer conv1
I0227 13:53:38.003998  6260 net.cpp:100] Creating Layer conv1
I0227 13:53:38.003998  6260 net.cpp:434] conv1 <- data
I0227 13:53:38.003998  6260 net.cpp:408] conv1 -> conv1
I0227 13:53:38.006500 17612 common.cpp:36] System entropy source not available, using fallback algorithm to generate seed instead.
I0227 13:53:38.232709  6260 net.cpp:150] Setting up conv1
I0227 13:53:38.232709  6260 net.cpp:157] Top shape: 100 64 32 32 (6553600)
I0227 13:53:38.232709  6260 net.cpp:165] Memory required for data: 27443600
I0227 13:53:38.232709  6260 layer_factory.cpp:58] Creating layer bn1
I0227 13:53:38.232709  6260 net.cpp:100] Creating Layer bn1
I0227 13:53:38.232709  6260 net.cpp:434] bn1 <- conv1
I0227 13:53:38.232709  6260 net.cpp:408] bn1 -> bn1
I0227 13:53:38.233710  6260 net.cpp:150] Setting up bn1
I0227 13:53:38.233710  6260 net.cpp:157] Top shape: 100 64 32 32 (6553600)
I0227 13:53:38.233710  6260 net.cpp:165] Memory required for data: 53658000
I0227 13:53:38.233710  6260 layer_factory.cpp:58] Creating layer scale1
I0227 13:53:38.233710  6260 net.cpp:100] Creating Layer scale1
I0227 13:53:38.233710  6260 net.cpp:434] scale1 <- bn1
I0227 13:53:38.233710  6260 net.cpp:408] scale1 -> scale1
I0227 13:53:38.233710  6260 layer_factory.cpp:58] Creating layer scale1
I0227 13:53:38.233710  6260 net.cpp:150] Setting up scale1
I0227 13:53:38.233710  6260 net.cpp:157] Top shape: 100 64 32 32 (6553600)
I0227 13:53:38.233710  6260 net.cpp:165] Memory required for data: 79872400
I0227 13:53:38.233710  6260 layer_factory.cpp:58] Creating layer relu1
I0227 13:53:38.233710  6260 net.cpp:100] Creating Layer relu1
I0227 13:53:38.233710  6260 net.cpp:434] relu1 <- scale1
I0227 13:53:38.233710  6260 net.cpp:408] relu1 -> relu1
I0227 13:53:38.233710  6260 net.cpp:150] Setting up relu1
I0227 13:53:38.233710  6260 net.cpp:157] Top shape: 100 64 32 32 (6553600)
I0227 13:53:38.233710  6260 net.cpp:165] Memory required for data: 106086800
I0227 13:53:38.233710  6260 layer_factory.cpp:58] Creating layer drop2_1
I0227 13:53:38.233710  6260 net.cpp:100] Creating Layer drop2_1
I0227 13:53:38.233710  6260 net.cpp:434] drop2_1 <- relu1
I0227 13:53:38.233710  6260 net.cpp:395] drop2_1 -> relu1 (in-place)
I0227 13:53:38.233710  6260 net.cpp:150] Setting up drop2_1
I0227 13:53:38.233710  6260 net.cpp:157] Top shape: 100 64 32 32 (6553600)
I0227 13:53:38.233710  6260 net.cpp:165] Memory required for data: 132301200
I0227 13:53:38.233710  6260 layer_factory.cpp:58] Creating layer conv1_0
I0227 13:53:38.233710  6260 net.cpp:100] Creating Layer conv1_0
I0227 13:53:38.233710  6260 net.cpp:434] conv1_0 <- relu1
I0227 13:53:38.233710  6260 net.cpp:408] conv1_0 -> conv1_0
I0227 13:53:38.236711  6260 net.cpp:150] Setting up conv1_0
I0227 13:53:38.236711  6260 net.cpp:157] Top shape: 100 128 32 32 (13107200)
I0227 13:53:38.236711  6260 net.cpp:165] Memory required for data: 184730000
I0227 13:53:38.236711  6260 layer_factory.cpp:58] Creating layer bn1_0
I0227 13:53:38.236711  6260 net.cpp:100] Creating Layer bn1_0
I0227 13:53:38.236711  6260 net.cpp:434] bn1_0 <- conv1_0
I0227 13:53:38.236711  6260 net.cpp:408] bn1_0 -> bn1_0
I0227 13:53:38.236711  6260 net.cpp:150] Setting up bn1_0
I0227 13:53:38.236711  6260 net.cpp:157] Top shape: 100 128 32 32 (13107200)
I0227 13:53:38.236711  6260 net.cpp:165] Memory required for data: 237158800
I0227 13:53:38.236711  6260 layer_factory.cpp:58] Creating layer scale1_0
I0227 13:53:38.236711  6260 net.cpp:100] Creating Layer scale1_0
I0227 13:53:38.236711  6260 net.cpp:434] scale1_0 <- bn1_0
I0227 13:53:38.236711  6260 net.cpp:408] scale1_0 -> scale1_0
I0227 13:53:38.236711  6260 layer_factory.cpp:58] Creating layer scale1_0
I0227 13:53:38.236711  6260 net.cpp:150] Setting up scale1_0
I0227 13:53:38.236711  6260 net.cpp:157] Top shape: 100 128 32 32 (13107200)
I0227 13:53:38.236711  6260 net.cpp:165] Memory required for data: 289587600
I0227 13:53:38.236711  6260 layer_factory.cpp:58] Creating layer relu1_0
I0227 13:53:38.236711  6260 net.cpp:100] Creating Layer relu1_0
I0227 13:53:38.236711  6260 net.cpp:434] relu1_0 <- scale1_0
I0227 13:53:38.236711  6260 net.cpp:408] relu1_0 -> relu1_0
I0227 13:53:38.236711  6260 net.cpp:150] Setting up relu1_0
I0227 13:53:38.236711  6260 net.cpp:157] Top shape: 100 128 32 32 (13107200)
I0227 13:53:38.237709  6260 net.cpp:165] Memory required for data: 342016400
I0227 13:53:38.237709  6260 layer_factory.cpp:58] Creating layer drop1_0
I0227 13:53:38.237709  6260 net.cpp:100] Creating Layer drop1_0
I0227 13:53:38.237709  6260 net.cpp:434] drop1_0 <- relu1_0
I0227 13:53:38.237709  6260 net.cpp:395] drop1_0 -> relu1_0 (in-place)
I0227 13:53:38.237709  6260 net.cpp:150] Setting up drop1_0
I0227 13:53:38.237709  6260 net.cpp:157] Top shape: 100 128 32 32 (13107200)
I0227 13:53:38.237709  6260 net.cpp:165] Memory required for data: 394445200
I0227 13:53:38.237709  6260 layer_factory.cpp:58] Creating layer conv2
I0227 13:53:38.237709  6260 net.cpp:100] Creating Layer conv2
I0227 13:53:38.237709  6260 net.cpp:434] conv2 <- relu1_0
I0227 13:53:38.237709  6260 net.cpp:408] conv2 -> conv2
I0227 13:53:38.240723  6260 net.cpp:150] Setting up conv2
I0227 13:53:38.240723  6260 net.cpp:157] Top shape: 100 128 32 32 (13107200)
I0227 13:53:38.240723  6260 net.cpp:165] Memory required for data: 446874000
I0227 13:53:38.240723  6260 layer_factory.cpp:58] Creating layer bn2
I0227 13:53:38.240723  6260 net.cpp:100] Creating Layer bn2
I0227 13:53:38.240723  6260 net.cpp:434] bn2 <- conv2
I0227 13:53:38.240723  6260 net.cpp:408] bn2 -> bn2
I0227 13:53:38.240723  6260 net.cpp:150] Setting up bn2
I0227 13:53:38.240723  6260 net.cpp:157] Top shape: 100 128 32 32 (13107200)
I0227 13:53:38.240723  6260 net.cpp:165] Memory required for data: 499302800
I0227 13:53:38.240723  6260 layer_factory.cpp:58] Creating layer scale2
I0227 13:53:38.240723  6260 net.cpp:100] Creating Layer scale2
I0227 13:53:38.240723  6260 net.cpp:434] scale2 <- bn2
I0227 13:53:38.240723  6260 net.cpp:408] scale2 -> scale2
I0227 13:53:38.240723  6260 layer_factory.cpp:58] Creating layer scale2
I0227 13:53:38.240723  6260 net.cpp:150] Setting up scale2
I0227 13:53:38.240723  6260 net.cpp:157] Top shape: 100 128 32 32 (13107200)
I0227 13:53:38.240723  6260 net.cpp:165] Memory required for data: 551731600
I0227 13:53:38.240723  6260 layer_factory.cpp:58] Creating layer relu2
I0227 13:53:38.240723  6260 net.cpp:100] Creating Layer relu2
I0227 13:53:38.240723  6260 net.cpp:434] relu2 <- scale2
I0227 13:53:38.240723  6260 net.cpp:408] relu2 -> relu2
I0227 13:53:38.240723  6260 net.cpp:150] Setting up relu2
I0227 13:53:38.240723  6260 net.cpp:157] Top shape: 100 128 32 32 (13107200)
I0227 13:53:38.240723  6260 net.cpp:165] Memory required for data: 604160400
I0227 13:53:38.240723  6260 layer_factory.cpp:58] Creating layer drop2_0
I0227 13:53:38.240723  6260 net.cpp:100] Creating Layer drop2_0
I0227 13:53:38.240723  6260 net.cpp:434] drop2_0 <- relu2
I0227 13:53:38.240723  6260 net.cpp:395] drop2_0 -> relu2 (in-place)
I0227 13:53:38.240723  6260 net.cpp:150] Setting up drop2_0
I0227 13:53:38.240723  6260 net.cpp:157] Top shape: 100 128 32 32 (13107200)
I0227 13:53:38.240723  6260 net.cpp:165] Memory required for data: 656589200
I0227 13:53:38.240723  6260 layer_factory.cpp:58] Creating layer conv2_1
I0227 13:53:38.240723  6260 net.cpp:100] Creating Layer conv2_1
I0227 13:53:38.240723  6260 net.cpp:434] conv2_1 <- relu2
I0227 13:53:38.240723  6260 net.cpp:408] conv2_1 -> conv2_1
I0227 13:53:38.244720  6260 net.cpp:150] Setting up conv2_1
I0227 13:53:38.244720  6260 net.cpp:157] Top shape: 100 128 32 32 (13107200)
I0227 13:53:38.244720  6260 net.cpp:165] Memory required for data: 709018000
I0227 13:53:38.244720  6260 layer_factory.cpp:58] Creating layer bn2_1
I0227 13:53:38.244720  6260 net.cpp:100] Creating Layer bn2_1
I0227 13:53:38.244720  6260 net.cpp:434] bn2_1 <- conv2_1
I0227 13:53:38.244720  6260 net.cpp:408] bn2_1 -> bn2_1
I0227 13:53:38.244720  6260 net.cpp:150] Setting up bn2_1
I0227 13:53:38.244720  6260 net.cpp:157] Top shape: 100 128 32 32 (13107200)
I0227 13:53:38.244720  6260 net.cpp:165] Memory required for data: 761446800
I0227 13:53:38.244720  6260 layer_factory.cpp:58] Creating layer scale2_1
I0227 13:53:38.244720  6260 net.cpp:100] Creating Layer scale2_1
I0227 13:53:38.244720  6260 net.cpp:434] scale2_1 <- bn2_1
I0227 13:53:38.244720  6260 net.cpp:408] scale2_1 -> scale2_1
I0227 13:53:38.244720  6260 layer_factory.cpp:58] Creating layer scale2_1
I0227 13:53:38.244720  6260 net.cpp:150] Setting up scale2_1
I0227 13:53:38.244720  6260 net.cpp:157] Top shape: 100 128 32 32 (13107200)
I0227 13:53:38.244720  6260 net.cpp:165] Memory required for data: 813875600
I0227 13:53:38.244720  6260 layer_factory.cpp:58] Creating layer relu2_1
I0227 13:53:38.244720  6260 net.cpp:100] Creating Layer relu2_1
I0227 13:53:38.244720  6260 net.cpp:434] relu2_1 <- scale2_1
I0227 13:53:38.244720  6260 net.cpp:408] relu2_1 -> relu2_1
I0227 13:53:38.245710  6260 net.cpp:150] Setting up relu2_1
I0227 13:53:38.245710  6260 net.cpp:157] Top shape: 100 128 32 32 (13107200)
I0227 13:53:38.245710  6260 net.cpp:165] Memory required for data: 866304400
I0227 13:53:38.245710  6260 layer_factory.cpp:58] Creating layer pool2_1
I0227 13:53:38.245710  6260 net.cpp:100] Creating Layer pool2_1
I0227 13:53:38.245710  6260 net.cpp:434] pool2_1 <- relu2_1
I0227 13:53:38.245710  6260 net.cpp:408] pool2_1 -> pool2_1
I0227 13:53:38.245710  6260 net.cpp:150] Setting up pool2_1
I0227 13:53:38.245710  6260 net.cpp:157] Top shape: 100 128 16 16 (3276800)
I0227 13:53:38.245710  6260 net.cpp:165] Memory required for data: 879411600
I0227 13:53:38.245710  6260 layer_factory.cpp:58] Creating layer drop2_1
I0227 13:53:38.245710  6260 net.cpp:100] Creating Layer drop2_1
I0227 13:53:38.245710  6260 net.cpp:434] drop2_1 <- pool2_1
I0227 13:53:38.245710  6260 net.cpp:395] drop2_1 -> pool2_1 (in-place)
I0227 13:53:38.245710  6260 net.cpp:150] Setting up drop2_1
I0227 13:53:38.245710  6260 net.cpp:157] Top shape: 100 128 16 16 (3276800)
I0227 13:53:38.245710  6260 net.cpp:165] Memory required for data: 892518800
I0227 13:53:38.245710  6260 layer_factory.cpp:58] Creating layer conv2_2
I0227 13:53:38.245710  6260 net.cpp:100] Creating Layer conv2_2
I0227 13:53:38.245710  6260 net.cpp:434] conv2_2 <- pool2_1
I0227 13:53:38.245710  6260 net.cpp:408] conv2_2 -> conv2_2
I0227 13:53:38.248711  6260 net.cpp:150] Setting up conv2_2
I0227 13:53:38.248711  6260 net.cpp:157] Top shape: 100 128 16 16 (3276800)
I0227 13:53:38.248711  6260 net.cpp:165] Memory required for data: 905626000
I0227 13:53:38.248711  6260 layer_factory.cpp:58] Creating layer bn2_2
I0227 13:53:38.248711  6260 net.cpp:100] Creating Layer bn2_2
I0227 13:53:38.248711  6260 net.cpp:434] bn2_2 <- conv2_2
I0227 13:53:38.248711  6260 net.cpp:408] bn2_2 -> bn2_2
I0227 13:53:38.248711  6260 net.cpp:150] Setting up bn2_2
I0227 13:53:38.248711  6260 net.cpp:157] Top shape: 100 128 16 16 (3276800)
I0227 13:53:38.248711  6260 net.cpp:165] Memory required for data: 918733200
I0227 13:53:38.248711  6260 layer_factory.cpp:58] Creating layer scale2_2
I0227 13:53:38.248711  6260 net.cpp:100] Creating Layer scale2_2
I0227 13:53:38.248711  6260 net.cpp:434] scale2_2 <- bn2_2
I0227 13:53:38.248711  6260 net.cpp:408] scale2_2 -> scale2_2
I0227 13:53:38.248711  6260 layer_factory.cpp:58] Creating layer scale2_2
I0227 13:53:38.249719  6260 net.cpp:150] Setting up scale2_2
I0227 13:53:38.249719  6260 net.cpp:157] Top shape: 100 128 16 16 (3276800)
I0227 13:53:38.249719  6260 net.cpp:165] Memory required for data: 931840400
I0227 13:53:38.249719  6260 layer_factory.cpp:58] Creating layer relu2_2
I0227 13:53:38.249719  6260 net.cpp:100] Creating Layer relu2_2
I0227 13:53:38.249719  6260 net.cpp:434] relu2_2 <- scale2_2
I0227 13:53:38.249719  6260 net.cpp:408] relu2_2 -> relu2_2
I0227 13:53:38.249719  6260 net.cpp:150] Setting up relu2_2
I0227 13:53:38.249719  6260 net.cpp:157] Top shape: 100 128 16 16 (3276800)
I0227 13:53:38.249719  6260 net.cpp:165] Memory required for data: 944947600
I0227 13:53:38.249719  6260 layer_factory.cpp:58] Creating layer drop2_2
I0227 13:53:38.249719  6260 net.cpp:100] Creating Layer drop2_2
I0227 13:53:38.249719  6260 net.cpp:434] drop2_2 <- relu2_2
I0227 13:53:38.249719  6260 net.cpp:395] drop2_2 -> relu2_2 (in-place)
I0227 13:53:38.249719  6260 net.cpp:150] Setting up drop2_2
I0227 13:53:38.249719  6260 net.cpp:157] Top shape: 100 128 16 16 (3276800)
I0227 13:53:38.249719  6260 net.cpp:165] Memory required for data: 958054800
I0227 13:53:38.249719  6260 layer_factory.cpp:58] Creating layer conv3
I0227 13:53:38.249719  6260 net.cpp:100] Creating Layer conv3
I0227 13:53:38.249719  6260 net.cpp:434] conv3 <- relu2_2
I0227 13:53:38.249719  6260 net.cpp:408] conv3 -> conv3
I0227 13:53:38.252725  6260 net.cpp:150] Setting up conv3
I0227 13:53:38.252725  6260 net.cpp:157] Top shape: 100 128 16 16 (3276800)
I0227 13:53:38.252725  6260 net.cpp:165] Memory required for data: 971162000
I0227 13:53:38.252725  6260 layer_factory.cpp:58] Creating layer bn3
I0227 13:53:38.252725  6260 net.cpp:100] Creating Layer bn3
I0227 13:53:38.252725  6260 net.cpp:434] bn3 <- conv3
I0227 13:53:38.252725  6260 net.cpp:408] bn3 -> bn3
I0227 13:53:38.252725  6260 net.cpp:150] Setting up bn3
I0227 13:53:38.252725  6260 net.cpp:157] Top shape: 100 128 16 16 (3276800)
I0227 13:53:38.252725  6260 net.cpp:165] Memory required for data: 984269200
I0227 13:53:38.252725  6260 layer_factory.cpp:58] Creating layer scale3
I0227 13:53:38.252725  6260 net.cpp:100] Creating Layer scale3
I0227 13:53:38.252725  6260 net.cpp:434] scale3 <- bn3
I0227 13:53:38.252725  6260 net.cpp:408] scale3 -> scale3
I0227 13:53:38.252725  6260 layer_factory.cpp:58] Creating layer scale3
I0227 13:53:38.252725  6260 net.cpp:150] Setting up scale3
I0227 13:53:38.252725  6260 net.cpp:157] Top shape: 100 128 16 16 (3276800)
I0227 13:53:38.252725  6260 net.cpp:165] Memory required for data: 997376400
I0227 13:53:38.252725  6260 layer_factory.cpp:58] Creating layer relu3
I0227 13:53:38.252725  6260 net.cpp:100] Creating Layer relu3
I0227 13:53:38.252725  6260 net.cpp:434] relu3 <- scale3
I0227 13:53:38.252725  6260 net.cpp:408] relu3 -> relu3
I0227 13:53:38.252725  6260 net.cpp:150] Setting up relu3
I0227 13:53:38.252725  6260 net.cpp:157] Top shape: 100 128 16 16 (3276800)
I0227 13:53:38.252725  6260 net.cpp:165] Memory required for data: 1010483600
I0227 13:53:38.252725  6260 layer_factory.cpp:58] Creating layer drop3
I0227 13:53:38.252725  6260 net.cpp:100] Creating Layer drop3
I0227 13:53:38.252725  6260 net.cpp:434] drop3 <- relu3
I0227 13:53:38.252725  6260 net.cpp:395] drop3 -> relu3 (in-place)
I0227 13:53:38.253720  6260 net.cpp:150] Setting up drop3
I0227 13:53:38.253720  6260 net.cpp:157] Top shape: 100 128 16 16 (3276800)
I0227 13:53:38.253720  6260 net.cpp:165] Memory required for data: 1023590800
I0227 13:53:38.253720  6260 layer_factory.cpp:58] Creating layer conv4
I0227 13:53:38.253720  6260 net.cpp:100] Creating Layer conv4
I0227 13:53:38.253720  6260 net.cpp:434] conv4 <- relu3
I0227 13:53:38.253720  6260 net.cpp:408] conv4 -> conv4
I0227 13:53:38.257720  6260 net.cpp:150] Setting up conv4
I0227 13:53:38.257720  6260 net.cpp:157] Top shape: 100 256 16 16 (6553600)
I0227 13:53:38.257720  6260 net.cpp:165] Memory required for data: 1049805200
I0227 13:53:38.257720  6260 layer_factory.cpp:58] Creating layer pool4
I0227 13:53:38.257720  6260 net.cpp:100] Creating Layer pool4
I0227 13:53:38.257720  6260 net.cpp:434] pool4 <- conv4
I0227 13:53:38.257720  6260 net.cpp:408] pool4 -> pool4
I0227 13:53:38.257720  6260 net.cpp:150] Setting up pool4
I0227 13:53:38.257720  6260 net.cpp:157] Top shape: 100 256 8 8 (1638400)
I0227 13:53:38.257720  6260 net.cpp:165] Memory required for data: 1056358800
I0227 13:53:38.257720  6260 layer_factory.cpp:58] Creating layer bn4
I0227 13:53:38.257720  6260 net.cpp:100] Creating Layer bn4
I0227 13:53:38.257720  6260 net.cpp:434] bn4 <- pool4
I0227 13:53:38.257720  6260 net.cpp:408] bn4 -> bn4
I0227 13:53:38.257720  6260 net.cpp:150] Setting up bn4
I0227 13:53:38.257720  6260 net.cpp:157] Top shape: 100 256 8 8 (1638400)
I0227 13:53:38.257720  6260 net.cpp:165] Memory required for data: 1062912400
I0227 13:53:38.257720  6260 layer_factory.cpp:58] Creating layer scale4
I0227 13:53:38.257720  6260 net.cpp:100] Creating Layer scale4
I0227 13:53:38.257720  6260 net.cpp:434] scale4 <- bn4
I0227 13:53:38.257720  6260 net.cpp:408] scale4 -> scale4
I0227 13:53:38.257720  6260 layer_factory.cpp:58] Creating layer scale4
I0227 13:53:38.257720  6260 net.cpp:150] Setting up scale4
I0227 13:53:38.257720  6260 net.cpp:157] Top shape: 100 256 8 8 (1638400)
I0227 13:53:38.257720  6260 net.cpp:165] Memory required for data: 1069466000
I0227 13:53:38.257720  6260 layer_factory.cpp:58] Creating layer relu4
I0227 13:53:38.257720  6260 net.cpp:100] Creating Layer relu4
I0227 13:53:38.257720  6260 net.cpp:434] relu4 <- scale4
I0227 13:53:38.257720  6260 net.cpp:408] relu4 -> relu4
I0227 13:53:38.258710  6260 net.cpp:150] Setting up relu4
I0227 13:53:38.258710  6260 net.cpp:157] Top shape: 100 256 8 8 (1638400)
I0227 13:53:38.258710  6260 net.cpp:165] Memory required for data: 1076019600
I0227 13:53:38.258710  6260 layer_factory.cpp:58] Creating layer drop4
I0227 13:53:38.258710  6260 net.cpp:100] Creating Layer drop4
I0227 13:53:38.258710  6260 net.cpp:434] drop4 <- relu4
I0227 13:53:38.258710  6260 net.cpp:395] drop4 -> relu4 (in-place)
I0227 13:53:38.258710  6260 net.cpp:150] Setting up drop4
I0227 13:53:38.258710  6260 net.cpp:157] Top shape: 100 256 8 8 (1638400)
I0227 13:53:38.258710  6260 net.cpp:165] Memory required for data: 1082573200
I0227 13:53:38.258710  6260 layer_factory.cpp:58] Creating layer conv4_1
I0227 13:53:38.258710  6260 net.cpp:100] Creating Layer conv4_1
I0227 13:53:38.258710  6260 net.cpp:434] conv4_1 <- relu4
I0227 13:53:38.258710  6260 net.cpp:408] conv4_1 -> conv4_1
I0227 13:53:38.265712  6260 net.cpp:150] Setting up conv4_1
I0227 13:53:38.265712  6260 net.cpp:157] Top shape: 100 256 8 8 (1638400)
I0227 13:53:38.265712  6260 net.cpp:165] Memory required for data: 1089126800
I0227 13:53:38.265712  6260 layer_factory.cpp:58] Creating layer bn4_1
I0227 13:53:38.265712  6260 net.cpp:100] Creating Layer bn4_1
I0227 13:53:38.265712  6260 net.cpp:434] bn4_1 <- conv4_1
I0227 13:53:38.265712  6260 net.cpp:408] bn4_1 -> bn4_1
I0227 13:53:38.265712  6260 net.cpp:150] Setting up bn4_1
I0227 13:53:38.265712  6260 net.cpp:157] Top shape: 100 256 8 8 (1638400)
I0227 13:53:38.265712  6260 net.cpp:165] Memory required for data: 1095680400
I0227 13:53:38.265712  6260 layer_factory.cpp:58] Creating layer scale4_1
I0227 13:53:38.265712  6260 net.cpp:100] Creating Layer scale4_1
I0227 13:53:38.265712  6260 net.cpp:434] scale4_1 <- bn4_1
I0227 13:53:38.265712  6260 net.cpp:408] scale4_1 -> scale4_1
I0227 13:53:38.265712  6260 layer_factory.cpp:58] Creating layer scale4_1
I0227 13:53:38.265712  6260 net.cpp:150] Setting up scale4_1
I0227 13:53:38.265712  6260 net.cpp:157] Top shape: 100 256 8 8 (1638400)
I0227 13:53:38.265712  6260 net.cpp:165] Memory required for data: 1102234000
I0227 13:53:38.266721  6260 layer_factory.cpp:58] Creating layer relu4_1
I0227 13:53:38.266721  6260 net.cpp:100] Creating Layer relu4_1
I0227 13:53:38.266721  6260 net.cpp:434] relu4_1 <- scale4_1
I0227 13:53:38.266721  6260 net.cpp:408] relu4_1 -> relu4_1
I0227 13:53:38.266721  6260 net.cpp:150] Setting up relu4_1
I0227 13:53:38.266721  6260 net.cpp:157] Top shape: 100 256 8 8 (1638400)
I0227 13:53:38.266721  6260 net.cpp:165] Memory required for data: 1108787600
I0227 13:53:38.266721  6260 layer_factory.cpp:58] Creating layer drop4_1
I0227 13:53:38.266721  6260 net.cpp:100] Creating Layer drop4_1
I0227 13:53:38.266721  6260 net.cpp:434] drop4_1 <- relu4_1
I0227 13:53:38.266721  6260 net.cpp:395] drop4_1 -> relu4_1 (in-place)
I0227 13:53:38.266721  6260 net.cpp:150] Setting up drop4_1
I0227 13:53:38.266721  6260 net.cpp:157] Top shape: 100 256 8 8 (1638400)
I0227 13:53:38.266721  6260 net.cpp:165] Memory required for data: 1115341200
I0227 13:53:38.266721  6260 layer_factory.cpp:58] Creating layer conv4_2
I0227 13:53:38.266721  6260 net.cpp:100] Creating Layer conv4_2
I0227 13:53:38.266721  6260 net.cpp:434] conv4_2 <- relu4_1
I0227 13:53:38.266721  6260 net.cpp:408] conv4_2 -> conv4_2
I0227 13:53:38.273712  6260 net.cpp:150] Setting up conv4_2
I0227 13:53:38.273712  6260 net.cpp:157] Top shape: 100 256 8 8 (1638400)
I0227 13:53:38.273712  6260 net.cpp:165] Memory required for data: 1121894800
I0227 13:53:38.273712  6260 layer_factory.cpp:58] Creating layer bn4_2
I0227 13:53:38.273712  6260 net.cpp:100] Creating Layer bn4_2
I0227 13:53:38.273712  6260 net.cpp:434] bn4_2 <- conv4_2
I0227 13:53:38.273712  6260 net.cpp:408] bn4_2 -> bn4_2
I0227 13:53:38.274713  6260 net.cpp:150] Setting up bn4_2
I0227 13:53:38.274713  6260 net.cpp:157] Top shape: 100 256 8 8 (1638400)
I0227 13:53:38.274713  6260 net.cpp:165] Memory required for data: 1128448400
I0227 13:53:38.274713  6260 layer_factory.cpp:58] Creating layer scale4_2
I0227 13:53:38.274713  6260 net.cpp:100] Creating Layer scale4_2
I0227 13:53:38.274713  6260 net.cpp:434] scale4_2 <- bn4_2
I0227 13:53:38.274713  6260 net.cpp:408] scale4_2 -> scale4_2
I0227 13:53:38.274713  6260 layer_factory.cpp:58] Creating layer scale4_2
I0227 13:53:38.274713  6260 net.cpp:150] Setting up scale4_2
I0227 13:53:38.274713  6260 net.cpp:157] Top shape: 100 256 8 8 (1638400)
I0227 13:53:38.274713  6260 net.cpp:165] Memory required for data: 1135002000
I0227 13:53:38.274713  6260 layer_factory.cpp:58] Creating layer relu4_2
I0227 13:53:38.274713  6260 net.cpp:100] Creating Layer relu4_2
I0227 13:53:38.274713  6260 net.cpp:434] relu4_2 <- scale4_2
I0227 13:53:38.274713  6260 net.cpp:408] relu4_2 -> relu4_2
I0227 13:53:38.275712  6260 net.cpp:150] Setting up relu4_2
I0227 13:53:38.275712  6260 net.cpp:157] Top shape: 100 256 8 8 (1638400)
I0227 13:53:38.275712  6260 net.cpp:165] Memory required for data: 1141555600
I0227 13:53:38.275712  6260 layer_factory.cpp:58] Creating layer drop4_2
I0227 13:53:38.275712  6260 net.cpp:100] Creating Layer drop4_2
I0227 13:53:38.275712  6260 net.cpp:434] drop4_2 <- relu4_2
I0227 13:53:38.275712  6260 net.cpp:395] drop4_2 -> relu4_2 (in-place)
I0227 13:53:38.275712  6260 net.cpp:150] Setting up drop4_2
I0227 13:53:38.275712  6260 net.cpp:157] Top shape: 100 256 8 8 (1638400)
I0227 13:53:38.275712  6260 net.cpp:165] Memory required for data: 1148109200
I0227 13:53:38.275712  6260 layer_factory.cpp:58] Creating layer pool4_2
I0227 13:53:38.275712  6260 net.cpp:100] Creating Layer pool4_2
I0227 13:53:38.275712  6260 net.cpp:434] pool4_2 <- relu4_2
I0227 13:53:38.275712  6260 net.cpp:408] pool4_2 -> pool4_2
I0227 13:53:38.275712  6260 net.cpp:150] Setting up pool4_2
I0227 13:53:38.275712  6260 net.cpp:157] Top shape: 100 256 4 4 (409600)
I0227 13:53:38.275712  6260 net.cpp:165] Memory required for data: 1149747600
I0227 13:53:38.275712  6260 layer_factory.cpp:58] Creating layer conv4_0
I0227 13:53:38.275712  6260 net.cpp:100] Creating Layer conv4_0
I0227 13:53:38.275712  6260 net.cpp:434] conv4_0 <- pool4_2
I0227 13:53:38.275712  6260 net.cpp:408] conv4_0 -> conv4_0
I0227 13:53:38.292711  6260 net.cpp:150] Setting up conv4_0
I0227 13:53:38.292711  6260 net.cpp:157] Top shape: 100 512 4 4 (819200)
I0227 13:53:38.292711  6260 net.cpp:165] Memory required for data: 1153024400
I0227 13:53:38.292711  6260 layer_factory.cpp:58] Creating layer bn4_0
I0227 13:53:38.292711  6260 net.cpp:100] Creating Layer bn4_0
I0227 13:53:38.292711  6260 net.cpp:434] bn4_0 <- conv4_0
I0227 13:53:38.292711  6260 net.cpp:408] bn4_0 -> bn4_0
I0227 13:53:38.292711  6260 net.cpp:150] Setting up bn4_0
I0227 13:53:38.292711  6260 net.cpp:157] Top shape: 100 512 4 4 (819200)
I0227 13:53:38.292711  6260 net.cpp:165] Memory required for data: 1156301200
I0227 13:53:38.292711  6260 layer_factory.cpp:58] Creating layer scale4_0
I0227 13:53:38.292711  6260 net.cpp:100] Creating Layer scale4_0
I0227 13:53:38.292711  6260 net.cpp:434] scale4_0 <- bn4_0
I0227 13:53:38.292711  6260 net.cpp:408] scale4_0 -> scale4_0
I0227 13:53:38.292711  6260 layer_factory.cpp:58] Creating layer scale4_0
I0227 13:53:38.292711  6260 net.cpp:150] Setting up scale4_0
I0227 13:53:38.292711  6260 net.cpp:157] Top shape: 100 512 4 4 (819200)
I0227 13:53:38.292711  6260 net.cpp:165] Memory required for data: 1159578000
I0227 13:53:38.292711  6260 layer_factory.cpp:58] Creating layer relu4_0
I0227 13:53:38.292711  6260 net.cpp:100] Creating Layer relu4_0
I0227 13:53:38.293723  6260 net.cpp:434] relu4_0 <- scale4_0
I0227 13:53:38.293723  6260 net.cpp:408] relu4_0 -> relu4_0
I0227 13:53:38.294231  6260 net.cpp:150] Setting up relu4_0
I0227 13:53:38.294231  6260 net.cpp:157] Top shape: 100 512 4 4 (819200)
I0227 13:53:38.294231  6260 net.cpp:165] Memory required for data: 1162854800
I0227 13:53:38.294231  6260 layer_factory.cpp:58] Creating layer drop4_0
I0227 13:53:38.294231  6260 net.cpp:100] Creating Layer drop4_0
I0227 13:53:38.294231  6260 net.cpp:434] drop4_0 <- relu4_0
I0227 13:53:38.294231  6260 net.cpp:395] drop4_0 -> relu4_0 (in-place)
I0227 13:53:38.294231  6260 net.cpp:150] Setting up drop4_0
I0227 13:53:38.294231  6260 net.cpp:157] Top shape: 100 512 4 4 (819200)
I0227 13:53:38.294231  6260 net.cpp:165] Memory required for data: 1166131600
I0227 13:53:38.294231  6260 layer_factory.cpp:58] Creating layer cccp4
I0227 13:53:38.294231  6260 net.cpp:100] Creating Layer cccp4
I0227 13:53:38.294231  6260 net.cpp:434] cccp4 <- relu4_0
I0227 13:53:38.294231  6260 net.cpp:408] cccp4 -> cccp4
I0227 13:53:38.304729  6260 net.cpp:150] Setting up cccp4
I0227 13:53:38.304729  6260 net.cpp:157] Top shape: 100 2048 4 4 (3276800)
I0227 13:53:38.304729  6260 net.cpp:165] Memory required for data: 1179238800
I0227 13:53:38.304729  6260 layer_factory.cpp:58] Creating layer relu_cccp4
I0227 13:53:38.304729  6260 net.cpp:100] Creating Layer relu_cccp4
I0227 13:53:38.304729  6260 net.cpp:434] relu_cccp4 <- cccp4
I0227 13:53:38.304729  6260 net.cpp:395] relu_cccp4 -> cccp4 (in-place)
I0227 13:53:38.305229  6260 net.cpp:150] Setting up relu_cccp4
I0227 13:53:38.305229  6260 net.cpp:157] Top shape: 100 2048 4 4 (3276800)
I0227 13:53:38.305229  6260 net.cpp:165] Memory required for data: 1192346000
I0227 13:53:38.305229  6260 layer_factory.cpp:58] Creating layer drop4_3
I0227 13:53:38.305229  6260 net.cpp:100] Creating Layer drop4_3
I0227 13:53:38.305229  6260 net.cpp:434] drop4_3 <- cccp4
I0227 13:53:38.305229  6260 net.cpp:395] drop4_3 -> cccp4 (in-place)
I0227 13:53:38.305229  6260 net.cpp:150] Setting up drop4_3
I0227 13:53:38.305229  6260 net.cpp:157] Top shape: 100 2048 4 4 (3276800)
I0227 13:53:38.305229  6260 net.cpp:165] Memory required for data: 1205453200
I0227 13:53:38.305229  6260 layer_factory.cpp:58] Creating layer cccp5
I0227 13:53:38.305229  6260 net.cpp:100] Creating Layer cccp5
I0227 13:53:38.305229  6260 net.cpp:434] cccp5 <- cccp4
I0227 13:53:38.305229  6260 net.cpp:408] cccp5 -> cccp5
I0227 13:53:38.309228  6260 net.cpp:150] Setting up cccp5
I0227 13:53:38.310665  6260 net.cpp:157] Top shape: 100 256 4 4 (409600)
I0227 13:53:38.310665  6260 net.cpp:165] Memory required for data: 1207091600
I0227 13:53:38.310665  6260 layer_factory.cpp:58] Creating layer relu_cccp5
I0227 13:53:38.310665  6260 net.cpp:100] Creating Layer relu_cccp5
I0227 13:53:38.310665  6260 net.cpp:434] relu_cccp5 <- cccp5
I0227 13:53:38.310665  6260 net.cpp:395] relu_cccp5 -> cccp5 (in-place)
I0227 13:53:38.310665  6260 net.cpp:150] Setting up relu_cccp5
I0227 13:53:38.310665  6260 net.cpp:157] Top shape: 100 256 4 4 (409600)
I0227 13:53:38.310665  6260 net.cpp:165] Memory required for data: 1208730000
I0227 13:53:38.310665  6260 layer_factory.cpp:58] Creating layer poolcp5
I0227 13:53:38.310665  6260 net.cpp:100] Creating Layer poolcp5
I0227 13:53:38.310665  6260 net.cpp:434] poolcp5 <- cccp5
I0227 13:53:38.310665  6260 net.cpp:408] poolcp5 -> poolcp5
I0227 13:53:38.310665  6260 net.cpp:150] Setting up poolcp5
I0227 13:53:38.310665  6260 net.cpp:157] Top shape: 100 256 2 2 (102400)
I0227 13:53:38.310665  6260 net.cpp:165] Memory required for data: 1209139600
I0227 13:53:38.310665  6260 layer_factory.cpp:58] Creating layer drop4_5
I0227 13:53:38.310665  6260 net.cpp:100] Creating Layer drop4_5
I0227 13:53:38.310665  6260 net.cpp:434] drop4_5 <- poolcp5
I0227 13:53:38.310665  6260 net.cpp:395] drop4_5 -> poolcp5 (in-place)
I0227 13:53:38.310665  6260 net.cpp:150] Setting up drop4_5
I0227 13:53:38.310665  6260 net.cpp:157] Top shape: 100 256 2 2 (102400)
I0227 13:53:38.310665  6260 net.cpp:165] Memory required for data: 1209549200
I0227 13:53:38.310665  6260 layer_factory.cpp:58] Creating layer cccp6
I0227 13:53:38.310665  6260 net.cpp:100] Creating Layer cccp6
I0227 13:53:38.310665  6260 net.cpp:434] cccp6 <- poolcp5
I0227 13:53:38.310665  6260 net.cpp:408] cccp6 -> cccp6
I0227 13:53:38.316679  6260 net.cpp:150] Setting up cccp6
I0227 13:53:38.316679  6260 net.cpp:157] Top shape: 100 256 2 2 (102400)
I0227 13:53:38.316679  6260 net.cpp:165] Memory required for data: 1209958800
I0227 13:53:38.316679  6260 layer_factory.cpp:58] Creating layer relu_cccp6
I0227 13:53:38.316679  6260 net.cpp:100] Creating Layer relu_cccp6
I0227 13:53:38.316679  6260 net.cpp:434] relu_cccp6 <- cccp6
I0227 13:53:38.316679  6260 net.cpp:395] relu_cccp6 -> cccp6 (in-place)
I0227 13:53:38.317668  6260 net.cpp:150] Setting up relu_cccp6
I0227 13:53:38.317668  6260 net.cpp:157] Top shape: 100 256 2 2 (102400)
I0227 13:53:38.317668  6260 net.cpp:165] Memory required for data: 1210368400
I0227 13:53:38.317668  6260 layer_factory.cpp:58] Creating layer poolcp6
I0227 13:53:38.317668  6260 net.cpp:100] Creating Layer poolcp6
I0227 13:53:38.317668  6260 net.cpp:434] poolcp6 <- cccp6
I0227 13:53:38.317668  6260 net.cpp:408] poolcp6 -> poolcp6
I0227 13:53:38.317668  6260 net.cpp:150] Setting up poolcp6
I0227 13:53:38.317668  6260 net.cpp:157] Top shape: 100 256 1 1 (25600)
I0227 13:53:38.317668  6260 net.cpp:165] Memory required for data: 1210470800
I0227 13:53:38.317668  6260 layer_factory.cpp:58] Creating layer ip1
I0227 13:53:38.317668  6260 net.cpp:100] Creating Layer ip1
I0227 13:53:38.317668  6260 net.cpp:434] ip1 <- poolcp6
I0227 13:53:38.317668  6260 net.cpp:408] ip1 -> ip1
I0227 13:53:38.317668  6260 net.cpp:150] Setting up ip1
I0227 13:53:38.317668  6260 net.cpp:157] Top shape: 100 10 (1000)
I0227 13:53:38.317668  6260 net.cpp:165] Memory required for data: 1210474800
I0227 13:53:38.317668  6260 layer_factory.cpp:58] Creating layer loss
I0227 13:53:38.317668  6260 net.cpp:100] Creating Layer loss
I0227 13:53:38.317668  6260 net.cpp:434] loss <- ip1
I0227 13:53:38.317668  6260 net.cpp:434] loss <- label
I0227 13:53:38.317668  6260 net.cpp:408] loss -> loss
I0227 13:53:38.317668  6260 layer_factory.cpp:58] Creating layer loss
…
I0227 13:53:38.319684  6260 net.cpp:322] The NetState phase (1) differed from the phase (0) specified by a rule in layer bn4_2
I0227 13:53:38.319684  6260 net.cpp:322] The NetState phase (1) differed from the phase (0) specified by a rule in layer bn4_0
I0227 13:53:38.319684  6260 net.cpp:58] Initializing net from parameters: 
name: "SVHN_all_drpout"
state {
  phase: TEST
}
layer {
  name: "SVHN"
  type: "Data"
  top: "data"
  top: "label"
  include {
    phase: TEST
  }
  transform_param {
    scale: 0.0039215684
  }
  data_param {
    source: "examples/svhn/svhn_test_leveldb"
    batch_size: 16
    backend: LEVELDB
  }
}
layer {
  name: "conv1"
  type: "Convolution"
  bottom: "data"
  top: "conv1"
  param {
    lr_mult: 1
  }
  convolution_param {
    num_output: 64
    bias_term: true
    pad: 1
    kernel_size: 3
    stride: 1
    weight_filler {
      type: "xavier"
    }
  }
}
layer {
  name: "bn1"
  type: "BatchNorm"
  bottom: "conv1"
  top: "bn1"
  include {
    phase: TEST
  }
  batch_norm_param {
    use_global_stats: true
    moving_average_fraction: 0.95
  }
}
layer {
  name: "scale1"
  type: "Scale"
  bottom: "bn1"
  top: "scale1"
  scale_param {
    bias_term: true
  }
}
layer {
  name: "relu1"
  type: "ReLU"
  bottom: "scale1"
  top: "relu1"
}
layer {
  name: "drop2_1"
  type: "Dropout"
  bottom: "relu1"
  top: "relu1"
  dropout_param {
    dropout_ratio: 0.2
  }
}
layer {
  name: "conv1_0"
  type: "Convolution"
  bottom: "relu1"
  top: "conv1_0"
  param {
    lr_mult: 1
  }
  convolution_param {
    num_output: 128
    bias_term: true
    pad: 1
    kernel_size: 3
    stride: 1
    weight_filler {
      type: "xavier"
    }
  }
}
layer {
  name: "bn1_0"
  type: "BatchNorm"
  bottom: "conv1_0"
  top: "bn1_0"
  include {
    phase: TEST
  }
  batch_norm_param {
    use_global_stats: true
    moving_average_fraction: 0.95
  }
}
layer {
  name: "scale1_0"
  type: "Scale"
  bottom: "bn1_0"
  top: "scale1_0"
  scale_param {
    bias_term: true
  }
}
layer {
  name: "relu1_0"
  type: "ReLU"
  bottom: "scale1_0"
  top: "relu1_0"
}
layer {
  name: "drop1_0"
  type: "Dropout"
  bottom: "relu1_0"
  top: "relu1_0"
  dropout_param {
    dropout_ratio: 0.2
  }
}
layer {
  name: "conv2"
  type: "Convolution"
  bottom: "relu1_0"
  top: "conv2"
  param {
    lr_mult: 1
  }
  convolution_param {
    num_output: 128
    bias_term: true
    pad: 1
    kernel_size: 3
    stride: 1
    weight_filler {
      type: "gaussian"
      std: 0.01
    }
  }
}
layer {
  name: "bn2"
  type: "BatchNorm"
  bottom: "conv2"
  top: "bn2"
  include {
    phase: TEST
  }
  batch_norm_param {
    use_global_stats: true
    moving_average_fraction: 0.95
  }
}
layer {
  name: "scale2"
  type: "Scale"
  bottom: "bn2"
  top: "scale2"
  scale_param {
    bias_term: true
  }
}
layer {
  name: "relu2"
  type: "ReLU"
  bottom: "scale2"
  top: "relu2"
}
layer {
  name: "drop2_0"
  type: "Dropout"
  bottom: "relu2"
  top: "relu2"
  dropout_param {
    dropout_ratio: 0.2
  }
}
layer {
  name: "conv2_1"
  type: "Convolution"
  bottom: "relu2"
  top: "conv2_1"
  param {
    lr_mult: 1
  }
  convolution_param {
    num_output: 128
    bias_term: true
    pad: 1
    kernel_size: 3
    stride: 1
    weight_filler {
      type: "gaussian"
      std: 0.01
    }
  }
}
layer {
  name: "bn2_1"
  type: "BatchNorm"
  bottom: "conv2_1"
  top: "bn2_1"
  include {
    phase: TEST
  }
  batch_norm_param {
    use_global_stats: true
    moving_average_fraction: 0.95
  }
}
layer {
  name: "scale2_1"
  type: "Scale"
  bottom: "bn2_1"
  top: "scale2_1"
  scale_param {
    bias_term: true
  }
}
layer {
  name: "relu2_1"
  type: "ReLU"
  bottom: "scale2_1"
  top: "relu2_1"
}
layer {
  name: "pool2_1"
  type: "Pooling"
  bottom: "relu2_1"
  top: "pool2_1"
  pooling_param {
    pool: MAX
    kernel_size: 2
    stride: 2
  }
}
layer {
  name: "drop2_1"
  type: "Dropout"
  bottom: "pool2_1"
  top: "pool2_1"
  dropout_param {
    dropout_ratio: 0.2
  }
}
layer {
  name: "conv2_2"
  type: "Convolution"
  bottom: "pool2_1"
  top: "conv2_2"
  param {
    lr_mult: 1
  }
  convolution_param {
    num_output: 128
    bias_term: true
    pad: 1
    kernel_size: 3
    stride: 1
    weight_filler {
      type: "gaussian"
      std: 0.01
    }
  }
}
layer {
  name: "bn2_2"
  type: "BatchNorm"
  bottom: "conv2_2"
  top: "bn2_2"
  include {
    phase: TEST
  }
  batch_norm_param {
    use_global_stats: true
    moving_average_fraction: 0.95
  }
}
layer {
  name: "scale2_2"
  type: "Scale"
  bottom: "bn2_2"
  top: "scale2_2"
  scale_param {
    bias_term: true
  }
}
layer {
  name: "relu2_2"
  type: "ReLU"
  bottom: "scale2_2"
  top: "relu2_2"
}
layer {
  name: "drop2_2"
  type: "Dropout"
  bottom: "relu2_2"
  top: "relu2_2"
  dropout_param {
    dropout_ratio: 0.2
  }
}
layer {
  name: "conv3"
  type: "Convolution"
  bottom: "relu2_2"
  top: "conv3"
  param {
    lr_mult: 1
  }
  convolution_param {
    num_output: 128
    bias_term: true
    pad: 1
    kernel_size: 3
    stride: 1
    weight_filler {
      type: "xavier"
    }
  }
}
layer {
  name: "bn3"
  type: "BatchNorm"
  bottom: "conv3"
  top: "bn3"
  include {
    phase: TEST
  }
  batch_norm_param {
    use_global_stats: true
    moving_average_fraction: 0.95
  }
}
layer {
  name: "scale3"
  type: "Scale"
  bottom: "bn3"
  top: "scale3"
  scale_param {
    bias_term: true
  }
}
layer {
  name: "relu3"
  type: "ReLU"
  bottom: "scale3"
  top: "relu3"
}
layer {
  name: "drop3"
  type: "Dropout"
  bottom: "relu3"
  top: "relu3"
  dropout_param {
    dropout_ratio: 0.2
  }
}
layer {
  name: "conv4"
  type: "Convolution"
  bottom: "relu3"
  top: "conv4"
  param {
    lr_mult: 1
  }
  convolution_param {
    num_output: 256
    bias_term: true
    pad: 1
    kernel_size: 3
    stride: 1
    weight_filler {
      type: "xavier"
    }
  }
}
layer {
  name: "pool4"
  type: "Pooling"
  bottom: "conv4"
  top: "pool4"
  pooling_param {
    pool: MAX
    kernel_size: 2
    stride: 2
  }
}
layer {
  name: "bn4"
  type: "BatchNorm"
  bottom: "pool4"
  top: "bn4"
  include {
    phase: TEST
  }
  batch_norm_param {
    use_global_stats: true
    moving_average_fraction: 0.95
  }
}
layer {
  name: "scale4"
  type: "Scale"
  bottom: "bn4"
  top: "scale4"
  scale_param {
    bias_term: true
  }
}
layer {
  name: "relu4"
  type: "ReLU"
  bottom: "scale4"
  top: "relu4"
}
layer {
  name: "drop4"
  type: "Dropout"
  bottom: "relu4"
  top: "relu4"
  dropout_param {
    dropout_ratio: 0.2
  }
}
layer {
  name: "conv4_1"
  type: "Convolution"
  bottom: "relu4"
  top: "conv4_1"
  param {
    lr_mult: 1
  }
  convolution_param {
    num_output: 256
    bias_term: true
    pad: 1
    kernel_size: 3
    stride: 1
    weight_filler {
      type: "xavier"
    }
  }
}
layer {
  name: "bn4_1"
  type: "BatchNorm"
  bottom: "conv4_1"
  top: "bn4_1"
  include {
    phase: TEST
  }
  batch_norm_param {
    use_global_stats: true
    moving_average_fraction: 0.95
  }
}
layer {
  name: "scale4_1"
  type: "Scale"
  bottom: "bn4_1"
  top: "scale4_1"
  scale_param {
    bias_term: true
  }
}
layer {
  name: "relu4_1"
  type: "ReLU"
  bottom: "scale4_1"
  top: "relu4_1"
}
layer {
  name: "drop4_1"
  type: "Dropout"
  bottom: "relu4_1"
  top: "relu4_1"
  dropout_param {
    dropout_ratio: 0.2
  }
}
layer {
  name: "conv4_2"
  type: "Convolution"
  bottom: "relu4_1"
  top: "conv4_2"
  param {
    lr_mult: 1
  }
  convolution_param {
    num_output: 256
    bias_term: true
    pad: 1
    kernel_size: 3
    stride: 1
    weight_filler {
      type: "xavier"
    }
  }
}
layer {
  name: "bn4_2"
  type: "BatchNorm"
  bottom: "conv4_2"
  top: "bn4_2"
  include {
    phase: TEST
  }
  batch_norm_param {
    use_global_stats: true
    moving_average_fraction: 0.95
  }
}
layer {
  name: "scale4_2"
  type: "Scale"
  bottom: "bn4_2"
  top: "scale4_2"
  scale_param {
    bias_term: true
  }
}
layer {
  name: "relu4_2"
  type: "ReLU"
  bottom: "scale4_2"
  top: "relu4_2"
}
layer {
  name: "drop4_2"
  type: "Dropout"
  bottom: "relu4_2"
  top: "relu4_2"
  dropout_param {
    dropout_ratio: 0.2
  }
}
layer {
  name: "pool4_2"
  type: "Pooling"
  bottom: "relu4_2"
  top: "pool4_2"
  pooling_param {
    pool: MAX
    kernel_size: 2
    stride: 2
  }
}
layer {
  name: "conv4_0"
  type: "Convolution"
  bottom: "pool4_2"
  top: "conv4_0"
  param {
    lr_mult: 1
  }
  convolution_param {
    num_output: 512
    bias_term: true
    pad: 1
    kernel_size: 3
    stride: 1
    weight_filler {
      type: "xavier"
    }
  }
}
layer {
  name: "bn4_0"
  type: "BatchNorm"
  bottom: "conv4_0"
  top: "bn4_0"
  include {
    phase: TEST
  }
  batch_norm_param {
    use_global_stats: true
    moving_average_fraction: 0.95
  }
}
layer {
  name: "scale4_0"
  type: "Scale"
  bottom: "bn4_0"
  top: "scale4_0"
  scale_param {
    bias_term: true
  }
}
layer {
  name: "relu4_0"
  type: "ReLU"
  bottom: "scale4_0"
  top: "relu4_0"
}
layer {
  name: "drop4_0"
  type: "Dropout"
  bottom: "relu4_0"
  top: "relu4_0"
  dropout_param {
    dropout_ratio: 0.2
  }
}
layer {
  name: "cccp4"
  type: "Convolution"
  bottom: "relu4_0"
  top: "cccp4"
  param {
    lr_mult: 1
    decay_mult: 1
  }
  param {
    lr_mult: 2
    decay_mult: 0
  }
  convolution_param {
    num_output: 2048
    kernel_size: 1
    group: 1
    weight_filler {
      type: "xavier"
    }
    bias_filler {
      type: "constant"
      value: 0
    }
  }
}
layer {
  name: "relu_cccp4"
  type: "ReLU"
  bottom: "cccp4"
  top: "cccp4"
}
layer {
  name: "drop4_3"
  type: "Dropout"
  bottom: "cccp4"
  top: "cccp4"
  dropout_param {
    dropout_ratio: 0.2
  }
}
layer {
  name: "cccp5"
  type: "Convolution"
  bottom: "cccp4"
  top: "cccp5"
  param {
    lr_mult: 1
    decay_mult: 1
  }
  param {
    lr_mult: 2
    decay_mult: 0
  }
  convolution_param {
    num_output: 256
    kernel_size: 1
    group: 1
    weight_filler {
      type: "xavier"
    }
    bias_filler {
      type: "constant"
      value: 0
    }
  }
}
layer {
  name: "relu_cccp5"
  type: "ReLU"
  bottom: "cccp5"
  top: "cccp5"
}
layer {
  name: "poolcp5"
  type: "Pooling"
  bottom: "cccp5"
  top: "poolcp5"
  pooling_param {
    pool: MAX
    kernel_size: 2
    stride: 2
  }
}
layer {
  name: "drop4_5"
  type: "Dropout"
  bottom: "poolcp5"
  top: "poolcp5"
  dropout_param {
    dropout_ratio: 0.2
  }
}
layer {
  name: "cccp6"
  type: "Convolution"
  bottom: "poolcp5"
  top: "cccp6"
  param {
    lr_mult: 1
    decay_mult: 1
  }
  param {
    lr_mult: 2
    decay_mult: 0
  }
  convolution_param {
    num_output: 256
    pad: 1
    kernel_size: 3
    group: 1
    weight_filler {
      type: "xavier"
    }
    bias_filler {
      type: "constant"
      value: 0
    }
  }
}
layer {
  name: "relu_cccp6"
  type: "ReLU"
  bottom: "cccp6"
  top: "cccp6"
}
layer {
  name: "poolcp6"
  type: "Pooling"
  bottom: "cccp6"
  top: "poolcp6"
  pooling_param {
    pool: MAX
    kernel_size: 2
    stride: 2
  }
}
layer {
  name: "ip1"
  type: "InnerProduct"
  bottom: "poolcp6"
  top: "ip1"
  param {
    lr_mult: 1
    decay_mult: 0
  }
  param {
    lr_mult: 2
    decay_mult: 0
  }
  inner_product_param {
    num_output: 10
    weight_filler {
      type: "xavier"
    }
    bias_filler {
      type: "constant"
    }
  }
}
layer {
  name: "accuracy"
  type: "Accuracy"
  bottom: "ip1"
  bottom: "label"
  top: "accuracy"
  include {
    phase: TEST
  }
}
layer {
  name: "loss"
  type: "SoftmaxWithLoss"
  bottom: "ip1"
  bottom: "label"
  top: "loss"
}
I0227 13:53:38.320684  6260 layer_factory.cpp:58] Creating layer SVHN
I0227 13:53:38.320684  6260 net.cpp:100] Creating Layer SVHN
I0227 13:53:38.320684  6260 net.cpp:408] SVHN -> data
I0227 13:53:38.320684  6260 net.cpp:408] SVHN -> label
I0227 13:53:38.321687  4280 common.cpp:36] System entropy source not available, using fallback algorithm to generate seed instead.
I0227 13:53:38.326680  4280 db_leveldb.cpp:18] Opened leveldb examples/svhn/svhn_test_leveldb
I0227 13:53:38.326680  6260 data_layer.cpp:41] output data size: 16,3,32,32
I0227 13:53:38.328668  6260 net.cpp:150] Setting up SVHN
I0227 13:53:38.328668  6260 net.cpp:157] Top shape: 16 3 32 32 (49152)
I0227 13:53:38.328668  6260 net.cpp:157] Top shape: 16 (16)
I0227 13:53:38.328668  6260 net.cpp:165] Memory required for data: 196672
I0227 13:53:38.328668  6260 layer_factory.cpp:58] Creating layer label_SVHN_1_split
I0227 13:53:38.328668  6260 net.cpp:100] Creating Layer label_SVHN_1_split
I0227 13:53:38.328668  6260 net.cpp:434] label_SVHN_1_split <- label
I0227 13:53:38.328668  6260 net.cpp:408] label_SVHN_1_split -> label_SVHN_1_split_0
I0227 13:53:38.328668  6260 net.cpp:408] label_SVHN_1_split -> label_SVHN_1_split_1
I0227 13:53:38.329684  6260 net.cpp:150] Setting up label_SVHN_1_split
I0227 13:53:38.329684  6260 net.cpp:157] Top shape: 16 (16)
I0227 13:53:38.329684  6260 net.cpp:157] Top shape: 16 (16)
I0227 13:53:38.329684  6260 net.cpp:165] Memory required for data: 196800
I0227 13:53:38.329684  6260 layer_factory.cpp:58] Creating layer conv1
I0227 13:53:38.329684  6260 net.cpp:100] Creating Layer conv1
I0227 13:53:38.329684  6260 net.cpp:434] conv1 <- data
I0227 13:53:38.329684  6260 net.cpp:408] conv1 -> conv1
I0227 13:53:38.329684 19376 common.cpp:36] System entropy source not available, using fallback algorithm to generate seed instead.
I0227 13:53:38.330682  6260 net.cpp:150] Setting up conv1
I0227 13:53:38.330682  6260 net.cpp:157] Top shape: 16 64 32 32 (1048576)
I0227 13:53:38.330682  6260 net.cpp:165] Memory required for data: 4391104
I0227 13:53:38.330682  6260 layer_factory.cpp:58] Creating layer bn1
I0227 13:53:38.330682  6260 net.cpp:100] Creating Layer bn1
I0227 13:53:38.330682  6260 net.cpp:434] bn1 <- conv1
I0227 13:53:38.330682  6260 net.cpp:408] bn1 -> bn1
I0227 13:53:38.331666  6260 net.cpp:150] Setting up bn1
I0227 13:53:38.331666  6260 net.cpp:157] Top shape: 16 64 32 32 (1048576)
I0227 13:53:38.331666  6260 net.cpp:165] Memory required for data: 8585408
I0227 13:53:38.331666  6260 layer_factory.cpp:58] Creating layer scale1
I0227 13:53:38.331666  6260 net.cpp:100] Creating Layer scale1
I0227 13:53:38.331666  6260 net.cpp:434] scale1 <- bn1
I0227 13:53:38.331666  6260 net.cpp:408] scale1 -> scale1
I0227 13:53:38.331666  6260 layer_factory.cpp:58] Creating layer scale1
I0227 13:53:38.331666  6260 net.cpp:150] Setting up scale1
I0227 13:53:38.331666  6260 net.cpp:157] Top shape: 16 64 32 32 (1048576)
I0227 13:53:38.331666  6260 net.cpp:165] Memory required for data: 12779712
I0227 13:53:38.331666  6260 layer_factory.cpp:58] Creating layer relu1
I0227 13:53:38.331666  6260 net.cpp:100] Creating Layer relu1
I0227 13:53:38.331666  6260 net.cpp:434] relu1 <- scale1
I0227 13:53:38.331666  6260 net.cpp:408] relu1 -> relu1
I0227 13:53:38.331666  6260 net.cpp:150] Setting up relu1
I0227 13:53:38.331666  6260 net.cpp:157] Top shape: 16 64 32 32 (1048576)
I0227 13:53:38.331666  6260 net.cpp:165] Memory required for data: 16974016
I0227 13:53:38.331666  6260 layer_factory.cpp:58] Creating layer drop2_1
I0227 13:53:38.331666  6260 net.cpp:100] Creating Layer drop2_1
I0227 13:53:38.331666  6260 net.cpp:434] drop2_1 <- relu1
I0227 13:53:38.331666  6260 net.cpp:395] drop2_1 -> relu1 (in-place)
I0227 13:53:38.332665  6260 net.cpp:150] Setting up drop2_1
I0227 13:53:38.332665  6260 net.cpp:157] Top shape: 16 64 32 32 (1048576)
I0227 13:53:38.332665  6260 net.cpp:165] Memory required for data: 21168320
I0227 13:53:38.332665  6260 layer_factory.cpp:58] Creating layer conv1_0
I0227 13:53:38.332665  6260 net.cpp:100] Creating Layer conv1_0
I0227 13:53:38.332665  6260 net.cpp:434] conv1_0 <- relu1
I0227 13:53:38.332665  6260 net.cpp:408] conv1_0 -> conv1_0
I0227 13:53:38.333665  6260 net.cpp:150] Setting up conv1_0
I0227 13:53:38.333665  6260 net.cpp:157] Top shape: 16 128 32 32 (2097152)
I0227 13:53:38.333665  6260 net.cpp:165] Memory required for data: 29556928
I0227 13:53:38.333665  6260 layer_factory.cpp:58] Creating layer bn1_0
I0227 13:53:38.333665  6260 net.cpp:100] Creating Layer bn1_0
I0227 13:53:38.333665  6260 net.cpp:434] bn1_0 <- conv1_0
I0227 13:53:38.333665  6260 net.cpp:408] bn1_0 -> bn1_0
I0227 13:53:38.334666  6260 net.cpp:150] Setting up bn1_0
I0227 13:53:38.334666  6260 net.cpp:157] Top shape: 16 128 32 32 (2097152)
I0227 13:53:38.334666  6260 net.cpp:165] Memory required for data: 37945536
I0227 13:53:38.334666  6260 layer_factory.cpp:58] Creating layer scale1_0
I0227 13:53:38.334666  6260 net.cpp:100] Creating Layer scale1_0
I0227 13:53:38.334666  6260 net.cpp:434] scale1_0 <- bn1_0
I0227 13:53:38.334666  6260 net.cpp:408] scale1_0 -> scale1_0
I0227 13:53:38.334666  6260 layer_factory.cpp:58] Creating layer scale1_0
I0227 13:53:38.334666  6260 net.cpp:150] Setting up scale1_0
I0227 13:53:38.334666  6260 net.cpp:157] Top shape: 16 128 32 32 (2097152)
I0227 13:53:38.334666  6260 net.cpp:165] Memory required for data: 46334144
I0227 13:53:38.334666  6260 layer_factory.cpp:58] Creating layer relu1_0
I0227 13:53:38.334666  6260 net.cpp:100] Creating Layer relu1_0
I0227 13:53:38.334666  6260 net.cpp:434] relu1_0 <- scale1_0
I0227 13:53:38.334666  6260 net.cpp:408] relu1_0 -> relu1_0
I0227 13:53:38.334666  6260 net.cpp:150] Setting up relu1_0
I0227 13:53:38.334666  6260 net.cpp:157] Top shape: 16 128 32 32 (2097152)
I0227 13:53:38.334666  6260 net.cpp:165] Memory required for data: 54722752
I0227 13:53:38.334666  6260 layer_factory.cpp:58] Creating layer drop1_0
I0227 13:53:38.334666  6260 net.cpp:100] Creating Layer drop1_0
I0227 13:53:38.335665  6260 net.cpp:434] drop1_0 <- relu1_0
I0227 13:53:38.335665  6260 net.cpp:395] drop1_0 -> relu1_0 (in-place)
I0227 13:53:38.335665  6260 net.cpp:150] Setting up drop1_0
I0227 13:53:38.335665  6260 net.cpp:157] Top shape: 16 128 32 32 (2097152)
I0227 13:53:38.335665  6260 net.cpp:165] Memory required for data: 63111360
I0227 13:53:38.335665  6260 layer_factory.cpp:58] Creating layer conv2
I0227 13:53:38.335665  6260 net.cpp:100] Creating Layer conv2
I0227 13:53:38.335665  6260 net.cpp:434] conv2 <- relu1_0
I0227 13:53:38.335665  6260 net.cpp:408] conv2 -> conv2
I0227 13:53:38.339118  6260 net.cpp:150] Setting up conv2
I0227 13:53:38.339118  6260 net.cpp:157] Top shape: 16 128 32 32 (2097152)
I0227 13:53:38.339118  6260 net.cpp:165] Memory required for data: 71499968
I0227 13:53:38.339118  6260 layer_factory.cpp:58] Creating layer bn2
I0227 13:53:38.339118  6260 net.cpp:100] Creating Layer bn2
I0227 13:53:38.339118  6260 net.cpp:434] bn2 <- conv2
I0227 13:53:38.339118  6260 net.cpp:408] bn2 -> bn2
I0227 13:53:38.339118  6260 net.cpp:150] Setting up bn2
I0227 13:53:38.339118  6260 net.cpp:157] Top shape: 16 128 32 32 (2097152)
I0227 13:53:38.339118  6260 net.cpp:165] Memory required for data: 79888576
I0227 13:53:38.339118  6260 layer_factory.cpp:58] Creating layer scale2
I0227 13:53:38.339118  6260 net.cpp:100] Creating Layer scale2
I0227 13:53:38.339118  6260 net.cpp:434] scale2 <- bn2
I0227 13:53:38.339118  6260 net.cpp:408] scale2 -> scale2
I0227 13:53:38.339118  6260 layer_factory.cpp:58] Creating layer scale2
I0227 13:53:38.339118  6260 net.cpp:150] Setting up scale2
I0227 13:53:38.339118  6260 net.cpp:157] Top shape: 16 128 32 32 (2097152)
I0227 13:53:38.339118  6260 net.cpp:165] Memory required for data: 88277184
I0227 13:53:38.339118  6260 layer_factory.cpp:58] Creating layer relu2
I0227 13:53:38.339118  6260 net.cpp:100] Creating Layer relu2
I0227 13:53:38.339118  6260 net.cpp:434] relu2 <- scale2
I0227 13:53:38.339118  6260 net.cpp:408] relu2 -> relu2
I0227 13:53:38.339118  6260 net.cpp:150] Setting up relu2
I0227 13:53:38.339118  6260 net.cpp:157] Top shape: 16 128 32 32 (2097152)
I0227 13:53:38.339118  6260 net.cpp:165] Memory required for data: 96665792
I0227 13:53:38.339118  6260 layer_factory.cpp:58] Creating layer drop2_0
I0227 13:53:38.339118  6260 net.cpp:100] Creating Layer drop2_0
I0227 13:53:38.339118  6260 net.cpp:434] drop2_0 <- relu2
I0227 13:53:38.339118  6260 net.cpp:395] drop2_0 -> relu2 (in-place)
I0227 13:53:38.339118  6260 net.cpp:150] Setting up drop2_0
I0227 13:53:38.339118  6260 net.cpp:157] Top shape: 16 128 32 32 (2097152)
I0227 13:53:38.339118  6260 net.cpp:165] Memory required for data: 105054400
I0227 13:53:38.339118  6260 layer_factory.cpp:58] Creating layer conv2_1
I0227 13:53:38.339118  6260 net.cpp:100] Creating Layer conv2_1
I0227 13:53:38.339118  6260 net.cpp:434] conv2_1 <- relu2
I0227 13:53:38.339118  6260 net.cpp:408] conv2_1 -> conv2_1
I0227 13:53:38.343119  6260 net.cpp:150] Setting up conv2_1
I0227 13:53:38.343119  6260 net.cpp:157] Top shape: 16 128 32 32 (2097152)
I0227 13:53:38.343119  6260 net.cpp:165] Memory required for data: 113443008
I0227 13:53:38.343119  6260 layer_factory.cpp:58] Creating layer bn2_1
I0227 13:53:38.343119  6260 net.cpp:100] Creating Layer bn2_1
I0227 13:53:38.343119  6260 net.cpp:434] bn2_1 <- conv2_1
I0227 13:53:38.343119  6260 net.cpp:408] bn2_1 -> bn2_1
I0227 13:53:38.343119  6260 net.cpp:150] Setting up bn2_1
I0227 13:53:38.343119  6260 net.cpp:157] Top shape: 16 128 32 32 (2097152)
I0227 13:53:38.343119  6260 net.cpp:165] Memory required for data: 121831616
I0227 13:53:38.343119  6260 layer_factory.cpp:58] Creating layer scale2_1
I0227 13:53:38.343119  6260 net.cpp:100] Creating Layer scale2_1
I0227 13:53:38.343119  6260 net.cpp:434] scale2_1 <- bn2_1
I0227 13:53:38.343119  6260 net.cpp:408] scale2_1 -> scale2_1
I0227 13:53:38.343119  6260 layer_factory.cpp:58] Creating layer scale2_1
I0227 13:53:38.343119  6260 net.cpp:150] Setting up scale2_1
I0227 13:53:38.343119  6260 net.cpp:157] Top shape: 16 128 32 32 (2097152)
I0227 13:53:38.343119  6260 net.cpp:165] Memory required for data: 130220224
I0227 13:53:38.343119  6260 layer_factory.cpp:58] Creating layer relu2_1
I0227 13:53:38.343119  6260 net.cpp:100] Creating Layer relu2_1
I0227 13:53:38.343119  6260 net.cpp:434] relu2_1 <- scale2_1
I0227 13:53:38.343119  6260 net.cpp:408] relu2_1 -> relu2_1
I0227 13:53:38.344120  6260 net.cpp:150] Setting up relu2_1
I0227 13:53:38.344120  6260 net.cpp:157] Top shape: 16 128 32 32 (2097152)
I0227 13:53:38.344120  6260 net.cpp:165] Memory required for data: 138608832
I0227 13:53:38.344120  6260 layer_factory.cpp:58] Creating layer pool2_1
I0227 13:53:38.344120  6260 net.cpp:100] Creating Layer pool2_1
I0227 13:53:38.344120  6260 net.cpp:434] pool2_1 <- relu2_1
I0227 13:53:38.344120  6260 net.cpp:408] pool2_1 -> pool2_1
I0227 13:53:38.344120  6260 net.cpp:150] Setting up pool2_1
I0227 13:53:38.344120  6260 net.cpp:157] Top shape: 16 128 16 16 (524288)
I0227 13:53:38.344120  6260 net.cpp:165] Memory required for data: 140705984
I0227 13:53:38.344120  6260 layer_factory.cpp:58] Creating layer drop2_1
I0227 13:53:38.344120  6260 net.cpp:100] Creating Layer drop2_1
I0227 13:53:38.344120  6260 net.cpp:434] drop2_1 <- pool2_1
I0227 13:53:38.344120  6260 net.cpp:395] drop2_1 -> pool2_1 (in-place)
I0227 13:53:38.344120  6260 net.cpp:150] Setting up drop2_1
I0227 13:53:38.344120  6260 net.cpp:157] Top shape: 16 128 16 16 (524288)
I0227 13:53:38.344120  6260 net.cpp:165] Memory required for data: 142803136
I0227 13:53:38.344120  6260 layer_factory.cpp:58] Creating layer conv2_2
I0227 13:53:38.344120  6260 net.cpp:100] Creating Layer conv2_2
I0227 13:53:38.344120  6260 net.cpp:434] conv2_2 <- pool2_1
I0227 13:53:38.344120  6260 net.cpp:408] conv2_2 -> conv2_2
I0227 13:53:38.347120  6260 net.cpp:150] Setting up conv2_2
I0227 13:53:38.347120  6260 net.cpp:157] Top shape: 16 128 16 16 (524288)
I0227 13:53:38.347120  6260 net.cpp:165] Memory required for data: 144900288
I0227 13:53:38.347120  6260 layer_factory.cpp:58] Creating layer bn2_2
I0227 13:53:38.347120  6260 net.cpp:100] Creating Layer bn2_2
I0227 13:53:38.347120  6260 net.cpp:434] bn2_2 <- conv2_2
I0227 13:53:38.347120  6260 net.cpp:408] bn2_2 -> bn2_2
I0227 13:53:38.347120  6260 net.cpp:150] Setting up bn2_2
I0227 13:53:38.347120  6260 net.cpp:157] Top shape: 16 128 16 16 (524288)
I0227 13:53:38.347120  6260 net.cpp:165] Memory required for data: 146997440
I0227 13:53:38.347120  6260 layer_factory.cpp:58] Creating layer scale2_2
I0227 13:53:38.347120  6260 net.cpp:100] Creating Layer scale2_2
I0227 13:53:38.347120  6260 net.cpp:434] scale2_2 <- bn2_2
I0227 13:53:38.347120  6260 net.cpp:408] scale2_2 -> scale2_2
I0227 13:53:38.347120  6260 layer_factory.cpp:58] Creating layer scale2_2
I0227 13:53:38.347120  6260 net.cpp:150] Setting up scale2_2
I0227 13:53:38.347120  6260 net.cpp:157] Top shape: 16 128 16 16 (524288)
I0227 13:53:38.347120  6260 net.cpp:165] Memory required for data: 149094592
I0227 13:53:38.347120  6260 layer_factory.cpp:58] Creating layer relu2_2
I0227 13:53:38.347120  6260 net.cpp:100] Creating Layer relu2_2
I0227 13:53:38.347120  6260 net.cpp:434] relu2_2 <- scale2_2
I0227 13:53:38.347120  6260 net.cpp:408] relu2_2 -> relu2_2
I0227 13:53:38.348119  6260 net.cpp:150] Setting up relu2_2
I0227 13:53:38.348119  6260 net.cpp:157] Top shape: 16 128 16 16 (524288)
I0227 13:53:38.348119  6260 net.cpp:165] Memory required for data: 151191744
I0227 13:53:38.348119  6260 layer_factory.cpp:58] Creating layer drop2_2
I0227 13:53:38.348119  6260 net.cpp:100] Creating Layer drop2_2
I0227 13:53:38.348119  6260 net.cpp:434] drop2_2 <- relu2_2
I0227 13:53:38.348119  6260 net.cpp:395] drop2_2 -> relu2_2 (in-place)
I0227 13:53:38.348119  6260 net.cpp:150] Setting up drop2_2
I0227 13:53:38.348119  6260 net.cpp:157] Top shape: 16 128 16 16 (524288)
I0227 13:53:38.348119  6260 net.cpp:165] Memory required for data: 153288896
I0227 13:53:38.348119  6260 layer_factory.cpp:58] Creating layer conv3
I0227 13:53:38.348119  6260 net.cpp:100] Creating Layer conv3
I0227 13:53:38.348119  6260 net.cpp:434] conv3 <- relu2_2
I0227 13:53:38.348119  6260 net.cpp:408] conv3 -> conv3
I0227 13:53:38.351120  6260 net.cpp:150] Setting up conv3
I0227 13:53:38.351120  6260 net.cpp:157] Top shape: 16 128 16 16 (524288)
I0227 13:53:38.351120  6260 net.cpp:165] Memory required for data: 155386048
I0227 13:53:38.351120  6260 layer_factory.cpp:58] Creating layer bn3
I0227 13:53:38.351120  6260 net.cpp:100] Creating Layer bn3
I0227 13:53:38.351120  6260 net.cpp:434] bn3 <- conv3
I0227 13:53:38.351120  6260 net.cpp:408] bn3 -> bn3
I0227 13:53:38.351120  6260 net.cpp:150] Setting up bn3
I0227 13:53:38.351120  6260 net.cpp:157] Top shape: 16 128 16 16 (524288)
I0227 13:53:38.351120  6260 net.cpp:165] Memory required for data: 157483200
I0227 13:53:38.351120  6260 layer_factory.cpp:58] Creating layer scale3
I0227 13:53:38.351120  6260 net.cpp:100] Creating Layer scale3
I0227 13:53:38.351120  6260 net.cpp:434] scale3 <- bn3
I0227 13:53:38.351120  6260 net.cpp:408] scale3 -> scale3
I0227 13:53:38.351120  6260 layer_factory.cpp:58] Creating layer scale3
I0227 13:53:38.351120  6260 net.cpp:150] Setting up scale3
I0227 13:53:38.351120  6260 net.cpp:157] Top shape: 16 128 16 16 (524288)
I0227 13:53:38.351120  6260 net.cpp:165] Memory required for data: 159580352
I0227 13:53:38.351120  6260 layer_factory.cpp:58] Creating layer relu3
I0227 13:53:38.351120  6260 net.cpp:100] Creating Layer relu3
I0227 13:53:38.351120  6260 net.cpp:434] relu3 <- scale3
I0227 13:53:38.351120  6260 net.cpp:408] relu3 -> relu3
I0227 13:53:38.352119  6260 net.cpp:150] Setting up relu3
I0227 13:53:38.352119  6260 net.cpp:157] Top shape: 16 128 16 16 (524288)
I0227 13:53:38.352119  6260 net.cpp:165] Memory required for data: 161677504
I0227 13:53:38.352119  6260 layer_factory.cpp:58] Creating layer drop3
I0227 13:53:38.352119  6260 net.cpp:100] Creating Layer drop3
I0227 13:53:38.352119  6260 net.cpp:434] drop3 <- relu3
I0227 13:53:38.352119  6260 net.cpp:395] drop3 -> relu3 (in-place)
I0227 13:53:38.352119  6260 net.cpp:150] Setting up drop3
I0227 13:53:38.352119  6260 net.cpp:157] Top shape: 16 128 16 16 (524288)
I0227 13:53:38.352119  6260 net.cpp:165] Memory required for data: 163774656
I0227 13:53:38.352119  6260 layer_factory.cpp:58] Creating layer conv4
I0227 13:53:38.352119  6260 net.cpp:100] Creating Layer conv4
I0227 13:53:38.352119  6260 net.cpp:434] conv4 <- relu3
I0227 13:53:38.352119  6260 net.cpp:408] conv4 -> conv4
I0227 13:53:38.355119  6260 net.cpp:150] Setting up conv4
I0227 13:53:38.355119  6260 net.cpp:157] Top shape: 16 256 16 16 (1048576)
I0227 13:53:38.355119  6260 net.cpp:165] Memory required for data: 167968960
I0227 13:53:38.355119  6260 layer_factory.cpp:58] Creating layer pool4
I0227 13:53:38.355119  6260 net.cpp:100] Creating Layer pool4
I0227 13:53:38.355119  6260 net.cpp:434] pool4 <- conv4
I0227 13:53:38.355119  6260 net.cpp:408] pool4 -> pool4
I0227 13:53:38.355119  6260 net.cpp:150] Setting up pool4
I0227 13:53:38.355119  6260 net.cpp:157] Top shape: 16 256 8 8 (262144)
I0227 13:53:38.355119  6260 net.cpp:165] Memory required for data: 169017536
I0227 13:53:38.355119  6260 layer_factory.cpp:58] Creating layer bn4
I0227 13:53:38.355119  6260 net.cpp:100] Creating Layer bn4
I0227 13:53:38.356119  6260 net.cpp:434] bn4 <- pool4
I0227 13:53:38.356119  6260 net.cpp:408] bn4 -> bn4
I0227 13:53:38.356119  6260 net.cpp:150] Setting up bn4
I0227 13:53:38.356119  6260 net.cpp:157] Top shape: 16 256 8 8 (262144)
I0227 13:53:38.356119  6260 net.cpp:165] Memory required for data: 170066112
I0227 13:53:38.356119  6260 layer_factory.cpp:58] Creating layer scale4
I0227 13:53:38.356119  6260 net.cpp:100] Creating Layer scale4
I0227 13:53:38.356119  6260 net.cpp:434] scale4 <- bn4
I0227 13:53:38.356119  6260 net.cpp:408] scale4 -> scale4
I0227 13:53:38.356119  6260 layer_factory.cpp:58] Creating layer scale4
I0227 13:53:38.356119  6260 net.cpp:150] Setting up scale4
I0227 13:53:38.356119  6260 net.cpp:157] Top shape: 16 256 8 8 (262144)
I0227 13:53:38.356119  6260 net.cpp:165] Memory required for data: 171114688
I0227 13:53:38.356119  6260 layer_factory.cpp:58] Creating layer relu4
I0227 13:53:38.356119  6260 net.cpp:100] Creating Layer relu4
I0227 13:53:38.356119  6260 net.cpp:434] relu4 <- scale4
I0227 13:53:38.356119  6260 net.cpp:408] relu4 -> relu4
I0227 13:53:38.356119  6260 net.cpp:150] Setting up relu4
I0227 13:53:38.356119  6260 net.cpp:157] Top shape: 16 256 8 8 (262144)
I0227 13:53:38.356119  6260 net.cpp:165] Memory required for data: 172163264
I0227 13:53:38.356119  6260 layer_factory.cpp:58] Creating layer drop4
I0227 13:53:38.356119  6260 net.cpp:100] Creating Layer drop4
I0227 13:53:38.356119  6260 net.cpp:434] drop4 <- relu4
I0227 13:53:38.356119  6260 net.cpp:395] drop4 -> relu4 (in-place)
I0227 13:53:38.357120  6260 net.cpp:150] Setting up drop4
I0227 13:53:38.357120  6260 net.cpp:157] Top shape: 16 256 8 8 (262144)
I0227 13:53:38.357120  6260 net.cpp:165] Memory required for data: 173211840
I0227 13:53:38.357120  6260 layer_factory.cpp:58] Creating layer conv4_1
I0227 13:53:38.357120  6260 net.cpp:100] Creating Layer conv4_1
I0227 13:53:38.357120  6260 net.cpp:434] conv4_1 <- relu4
I0227 13:53:38.357120  6260 net.cpp:408] conv4_1 -> conv4_1
I0227 13:53:38.362128  6260 net.cpp:150] Setting up conv4_1
I0227 13:53:38.362128  6260 net.cpp:157] Top shape: 16 256 8 8 (262144)
I0227 13:53:38.363121  6260 net.cpp:165] Memory required for data: 174260416
I0227 13:53:38.363121  6260 layer_factory.cpp:58] Creating layer bn4_1
I0227 13:53:38.363121  6260 net.cpp:100] Creating Layer bn4_1
I0227 13:53:38.363121  6260 net.cpp:434] bn4_1 <- conv4_1
I0227 13:53:38.363121  6260 net.cpp:408] bn4_1 -> bn4_1
I0227 13:53:38.363121  6260 net.cpp:150] Setting up bn4_1
I0227 13:53:38.363121  6260 net.cpp:157] Top shape: 16 256 8 8 (262144)
I0227 13:53:38.363121  6260 net.cpp:165] Memory required for data: 175308992
I0227 13:53:38.363121  6260 layer_factory.cpp:58] Creating layer scale4_1
I0227 13:53:38.363121  6260 net.cpp:100] Creating Layer scale4_1
I0227 13:53:38.363121  6260 net.cpp:434] scale4_1 <- bn4_1
I0227 13:53:38.363121  6260 net.cpp:408] scale4_1 -> scale4_1
I0227 13:53:38.363121  6260 layer_factory.cpp:58] Creating layer scale4_1
I0227 13:53:38.363121  6260 net.cpp:150] Setting up scale4_1
I0227 13:53:38.363121  6260 net.cpp:157] Top shape: 16 256 8 8 (262144)
I0227 13:53:38.363121  6260 net.cpp:165] Memory required for data: 176357568
I0227 13:53:38.363121  6260 layer_factory.cpp:58] Creating layer relu4_1
I0227 13:53:38.363121  6260 net.cpp:100] Creating Layer relu4_1
I0227 13:53:38.363121  6260 net.cpp:434] relu4_1 <- scale4_1
I0227 13:53:38.363121  6260 net.cpp:408] relu4_1 -> relu4_1
I0227 13:53:38.364120  6260 net.cpp:150] Setting up relu4_1
I0227 13:53:38.364120  6260 net.cpp:157] Top shape: 16 256 8 8 (262144)
I0227 13:53:38.364120  6260 net.cpp:165] Memory required for data: 177406144
I0227 13:53:38.364120  6260 layer_factory.cpp:58] Creating layer drop4_1
I0227 13:53:38.364120  6260 net.cpp:100] Creating Layer drop4_1
I0227 13:53:38.364120  6260 net.cpp:434] drop4_1 <- relu4_1
I0227 13:53:38.364120  6260 net.cpp:395] drop4_1 -> relu4_1 (in-place)
I0227 13:53:38.364120  6260 net.cpp:150] Setting up drop4_1
I0227 13:53:38.364120  6260 net.cpp:157] Top shape: 16 256 8 8 (262144)
I0227 13:53:38.364120  6260 net.cpp:165] Memory required for data: 178454720
I0227 13:53:38.364120  6260 layer_factory.cpp:58] Creating layer conv4_2
I0227 13:53:38.364120  6260 net.cpp:100] Creating Layer conv4_2
I0227 13:53:38.364120  6260 net.cpp:434] conv4_2 <- relu4_1
I0227 13:53:38.364120  6260 net.cpp:408] conv4_2 -> conv4_2
I0227 13:53:38.371129  6260 net.cpp:150] Setting up conv4_2
I0227 13:53:38.371129  6260 net.cpp:157] Top shape: 16 256 8 8 (262144)
I0227 13:53:38.371129  6260 net.cpp:165] Memory required for data: 179503296
I0227 13:53:38.371129  6260 layer_factory.cpp:58] Creating layer bn4_2
I0227 13:53:38.371129  6260 net.cpp:100] Creating Layer bn4_2
I0227 13:53:38.371129  6260 net.cpp:434] bn4_2 <- conv4_2
I0227 13:53:38.371129  6260 net.cpp:408] bn4_2 -> bn4_2
I0227 13:53:38.371129  6260 net.cpp:150] Setting up bn4_2
I0227 13:53:38.371129  6260 net.cpp:157] Top shape: 16 256 8 8 (262144)
I0227 13:53:38.371129  6260 net.cpp:165] Memory required for data: 180551872
I0227 13:53:38.371129  6260 layer_factory.cpp:58] Creating layer scale4_2
I0227 13:53:38.371129  6260 net.cpp:100] Creating Layer scale4_2
I0227 13:53:38.371129  6260 net.cpp:434] scale4_2 <- bn4_2
I0227 13:53:38.371129  6260 net.cpp:408] scale4_2 -> scale4_2
I0227 13:53:38.371129  6260 layer_factory.cpp:58] Creating layer scale4_2
I0227 13:53:38.371129  6260 net.cpp:150] Setting up scale4_2
I0227 13:53:38.371129  6260 net.cpp:157] Top shape: 16 256 8 8 (262144)
I0227 13:53:38.371129  6260 net.cpp:165] Memory required for data: 181600448
I0227 13:53:38.371129  6260 layer_factory.cpp:58] Creating layer relu4_2
I0227 13:53:38.371129  6260 net.cpp:100] Creating Layer relu4_2
I0227 13:53:38.371129  6260 net.cpp:434] relu4_2 <- scale4_2
I0227 13:53:38.371129  6260 net.cpp:408] relu4_2 -> relu4_2
I0227 13:53:38.371129  6260 net.cpp:150] Setting up relu4_2
I0227 13:53:38.371129  6260 net.cpp:157] Top shape: 16 256 8 8 (262144)
I0227 13:53:38.371129  6260 net.cpp:165] Memory required for data: 182649024
I0227 13:53:38.371129  6260 layer_factory.cpp:58] Creating layer drop4_2
I0227 13:53:38.371129  6260 net.cpp:100] Creating Layer drop4_2
I0227 13:53:38.371129  6260 net.cpp:434] drop4_2 <- relu4_2
I0227 13:53:38.371129  6260 net.cpp:395] drop4_2 -> relu4_2 (in-place)
I0227 13:53:38.371129  6260 net.cpp:150] Setting up drop4_2
I0227 13:53:38.371129  6260 net.cpp:157] Top shape: 16 256 8 8 (262144)
I0227 13:53:38.371129  6260 net.cpp:165] Memory required for data: 183697600
I0227 13:53:38.371129  6260 layer_factory.cpp:58] Creating layer pool4_2
I0227 13:53:38.371129  6260 net.cpp:100] Creating Layer pool4_2
I0227 13:53:38.371129  6260 net.cpp:434] pool4_2 <- relu4_2
I0227 13:53:38.371129  6260 net.cpp:408] pool4_2 -> pool4_2
I0227 13:53:38.372133  6260 net.cpp:150] Setting up pool4_2
I0227 13:53:38.372133  6260 net.cpp:157] Top shape: 16 256 4 4 (65536)
I0227 13:53:38.372133  6260 net.cpp:165] Memory required for data: 183959744
I0227 13:53:38.372133  6260 layer_factory.cpp:58] Creating layer conv4_0
I0227 13:53:38.372133  6260 net.cpp:100] Creating Layer conv4_0
I0227 13:53:38.372133  6260 net.cpp:434] conv4_0 <- pool4_2
I0227 13:53:38.372133  6260 net.cpp:408] conv4_0 -> conv4_0
I0227 13:53:38.383160  6260 net.cpp:150] Setting up conv4_0
I0227 13:53:38.383160  6260 net.cpp:157] Top shape: 16 512 4 4 (131072)
I0227 13:53:38.383160  6260 net.cpp:165] Memory required for data: 184484032
I0227 13:53:38.383160  6260 layer_factory.cpp:58] Creating layer bn4_0
I0227 13:53:38.383160  6260 net.cpp:100] Creating Layer bn4_0
I0227 13:53:38.383160  6260 net.cpp:434] bn4_0 <- conv4_0
I0227 13:53:38.383160  6260 net.cpp:408] bn4_0 -> bn4_0
I0227 13:53:38.383160  6260 net.cpp:150] Setting up bn4_0
I0227 13:53:38.383160  6260 net.cpp:157] Top shape: 16 512 4 4 (131072)
I0227 13:53:38.383160  6260 net.cpp:165] Memory required for data: 185008320
I0227 13:53:38.383160  6260 layer_factory.cpp:58] Creating layer scale4_0
I0227 13:53:38.383160  6260 net.cpp:100] Creating Layer scale4_0
I0227 13:53:38.383160  6260 net.cpp:434] scale4_0 <- bn4_0
I0227 13:53:38.383160  6260 net.cpp:408] scale4_0 -> scale4_0
I0227 13:53:38.383160  6260 layer_factory.cpp:58] Creating layer scale4_0
I0227 13:53:38.383160  6260 net.cpp:150] Setting up scale4_0
I0227 13:53:38.383160  6260 net.cpp:157] Top shape: 16 512 4 4 (131072)
I0227 13:53:38.383160  6260 net.cpp:165] Memory required for data: 185532608
I0227 13:53:38.383160  6260 layer_factory.cpp:58] Creating layer relu4_0
I0227 13:53:38.383160  6260 net.cpp:100] Creating Layer relu4_0
I0227 13:53:38.384133  6260 net.cpp:434] relu4_0 <- scale4_0
I0227 13:53:38.384133  6260 net.cpp:408] relu4_0 -> relu4_0
I0227 13:53:38.384133  6260 net.cpp:150] Setting up relu4_0
I0227 13:53:38.384133  6260 net.cpp:157] Top shape: 16 512 4 4 (131072)
I0227 13:53:38.384133  6260 net.cpp:165] Memory required for data: 186056896
I0227 13:53:38.384133  6260 layer_factory.cpp:58] Creating layer drop4_0
I0227 13:53:38.384133  6260 net.cpp:100] Creating Layer drop4_0
I0227 13:53:38.384133  6260 net.cpp:434] drop4_0 <- relu4_0
I0227 13:53:38.384133  6260 net.cpp:395] drop4_0 -> relu4_0 (in-place)
I0227 13:53:38.384133  6260 net.cpp:150] Setting up drop4_0
I0227 13:53:38.384133  6260 net.cpp:157] Top shape: 16 512 4 4 (131072)
I0227 13:53:38.384133  6260 net.cpp:165] Memory required for data: 186581184
I0227 13:53:38.384133  6260 layer_factory.cpp:58] Creating layer cccp4
I0227 13:53:38.384133  6260 net.cpp:100] Creating Layer cccp4
I0227 13:53:38.384133  6260 net.cpp:434] cccp4 <- relu4_0
I0227 13:53:38.384133  6260 net.cpp:408] cccp4 -> cccp4
I0227 13:53:38.393122  6260 net.cpp:150] Setting up cccp4
I0227 13:53:38.393122  6260 net.cpp:157] Top shape: 16 2048 4 4 (524288)
I0227 13:53:38.393122  6260 net.cpp:165] Memory required for data: 188678336
I0227 13:53:38.393122  6260 layer_factory.cpp:58] Creating layer relu_cccp4
I0227 13:53:38.393122  6260 net.cpp:100] Creating Layer relu_cccp4
I0227 13:53:38.393122  6260 net.cpp:434] relu_cccp4 <- cccp4
I0227 13:53:38.393122  6260 net.cpp:395] relu_cccp4 -> cccp4 (in-place)
I0227 13:53:38.394120  6260 net.cpp:150] Setting up relu_cccp4
I0227 13:53:38.394120  6260 net.cpp:157] Top shape: 16 2048 4 4 (524288)
I0227 13:53:38.394120  6260 net.cpp:165] Memory required for data: 190775488
I0227 13:53:38.394120  6260 layer_factory.cpp:58] Creating layer drop4_3
I0227 13:53:38.394120  6260 net.cpp:100] Creating Layer drop4_3
I0227 13:53:38.394120  6260 net.cpp:434] drop4_3 <- cccp4
I0227 13:53:38.394120  6260 net.cpp:395] drop4_3 -> cccp4 (in-place)
I0227 13:53:38.394120  6260 net.cpp:150] Setting up drop4_3
I0227 13:53:38.394120  6260 net.cpp:157] Top shape: 16 2048 4 4 (524288)
I0227 13:53:38.394120  6260 net.cpp:165] Memory required for data: 192872640
I0227 13:53:38.394120  6260 layer_factory.cpp:58] Creating layer cccp5
I0227 13:53:38.394120  6260 net.cpp:100] Creating Layer cccp5
I0227 13:53:38.394120  6260 net.cpp:434] cccp5 <- cccp4
I0227 13:53:38.394120  6260 net.cpp:408] cccp5 -> cccp5
I0227 13:53:38.402149  6260 net.cpp:150] Setting up cccp5
I0227 13:53:38.402149  6260 net.cpp:157] Top shape: 16 256 4 4 (65536)
I0227 13:53:38.402149  6260 net.cpp:165] Memory required for data: 193134784
I0227 13:53:38.402149  6260 layer_factory.cpp:58] Creating layer relu_cccp5
I0227 13:53:38.402149  6260 net.cpp:100] Creating Layer relu_cccp5
I0227 13:53:38.402149  6260 net.cpp:434] relu_cccp5 <- cccp5
I0227 13:53:38.402149  6260 net.cpp:395] relu_cccp5 -> cccp5 (in-place)
I0227 13:53:38.402149  6260 net.cpp:150] Setting up relu_cccp5
I0227 13:53:38.402149  6260 net.cpp:157] Top shape: 16 256 4 4 (65536)
I0227 13:53:38.402149  6260 net.cpp:165] Memory required for data: 193396928
I0227 13:53:38.402149  6260 layer_factory.cpp:58] Creating layer poolcp5
I0227 13:53:38.402149  6260 net.cpp:100] Creating Layer poolcp5
I0227 13:53:38.402149  6260 net.cpp:434] poolcp5 <- cccp5
I0227 13:53:38.402149  6260 net.cpp:408] poolcp5 -> poolcp5
I0227 13:53:38.402149  6260 net.cpp:150] Setting up poolcp5
I0227 13:53:38.402149  6260 net.cpp:157] Top shape: 16 256 2 2 (16384)
I0227 13:53:38.402149  6260 net.cpp:165] Memory required for data: 193462464
I0227 13:53:38.402149  6260 layer_factory.cpp:58] Creating layer drop4_5
I0227 13:53:38.402149  6260 net.cpp:100] Creating Layer drop4_5
I0227 13:53:38.402149  6260 net.cpp:434] drop4_5 <- poolcp5
I0227 13:53:38.402648  6260 net.cpp:395] drop4_5 -> poolcp5 (in-place)
I0227 13:53:38.402648  6260 net.cpp:150] Setting up drop4_5
I0227 13:53:38.402648  6260 net.cpp:157] Top shape: 16 256 2 2 (16384)
I0227 13:53:38.402648  6260 net.cpp:165] Memory required for data: 193528000
I0227 13:53:38.402648  6260 layer_factory.cpp:58] Creating layer cccp6
I0227 13:53:38.402648  6260 net.cpp:100] Creating Layer cccp6
I0227 13:53:38.402648  6260 net.cpp:434] cccp6 <- poolcp5
I0227 13:53:38.402648  6260 net.cpp:408] cccp6 -> cccp6
I0227 13:53:38.410192  6260 net.cpp:150] Setting up cccp6
I0227 13:53:38.410192  6260 net.cpp:157] Top shape: 16 256 2 2 (16384)
I0227 13:53:38.410192  6260 net.cpp:165] Memory required for data: 193593536
I0227 13:53:38.410192  6260 layer_factory.cpp:58] Creating layer relu_cccp6
I0227 13:53:38.410192  6260 net.cpp:100] Creating Layer relu_cccp6
I0227 13:53:38.410192  6260 net.cpp:434] relu_cccp6 <- cccp6
I0227 13:53:38.410192  6260 net.cpp:395] relu_cccp6 -> cccp6 (in-place)
I0227 13:53:38.411173  6260 net.cpp:150] Setting up relu_cccp6
I0227 13:53:38.411173  6260 net.cpp:157] Top shape: 16 256 2 2 (16384)
I0227 13:53:38.411173  6260 net.cpp:165] Memory required for data: 193659072
I0227 13:53:38.411173  6260 layer_factory.cpp:58] Creating layer poolcp6
I0227 13:53:38.411173  6260 net.cpp:100] Creating Layer poolcp6
I0227 13:53:38.411173  6260 net.cpp:434] poolcp6 <- cccp6
I0227 13:53:38.411173  6260 net.cpp:408] poolcp6 -> poolcp6
I0227 13:53:38.411173  6260 net.cpp:150] Setting up poolcp6
I0227 13:53:38.411173  6260 net.cpp:157] Top shape: 16 256 1 1 (4096)
I0227 13:53:38.411173  6260 net.cpp:165] Memory required for data: 193675456
I0227 13:53:38.411173  6260 layer_factory.cpp:58] Creating layer ip1
I0227 13:53:38.411173  6260 net.cpp:100] Creating Layer ip1
I0227 13:53:38.411173  6260 net.cpp:434] ip1 <- poolcp6
I0227 13:53:38.411173  6260 net.cpp:408] ip1 -> ip1
I0227 13:53:38.411173  6260 net.cpp:150] Setting up ip1
I0227 13:53:38.411173  6260 net.cpp:157] Top shape: 16 10 (160)
I0227 13:53:38.411173  6260 net.cpp:165] Memory required for data: 193676096
I0227 13:53:38.411173  6260 layer_factory.cpp:58] Creating layer ip1_ip1_0_split
I0227 13:53:38.411173  6260 net.cpp:100] Creating Layer ip1_ip1_0_split
I0227 13:53:38.411173  6260 net.cpp:434] ip1_ip1_0_split <- ip1
I0227 13:53:38.411173  6260 net.cpp:408] ip1_ip1_0_split -> ip1_ip1_0_split_0
I0227 13:53:38.411173  6260 net.cpp:408] ip1_ip1_0_split -> ip1_ip1_0_split_1
I0227 13:53:38.411173  6260 net.cpp:150] Setting up ip1_ip1_0_split
I0227 13:53:38.411173  6260 net.cpp:157] Top shape: 16 10 (160)
I0227 13:53:38.411173  6260 net.cpp:157] Top shape: 16 10 (160)
I0227 13:53:38.411173  6260 net.cpp:165] Memory required for data: 193677376
I0227 13:53:38.411173  6260 layer_factory.cpp:58] Creating layer accuracy
I0227 13:53:38.411173  6260 net.cpp:100] Creating Layer accuracy
I0227 13:53:38.411173  6260 net.cpp:434] accuracy <- ip1_ip1_0_split_0
I0227 13:53:38.411173  6260 net.cpp:434] accuracy <- label_SVHN_1_split_0
I0227 13:53:38.411173  6260 net.cpp:408] accuracy -> accuracy
…
