…
I1101 13:07:03.015689  8672 net.cpp:313] The NetState phase (0) differed from the phase (1) specified by a rule in layer bn4_0
I1101 13:07:03.015689  8672 net.cpp:313] The NetState phase (0) differed from the phase (1) specified by a rule in layer accuracy
I1101 13:07:03.015689  8672 net.cpp:49] Initializing net from parameters: 
name: "SimpNet"
state {
  phase: TRAIN
}
layer {
  name: "mnist"
  type: "Data"
  top: "data"
  top: "label"
  include {
    phase: TRAIN
  }
  data_param {
    source: "examples/mnist/mnist_train_lmdb_norm2"
    batch_size: 100
    backend: LMDB
  }
}
layer {
  name: "conv1"
  type: "Convolution"
  bottom: "data"
  top: "conv1"
  param {
    lr_mult: 1
  }
  convolution_param {
    num_output: 64
    bias_term: true
    pad: 1
    kernel_size: 3
    stride: 1
    weight_filler {
      type: "xavier"
    }
  }
}
layer {
  name: "bn1"
  type: "BatchNorm"
  bottom: "conv1"
  top: "bn1"
  param {
    lr_mult: 0
    decay_mult: 0
  }
  param {
    lr_mult: 0
    decay_mult: 0
  }
  param {
    lr_mult: 0
    decay_mult: 0
  }
  include {
    phase: TRAIN
  }
  batch_norm_param {
    use_global_stats: false
    moving_average_fraction: 0.95
  }
}
layer {
  name: "scale1"
  type: "Scale"
  bottom: "bn1"
  top: "scale1"
  scale_param {
    bias_term: true
  }
}
layer {
  name: "relu1"
  type: "ReLU"
  bottom: "scale1"
  top: "relu1"
}
layer {
  name: "conv1_0"
  type: "Convolution"
  bottom: "relu1"
  top: "conv1_0"
  param {
    lr_mult: 1
  }
  convolution_param {
    num_output: 128
    bias_term: true
    pad: 1
    kernel_size: 3
    stride: 1
    weight_filler {
      type: "xavier"
    }
  }
}
layer {
  name: "bn1_0"
  type: "BatchNorm"
  bottom: "conv1_0"
  top: "bn1_0"
  param {
    lr_mult: 0
    decay_mult: 0
  }
  param {
    lr_mult: 0
    decay_mult: 0
  }
  param {
    lr_mult: 0
    decay_mult: 0
  }
  include {
    phase: TRAIN
  }
  batch_norm_param {
    use_global_stats: false
    moving_average_fraction: 0.95
  }
}
layer {
  name: "scale1_0"
  type: "Scale"
  bottom: "bn1_0"
  top: "scale1_0"
  scale_param {
    bias_term: true
  }
}
layer {
  name: "relu1_0"
  type: "ReLU"
  bottom: "scale1_0"
  top: "relu1_0"
}
layer {
  name: "conv2"
  type: "Convolution"
  bottom: "relu1_0"
  top: "conv2"
  param {
    lr_mult: 1
  }
  convolution_param {
    num_output: 128
    bias_term: true
    pad: 1
    kernel_size: 3
    stride: 1
    weight_filler {
      type: "gaussian"
      std: 0.01
    }
  }
}
layer {
  name: "bn2"
  type: "BatchNorm"
  bottom: "conv2"
  top: "bn2"
  param {
    lr_mult: 0
    decay_mult: 0
  }
  param {
    lr_mult: 0
    decay_mult: 0
  }
  param {
    lr_mult: 0
    decay_mult: 0
  }
  include {
    phase: TRAIN
  }
  batch_norm_param {
    use_global_stats: false
    moving_average_fraction: 0.95
  }
}
layer {
  name: "scale2"
  type: "Scale"
  bottom: "bn2"
  top: "scale2"
  scale_param {
    bias_term: true
  }
}
layer {
  name: "relu2"
  type: "ReLU"
  bottom: "scale2"
  top: "relu2"
}
layer {
  name: "conv2_1"
  type: "Convolution"
  bottom: "relu2"
  top: "conv2_1"
  param {
    lr_mult: 1
  }
  convolution_param {
    num_output: 128
    bias_term: true
    pad: 1
    kernel_size: 3
    stride: 1
    weight_filler {
      type: "gaussian"
      std: 0.01
    }
  }
}
layer {
  name: "bn2_1"
  type: "BatchNorm"
  bottom: "conv2_1"
  top: "bn2_1"
  param {
    lr_mult: 0
    decay_mult: 0
  }
  param {
    lr_mult: 0
    decay_mult: 0
  }
  param {
    lr_mult: 0
    decay_mult: 0
  }
  include {
    phase: TRAIN
  }
  batch_norm_param {
    use_global_stats: false
    moving_average_fraction: 0.95
  }
}
layer {
  name: "scale2_1"
  type: "Scale"
  bottom: "bn2_1"
  top: "scale2_1"
  scale_param {
    bias_term: true
  }
}
layer {
  name: "relu2_1"
  type: "ReLU"
  bottom: "scale2_1"
  top: "relu2_1"
}
layer {
  name: "pool2_1"
  type: "Pooling"
  bottom: "relu2_1"
  top: "pool2_1"
  pooling_param {
    pool: MAX
    kernel_size: 2
    stride: 2
  }
}
layer {
  name: "conv2_2"
  type: "Convolution"
  bottom: "pool2_1"
  top: "conv2_2"
  param {
    lr_mult: 1
  }
  convolution_param {
    num_output: 128
    bias_term: true
    pad: 1
    kernel_size: 3
    stride: 1
    weight_filler {
      type: "gaussian"
      std: 0.01
    }
  }
}
layer {
  name: "bn2_2"
  type: "BatchNorm"
  bottom: "conv2_2"
  top: "bn2_2"
  param {
    lr_mult: 0
    decay_mult: 0
  }
  param {
    lr_mult: 0
    decay_mult: 0
  }
  param {
    lr_mult: 0
    decay_mult: 0
  }
  include {
    phase: TRAIN
  }
  batch_norm_param {
    use_global_stats: false
    moving_average_fraction: 0.95
  }
}
layer {
  name: "scale2_2"
  type: "Scale"
  bottom: "bn2_2"
  top: "scale2_2"
  scale_param {
    bias_term: true
  }
}
layer {
  name: "relu2_2"
  type: "ReLU"
  bottom: "scale2_2"
  top: "relu2_2"
}
layer {
  name: "conv3"
  type: "Convolution"
  bottom: "relu2_2"
  top: "conv3"
  param {
    lr_mult: 1
  }
  convolution_param {
    num_output: 128
    bias_term: true
    pad: 1
    kernel_size: 3
    stride: 1
    weight_filler {
      type: "xavier"
    }
  }
}
layer {
  name: "bn3"
  type: "BatchNorm"
  bottom: "conv3"
  top: "bn3"
  param {
    lr_mult: 0
    decay_mult: 0
  }
  param {
    lr_mult: 0
    decay_mult: 0
  }
  param {
    lr_mult: 0
    decay_mult: 0
  }
  include {
    phase: TRAIN
  }
  batch_norm_param {
    use_global_stats: false
    moving_average_fraction: 0.95
  }
}
layer {
  name: "scale3"
  type: "Scale"
  bottom: "bn3"
  top: "scale3"
  scale_param {
    bias_term: true
  }
}
layer {
  name: "relu3"
  type: "ReLU"
  bottom: "scale3"
  top: "relu3"
}
layer {
  name: "conv4"
  type: "Convolution"
  bottom: "relu3"
  top: "conv4"
  param {
    lr_mult: 1
  }
  convolution_param {
    num_output: 256
    bias_term: true
    pad: 1
    kernel_size: 3
    stride: 1
    weight_filler {
      type: "xavier"
    }
  }
}
layer {
  name: "pool4"
  type: "Pooling"
  bottom: "conv4"
  top: "pool4"
  pooling_param {
    pool: MAX
    kernel_size: 2
    stride: 2
  }
}
layer {
  name: "bn4"
  type: "BatchNorm"
  bottom: "pool4"
  top: "bn4"
  param {
    lr_mult: 0
    decay_mult: 0
  }
  param {
    lr_mult: 0
    decay_mult: 0
  }
  param {
    lr_mult: 0
    decay_mult: 0
  }
  include {
    phase: TRAIN
  }
  batch_norm_param {
    use_global_stats: false
    moving_average_fraction: 0.95
  }
}
layer {
  name: "scale4"
  type: "Scale"
  bottom: "bn4"
  top: "scale4"
  scale_param {
    bias_term: true
  }
}
layer {
  name: "relu4"
  type: "ReLU"
  bottom: "scale4"
  top: "relu4"
}
layer {
  name: "conv4_1"
  type: "Convolution"
  bottom: "relu4"
  top: "conv4_1"
  param {
    lr_mult: 1
  }
  convolution_param {
    num_output: 256
    bias_term: true
    pad: 1
    kernel_size: 3
    stride: 1
    weight_filler {
      type: "xavier"
    }
  }
}
layer {
  name: "bn4_1"
  type: "BatchNorm"
  bottom: "conv4_1"
  top: "bn4_1"
  param {
    lr_mult: 0
    decay_mult: 0
  }
  param {
    lr_mult: 0
    decay_mult: 0
  }
  param {
    lr_mult: 0
    decay_mult: 0
  }
  include {
    phase: TRAIN
  }
  batch_norm_param {
    use_global_stats: false
    moving_average_fraction: 0.95
  }
}
layer {
  name: "scale4_1"
  type: "Scale"
  bottom: "bn4_1"
  top: "scale4_1"
  scale_param {
    bias_term: true
  }
}
layer {
  name: "relu4_1"
  type: "ReLU"
  bottom: "scale4_1"
  top: "relu4_1"
}
layer {
  name: "conv4_2"
  type: "Convolution"
  bottom: "relu4_1"
  top: "conv4_2"
  param {
    lr_mult: 1
  }
  convolution_param {
    num_output: 256
    bias_term: true
    pad: 1
    kernel_size: 3
    stride: 1
    weight_filler {
      type: "xavier"
    }
  }
}
layer {
  name: "bn4_2"
  type: "BatchNorm"
  bottom: "conv4_2"
  top: "bn4_2"
  param {
    lr_mult: 0
    decay_mult: 0
  }
  param {
    lr_mult: 0
    decay_mult: 0
  }
  param {
    lr_mult: 0
    decay_mult: 0
  }
  include {
    phase: TRAIN
  }
  batch_norm_param {
    use_global_stats: false
    moving_average_fraction: 0.95
  }
}
layer {
  name: "scale4_2"
  type: "Scale"
  bottom: "bn4_2"
  top: "scale4_2"
  scale_param {
    bias_term: true
  }
}
layer {
  name: "relu4_2"
  type: "ReLU"
  bottom: "scale4_2"
  top: "relu4_2"
}
layer {
  name: "pool4_2"
  type: "Pooling"
  bottom: "relu4_2"
  top: "pool4_2"
  pooling_param {
    pool: MAX
    kernel_size: 2
    stride: 2
  }
}
layer {
  name: "conv4_0"
  type: "Convolution"
  bottom: "pool4_2"
  top: "conv4_0"
  param {
    lr_mult: 1
  }
  convolution_param {
    num_output: 512
    bias_term: true
    pad: 1
    kernel_size: 3
    stride: 1
    weight_filler {
      type: "xavier"
    }
  }
}
layer {
  name: "bn4_0"
  type: "BatchNorm"
  bottom: "conv4_0"
  top: "bn4_0"
  param {
    lr_mult: 0
    decay_mult: 0
  }
  param {
    lr_mult: 0
    decay_mult: 0
  }
  param {
    lr_mult: 0
    decay_mult: 0
  }
  include {
    phase: TRAIN
  }
  batch_norm_param {
    use_global_stats: false
    moving_average_fraction: 0.95
  }
}
layer {
  name: "scale4_0"
  type: "Scale"
  bottom: "bn4_0"
  top: "scale4_0"
  scale_param {
    bias_term: true
  }
}
layer {
  name: "relu4_0"
  type: "ReLU"
  bottom: "scale4_0"
  top: "relu4_0"
}
layer {
  name: "cccp4"
  type: "Convolution"
  bottom: "relu4_0"
  top: "cccp4"
  param {
    lr_mult: 1
    decay_mult: 1
  }
  param {
    lr_mult: 2
    decay_mult: 0
  }
  convolution_param {
    num_output: 2048
    kernel_size: 1
    group: 1
    weight_filler {
      type: "xavier"
    }
    bias_filler {
      type: "constant"
      value: 0
    }
  }
}
layer {
  name: "relu_cccp4"
  type: "ReLU"
  bottom: "cccp4"
  top: "cccp4"
}
layer {
  name: "cccp5"
  type: "Convolution"
  bottom: "cccp4"
  top: "cccp5"
  param {
    lr_mult: 1
    decay_mult: 1
  }
  param {
    lr_mult: 2
    decay_mult: 0
  }
  convolution_param {
    num_output: 256
    kernel_size: 1
    group: 1
    weight_filler {
      type: "xavier"
    }
    bias_filler {
      type: "constant"
      value: 0
    }
  }
}
layer {
  name: "relu_cccp5"
  type: "ReLU"
  bottom: "cccp5"
  top: "cccp5"
}
layer {
  name: "poolcp5"
  type: "Pooling"
  bottom: "cccp5"
  top: "poolcp5"
  pooling_param {
    pool: MAX
    kernel_size: 2
    stride: 2
  }
}
layer {
  name: "cccp6"
  type: "Convolution"
  bottom: "poolcp5"
  top: "cccp6"
  param {
    lr_mult: 1
    decay_mult: 1
  }
  param {
    lr_mult: 2
    decay_mult: 0
  }
  convolution_param {
    num_output: 256
    pad: 1
    kernel_size: 3
    group: 1
    weight_filler {
      type: "xavier"
    }
    bias_filler {
      type: "constant"
      value: 0
    }
  }
}
layer {
  name: "relu_cccp6"
  type: "ReLU"
  bottom: "cccp6"
  top: "cccp6"
}
layer {
  name: "poolcp6"
  type: "Pooling"
  bottom: "cccp6"
  top: "poolcp6"
  pooling_param {
    pool: MAX
    kernel_size: 2
    stride: 2
  }
}
layer {
  name: "ip1"
  type: "InnerProduct"
  bottom: "poolcp6"
  top: "ip1"
  param {
    lr_mult: 1
    decay_mult: 0
  }
  param {
    lr_mult: 2
    decay_mult: 0
  }
  inner_product_param {
    num_output: 10
    weight_filler {
      type: "xavier"
    }
    bias_filler {
      type: "constant"
    }
  }
}
layer {
  name: "loss"
  type: "SoftmaxWithLoss"
  bottom: "ip1"
  bottom: "label"
  top: "loss"
}
I1101 13:07:03.016690  8672 layer_factory.hpp:77] Creating layer mnist
I1101 13:07:03.016690  8672 common.cpp:36] System entropy source not available, using fallback algorithm to generate seed instead.
I1101 13:07:03.017691  8672 net.cpp:91] Creating Layer mnist
I1101 13:07:03.017691  8672 net.cpp:399] mnist -> data
I1101 13:07:03.017691  8672 net.cpp:399] mnist -> label
I1101 13:07:03.018692 11052 common.cpp:36] System entropy source not available, using fallback algorithm to generate seed instead.
I1101 13:07:03.026698 11052 db_lmdb.cpp:52] Opened lmdb examples/mnist/mnist_train_lmdb_norm2
I1101 13:07:03.050714  8672 data_layer.cpp:41] output data size: 100,1,28,28
I1101 13:07:03.052716  8672 net.cpp:141] Setting up mnist
I1101 13:07:03.052716  8672 net.cpp:148] Top shape: 100 1 28 28 (78400)
I1101 13:07:03.052716  8672 net.cpp:148] Top shape: 100 (100)
I1101 13:07:03.052716  8672 net.cpp:156] Memory required for data: 314000
I1101 13:07:03.052716  8672 layer_factory.hpp:77] Creating layer conv1
I1101 13:07:03.052716  8672 net.cpp:91] Creating Layer conv1
I1101 13:07:03.052716  8672 net.cpp:425] conv1 <- data
I1101 13:07:03.052716  8672 net.cpp:399] conv1 -> conv1
I1101 13:07:03.053717 10456 common.cpp:36] System entropy source not available, using fallback algorithm to generate seed instead.
I1101 13:07:03.327587  8672 net.cpp:141] Setting up conv1
I1101 13:07:03.327587  8672 net.cpp:148] Top shape: 100 64 28 28 (5017600)
I1101 13:07:03.327587  8672 net.cpp:156] Memory required for data: 20384400
I1101 13:07:03.327587  8672 layer_factory.hpp:77] Creating layer bn1
I1101 13:07:03.327587  8672 net.cpp:91] Creating Layer bn1
I1101 13:07:03.327587  8672 net.cpp:425] bn1 <- conv1
I1101 13:07:03.327587  8672 net.cpp:399] bn1 -> bn1
I1101 13:07:03.328088  8672 net.cpp:141] Setting up bn1
I1101 13:07:03.328088  8672 net.cpp:148] Top shape: 100 64 28 28 (5017600)
I1101 13:07:03.328088  8672 net.cpp:156] Memory required for data: 40454800
I1101 13:07:03.328088  8672 layer_factory.hpp:77] Creating layer scale1
I1101 13:07:03.328088  8672 net.cpp:91] Creating Layer scale1
I1101 13:07:03.328088  8672 net.cpp:425] scale1 <- bn1
I1101 13:07:03.328088  8672 net.cpp:399] scale1 -> scale1
I1101 13:07:03.328088  8672 layer_factory.hpp:77] Creating layer scale1
I1101 13:07:03.328088  8672 net.cpp:141] Setting up scale1
I1101 13:07:03.328088  8672 net.cpp:148] Top shape: 100 64 28 28 (5017600)
I1101 13:07:03.328088  8672 net.cpp:156] Memory required for data: 60525200
I1101 13:07:03.328088  8672 layer_factory.hpp:77] Creating layer relu1
I1101 13:07:03.328088  8672 net.cpp:91] Creating Layer relu1
I1101 13:07:03.328088  8672 net.cpp:425] relu1 <- scale1
I1101 13:07:03.328088  8672 net.cpp:399] relu1 -> relu1
I1101 13:07:03.328769  8672 net.cpp:141] Setting up relu1
I1101 13:07:03.328769  8672 net.cpp:148] Top shape: 100 64 28 28 (5017600)
I1101 13:07:03.328769  8672 net.cpp:156] Memory required for data: 80595600
I1101 13:07:03.328769  8672 layer_factory.hpp:77] Creating layer conv1_0
I1101 13:07:03.328769  8672 net.cpp:91] Creating Layer conv1_0
I1101 13:07:03.328769  8672 net.cpp:425] conv1_0 <- relu1
I1101 13:07:03.328769  8672 net.cpp:399] conv1_0 -> conv1_0
I1101 13:07:03.330771  8672 net.cpp:141] Setting up conv1_0
I1101 13:07:03.330771  8672 net.cpp:148] Top shape: 100 128 28 28 (10035200)
I1101 13:07:03.330771  8672 net.cpp:156] Memory required for data: 120736400
I1101 13:07:03.330771  8672 layer_factory.hpp:77] Creating layer bn1_0
I1101 13:07:03.330771  8672 net.cpp:91] Creating Layer bn1_0
I1101 13:07:03.330771  8672 net.cpp:425] bn1_0 <- conv1_0
I1101 13:07:03.330771  8672 net.cpp:399] bn1_0 -> bn1_0
I1101 13:07:03.331272  8672 net.cpp:141] Setting up bn1_0
I1101 13:07:03.331272  8672 net.cpp:148] Top shape: 100 128 28 28 (10035200)
I1101 13:07:03.331272  8672 net.cpp:156] Memory required for data: 160877200
I1101 13:07:03.331272  8672 layer_factory.hpp:77] Creating layer scale1_0
I1101 13:07:03.331272  8672 net.cpp:91] Creating Layer scale1_0
I1101 13:07:03.331272  8672 net.cpp:425] scale1_0 <- bn1_0
I1101 13:07:03.331272  8672 net.cpp:399] scale1_0 -> scale1_0
I1101 13:07:03.331272  8672 layer_factory.hpp:77] Creating layer scale1_0
I1101 13:07:03.331272  8672 net.cpp:141] Setting up scale1_0
I1101 13:07:03.331272  8672 net.cpp:148] Top shape: 100 128 28 28 (10035200)
I1101 13:07:03.331272  8672 net.cpp:156] Memory required for data: 201018000
I1101 13:07:03.331272  8672 layer_factory.hpp:77] Creating layer relu1_0
I1101 13:07:03.331272  8672 net.cpp:91] Creating Layer relu1_0
I1101 13:07:03.331272  8672 net.cpp:425] relu1_0 <- scale1_0
I1101 13:07:03.331272  8672 net.cpp:399] relu1_0 -> relu1_0
I1101 13:07:03.331892  8672 net.cpp:141] Setting up relu1_0
I1101 13:07:03.331892  8672 net.cpp:148] Top shape: 100 128 28 28 (10035200)
I1101 13:07:03.331892  8672 net.cpp:156] Memory required for data: 241158800
I1101 13:07:03.331892  8672 layer_factory.hpp:77] Creating layer conv2
I1101 13:07:03.331892  8672 net.cpp:91] Creating Layer conv2
I1101 13:07:03.331892  8672 net.cpp:425] conv2 <- relu1_0
I1101 13:07:03.331892  8672 net.cpp:399] conv2 -> conv2
I1101 13:07:03.334895  8672 net.cpp:141] Setting up conv2
I1101 13:07:03.334895  8672 net.cpp:148] Top shape: 100 128 28 28 (10035200)
I1101 13:07:03.334895  8672 net.cpp:156] Memory required for data: 281299600
I1101 13:07:03.334895  8672 layer_factory.hpp:77] Creating layer bn2
I1101 13:07:03.334895  8672 net.cpp:91] Creating Layer bn2
I1101 13:07:03.334895  8672 net.cpp:425] bn2 <- conv2
I1101 13:07:03.334895  8672 net.cpp:399] bn2 -> bn2
I1101 13:07:03.335397  8672 net.cpp:141] Setting up bn2
I1101 13:07:03.335397  8672 net.cpp:148] Top shape: 100 128 28 28 (10035200)
I1101 13:07:03.335397  8672 net.cpp:156] Memory required for data: 321440400
I1101 13:07:03.335397  8672 layer_factory.hpp:77] Creating layer scale2
I1101 13:07:03.335397  8672 net.cpp:91] Creating Layer scale2
I1101 13:07:03.335397  8672 net.cpp:425] scale2 <- bn2
I1101 13:07:03.335397  8672 net.cpp:399] scale2 -> scale2
I1101 13:07:03.335397  8672 layer_factory.hpp:77] Creating layer scale2
I1101 13:07:03.335397  8672 net.cpp:141] Setting up scale2
I1101 13:07:03.335397  8672 net.cpp:148] Top shape: 100 128 28 28 (10035200)
I1101 13:07:03.335397  8672 net.cpp:156] Memory required for data: 361581200
I1101 13:07:03.335397  8672 layer_factory.hpp:77] Creating layer relu2
I1101 13:07:03.335397  8672 net.cpp:91] Creating Layer relu2
I1101 13:07:03.335397  8672 net.cpp:425] relu2 <- scale2
I1101 13:07:03.335397  8672 net.cpp:399] relu2 -> relu2
I1101 13:07:03.336397  8672 net.cpp:141] Setting up relu2
I1101 13:07:03.336397  8672 net.cpp:148] Top shape: 100 128 28 28 (10035200)
I1101 13:07:03.336397  8672 net.cpp:156] Memory required for data: 401722000
I1101 13:07:03.336397  8672 layer_factory.hpp:77] Creating layer conv2_1
I1101 13:07:03.336397  8672 net.cpp:91] Creating Layer conv2_1
I1101 13:07:03.336397  8672 net.cpp:425] conv2_1 <- relu2
I1101 13:07:03.336397  8672 net.cpp:399] conv2_1 -> conv2_1
I1101 13:07:03.340884  8672 net.cpp:141] Setting up conv2_1
I1101 13:07:03.341385  8672 net.cpp:148] Top shape: 100 128 28 28 (10035200)
I1101 13:07:03.341385  8672 net.cpp:156] Memory required for data: 441862800
I1101 13:07:03.341385  8672 layer_factory.hpp:77] Creating layer bn2_1
I1101 13:07:03.341385  8672 net.cpp:91] Creating Layer bn2_1
I1101 13:07:03.341385  8672 net.cpp:425] bn2_1 <- conv2_1
I1101 13:07:03.341385  8672 net.cpp:399] bn2_1 -> bn2_1
I1101 13:07:03.341385  8672 net.cpp:141] Setting up bn2_1
I1101 13:07:03.341385  8672 net.cpp:148] Top shape: 100 128 28 28 (10035200)
I1101 13:07:03.341385  8672 net.cpp:156] Memory required for data: 482003600
I1101 13:07:03.341385  8672 layer_factory.hpp:77] Creating layer scale2_1
I1101 13:07:03.341385  8672 net.cpp:91] Creating Layer scale2_1
I1101 13:07:03.341385  8672 net.cpp:425] scale2_1 <- bn2_1
I1101 13:07:03.341385  8672 net.cpp:399] scale2_1 -> scale2_1
I1101 13:07:03.341385  8672 layer_factory.hpp:77] Creating layer scale2_1
I1101 13:07:03.342386  8672 net.cpp:141] Setting up scale2_1
I1101 13:07:03.342386  8672 net.cpp:148] Top shape: 100 128 28 28 (10035200)
I1101 13:07:03.342386  8672 net.cpp:156] Memory required for data: 522144400
I1101 13:07:03.342386  8672 layer_factory.hpp:77] Creating layer relu2_1
I1101 13:07:03.342386  8672 net.cpp:91] Creating Layer relu2_1
I1101 13:07:03.342386  8672 net.cpp:425] relu2_1 <- scale2_1
I1101 13:07:03.342386  8672 net.cpp:399] relu2_1 -> relu2_1
I1101 13:07:03.343387  8672 net.cpp:141] Setting up relu2_1
I1101 13:07:03.343387  8672 net.cpp:148] Top shape: 100 128 28 28 (10035200)
I1101 13:07:03.343387  8672 net.cpp:156] Memory required for data: 562285200
I1101 13:07:03.343387  8672 layer_factory.hpp:77] Creating layer pool2_1
I1101 13:07:03.343387  8672 net.cpp:91] Creating Layer pool2_1
I1101 13:07:03.343387  8672 net.cpp:425] pool2_1 <- relu2_1
I1101 13:07:03.343387  8672 net.cpp:399] pool2_1 -> pool2_1
I1101 13:07:03.343387  8672 net.cpp:141] Setting up pool2_1
I1101 13:07:03.343387  8672 net.cpp:148] Top shape: 100 128 14 14 (2508800)
I1101 13:07:03.343387  8672 net.cpp:156] Memory required for data: 572320400
I1101 13:07:03.343387  8672 layer_factory.hpp:77] Creating layer conv2_2
I1101 13:07:03.343387  8672 net.cpp:91] Creating Layer conv2_2
I1101 13:07:03.343387  8672 net.cpp:425] conv2_2 <- pool2_1
I1101 13:07:03.343387  8672 net.cpp:399] conv2_2 -> conv2_2
I1101 13:07:03.346889  8672 net.cpp:141] Setting up conv2_2
I1101 13:07:03.346889  8672 net.cpp:148] Top shape: 100 128 14 14 (2508800)
I1101 13:07:03.346889  8672 net.cpp:156] Memory required for data: 582355600
I1101 13:07:03.346889  8672 layer_factory.hpp:77] Creating layer bn2_2
I1101 13:07:03.346889  8672 net.cpp:91] Creating Layer bn2_2
I1101 13:07:03.346889  8672 net.cpp:425] bn2_2 <- conv2_2
I1101 13:07:03.346889  8672 net.cpp:399] bn2_2 -> bn2_2
I1101 13:07:03.347389  8672 net.cpp:141] Setting up bn2_2
I1101 13:07:03.347389  8672 net.cpp:148] Top shape: 100 128 14 14 (2508800)
I1101 13:07:03.347389  8672 net.cpp:156] Memory required for data: 592390800
I1101 13:07:03.347389  8672 layer_factory.hpp:77] Creating layer scale2_2
I1101 13:07:03.347389  8672 net.cpp:91] Creating Layer scale2_2
I1101 13:07:03.347389  8672 net.cpp:425] scale2_2 <- bn2_2
I1101 13:07:03.347389  8672 net.cpp:399] scale2_2 -> scale2_2
I1101 13:07:03.347389  8672 layer_factory.hpp:77] Creating layer scale2_2
I1101 13:07:03.347389  8672 net.cpp:141] Setting up scale2_2
I1101 13:07:03.347389  8672 net.cpp:148] Top shape: 100 128 14 14 (2508800)
I1101 13:07:03.347389  8672 net.cpp:156] Memory required for data: 602426000
I1101 13:07:03.347389  8672 layer_factory.hpp:77] Creating layer relu2_2
I1101 13:07:03.347389  8672 net.cpp:91] Creating Layer relu2_2
I1101 13:07:03.347389  8672 net.cpp:425] relu2_2 <- scale2_2
I1101 13:07:03.347389  8672 net.cpp:399] relu2_2 -> relu2_2
I1101 13:07:03.347889  8672 net.cpp:141] Setting up relu2_2
I1101 13:07:03.347889  8672 net.cpp:148] Top shape: 100 128 14 14 (2508800)
I1101 13:07:03.347889  8672 net.cpp:156] Memory required for data: 612461200
I1101 13:07:03.347889  8672 layer_factory.hpp:77] Creating layer conv3
I1101 13:07:03.347889  8672 net.cpp:91] Creating Layer conv3
I1101 13:07:03.347889  8672 net.cpp:425] conv3 <- relu2_2
I1101 13:07:03.347889  8672 net.cpp:399] conv3 -> conv3
I1101 13:07:03.350692  8672 net.cpp:141] Setting up conv3
I1101 13:07:03.350692  8672 net.cpp:148] Top shape: 100 128 14 14 (2508800)
I1101 13:07:03.350692  8672 net.cpp:156] Memory required for data: 622496400
I1101 13:07:03.350692  8672 layer_factory.hpp:77] Creating layer bn3
I1101 13:07:03.350692  8672 net.cpp:91] Creating Layer bn3
I1101 13:07:03.350692  8672 net.cpp:425] bn3 <- conv3
I1101 13:07:03.350692  8672 net.cpp:399] bn3 -> bn3
I1101 13:07:03.351193  8672 net.cpp:141] Setting up bn3
I1101 13:07:03.351193  8672 net.cpp:148] Top shape: 100 128 14 14 (2508800)
I1101 13:07:03.351193  8672 net.cpp:156] Memory required for data: 632531600
I1101 13:07:03.351193  8672 layer_factory.hpp:77] Creating layer scale3
I1101 13:07:03.351193  8672 net.cpp:91] Creating Layer scale3
I1101 13:07:03.351193  8672 net.cpp:425] scale3 <- bn3
I1101 13:07:03.351193  8672 net.cpp:399] scale3 -> scale3
I1101 13:07:03.351193  8672 layer_factory.hpp:77] Creating layer scale3
I1101 13:07:03.351193  8672 net.cpp:141] Setting up scale3
I1101 13:07:03.351193  8672 net.cpp:148] Top shape: 100 128 14 14 (2508800)
I1101 13:07:03.351193  8672 net.cpp:156] Memory required for data: 642566800
I1101 13:07:03.351193  8672 layer_factory.hpp:77] Creating layer relu3
I1101 13:07:03.351193  8672 net.cpp:91] Creating Layer relu3
I1101 13:07:03.351193  8672 net.cpp:425] relu3 <- scale3
I1101 13:07:03.351193  8672 net.cpp:399] relu3 -> relu3
I1101 13:07:03.351693  8672 net.cpp:141] Setting up relu3
I1101 13:07:03.351693  8672 net.cpp:148] Top shape: 100 128 14 14 (2508800)
I1101 13:07:03.351693  8672 net.cpp:156] Memory required for data: 652602000
I1101 13:07:03.351693  8672 layer_factory.hpp:77] Creating layer conv4
I1101 13:07:03.351693  8672 net.cpp:91] Creating Layer conv4
I1101 13:07:03.351693  8672 net.cpp:425] conv4 <- relu3
I1101 13:07:03.351693  8672 net.cpp:399] conv4 -> conv4
I1101 13:07:03.357141  8672 net.cpp:141] Setting up conv4
I1101 13:07:03.357141  8672 net.cpp:148] Top shape: 100 256 14 14 (5017600)
I1101 13:07:03.357141  8672 net.cpp:156] Memory required for data: 672672400
I1101 13:07:03.357141  8672 layer_factory.hpp:77] Creating layer pool4
I1101 13:07:03.357141  8672 net.cpp:91] Creating Layer pool4
I1101 13:07:03.357141  8672 net.cpp:425] pool4 <- conv4
I1101 13:07:03.357141  8672 net.cpp:399] pool4 -> pool4
I1101 13:07:03.357141  8672 net.cpp:141] Setting up pool4
I1101 13:07:03.357141  8672 net.cpp:148] Top shape: 100 256 7 7 (1254400)
I1101 13:07:03.357141  8672 net.cpp:156] Memory required for data: 677690000
I1101 13:07:03.357642  8672 layer_factory.hpp:77] Creating layer bn4
I1101 13:07:03.357642  8672 net.cpp:91] Creating Layer bn4
I1101 13:07:03.357642  8672 net.cpp:425] bn4 <- pool4
I1101 13:07:03.357642  8672 net.cpp:399] bn4 -> bn4
I1101 13:07:03.357642  8672 net.cpp:141] Setting up bn4
I1101 13:07:03.357642  8672 net.cpp:148] Top shape: 100 256 7 7 (1254400)
I1101 13:07:03.357642  8672 net.cpp:156] Memory required for data: 682707600
I1101 13:07:03.357642  8672 layer_factory.hpp:77] Creating layer scale4
I1101 13:07:03.357642  8672 net.cpp:91] Creating Layer scale4
I1101 13:07:03.357642  8672 net.cpp:425] scale4 <- bn4
I1101 13:07:03.357642  8672 net.cpp:399] scale4 -> scale4
I1101 13:07:03.357642  8672 layer_factory.hpp:77] Creating layer scale4
I1101 13:07:03.357642  8672 net.cpp:141] Setting up scale4
I1101 13:07:03.357642  8672 net.cpp:148] Top shape: 100 256 7 7 (1254400)
I1101 13:07:03.357642  8672 net.cpp:156] Memory required for data: 687725200
I1101 13:07:03.357642  8672 layer_factory.hpp:77] Creating layer relu4
I1101 13:07:03.357642  8672 net.cpp:91] Creating Layer relu4
I1101 13:07:03.357642  8672 net.cpp:425] relu4 <- scale4
I1101 13:07:03.357642  8672 net.cpp:399] relu4 -> relu4
I1101 13:07:03.358644  8672 net.cpp:141] Setting up relu4
I1101 13:07:03.358644  8672 net.cpp:148] Top shape: 100 256 7 7 (1254400)
I1101 13:07:03.358644  8672 net.cpp:156] Memory required for data: 692742800
I1101 13:07:03.358644  8672 layer_factory.hpp:77] Creating layer conv4_1
I1101 13:07:03.358644  8672 net.cpp:91] Creating Layer conv4_1
I1101 13:07:03.358644  8672 net.cpp:425] conv4_1 <- relu4
I1101 13:07:03.359143  8672 net.cpp:399] conv4_1 -> conv4_1
I1101 13:07:03.365648  8672 net.cpp:141] Setting up conv4_1
I1101 13:07:03.366148  8672 net.cpp:148] Top shape: 100 256 7 7 (1254400)
I1101 13:07:03.366148  8672 net.cpp:156] Memory required for data: 697760400
I1101 13:07:03.366148  8672 layer_factory.hpp:77] Creating layer bn4_1
I1101 13:07:03.366148  8672 net.cpp:91] Creating Layer bn4_1
I1101 13:07:03.366148  8672 net.cpp:425] bn4_1 <- conv4_1
I1101 13:07:03.366148  8672 net.cpp:399] bn4_1 -> bn4_1
I1101 13:07:03.366148  8672 net.cpp:141] Setting up bn4_1
I1101 13:07:03.366148  8672 net.cpp:148] Top shape: 100 256 7 7 (1254400)
I1101 13:07:03.366148  8672 net.cpp:156] Memory required for data: 702778000
I1101 13:07:03.366148  8672 layer_factory.hpp:77] Creating layer scale4_1
I1101 13:07:03.366148  8672 net.cpp:91] Creating Layer scale4_1
I1101 13:07:03.366148  8672 net.cpp:425] scale4_1 <- bn4_1
I1101 13:07:03.366148  8672 net.cpp:399] scale4_1 -> scale4_1
I1101 13:07:03.366148  8672 layer_factory.hpp:77] Creating layer scale4_1
I1101 13:07:03.366649  8672 net.cpp:141] Setting up scale4_1
I1101 13:07:03.366649  8672 net.cpp:148] Top shape: 100 256 7 7 (1254400)
I1101 13:07:03.366649  8672 net.cpp:156] Memory required for data: 707795600
I1101 13:07:03.366649  8672 layer_factory.hpp:77] Creating layer relu4_1
I1101 13:07:03.366649  8672 net.cpp:91] Creating Layer relu4_1
I1101 13:07:03.366649  8672 net.cpp:425] relu4_1 <- scale4_1
I1101 13:07:03.366649  8672 net.cpp:399] relu4_1 -> relu4_1
I1101 13:07:03.367148  8672 net.cpp:141] Setting up relu4_1
I1101 13:07:03.367148  8672 net.cpp:148] Top shape: 100 256 7 7 (1254400)
I1101 13:07:03.367148  8672 net.cpp:156] Memory required for data: 712813200
I1101 13:07:03.367148  8672 layer_factory.hpp:77] Creating layer conv4_2
I1101 13:07:03.367148  8672 net.cpp:91] Creating Layer conv4_2
I1101 13:07:03.367148  8672 net.cpp:425] conv4_2 <- relu4_1
I1101 13:07:03.367148  8672 net.cpp:399] conv4_2 -> conv4_2
I1101 13:07:03.375154  8672 net.cpp:141] Setting up conv4_2
I1101 13:07:03.375154  8672 net.cpp:148] Top shape: 100 256 7 7 (1254400)
I1101 13:07:03.375154  8672 net.cpp:156] Memory required for data: 717830800
I1101 13:07:03.375154  8672 layer_factory.hpp:77] Creating layer bn4_2
I1101 13:07:03.375154  8672 net.cpp:91] Creating Layer bn4_2
I1101 13:07:03.375154  8672 net.cpp:425] bn4_2 <- conv4_2
I1101 13:07:03.375154  8672 net.cpp:399] bn4_2 -> bn4_2
I1101 13:07:03.375655  8672 net.cpp:141] Setting up bn4_2
I1101 13:07:03.376157  8672 net.cpp:148] Top shape: 100 256 7 7 (1254400)
I1101 13:07:03.376157  8672 net.cpp:156] Memory required for data: 722848400
I1101 13:07:03.376157  8672 layer_factory.hpp:77] Creating layer scale4_2
I1101 13:07:03.376157  8672 net.cpp:91] Creating Layer scale4_2
I1101 13:07:03.376157  8672 net.cpp:425] scale4_2 <- bn4_2
I1101 13:07:03.376157  8672 net.cpp:399] scale4_2 -> scale4_2
I1101 13:07:03.376157  8672 layer_factory.hpp:77] Creating layer scale4_2
I1101 13:07:03.376157  8672 net.cpp:141] Setting up scale4_2
I1101 13:07:03.376157  8672 net.cpp:148] Top shape: 100 256 7 7 (1254400)
I1101 13:07:03.376157  8672 net.cpp:156] Memory required for data: 727866000
I1101 13:07:03.376157  8672 layer_factory.hpp:77] Creating layer relu4_2
I1101 13:07:03.376157  8672 net.cpp:91] Creating Layer relu4_2
I1101 13:07:03.376657  8672 net.cpp:425] relu4_2 <- scale4_2
I1101 13:07:03.376657  8672 net.cpp:399] relu4_2 -> relu4_2
I1101 13:07:03.376657  8672 net.cpp:141] Setting up relu4_2
I1101 13:07:03.377156  8672 net.cpp:148] Top shape: 100 256 7 7 (1254400)
I1101 13:07:03.377156  8672 net.cpp:156] Memory required for data: 732883600
I1101 13:07:03.377156  8672 layer_factory.hpp:77] Creating layer pool4_2
I1101 13:07:03.377156  8672 net.cpp:91] Creating Layer pool4_2
I1101 13:07:03.377156  8672 net.cpp:425] pool4_2 <- relu4_2
I1101 13:07:03.377156  8672 net.cpp:399] pool4_2 -> pool4_2
I1101 13:07:03.377156  8672 net.cpp:141] Setting up pool4_2
I1101 13:07:03.377156  8672 net.cpp:148] Top shape: 100 256 4 4 (409600)
I1101 13:07:03.377156  8672 net.cpp:156] Memory required for data: 734522000
I1101 13:07:03.377156  8672 layer_factory.hpp:77] Creating layer conv4_0
I1101 13:07:03.377156  8672 net.cpp:91] Creating Layer conv4_0
I1101 13:07:03.377156  8672 net.cpp:425] conv4_0 <- pool4_2
I1101 13:07:03.377156  8672 net.cpp:399] conv4_0 -> conv4_0
I1101 13:07:03.390386  8672 net.cpp:141] Setting up conv4_0
I1101 13:07:03.390386  8672 net.cpp:148] Top shape: 100 512 4 4 (819200)
I1101 13:07:03.390386  8672 net.cpp:156] Memory required for data: 737798800
I1101 13:07:03.390386  8672 layer_factory.hpp:77] Creating layer bn4_0
I1101 13:07:03.390386  8672 net.cpp:91] Creating Layer bn4_0
I1101 13:07:03.390386  8672 net.cpp:425] bn4_0 <- conv4_0
I1101 13:07:03.390386  8672 net.cpp:399] bn4_0 -> bn4_0
I1101 13:07:03.390887  8672 net.cpp:141] Setting up bn4_0
I1101 13:07:03.390887  8672 net.cpp:148] Top shape: 100 512 4 4 (819200)
I1101 13:07:03.390887  8672 net.cpp:156] Memory required for data: 741075600
I1101 13:07:03.390887  8672 layer_factory.hpp:77] Creating layer scale4_0
I1101 13:07:03.390887  8672 net.cpp:91] Creating Layer scale4_0
I1101 13:07:03.390887  8672 net.cpp:425] scale4_0 <- bn4_0
I1101 13:07:03.390887  8672 net.cpp:399] scale4_0 -> scale4_0
I1101 13:07:03.390887  8672 layer_factory.hpp:77] Creating layer scale4_0
I1101 13:07:03.390887  8672 net.cpp:141] Setting up scale4_0
I1101 13:07:03.390887  8672 net.cpp:148] Top shape: 100 512 4 4 (819200)
I1101 13:07:03.390887  8672 net.cpp:156] Memory required for data: 744352400
I1101 13:07:03.390887  8672 layer_factory.hpp:77] Creating layer relu4_0
I1101 13:07:03.390887  8672 net.cpp:91] Creating Layer relu4_0
I1101 13:07:03.390887  8672 net.cpp:425] relu4_0 <- scale4_0
I1101 13:07:03.390887  8672 net.cpp:399] relu4_0 -> relu4_0
I1101 13:07:03.391388  8672 net.cpp:141] Setting up relu4_0
I1101 13:07:03.391388  8672 net.cpp:148] Top shape: 100 512 4 4 (819200)
I1101 13:07:03.391388  8672 net.cpp:156] Memory required for data: 747629200
I1101 13:07:03.391388  8672 layer_factory.hpp:77] Creating layer cccp4
I1101 13:07:03.391388  8672 net.cpp:91] Creating Layer cccp4
I1101 13:07:03.391388  8672 net.cpp:425] cccp4 <- relu4_0
I1101 13:07:03.391388  8672 net.cpp:399] cccp4 -> cccp4
I1101 13:07:03.414904  8672 net.cpp:141] Setting up cccp4
I1101 13:07:03.415405  8672 net.cpp:148] Top shape: 100 2048 4 4 (3276800)
I1101 13:07:03.415405  8672 net.cpp:156] Memory required for data: 760736400
I1101 13:07:03.415405  8672 layer_factory.hpp:77] Creating layer relu_cccp4
I1101 13:07:03.415405  8672 net.cpp:91] Creating Layer relu_cccp4
I1101 13:07:03.415405  8672 net.cpp:425] relu_cccp4 <- cccp4
I1101 13:07:03.415405  8672 net.cpp:386] relu_cccp4 -> cccp4 (in-place)
I1101 13:07:03.415742  8672 net.cpp:141] Setting up relu_cccp4
I1101 13:07:03.415742  8672 net.cpp:148] Top shape: 100 2048 4 4 (3276800)
I1101 13:07:03.415742  8672 net.cpp:156] Memory required for data: 773843600
I1101 13:07:03.415742  8672 layer_factory.hpp:77] Creating layer cccp5
I1101 13:07:03.415742  8672 net.cpp:91] Creating Layer cccp5
I1101 13:07:03.415742  8672 net.cpp:425] cccp5 <- cccp4
I1101 13:07:03.415742  8672 net.cpp:399] cccp5 -> cccp5
I1101 13:07:03.423208  8672 net.cpp:141] Setting up cccp5
I1101 13:07:03.423208  8672 net.cpp:148] Top shape: 100 256 4 4 (409600)
I1101 13:07:03.423208  8672 net.cpp:156] Memory required for data: 775482000
I1101 13:07:03.423208  8672 layer_factory.hpp:77] Creating layer relu_cccp5
I1101 13:07:03.423208  8672 net.cpp:91] Creating Layer relu_cccp5
I1101 13:07:03.423208  8672 net.cpp:425] relu_cccp5 <- cccp5
I1101 13:07:03.423208  8672 net.cpp:386] relu_cccp5 -> cccp5 (in-place)
I1101 13:07:03.423704  8672 net.cpp:141] Setting up relu_cccp5
I1101 13:07:03.423704  8672 net.cpp:148] Top shape: 100 256 4 4 (409600)
I1101 13:07:03.423704  8672 net.cpp:156] Memory required for data: 777120400
I1101 13:07:03.423704  8672 layer_factory.hpp:77] Creating layer poolcp5
I1101 13:07:03.423704  8672 net.cpp:91] Creating Layer poolcp5
I1101 13:07:03.423704  8672 net.cpp:425] poolcp5 <- cccp5
I1101 13:07:03.423704  8672 net.cpp:399] poolcp5 -> poolcp5
I1101 13:07:03.423704  8672 net.cpp:141] Setting up poolcp5
I1101 13:07:03.423704  8672 net.cpp:148] Top shape: 100 256 2 2 (102400)
I1101 13:07:03.423704  8672 net.cpp:156] Memory required for data: 777530000
I1101 13:07:03.423704  8672 layer_factory.hpp:77] Creating layer cccp6
I1101 13:07:03.423704  8672 net.cpp:91] Creating Layer cccp6
I1101 13:07:03.423704  8672 net.cpp:425] cccp6 <- poolcp5
I1101 13:07:03.423704  8672 net.cpp:399] cccp6 -> cccp6
I1101 13:07:03.431560  8672 net.cpp:141] Setting up cccp6
I1101 13:07:03.431560  8672 net.cpp:148] Top shape: 100 256 2 2 (102400)
I1101 13:07:03.431560  8672 net.cpp:156] Memory required for data: 777939600
I1101 13:07:03.431560  8672 layer_factory.hpp:77] Creating layer relu_cccp6
I1101 13:07:03.431560  8672 net.cpp:91] Creating Layer relu_cccp6
I1101 13:07:03.431560  8672 net.cpp:425] relu_cccp6 <- cccp6
I1101 13:07:03.432061  8672 net.cpp:386] relu_cccp6 -> cccp6 (in-place)
I1101 13:07:03.432356  8672 net.cpp:141] Setting up relu_cccp6
I1101 13:07:03.432356  8672 net.cpp:148] Top shape: 100 256 2 2 (102400)
I1101 13:07:03.432356  8672 net.cpp:156] Memory required for data: 778349200
I1101 13:07:03.432356  8672 layer_factory.hpp:77] Creating layer poolcp6
I1101 13:07:03.432356  8672 net.cpp:91] Creating Layer poolcp6
I1101 13:07:03.432356  8672 net.cpp:425] poolcp6 <- cccp6
I1101 13:07:03.432356  8672 net.cpp:399] poolcp6 -> poolcp6
I1101 13:07:03.432356  8672 net.cpp:141] Setting up poolcp6
I1101 13:07:03.432356  8672 net.cpp:148] Top shape: 100 256 1 1 (25600)
I1101 13:07:03.432356  8672 net.cpp:156] Memory required for data: 778451600
I1101 13:07:03.432356  8672 layer_factory.hpp:77] Creating layer ip1
I1101 13:07:03.432356  8672 net.cpp:91] Creating Layer ip1
I1101 13:07:03.432356  8672 net.cpp:425] ip1 <- poolcp6
I1101 13:07:03.432356  8672 net.cpp:399] ip1 -> ip1
I1101 13:07:03.432857  8672 net.cpp:141] Setting up ip1
I1101 13:07:03.432857  8672 net.cpp:148] Top shape: 100 10 (1000)
I1101 13:07:03.432857  8672 net.cpp:156] Memory required for data: 778455600
I1101 13:07:03.432857  8672 layer_factory.hpp:77] Creating layer loss
I1101 13:07:03.432857  8672 net.cpp:91] Creating Layer loss
I1101 13:07:03.432857  8672 net.cpp:425] loss <- ip1
I1101 13:07:03.432857  8672 net.cpp:425] loss <- label
I1101 13:07:03.432857  8672 net.cpp:399] loss -> loss
I1101 13:07:03.432857  8672 layer_factory.hpp:77] Creating layer loss
…
I1101 13:07:03.434859  8672 net.cpp:313] The NetState phase (1) differed from the phase (0) specified by a rule in layer bn4_2
I1101 13:07:03.434859  8672 net.cpp:313] The NetState phase (1) differed from the phase (0) specified by a rule in layer bn4_0
I1101 13:07:03.434859  8672 net.cpp:49] Initializing net from parameters: 
name: "SimpNet"
state {
  phase: TEST
}
layer {
  name: "mnist"
  type: "Data"
  top: "data"
  top: "label"
  include {
    phase: TEST
  }
  data_param {
    source: "examples/mnist/mnist_test_lmdb_norm2"
    batch_size: 100
    backend: LMDB
  }
}
layer {
  name: "conv1"
  type: "Convolution"
  bottom: "data"
  top: "conv1"
  param {
    lr_mult: 1
  }
  convolution_param {
    num_output: 64
    bias_term: true
    pad: 1
    kernel_size: 3
    stride: 1
    weight_filler {
      type: "xavier"
    }
  }
}
layer {
  name: "bn1"
  type: "BatchNorm"
  bottom: "conv1"
  top: "bn1"
  param {
    lr_mult: 0
    decay_mult: 0
  }
  param {
    lr_mult: 0
    decay_mult: 0
  }
  param {
    lr_mult: 0
    decay_mult: 0
  }
  include {
    phase: TEST
  }
  batch_norm_param {
    use_global_stats: true
    moving_average_fraction: 0.95
  }
}
layer {
  name: "scale1"
  type: "Scale"
  bottom: "bn1"
  top: "scale1"
  scale_param {
    bias_term: true
  }
}
layer {
  name: "relu1"
  type: "ReLU"
  bottom: "scale1"
  top: "relu1"
}
layer {
  name: "conv1_0"
  type: "Convolution"
  bottom: "relu1"
  top: "conv1_0"
  param {
    lr_mult: 1
  }
  convolution_param {
    num_output: 128
    bias_term: true
    pad: 1
    kernel_size: 3
    stride: 1
    weight_filler {
      type: "xavier"
    }
  }
}
layer {
  name: "bn1_0"
  type: "BatchNorm"
  bottom: "conv1_0"
  top: "bn1_0"
  param {
    lr_mult: 0
    decay_mult: 0
  }
  param {
    lr_mult: 0
    decay_mult: 0
  }
  param {
    lr_mult: 0
    decay_mult: 0
  }
  include {
    phase: TEST
  }
  batch_norm_param {
    use_global_stats: true
    moving_average_fraction: 0.95
  }
}
layer {
  name: "scale1_0"
  type: "Scale"
  bottom: "bn1_0"
  top: "scale1_0"
  scale_param {
    bias_term: true
  }
}
layer {
  name: "relu1_0"
  type: "ReLU"
  bottom: "scale1_0"
  top: "relu1_0"
}
layer {
  name: "conv2"
  type: "Convolution"
  bottom: "relu1_0"
  top: "conv2"
  param {
    lr_mult: 1
  }
  convolution_param {
    num_output: 128
    bias_term: true
    pad: 1
    kernel_size: 3
    stride: 1
    weight_filler {
      type: "gaussian"
      std: 0.01
    }
  }
}
layer {
  name: "bn2"
  type: "BatchNorm"
  bottom: "conv2"
  top: "bn2"
  param {
    lr_mult: 0
    decay_mult: 0
  }
  param {
    lr_mult: 0
    decay_mult: 0
  }
  param {
    lr_mult: 0
    decay_mult: 0
  }
  include {
    phase: TEST
  }
  batch_norm_param {
    use_global_stats: true
    moving_average_fraction: 0.95
  }
}
layer {
  name: "scale2"
  type: "Scale"
  bottom: "bn2"
  top: "scale2"
  scale_param {
    bias_term: true
  }
}
layer {
  name: "relu2"
  type: "ReLU"
  bottom: "scale2"
  top: "relu2"
}
layer {
  name: "conv2_1"
  type: "Convolution"
  bottom: "relu2"
  top: "conv2_1"
  param {
    lr_mult: 1
  }
  convolution_param {
    num_output: 128
    bias_term: true
    pad: 1
    kernel_size: 3
    stride: 1
    weight_filler {
      type: "gaussian"
      std: 0.01
    }
  }
}
layer {
  name: "bn2_1"
  type: "BatchNorm"
  bottom: "conv2_1"
  top: "bn2_1"
  param {
    lr_mult: 0
    decay_mult: 0
  }
  param {
    lr_mult: 0
    decay_mult: 0
  }
  param {
    lr_mult: 0
    decay_mult: 0
  }
  include {
    phase: TEST
  }
  batch_norm_param {
    use_global_stats: true
    moving_average_fraction: 0.95
  }
}
layer {
  name: "scale2_1"
  type: "Scale"
  bottom: "bn2_1"
  top: "scale2_1"
  scale_param {
    bias_term: true
  }
}
layer {
  name: "relu2_1"
  type: "ReLU"
  bottom: "scale2_1"
  top: "relu2_1"
}
layer {
  name: "pool2_1"
  type: "Pooling"
  bottom: "relu2_1"
  top: "pool2_1"
  pooling_param {
    pool: MAX
    kernel_size: 2
    stride: 2
  }
}
layer {
  name: "conv2_2"
  type: "Convolution"
  bottom: "pool2_1"
  top: "conv2_2"
  param {
    lr_mult: 1
  }
  convolution_param {
    num_output: 128
    bias_term: true
    pad: 1
    kernel_size: 3
    stride: 1
    weight_filler {
      type: "gaussian"
      std: 0.01
    }
  }
}
layer {
  name: "bn2_2"
  type: "BatchNorm"
  bottom: "conv2_2"
  top: "bn2_2"
  param {
    lr_mult: 0
    decay_mult: 0
  }
  param {
    lr_mult: 0
    decay_mult: 0
  }
  param {
    lr_mult: 0
    decay_mult: 0
  }
  include {
    phase: TEST
  }
  batch_norm_param {
    use_global_stats: true
    moving_average_fraction: 0.95
  }
}
layer {
  name: "scale2_2"
  type: "Scale"
  bottom: "bn2_2"
  top: "scale2_2"
  scale_param {
    bias_term: true
  }
}
layer {
  name: "relu2_2"
  type: "ReLU"
  bottom: "scale2_2"
  top: "relu2_2"
}
layer {
  name: "conv3"
  type: "Convolution"
  bottom: "relu2_2"
  top: "conv3"
  param {
    lr_mult: 1
  }
  convolution_param {
    num_output: 128
    bias_term: true
    pad: 1
    kernel_size: 3
    stride: 1
    weight_filler {
      type: "xavier"
    }
  }
}
layer {
  name: "bn3"
  type: "BatchNorm"
  bottom: "conv3"
  top: "bn3"
  param {
    lr_mult: 0
    decay_mult: 0
  }
  param {
    lr_mult: 0
    decay_mult: 0
  }
  param {
    lr_mult: 0
    decay_mult: 0
  }
  include {
    phase: TEST
  }
  batch_norm_param {
    use_global_stats: true
    moving_average_fraction: 0.95
  }
}
layer {
  name: "scale3"
  type: "Scale"
  bottom: "bn3"
  top: "scale3"
  scale_param {
    bias_term: true
  }
}
layer {
  name: "relu3"
  type: "ReLU"
  bottom: "scale3"
  top: "relu3"
}
layer {
  name: "conv4"
  type: "Convolution"
  bottom: "relu3"
  top: "conv4"
  param {
    lr_mult: 1
  }
  convolution_param {
    num_output: 256
    bias_term: true
    pad: 1
    kernel_size: 3
    stride: 1
    weight_filler {
      type: "xavier"
    }
  }
}
layer {
  name: "pool4"
  type: "Pooling"
  bottom: "conv4"
  top: "pool4"
  pooling_param {
    pool: MAX
    kernel_size: 2
    stride: 2
  }
}
layer {
  name: "bn4"
  type: "BatchNorm"
  bottom: "pool4"
  top: "bn4"
  param {
    lr_mult: 0
    decay_mult: 0
  }
  param {
    lr_mult: 0
    decay_mult: 0
  }
  param {
    lr_mult: 0
    decay_mult: 0
  }
  include {
    phase: TEST
  }
  batch_norm_param {
    use_global_stats: true
    moving_average_fraction: 0.95
  }
}
layer {
  name: "scale4"
  type: "Scale"
  bottom: "bn4"
  top: "scale4"
  scale_param {
    bias_term: true
  }
}
layer {
  name: "relu4"
  type: "ReLU"
  bottom: "scale4"
  top: "relu4"
}
layer {
  name: "conv4_1"
  type: "Convolution"
  bottom: "relu4"
  top: "conv4_1"
  param {
    lr_mult: 1
  }
  convolution_param {
    num_output: 256
    bias_term: true
    pad: 1
    kernel_size: 3
    stride: 1
    weight_filler {
      type: "xavier"
    }
  }
}
layer {
  name: "bn4_1"
  type: "BatchNorm"
  bottom: "conv4_1"
  top: "bn4_1"
  param {
    lr_mult: 0
    decay_mult: 0
  }
  param {
    lr_mult: 0
    decay_mult: 0
  }
  param {
    lr_mult: 0
    decay_mult: 0
  }
  include {
    phase: TEST
  }
  batch_norm_param {
    use_global_stats: true
    moving_average_fraction: 0.95
  }
}
layer {
  name: "scale4_1"
  type: "Scale"
  bottom: "bn4_1"
  top: "scale4_1"
  scale_param {
    bias_term: true
  }
}
layer {
  name: "relu4_1"
  type: "ReLU"
  bottom: "scale4_1"
  top: "relu4_1"
}
layer {
  name: "conv4_2"
  type: "Convolution"
  bottom: "relu4_1"
  top: "conv4_2"
  param {
    lr_mult: 1
  }
  convolution_param {
    num_output: 256
    bias_term: true
    pad: 1
    kernel_size: 3
    stride: 1
    weight_filler {
      type: "xavier"
    }
  }
}
layer {
  name: "bn4_2"
  type: "BatchNorm"
  bottom: "conv4_2"
  top: "bn4_2"
  param {
    lr_mult: 0
    decay_mult: 0
  }
  param {
    lr_mult: 0
    decay_mult: 0
  }
  param {
    lr_mult: 0
    decay_mult: 0
  }
  include {
    phase: TEST
  }
  batch_norm_param {
    use_global_stats: true
    moving_average_fraction: 0.95
  }
}
layer {
  name: "scale4_2"
  type: "Scale"
  bottom: "bn4_2"
  top: "scale4_2"
  scale_param {
    bias_term: true
  }
}
layer {
  name: "relu4_2"
  type: "ReLU"
  bottom: "scale4_2"
  top: "relu4_2"
}
layer {
  name: "pool4_2"
  type: "Pooling"
  bottom: "relu4_2"
  top: "pool4_2"
  pooling_param {
    pool: MAX
    kernel_size: 2
    stride: 2
  }
}
layer {
  name: "conv4_0"
  type: "Convolution"
  bottom: "pool4_2"
  top: "conv4_0"
  param {
    lr_mult: 1
  }
  convolution_param {
    num_output: 512
    bias_term: true
    pad: 1
    kernel_size: 3
    stride: 1
    weight_filler {
      type: "xavier"
    }
  }
}
layer {
  name: "bn4_0"
  type: "BatchNorm"
  bottom: "conv4_0"
  top: "bn4_0"
  param {
    lr_mult: 0
    decay_mult: 0
  }
  param {
    lr_mult: 0
    decay_mult: 0
  }
  param {
    lr_mult: 0
    decay_mult: 0
  }
  include {
    phase: TEST
  }
  batch_norm_param {
    use_global_stats: true
    moving_average_fraction: 0.95
  }
}
layer {
  name: "scale4_0"
  type: "Scale"
  bottom: "bn4_0"
  top: "scale4_0"
  scale_param {
    bias_term: true
  }
}
layer {
  name: "relu4_0"
  type: "ReLU"
  bottom: "scale4_0"
  top: "relu4_0"
}
layer {
  name: "cccp4"
  type: "Convolution"
  bottom: "relu4_0"
  top: "cccp4"
  param {
    lr_mult: 1
    decay_mult: 1
  }
  param {
    lr_mult: 2
    decay_mult: 0
  }
  convolution_param {
    num_output: 2048
    kernel_size: 1
    group: 1
    weight_filler {
      type: "xavier"
    }
    bias_filler {
      type: "constant"
      value: 0
    }
  }
}
layer {
  name: "relu_cccp4"
  type: "ReLU"
  bottom: "cccp4"
  top: "cccp4"
}
layer {
  name: "cccp5"
  type: "Convolution"
  bottom: "cccp4"
  top: "cccp5"
  param {
    lr_mult: 1
    decay_mult: 1
  }
  param {
    lr_mult: 2
    decay_mult: 0
  }
  convolution_param {
    num_output: 256
    kernel_size: 1
    group: 1
    weight_filler {
      type: "xavier"
    }
    bias_filler {
      type: "constant"
      value: 0
    }
  }
}
layer {
  name: "relu_cccp5"
  type: "ReLU"
  bottom: "cccp5"
  top: "cccp5"
}
layer {
  name: "poolcp5"
  type: "Pooling"
  bottom: "cccp5"
  top: "poolcp5"
  pooling_param {
    pool: MAX
    kernel_size: 2
    stride: 2
  }
}
layer {
  name: "cccp6"
  type: "Convolution"
  bottom: "poolcp5"
  top: "cccp6"
  param {
    lr_mult: 1
    decay_mult: 1
  }
  param {
    lr_mult: 2
    decay_mult: 0
  }
  convolution_param {
    num_output: 256
    pad: 1
    kernel_size: 3
    group: 1
    weight_filler {
      type: "xavier"
    }
    bias_filler {
      type: "constant"
      value: 0
    }
  }
}
layer {
  name: "relu_cccp6"
  type: "ReLU"
  bottom: "cccp6"
  top: "cccp6"
}
layer {
  name: "poolcp6"
  type: "Pooling"
  bottom: "cccp6"
  top: "poolcp6"
  pooling_param {
    pool: MAX
    kernel_size: 2
    stride: 2
  }
}
layer {
  name: "ip1"
  type: "InnerProduct"
  bottom: "poolcp6"
  top: "ip1"
  param {
    lr_mult: 1
    decay_mult: 0
  }
  param {
    lr_mult: 2
    decay_mult: 0
  }
  inner_product_param {
    num_output: 10
    weight_filler {
      type: "xavier"
    }
    bias_filler {
      type: "constant"
    }
  }
}
layer {
  name: "accuracy"
  type: "Accuracy"
  bottom: "ip1"
  bottom: "label"
  top: "accuracy"
  include {
    phase: TEST
  }
}
layer {
  name: "loss"
  type: "SoftmaxWithLoss"
  bottom: "ip1"
  bottom: "label"
  top: "loss"
}
I1101 13:07:03.435359  8672 layer_factory.hpp:77] Creating layer mnist
I1101 13:07:03.436360  8672 net.cpp:91] Creating Layer mnist
I1101 13:07:03.436360  8672 net.cpp:399] mnist -> data
I1101 13:07:03.436360  8672 net.cpp:399] mnist -> label
I1101 13:07:03.438361 10164 common.cpp:36] System entropy source not available, using fallback algorithm to generate seed instead.
I1101 13:07:03.444847 10164 db_lmdb.cpp:52] Opened lmdb examples/mnist/mnist_test_lmdb_norm2
I1101 13:07:03.445348  8672 data_layer.cpp:41] output data size: 100,1,28,28
I1101 13:07:03.446851  8672 net.cpp:141] Setting up mnist
I1101 13:07:03.446851  8672 net.cpp:148] Top shape: 100 1 28 28 (78400)
I1101 13:07:03.446851  8672 net.cpp:148] Top shape: 100 (100)
I1101 13:07:03.446851  8672 net.cpp:156] Memory required for data: 314000
I1101 13:07:03.446851  8672 layer_factory.hpp:77] Creating layer label_mnist_1_split
I1101 13:07:03.446851  8672 net.cpp:91] Creating Layer label_mnist_1_split
I1101 13:07:03.446851  8672 net.cpp:425] label_mnist_1_split <- label
I1101 13:07:03.446851  8672 net.cpp:399] label_mnist_1_split -> label_mnist_1_split_0
I1101 13:07:03.446851  8672 net.cpp:399] label_mnist_1_split -> label_mnist_1_split_1
I1101 13:07:03.446851  8672 net.cpp:141] Setting up label_mnist_1_split
I1101 13:07:03.446851  8672 net.cpp:148] Top shape: 100 (100)
I1101 13:07:03.446851  8672 net.cpp:148] Top shape: 100 (100)
I1101 13:07:03.446851  8672 net.cpp:156] Memory required for data: 314800
I1101 13:07:03.446851  8672 layer_factory.hpp:77] Creating layer conv1
I1101 13:07:03.446851  8672 net.cpp:91] Creating Layer conv1
I1101 13:07:03.446851  8672 net.cpp:425] conv1 <- data
I1101 13:07:03.446851  8672 net.cpp:399] conv1 -> conv1
I1101 13:07:03.448851  8672 net.cpp:141] Setting up conv1
I1101 13:07:03.448851  8672 net.cpp:148] Top shape: 100 64 28 28 (5017600)
I1101 13:07:03.448851  8672 net.cpp:156] Memory required for data: 20385200
I1101 13:07:03.448851  8672 layer_factory.hpp:77] Creating layer bn1
I1101 13:07:03.448851  8672 net.cpp:91] Creating Layer bn1
I1101 13:07:03.448851  8672 net.cpp:425] bn1 <- conv1
I1101 13:07:03.448851  8672 net.cpp:399] bn1 -> bn1
I1101 13:07:03.448851 12272 common.cpp:36] System entropy source not available, using fallback algorithm to generate seed instead.
I1101 13:07:03.449851  8672 net.cpp:141] Setting up bn1
I1101 13:07:03.449851  8672 net.cpp:148] Top shape: 100 64 28 28 (5017600)
I1101 13:07:03.449851  8672 net.cpp:156] Memory required for data: 40455600
I1101 13:07:03.449851  8672 layer_factory.hpp:77] Creating layer scale1
I1101 13:07:03.449851  8672 net.cpp:91] Creating Layer scale1
I1101 13:07:03.449851  8672 net.cpp:425] scale1 <- bn1
I1101 13:07:03.449851  8672 net.cpp:399] scale1 -> scale1
I1101 13:07:03.449851  8672 layer_factory.hpp:77] Creating layer scale1
I1101 13:07:03.449851  8672 net.cpp:141] Setting up scale1
I1101 13:07:03.449851  8672 net.cpp:148] Top shape: 100 64 28 28 (5017600)
I1101 13:07:03.449851  8672 net.cpp:156] Memory required for data: 60526000
I1101 13:07:03.450352  8672 layer_factory.hpp:77] Creating layer relu1
I1101 13:07:03.450352  8672 net.cpp:91] Creating Layer relu1
I1101 13:07:03.450352  8672 net.cpp:425] relu1 <- scale1
I1101 13:07:03.450352  8672 net.cpp:399] relu1 -> relu1
I1101 13:07:03.450352  8672 net.cpp:141] Setting up relu1
I1101 13:07:03.450352  8672 net.cpp:148] Top shape: 100 64 28 28 (5017600)
I1101 13:07:03.450352  8672 net.cpp:156] Memory required for data: 80596400
I1101 13:07:03.450352  8672 layer_factory.hpp:77] Creating layer conv1_0
I1101 13:07:03.450352  8672 net.cpp:91] Creating Layer conv1_0
I1101 13:07:03.450352  8672 net.cpp:425] conv1_0 <- relu1
I1101 13:07:03.450352  8672 net.cpp:399] conv1_0 -> conv1_0
I1101 13:07:03.514765  8672 net.cpp:141] Setting up conv1_0
I1101 13:07:03.514765  8672 net.cpp:148] Top shape: 100 128 28 28 (10035200)
I1101 13:07:03.514765  8672 net.cpp:156] Memory required for data: 120737200
I1101 13:07:03.514765  8672 layer_factory.hpp:77] Creating layer bn1_0
I1101 13:07:03.514765  8672 net.cpp:91] Creating Layer bn1_0
I1101 13:07:03.514765  8672 net.cpp:425] bn1_0 <- conv1_0
I1101 13:07:03.514765  8672 net.cpp:399] bn1_0 -> bn1_0
I1101 13:07:03.514765  8672 net.cpp:141] Setting up bn1_0
I1101 13:07:03.514765  8672 net.cpp:148] Top shape: 100 128 28 28 (10035200)
I1101 13:07:03.514765  8672 net.cpp:156] Memory required for data: 160878000
I1101 13:07:03.514765  8672 layer_factory.hpp:77] Creating layer scale1_0
I1101 13:07:03.514765  8672 net.cpp:91] Creating Layer scale1_0
I1101 13:07:03.514765  8672 net.cpp:425] scale1_0 <- bn1_0
I1101 13:07:03.514765  8672 net.cpp:399] scale1_0 -> scale1_0
I1101 13:07:03.514765  8672 layer_factory.hpp:77] Creating layer scale1_0
I1101 13:07:03.515766  8672 net.cpp:141] Setting up scale1_0
I1101 13:07:03.515766  8672 net.cpp:148] Top shape: 100 128 28 28 (10035200)
I1101 13:07:03.515766  8672 net.cpp:156] Memory required for data: 201018800
I1101 13:07:03.515766  8672 layer_factory.hpp:77] Creating layer relu1_0
I1101 13:07:03.515766  8672 net.cpp:91] Creating Layer relu1_0
I1101 13:07:03.515766  8672 net.cpp:425] relu1_0 <- scale1_0
I1101 13:07:03.515766  8672 net.cpp:399] relu1_0 -> relu1_0
I1101 13:07:03.515766  8672 net.cpp:141] Setting up relu1_0
I1101 13:07:03.515766  8672 net.cpp:148] Top shape: 100 128 28 28 (10035200)
I1101 13:07:03.515766  8672 net.cpp:156] Memory required for data: 241159600
I1101 13:07:03.515766  8672 layer_factory.hpp:77] Creating layer conv2
I1101 13:07:03.515766  8672 net.cpp:91] Creating Layer conv2
I1101 13:07:03.515766  8672 net.cpp:425] conv2 <- relu1_0
I1101 13:07:03.515766  8672 net.cpp:399] conv2 -> conv2
I1101 13:07:03.521770  8672 net.cpp:141] Setting up conv2
I1101 13:07:03.521770  8672 net.cpp:148] Top shape: 100 128 28 28 (10035200)
I1101 13:07:03.521770  8672 net.cpp:156] Memory required for data: 281300400
I1101 13:07:03.521770  8672 layer_factory.hpp:77] Creating layer bn2
I1101 13:07:03.521770  8672 net.cpp:91] Creating Layer bn2
I1101 13:07:03.521770  8672 net.cpp:425] bn2 <- conv2
I1101 13:07:03.521770  8672 net.cpp:399] bn2 -> bn2
I1101 13:07:03.521770  8672 net.cpp:141] Setting up bn2
I1101 13:07:03.521770  8672 net.cpp:148] Top shape: 100 128 28 28 (10035200)
I1101 13:07:03.521770  8672 net.cpp:156] Memory required for data: 321441200
I1101 13:07:03.521770  8672 layer_factory.hpp:77] Creating layer scale2
I1101 13:07:03.521770  8672 net.cpp:91] Creating Layer scale2
I1101 13:07:03.521770  8672 net.cpp:425] scale2 <- bn2
I1101 13:07:03.521770  8672 net.cpp:399] scale2 -> scale2
I1101 13:07:03.521770  8672 layer_factory.hpp:77] Creating layer scale2
I1101 13:07:03.521770  8672 net.cpp:141] Setting up scale2
I1101 13:07:03.521770  8672 net.cpp:148] Top shape: 100 128 28 28 (10035200)
I1101 13:07:03.521770  8672 net.cpp:156] Memory required for data: 361582000
I1101 13:07:03.521770  8672 layer_factory.hpp:77] Creating layer relu2
I1101 13:07:03.521770  8672 net.cpp:91] Creating Layer relu2
I1101 13:07:03.521770  8672 net.cpp:425] relu2 <- scale2
I1101 13:07:03.521770  8672 net.cpp:399] relu2 -> relu2
I1101 13:07:03.522770  8672 net.cpp:141] Setting up relu2
I1101 13:07:03.522770  8672 net.cpp:148] Top shape: 100 128 28 28 (10035200)
I1101 13:07:03.522770  8672 net.cpp:156] Memory required for data: 401722800
I1101 13:07:03.522770  8672 layer_factory.hpp:77] Creating layer conv2_1
I1101 13:07:03.522770  8672 net.cpp:91] Creating Layer conv2_1
I1101 13:07:03.522770  8672 net.cpp:425] conv2_1 <- relu2
I1101 13:07:03.522770  8672 net.cpp:399] conv2_1 -> conv2_1
I1101 13:07:03.527775  8672 net.cpp:141] Setting up conv2_1
I1101 13:07:03.527775  8672 net.cpp:148] Top shape: 100 128 28 28 (10035200)
I1101 13:07:03.527775  8672 net.cpp:156] Memory required for data: 441863600
I1101 13:07:03.527775  8672 layer_factory.hpp:77] Creating layer bn2_1
I1101 13:07:03.527775  8672 net.cpp:91] Creating Layer bn2_1
I1101 13:07:03.527775  8672 net.cpp:425] bn2_1 <- conv2_1
I1101 13:07:03.527775  8672 net.cpp:399] bn2_1 -> bn2_1
I1101 13:07:03.528775  8672 net.cpp:141] Setting up bn2_1
I1101 13:07:03.528775  8672 net.cpp:148] Top shape: 100 128 28 28 (10035200)
I1101 13:07:03.528775  8672 net.cpp:156] Memory required for data: 482004400
I1101 13:07:03.528775  8672 layer_factory.hpp:77] Creating layer scale2_1
I1101 13:07:03.528775  8672 net.cpp:91] Creating Layer scale2_1
I1101 13:07:03.528775  8672 net.cpp:425] scale2_1 <- bn2_1
I1101 13:07:03.528775  8672 net.cpp:399] scale2_1 -> scale2_1
I1101 13:07:03.528775  8672 layer_factory.hpp:77] Creating layer scale2_1
I1101 13:07:03.528775  8672 net.cpp:141] Setting up scale2_1
I1101 13:07:03.528775  8672 net.cpp:148] Top shape: 100 128 28 28 (10035200)
I1101 13:07:03.528775  8672 net.cpp:156] Memory required for data: 522145200
I1101 13:07:03.528775  8672 layer_factory.hpp:77] Creating layer relu2_1
I1101 13:07:03.528775  8672 net.cpp:91] Creating Layer relu2_1
I1101 13:07:03.528775  8672 net.cpp:425] relu2_1 <- scale2_1
I1101 13:07:03.528775  8672 net.cpp:399] relu2_1 -> relu2_1
I1101 13:07:03.528775  8672 net.cpp:141] Setting up relu2_1
I1101 13:07:03.528775  8672 net.cpp:148] Top shape: 100 128 28 28 (10035200)
I1101 13:07:03.528775  8672 net.cpp:156] Memory required for data: 562286000
I1101 13:07:03.528775  8672 layer_factory.hpp:77] Creating layer pool2_1
I1101 13:07:03.528775  8672 net.cpp:91] Creating Layer pool2_1
I1101 13:07:03.528775  8672 net.cpp:425] pool2_1 <- relu2_1
I1101 13:07:03.528775  8672 net.cpp:399] pool2_1 -> pool2_1
I1101 13:07:03.528775  8672 net.cpp:141] Setting up pool2_1
I1101 13:07:03.528775  8672 net.cpp:148] Top shape: 100 128 14 14 (2508800)
I1101 13:07:03.528775  8672 net.cpp:156] Memory required for data: 572321200
I1101 13:07:03.528775  8672 layer_factory.hpp:77] Creating layer conv2_2
I1101 13:07:03.528775  8672 net.cpp:91] Creating Layer conv2_2
I1101 13:07:03.528775  8672 net.cpp:425] conv2_2 <- pool2_1
I1101 13:07:03.528775  8672 net.cpp:399] conv2_2 -> conv2_2
I1101 13:07:03.533396  8672 net.cpp:141] Setting up conv2_2
I1101 13:07:03.533396  8672 net.cpp:148] Top shape: 100 128 14 14 (2508800)
I1101 13:07:03.533396  8672 net.cpp:156] Memory required for data: 582356400
I1101 13:07:03.533396  8672 layer_factory.hpp:77] Creating layer bn2_2
I1101 13:07:03.533396  8672 net.cpp:91] Creating Layer bn2_2
I1101 13:07:03.533396  8672 net.cpp:425] bn2_2 <- conv2_2
I1101 13:07:03.533396  8672 net.cpp:399] bn2_2 -> bn2_2
I1101 13:07:03.533396  8672 net.cpp:141] Setting up bn2_2
I1101 13:07:03.533396  8672 net.cpp:148] Top shape: 100 128 14 14 (2508800)
I1101 13:07:03.533396  8672 net.cpp:156] Memory required for data: 592391600
I1101 13:07:03.533396  8672 layer_factory.hpp:77] Creating layer scale2_2
I1101 13:07:03.533396  8672 net.cpp:91] Creating Layer scale2_2
I1101 13:07:03.533396  8672 net.cpp:425] scale2_2 <- bn2_2
I1101 13:07:03.533396  8672 net.cpp:399] scale2_2 -> scale2_2
I1101 13:07:03.533396  8672 layer_factory.hpp:77] Creating layer scale2_2
I1101 13:07:03.533396  8672 net.cpp:141] Setting up scale2_2
I1101 13:07:03.533396  8672 net.cpp:148] Top shape: 100 128 14 14 (2508800)
I1101 13:07:03.533396  8672 net.cpp:156] Memory required for data: 602426800
I1101 13:07:03.533396  8672 layer_factory.hpp:77] Creating layer relu2_2
I1101 13:07:03.533396  8672 net.cpp:91] Creating Layer relu2_2
I1101 13:07:03.533396  8672 net.cpp:425] relu2_2 <- scale2_2
I1101 13:07:03.533396  8672 net.cpp:399] relu2_2 -> relu2_2
I1101 13:07:03.534396  8672 net.cpp:141] Setting up relu2_2
I1101 13:07:03.534396  8672 net.cpp:148] Top shape: 100 128 14 14 (2508800)
I1101 13:07:03.534396  8672 net.cpp:156] Memory required for data: 612462000
I1101 13:07:03.534396  8672 layer_factory.hpp:77] Creating layer conv3
I1101 13:07:03.534396  8672 net.cpp:91] Creating Layer conv3
I1101 13:07:03.534396  8672 net.cpp:425] conv3 <- relu2_2
I1101 13:07:03.534396  8672 net.cpp:399] conv3 -> conv3
I1101 13:07:03.538400  8672 net.cpp:141] Setting up conv3
I1101 13:07:03.538400  8672 net.cpp:148] Top shape: 100 128 14 14 (2508800)
I1101 13:07:03.538400  8672 net.cpp:156] Memory required for data: 622497200
I1101 13:07:03.538400  8672 layer_factory.hpp:77] Creating layer bn3
I1101 13:07:03.538400  8672 net.cpp:91] Creating Layer bn3
I1101 13:07:03.538400  8672 net.cpp:425] bn3 <- conv3
I1101 13:07:03.538400  8672 net.cpp:399] bn3 -> bn3
I1101 13:07:03.538400  8672 net.cpp:141] Setting up bn3
I1101 13:07:03.538400  8672 net.cpp:148] Top shape: 100 128 14 14 (2508800)
I1101 13:07:03.538400  8672 net.cpp:156] Memory required for data: 632532400
I1101 13:07:03.538400  8672 layer_factory.hpp:77] Creating layer scale3
I1101 13:07:03.538400  8672 net.cpp:91] Creating Layer scale3
I1101 13:07:03.538400  8672 net.cpp:425] scale3 <- bn3
I1101 13:07:03.538400  8672 net.cpp:399] scale3 -> scale3
I1101 13:07:03.538400  8672 layer_factory.hpp:77] Creating layer scale3
I1101 13:07:03.538400  8672 net.cpp:141] Setting up scale3
I1101 13:07:03.538400  8672 net.cpp:148] Top shape: 100 128 14 14 (2508800)
I1101 13:07:03.538400  8672 net.cpp:156] Memory required for data: 642567600
I1101 13:07:03.538400  8672 layer_factory.hpp:77] Creating layer relu3
I1101 13:07:03.539402  8672 net.cpp:91] Creating Layer relu3
I1101 13:07:03.539402  8672 net.cpp:425] relu3 <- scale3
I1101 13:07:03.539402  8672 net.cpp:399] relu3 -> relu3
I1101 13:07:03.539402  8672 net.cpp:141] Setting up relu3
I1101 13:07:03.539402  8672 net.cpp:148] Top shape: 100 128 14 14 (2508800)
I1101 13:07:03.539402  8672 net.cpp:156] Memory required for data: 652602800
I1101 13:07:03.539402  8672 layer_factory.hpp:77] Creating layer conv4
I1101 13:07:03.539402  8672 net.cpp:91] Creating Layer conv4
I1101 13:07:03.539402  8672 net.cpp:425] conv4 <- relu3
I1101 13:07:03.539402  8672 net.cpp:399] conv4 -> conv4
I1101 13:07:03.544976  8672 net.cpp:141] Setting up conv4
I1101 13:07:03.544976  8672 net.cpp:148] Top shape: 100 256 14 14 (5017600)
I1101 13:07:03.544976  8672 net.cpp:156] Memory required for data: 672673200
I1101 13:07:03.544976  8672 layer_factory.hpp:77] Creating layer pool4
I1101 13:07:03.544976  8672 net.cpp:91] Creating Layer pool4
I1101 13:07:03.544976  8672 net.cpp:425] pool4 <- conv4
I1101 13:07:03.544976  8672 net.cpp:399] pool4 -> pool4
I1101 13:07:03.544976  8672 net.cpp:141] Setting up pool4
I1101 13:07:03.544976  8672 net.cpp:148] Top shape: 100 256 7 7 (1254400)
I1101 13:07:03.544976  8672 net.cpp:156] Memory required for data: 677690800
I1101 13:07:03.544976  8672 layer_factory.hpp:77] Creating layer bn4
I1101 13:07:03.544976  8672 net.cpp:91] Creating Layer bn4
I1101 13:07:03.544976  8672 net.cpp:425] bn4 <- pool4
I1101 13:07:03.544976  8672 net.cpp:399] bn4 -> bn4
I1101 13:07:03.544976  8672 net.cpp:141] Setting up bn4
I1101 13:07:03.544976  8672 net.cpp:148] Top shape: 100 256 7 7 (1254400)
I1101 13:07:03.544976  8672 net.cpp:156] Memory required for data: 682708400
I1101 13:07:03.544976  8672 layer_factory.hpp:77] Creating layer scale4
I1101 13:07:03.544976  8672 net.cpp:91] Creating Layer scale4
I1101 13:07:03.544976  8672 net.cpp:425] scale4 <- bn4
I1101 13:07:03.544976  8672 net.cpp:399] scale4 -> scale4
I1101 13:07:03.544976  8672 layer_factory.hpp:77] Creating layer scale4
I1101 13:07:03.544976  8672 net.cpp:141] Setting up scale4
I1101 13:07:03.544976  8672 net.cpp:148] Top shape: 100 256 7 7 (1254400)
I1101 13:07:03.544976  8672 net.cpp:156] Memory required for data: 687726000
I1101 13:07:03.545979  8672 layer_factory.hpp:77] Creating layer relu4
I1101 13:07:03.545979  8672 net.cpp:91] Creating Layer relu4
I1101 13:07:03.545979  8672 net.cpp:425] relu4 <- scale4
I1101 13:07:03.545979  8672 net.cpp:399] relu4 -> relu4
I1101 13:07:03.545979  8672 net.cpp:141] Setting up relu4
I1101 13:07:03.545979  8672 net.cpp:148] Top shape: 100 256 7 7 (1254400)
I1101 13:07:03.545979  8672 net.cpp:156] Memory required for data: 692743600
I1101 13:07:03.545979  8672 layer_factory.hpp:77] Creating layer conv4_1
I1101 13:07:03.545979  8672 net.cpp:91] Creating Layer conv4_1
I1101 13:07:03.545979  8672 net.cpp:425] conv4_1 <- relu4
I1101 13:07:03.545979  8672 net.cpp:399] conv4_1 -> conv4_1
I1101 13:07:03.552063  8672 net.cpp:141] Setting up conv4_1
I1101 13:07:03.552063  8672 net.cpp:148] Top shape: 100 256 7 7 (1254400)
I1101 13:07:03.552063  8672 net.cpp:156] Memory required for data: 697761200
I1101 13:07:03.552063  8672 layer_factory.hpp:77] Creating layer bn4_1
I1101 13:07:03.552063  8672 net.cpp:91] Creating Layer bn4_1
I1101 13:07:03.552063  8672 net.cpp:425] bn4_1 <- conv4_1
I1101 13:07:03.552063  8672 net.cpp:399] bn4_1 -> bn4_1
I1101 13:07:03.553064  8672 net.cpp:141] Setting up bn4_1
I1101 13:07:03.553064  8672 net.cpp:148] Top shape: 100 256 7 7 (1254400)
I1101 13:07:03.553064  8672 net.cpp:156] Memory required for data: 702778800
I1101 13:07:03.553064  8672 layer_factory.hpp:77] Creating layer scale4_1
I1101 13:07:03.553064  8672 net.cpp:91] Creating Layer scale4_1
I1101 13:07:03.553064  8672 net.cpp:425] scale4_1 <- bn4_1
I1101 13:07:03.553064  8672 net.cpp:399] scale4_1 -> scale4_1
I1101 13:07:03.553064  8672 layer_factory.hpp:77] Creating layer scale4_1
I1101 13:07:03.553064  8672 net.cpp:141] Setting up scale4_1
I1101 13:07:03.553064  8672 net.cpp:148] Top shape: 100 256 7 7 (1254400)
I1101 13:07:03.553064  8672 net.cpp:156] Memory required for data: 707796400
I1101 13:07:03.553064  8672 layer_factory.hpp:77] Creating layer relu4_1
I1101 13:07:03.553064  8672 net.cpp:91] Creating Layer relu4_1
I1101 13:07:03.553064  8672 net.cpp:425] relu4_1 <- scale4_1
I1101 13:07:03.553064  8672 net.cpp:399] relu4_1 -> relu4_1
I1101 13:07:03.555066  8672 net.cpp:141] Setting up relu4_1
I1101 13:07:03.555066  8672 net.cpp:148] Top shape: 100 256 7 7 (1254400)
I1101 13:07:03.555066  8672 net.cpp:156] Memory required for data: 712814000
I1101 13:07:03.555066  8672 layer_factory.hpp:77] Creating layer conv4_2
I1101 13:07:03.555066  8672 net.cpp:91] Creating Layer conv4_2
I1101 13:07:03.555066  8672 net.cpp:425] conv4_2 <- relu4_1
I1101 13:07:03.555066  8672 net.cpp:399] conv4_2 -> conv4_2
I1101 13:07:03.564940  8672 net.cpp:141] Setting up conv4_2
I1101 13:07:03.564940  8672 net.cpp:148] Top shape: 100 256 7 7 (1254400)
I1101 13:07:03.564940  8672 net.cpp:156] Memory required for data: 717831600
I1101 13:07:03.564940  8672 layer_factory.hpp:77] Creating layer bn4_2
I1101 13:07:03.564940  8672 net.cpp:91] Creating Layer bn4_2
I1101 13:07:03.564940  8672 net.cpp:425] bn4_2 <- conv4_2
I1101 13:07:03.564940  8672 net.cpp:399] bn4_2 -> bn4_2
I1101 13:07:03.564940  8672 net.cpp:141] Setting up bn4_2
I1101 13:07:03.564940  8672 net.cpp:148] Top shape: 100 256 7 7 (1254400)
I1101 13:07:03.564940  8672 net.cpp:156] Memory required for data: 722849200
I1101 13:07:03.564940  8672 layer_factory.hpp:77] Creating layer scale4_2
I1101 13:07:03.564940  8672 net.cpp:91] Creating Layer scale4_2
I1101 13:07:03.564940  8672 net.cpp:425] scale4_2 <- bn4_2
I1101 13:07:03.564940  8672 net.cpp:399] scale4_2 -> scale4_2
I1101 13:07:03.564940  8672 layer_factory.hpp:77] Creating layer scale4_2
I1101 13:07:03.564940  8672 net.cpp:141] Setting up scale4_2
I1101 13:07:03.564940  8672 net.cpp:148] Top shape: 100 256 7 7 (1254400)
I1101 13:07:03.564940  8672 net.cpp:156] Memory required for data: 727866800
I1101 13:07:03.564940  8672 layer_factory.hpp:77] Creating layer relu4_2
I1101 13:07:03.564940  8672 net.cpp:91] Creating Layer relu4_2
I1101 13:07:03.564940  8672 net.cpp:425] relu4_2 <- scale4_2
I1101 13:07:03.564940  8672 net.cpp:399] relu4_2 -> relu4_2
I1101 13:07:03.565943  8672 net.cpp:141] Setting up relu4_2
I1101 13:07:03.565943  8672 net.cpp:148] Top shape: 100 256 7 7 (1254400)
I1101 13:07:03.565943  8672 net.cpp:156] Memory required for data: 732884400
I1101 13:07:03.565943  8672 layer_factory.hpp:77] Creating layer pool4_2
I1101 13:07:03.565943  8672 net.cpp:91] Creating Layer pool4_2
I1101 13:07:03.565943  8672 net.cpp:425] pool4_2 <- relu4_2
I1101 13:07:03.565943  8672 net.cpp:399] pool4_2 -> pool4_2
I1101 13:07:03.565943  8672 net.cpp:141] Setting up pool4_2
I1101 13:07:03.565943  8672 net.cpp:148] Top shape: 100 256 4 4 (409600)
I1101 13:07:03.565943  8672 net.cpp:156] Memory required for data: 734522800
I1101 13:07:03.565943  8672 layer_factory.hpp:77] Creating layer conv4_0
I1101 13:07:03.565943  8672 net.cpp:91] Creating Layer conv4_0
I1101 13:07:03.565943  8672 net.cpp:425] conv4_0 <- pool4_2
I1101 13:07:03.565943  8672 net.cpp:399] conv4_0 -> conv4_0
I1101 13:07:03.578851  8672 net.cpp:141] Setting up conv4_0
I1101 13:07:03.578851  8672 net.cpp:148] Top shape: 100 512 4 4 (819200)
I1101 13:07:03.578851  8672 net.cpp:156] Memory required for data: 737799600
I1101 13:07:03.578851  8672 layer_factory.hpp:77] Creating layer bn4_0
I1101 13:07:03.578851  8672 net.cpp:91] Creating Layer bn4_0
I1101 13:07:03.578851  8672 net.cpp:425] bn4_0 <- conv4_0
I1101 13:07:03.578851  8672 net.cpp:399] bn4_0 -> bn4_0
I1101 13:07:03.578851  8672 net.cpp:141] Setting up bn4_0
I1101 13:07:03.578851  8672 net.cpp:148] Top shape: 100 512 4 4 (819200)
I1101 13:07:03.578851  8672 net.cpp:156] Memory required for data: 741076400
I1101 13:07:03.578851  8672 layer_factory.hpp:77] Creating layer scale4_0
I1101 13:07:03.578851  8672 net.cpp:91] Creating Layer scale4_0
I1101 13:07:03.578851  8672 net.cpp:425] scale4_0 <- bn4_0
I1101 13:07:03.578851  8672 net.cpp:399] scale4_0 -> scale4_0
I1101 13:07:03.578851  8672 layer_factory.hpp:77] Creating layer scale4_0
I1101 13:07:03.578851  8672 net.cpp:141] Setting up scale4_0
I1101 13:07:03.578851  8672 net.cpp:148] Top shape: 100 512 4 4 (819200)
I1101 13:07:03.578851  8672 net.cpp:156] Memory required for data: 744353200
I1101 13:07:03.579854  8672 layer_factory.hpp:77] Creating layer relu4_0
I1101 13:07:03.579854  8672 net.cpp:91] Creating Layer relu4_0
I1101 13:07:03.579854  8672 net.cpp:425] relu4_0 <- scale4_0
I1101 13:07:03.579854  8672 net.cpp:399] relu4_0 -> relu4_0
I1101 13:07:03.579854  8672 net.cpp:141] Setting up relu4_0
I1101 13:07:03.579854  8672 net.cpp:148] Top shape: 100 512 4 4 (819200)
I1101 13:07:03.579854  8672 net.cpp:156] Memory required for data: 747630000
I1101 13:07:03.579854  8672 layer_factory.hpp:77] Creating layer cccp4
I1101 13:07:03.579854  8672 net.cpp:91] Creating Layer cccp4
I1101 13:07:03.579854  8672 net.cpp:425] cccp4 <- relu4_0
I1101 13:07:03.579854  8672 net.cpp:399] cccp4 -> cccp4
I1101 13:07:03.595439  8672 net.cpp:141] Setting up cccp4
I1101 13:07:03.595439  8672 net.cpp:148] Top shape: 100 2048 4 4 (3276800)
I1101 13:07:03.595439  8672 net.cpp:156] Memory required for data: 760737200
I1101 13:07:03.595439  8672 layer_factory.hpp:77] Creating layer relu_cccp4
I1101 13:07:03.595439  8672 net.cpp:91] Creating Layer relu_cccp4
I1101 13:07:03.595439  8672 net.cpp:425] relu_cccp4 <- cccp4
I1101 13:07:03.595439  8672 net.cpp:386] relu_cccp4 -> cccp4 (in-place)
I1101 13:07:03.596442  8672 net.cpp:141] Setting up relu_cccp4
I1101 13:07:03.596442  8672 net.cpp:148] Top shape: 100 2048 4 4 (3276800)
I1101 13:07:03.596442  8672 net.cpp:156] Memory required for data: 773844400
I1101 13:07:03.596442  8672 layer_factory.hpp:77] Creating layer cccp5
I1101 13:07:03.596442  8672 net.cpp:91] Creating Layer cccp5
I1101 13:07:03.596442  8672 net.cpp:425] cccp5 <- cccp4
I1101 13:07:03.596442  8672 net.cpp:399] cccp5 -> cccp5
I1101 13:07:03.602447  8672 net.cpp:141] Setting up cccp5
I1101 13:07:03.602447  8672 net.cpp:148] Top shape: 100 256 4 4 (409600)
I1101 13:07:03.602447  8672 net.cpp:156] Memory required for data: 775482800
I1101 13:07:03.602447  8672 layer_factory.hpp:77] Creating layer relu_cccp5
I1101 13:07:03.602447  8672 net.cpp:91] Creating Layer relu_cccp5
I1101 13:07:03.602447  8672 net.cpp:425] relu_cccp5 <- cccp5
I1101 13:07:03.602447  8672 net.cpp:386] relu_cccp5 -> cccp5 (in-place)
I1101 13:07:03.602447  8672 net.cpp:141] Setting up relu_cccp5
I1101 13:07:03.602447  8672 net.cpp:148] Top shape: 100 256 4 4 (409600)
I1101 13:07:03.602447  8672 net.cpp:156] Memory required for data: 777121200
I1101 13:07:03.602447  8672 layer_factory.hpp:77] Creating layer poolcp5
I1101 13:07:03.603447  8672 net.cpp:91] Creating Layer poolcp5
I1101 13:07:03.603447  8672 net.cpp:425] poolcp5 <- cccp5
I1101 13:07:03.603447  8672 net.cpp:399] poolcp5 -> poolcp5
I1101 13:07:03.603447  8672 net.cpp:141] Setting up poolcp5
I1101 13:07:03.603447  8672 net.cpp:148] Top shape: 100 256 2 2 (102400)
I1101 13:07:03.603447  8672 net.cpp:156] Memory required for data: 777530800
I1101 13:07:03.603447  8672 layer_factory.hpp:77] Creating layer cccp6
I1101 13:07:03.603447  8672 net.cpp:91] Creating Layer cccp6
I1101 13:07:03.603447  8672 net.cpp:425] cccp6 <- poolcp5
I1101 13:07:03.603447  8672 net.cpp:399] cccp6 -> cccp6
I1101 13:07:03.611951  8672 net.cpp:141] Setting up cccp6
I1101 13:07:03.612453  8672 net.cpp:148] Top shape: 100 256 2 2 (102400)
I1101 13:07:03.612453  8672 net.cpp:156] Memory required for data: 777940400
I1101 13:07:03.612453  8672 layer_factory.hpp:77] Creating layer relu_cccp6
I1101 13:07:03.612453  8672 net.cpp:91] Creating Layer relu_cccp6
I1101 13:07:03.612453  8672 net.cpp:425] relu_cccp6 <- cccp6
I1101 13:07:03.612453  8672 net.cpp:386] relu_cccp6 -> cccp6 (in-place)
I1101 13:07:03.612453  8672 net.cpp:141] Setting up relu_cccp6
I1101 13:07:03.612453  8672 net.cpp:148] Top shape: 100 256 2 2 (102400)
I1101 13:07:03.612453  8672 net.cpp:156] Memory required for data: 778350000
I1101 13:07:03.612453  8672 layer_factory.hpp:77] Creating layer poolcp6
I1101 13:07:03.612453  8672 net.cpp:91] Creating Layer poolcp6
I1101 13:07:03.612453  8672 net.cpp:425] poolcp6 <- cccp6
I1101 13:07:03.612453  8672 net.cpp:399] poolcp6 -> poolcp6
I1101 13:07:03.612453  8672 net.cpp:141] Setting up poolcp6
I1101 13:07:03.612453  8672 net.cpp:148] Top shape: 100 256 1 1 (25600)
I1101 13:07:03.612453  8672 net.cpp:156] Memory required for data: 778452400
I1101 13:07:03.612453  8672 layer_factory.hpp:77] Creating layer ip1
I1101 13:07:03.612953  8672 net.cpp:91] Creating Layer ip1
I1101 13:07:03.612953  8672 net.cpp:425] ip1 <- poolcp6
I1101 13:07:03.612953  8672 net.cpp:399] ip1 -> ip1
I1101 13:07:03.612953  8672 net.cpp:141] Setting up ip1
I1101 13:07:03.612953  8672 net.cpp:148] Top shape: 100 10 (1000)
I1101 13:07:03.612953  8672 net.cpp:156] Memory required for data: 778456400
I1101 13:07:03.612953  8672 layer_factory.hpp:77] Creating layer ip1_ip1_0_split
I1101 13:07:03.612953  8672 net.cpp:91] Creating Layer ip1_ip1_0_split
I1101 13:07:03.612953  8672 net.cpp:425] ip1_ip1_0_split <- ip1
I1101 13:07:03.612953  8672 net.cpp:399] ip1_ip1_0_split -> ip1_ip1_0_split_0
I1101 13:07:03.612953  8672 net.cpp:399] ip1_ip1_0_split -> ip1_ip1_0_split_1
I1101 13:07:03.612953  8672 net.cpp:141] Setting up ip1_ip1_0_split
I1101 13:07:03.612953  8672 net.cpp:148] Top shape: 100 10 (1000)
I1101 13:07:03.612953  8672 net.cpp:148] Top shape: 100 10 (1000)
I1101 13:07:03.612953  8672 net.cpp:156] Memory required for data: 778464400
I1101 13:07:03.612953  8672 layer_factory.hpp:77] Creating layer accuracy
I1101 13:07:03.612953  8672 net.cpp:91] Creating Layer accuracy
I1101 13:07:03.612953  8672 net.cpp:425] accuracy <- ip1_ip1_0_split_0
I1101 13:07:03.612953  8672 net.cpp:425] accuracy <- label_mnist_1_split_0
I1101 13:07:03.612953  8672 net.cpp:399] accuracy -> accuracy
…
