…
I1022 09:22:58.011713  7216 net.cpp:313] The NetState phase (0) differed from the phase (1) specified by a rule in layer bn4_0
I1022 09:22:58.011713  7216 net.cpp:313] The NetState phase (0) differed from the phase (1) specified by a rule in layer accuracy
I1022 09:22:58.011713  7216 net.cpp:49] Initializing net from parameters: 
name: "CIFAR100_full"
state {
  phase: TRAIN
}
layer {
  name: "cifar"
  type: "Data"
  top: "data"
  top: "label"
  include {
    phase: TRAIN
  }
  transform_param {
    mirror: true
    crop_size: 32
  }
  data_param {
    source: "examples/cifar100/cifar100_train_leveldb_padding"
    batch_size: 50
    backend: LEVELDB
  }
}
layer {
  name: "conv1"
  type: "Convolution"
  bottom: "data"
  top: "conv1"
  param {
    lr_mult: 1
  }
  convolution_param {
    num_output: 64
    bias_term: true
    pad: 1
    kernel_size: 3
    stride: 1
    weight_filler {
      type: "xavier"
    }
  }
}
layer {
  name: "bn1"
  type: "BatchNorm"
  bottom: "conv1"
  top: "bn1"
  param {
    lr_mult: 0
    decay_mult: 0
  }
  param {
    lr_mult: 0
    decay_mult: 0
  }
  param {
    lr_mult: 0
    decay_mult: 0
  }
  include {
    phase: TRAIN
  }
  batch_norm_param {
    use_global_stats: false
    moving_average_fraction: 0.95
  }
}
layer {
  name: "scale1"
  type: "Scale"
  bottom: "bn1"
  top: "scale1"
  scale_param {
    bias_term: true
  }
}
layer {
  name: "relu1"
  type: "ReLU"
  bottom: "scale1"
  top: "relu1"
}
layer {
  name: "drop2_1"
  type: "Dropout"
  bottom: "relu1"
  top: "relu1"
  dropout_param {
    dropout_ratio: 0.2
  }
}
layer {
  name: "conv1_0"
  type: "Convolution"
  bottom: "relu1"
  top: "conv1_0"
  param {
    lr_mult: 1
  }
  convolution_param {
    num_output: 128
    bias_term: true
    pad: 1
    kernel_size: 3
    stride: 1
    weight_filler {
      type: "xavier"
    }
  }
}
layer {
  name: "bn1_0"
  type: "BatchNorm"
  bottom: "conv1_0"
  top: "bn1_0"
  param {
    lr_mult: 0
    decay_mult: 0
  }
  param {
    lr_mult: 0
    decay_mult: 0
  }
  param {
    lr_mult: 0
    decay_mult: 0
  }
  include {
    phase: TRAIN
  }
  batch_norm_param {
    use_global_stats: false
    moving_average_fraction: 0.95
  }
}
layer {
  name: "scale1_0"
  type: "Scale"
  bottom: "bn1_0"
  top: "scale1_0"
  scale_param {
    bias_term: true
  }
}
layer {
  name: "relu1_0"
  type: "ReLU"
  bottom: "scale1_0"
  top: "relu1_0"
}
layer {
  name: "drop1_0"
  type: "Dropout"
  bottom: "relu1_0"
  top: "relu1_0"
  dropout_param {
    dropout_ratio: 0.2
  }
}
layer {
  name: "conv2"
  type: "Convolution"
  bottom: "relu1_0"
  top: "conv2"
  param {
    lr_mult: 1
  }
  convolution_param {
    num_output: 128
    bias_term: true
    pad: 1
    kernel_size: 3
    stride: 1
    weight_filler {
      type: "gaussian"
      std: 0.01
    }
  }
}
layer {
  name: "bn2"
  type: "BatchNorm"
  bottom: "conv2"
  top: "bn2"
  param {
    lr_mult: 0
    decay_mult: 0
  }
  param {
    lr_mult: 0
    decay_mult: 0
  }
  param {
    lr_mult: 0
    decay_mult: 0
  }
  include {
    phase: TRAIN
  }
  batch_norm_param {
    use_global_stats: false
    moving_average_fraction: 0.95
  }
}
layer {
  name: "scale2"
  type: "Scale"
  bottom: "bn2"
  top: "scale2"
  scale_param {
    bias_term: true
  }
}
layer {
  name: "relu2"
  type: "ReLU"
  bottom: "scale2"
  top: "relu2"
}
layer {
  name: "drop2_0"
  type: "Dropout"
  bottom: "relu2"
  top: "relu2"
  dropout_param {
    dropout_ratio: 0.2
  }
}
layer {
  name: "conv2_1"
  type: "Convolution"
  bottom: "relu2"
  top: "conv2_1"
  param {
    lr_mult: 1
  }
  convolution_param {
    num_output: 128
    bias_term: true
    pad: 1
    kernel_size: 3
    stride: 1
    weight_filler {
      type: "gaussian"
      std: 0.01
    }
  }
}
layer {
  name: "bn2_1"
  type: "BatchNorm"
  bottom: "conv2_1"
  top: "bn2_1"
  param {
    lr_mult: 0
    decay_mult: 0
  }
  param {
    lr_mult: 0
    decay_mult: 0
  }
  param {
    lr_mult: 0
    decay_mult: 0
  }
  include {
    phase: TRAIN
  }
  batch_norm_param {
    use_global_stats: false
    moving_average_fraction: 0.95
  }
}
layer {
  name: "scale2_1"
  type: "Scale"
  bottom: "bn2_1"
  top: "scale2_1"
  scale_param {
    bias_term: true
  }
}
layer {
  name: "relu2_1"
  type: "ReLU"
  bottom: "scale2_1"
  top: "relu2_1"
}
layer {
  name: "pool2_1"
  type: "Pooling"
  bottom: "relu2_1"
  top: "pool2_1"
  pooling_param {
    pool: MAX
    kernel_size: 2
    stride: 2
  }
}
layer {
  name: "drop2_1"
  type: "Dropout"
  bottom: "pool2_1"
  top: "pool2_1"
  dropout_param {
    dropout_ratio: 0.2
  }
}
layer {
  name: "conv2_2"
  type: "Convolution"
  bottom: "pool2_1"
  top: "conv2_2"
  param {
    lr_mult: 1
  }
  convolution_param {
    num_output: 128
    bias_term: true
    pad: 1
    kernel_size: 3
    stride: 1
    weight_filler {
      type: "gaussian"
      std: 0.01
    }
  }
}
layer {
  name: "bn2_2"
  type: "BatchNorm"
  bottom: "conv2_2"
  top: "bn2_2"
  param {
    lr_mult: 0
    decay_mult: 0
  }
  param {
    lr_mult: 0
    decay_mult: 0
  }
  param {
    lr_mult: 0
    decay_mult: 0
  }
  include {
    phase: TRAIN
  }
  batch_norm_param {
    use_global_stats: false
    moving_average_fraction: 0.95
  }
}
layer {
  name: "scale2_2"
  type: "Scale"
  bottom: "bn2_2"
  top: "scale2_2"
  scale_param {
    bias_term: true
  }
}
layer {
  name: "relu2_2"
  type: "ReLU"
  bottom: "scale2_2"
  top: "relu2_2"
}
layer {
  name: "drop2_2"
  type: "Dropout"
  bottom: "relu2_2"
  top: "relu2_2"
  dropout_param {
    dropout_ratio: 0.2
  }
}
layer {
  name: "conv3"
  type: "Convolution"
  bottom: "relu2_2"
  top: "conv3"
  param {
    lr_mult: 1
  }
  convolution_param {
    num_output: 128
    bias_term: true
    pad: 1
    kernel_size: 3
    stride: 1
    weight_filler {
      type: "xavier"
    }
  }
}
layer {
  name: "bn3"
  type: "BatchNorm"
  bottom: "conv3"
  top: "bn3"
  param {
    lr_mult: 0
    decay_mult: 0
  }
  param {
    lr_mult: 0
    decay_mult: 0
  }
  param {
    lr_mult: 0
    decay_mult: 0
  }
  include {
    phase: TRAIN
  }
  batch_norm_param {
    use_global_stats: false
    moving_average_fraction: 0.95
  }
}
layer {
  name: "scale3"
  type: "Scale"
  bottom: "bn3"
  top: "scale3"
  scale_param {
    bias_term: true
  }
}
layer {
  name: "relu3"
  type: "ReLU"
  bottom: "scale3"
  top: "relu3"
}
layer {
  name: "drop3"
  type: "Dropout"
  bottom: "relu3"
  top: "relu3"
  dropout_param {
    dropout_ratio: 0.2
  }
}
layer {
  name: "conv4"
  type: "Convolution"
  bottom: "relu3"
  top: "conv4"
  param {
    lr_mult: 1
  }
  convolution_param {
    num_output: 256
    bias_term: true
    pad: 1
    kernel_size: 3
    stride: 1
    weight_filler {
      type: "xavier"
    }
  }
}
layer {
  name: "pool4"
  type: "Pooling"
  bottom: "conv4"
  top: "pool4"
  pooling_param {
    pool: MAX
    kernel_size: 2
    stride: 2
  }
}
layer {
  name: "bn4"
  type: "BatchNorm"
  bottom: "pool4"
  top: "bn4"
  param {
    lr_mult: 0
    decay_mult: 0
  }
  param {
    lr_mult: 0
    decay_mult: 0
  }
  param {
    lr_mult: 0
    decay_mult: 0
  }
  include {
    phase: TRAIN
  }
  batch_norm_param {
    use_global_stats: false
    moving_average_fraction: 0.95
  }
}
layer {
  name: "scale4"
  type: "Scale"
  bottom: "bn4"
  top: "scale4"
  scale_param {
    bias_term: true
  }
}
layer {
  name: "relu4"
  type: "ReLU"
  bottom: "scale4"
  top: "relu4"
}
layer {
  name: "drop4"
  type: "Dropout"
  bottom: "relu4"
  top: "relu4"
  dropout_param {
    dropout_ratio: 0.2
  }
}
layer {
  name: "conv4_1"
  type: "Convolution"
  bottom: "relu4"
  top: "conv4_1"
  param {
    lr_mult: 1
  }
  convolution_param {
    num_output: 256
    bias_term: true
    pad: 1
    kernel_size: 3
    stride: 1
    weight_filler {
      type: "xavier"
    }
  }
}
layer {
  name: "bn4_1"
  type: "BatchNorm"
  bottom: "conv4_1"
  top: "bn4_1"
  param {
    lr_mult: 0
    decay_mult: 0
  }
  param {
    lr_mult: 0
    decay_mult: 0
  }
  param {
    lr_mult: 0
    decay_mult: 0
  }
  include {
    phase: TRAIN
  }
  batch_norm_param {
    use_global_stats: false
    moving_average_fraction: 0.95
  }
}
layer {
  name: "scale4_1"
  type: "Scale"
  bottom: "bn4_1"
  top: "scale4_1"
  scale_param {
    bias_term: true
  }
}
layer {
  name: "relu4_1"
  type: "ReLU"
  bottom: "scale4_1"
  top: "relu4_1"
}
layer {
  name: "drop4_1"
  type: "Dropout"
  bottom: "relu4_1"
  top: "relu4_1"
  dropout_param {
    dropout_ratio: 0.2
  }
}
layer {
  name: "conv4_2"
  type: "Convolution"
  bottom: "relu4_1"
  top: "conv4_2"
  param {
    lr_mult: 1
  }
  convolution_param {
    num_output: 256
    bias_term: true
    pad: 1
    kernel_size: 3
    stride: 1
    weight_filler {
      type: "xavier"
    }
  }
}
layer {
  name: "bn4_2"
  type: "BatchNorm"
  bottom: "conv4_2"
  top: "bn4_2"
  param {
    lr_mult: 0
    decay_mult: 0
  }
  param {
    lr_mult: 0
    decay_mult: 0
  }
  param {
    lr_mult: 0
    decay_mult: 0
  }
  include {
    phase: TRAIN
  }
  batch_norm_param {
    use_global_stats: false
    moving_average_fraction: 0.95
  }
}
layer {
  name: "scale4_2"
  type: "Scale"
  bottom: "bn4_2"
  top: "scale4_2"
  scale_param {
    bias_term: true
  }
}
layer {
  name: "relu4_2"
  type: "ReLU"
  bottom: "scale4_2"
  top: "relu4_2"
}
layer {
  name: "drop4_2"
  type: "Dropout"
  bottom: "relu4_2"
  top: "relu4_2"
  dropout_param {
    dropout_ratio: 0.2
  }
}
layer {
  name: "pool4_2"
  type: "Pooling"
  bottom: "relu4_2"
  top: "pool4_2"
  pooling_param {
    pool: MAX
    kernel_size: 2
    stride: 2
  }
}
layer {
  name: "conv4_0"
  type: "Convolution"
  bottom: "pool4_2"
  top: "conv4_0"
  param {
    lr_mult: 1
  }
  convolution_param {
    num_output: 512
    bias_term: true
    pad: 1
    kernel_size: 3
    stride: 1
    weight_filler {
      type: "xavier"
    }
  }
}
layer {
  name: "bn4_0"
  type: "BatchNorm"
  bottom: "conv4_0"
  top: "bn4_0"
  param {
    lr_mult: 0
    decay_mult: 0
  }
  param {
    lr_mult: 0
    decay_mult: 0
  }
  param {
    lr_mult: 0
    decay_mult: 0
  }
  include {
    phase: TRAIN
  }
  batch_norm_param {
    use_global_stats: false
    moving_average_fraction: 0.95
  }
}
layer {
  name: "scale4_0"
  type: "Scale"
  bottom: "bn4_0"
  top: "scale4_0"
  scale_param {
    bias_term: true
  }
}
layer {
  name: "relu4_0"
  type: "ReLU"
  bottom: "scale4_0"
  top: "relu4_0"
}
layer {
  name: "drop4_0"
  type: "Dropout"
  bottom: "relu4_0"
  top: "relu4_0"
  dropout_param {
    dropout_ratio: 0.2
  }
}
layer {
  name: "cccp4"
  type: "Convolution"
  bottom: "relu4_0"
  top: "cccp4"
  param {
    lr_mult: 1
    decay_mult: 1
  }
  param {
    lr_mult: 2
    decay_mult: 0
  }
  convolution_param {
    num_output: 2048
    kernel_size: 1
    group: 1
    weight_filler {
      type: "xavier"
    }
    bias_filler {
      type: "constant"
      value: 0
    }
  }
}
layer {
  name: "relu_cccp4"
  type: "ReLU"
  bottom: "cccp4"
  top: "cccp4"
}
layer {
  name: "drop4_3"
  type: "Dropout"
  bottom: "cccp4"
  top: "cccp4"
  dropout_param {
    dropout_ratio: 0.2
  }
}
layer {
  name: "cccp5"
  type: "Convolution"
  bottom: "cccp4"
  top: "cccp5"
  param {
    lr_mult: 1
    decay_mult: 1
  }
  param {
    lr_mult: 2
    decay_mult: 0
  }
  convolution_param {
    num_output: 256
    kernel_size: 1
    group: 1
    weight_filler {
      type: "xavier"
    }
    bias_filler {
      type: "constant"
      value: 0
    }
  }
}
layer {
  name: "relu_cccp5"
  type: "ReLU"
  bottom: "cccp5"
  top: "cccp5"
}
layer {
  name: "poolcp5"
  type: "Pooling"
  bottom: "cccp5"
  top: "poolcp5"
  pooling_param {
    pool: MAX
    kernel_size: 2
    stride: 2
  }
}
layer {
  name: "drop4_5"
  type: "Dropout"
  bottom: "poolcp5"
  top: "poolcp5"
  dropout_param {
    dropout_ratio: 0.2
  }
}
layer {
  name: "cccp6"
  type: "Convolution"
  bottom: "poolcp5"
  top: "cccp6"
  param {
    lr_mult: 1
    decay_mult: 1
  }
  param {
    lr_mult: 2
    decay_mult: 0
  }
  convolution_param {
    num_output: 256
    pad: 1
    kernel_size: 3
    group: 1
    weight_filler {
      type: "xavier"
    }
    bias_filler {
      type: "constant"
      value: 0
    }
  }
}
layer {
  name: "relu_cccp6"
  type: "ReLU"
  bottom: "cccp6"
  top: "cccp6"
}
layer {
  name: "poolcp6"
  type: "Pooling"
  bottom: "cccp6"
  top: "poolcp6"
  pooling_param {
    pool: MAX
    kernel_size: 2
    stride: 2
  }
}
layer {
  name: "ip1"
  type: "InnerProduct"
  bottom: "poolcp6"
  top: "ip1"
  param {
    lr_mult: 1
    decay_mult: 0
  }
  param {
    lr_mult: 2
    decay_mult: 0
  }
  inner_product_param {
    num_output: 100
    weight_filler {
      type: "xavier"
    }
    bias_filler {
      type: "constant"
    }
  }
}
layer {
  name: "loss"
  type: "SoftmaxWithLoss"
  bottom: "ip1"
  bottom: "label"
  top: "loss"
}
I1022 09:22:58.011713  7216 layer_factory.hpp:77] Creating layer cifar
I1022 09:22:58.011713  7216 net.cpp:91] Creating Layer cifar
I1022 09:22:58.011713  7216 net.cpp:399] cifar -> data
I1022 09:22:58.011713  7216 net.cpp:399] cifar -> label
I1022 09:22:58.011713 12048 common.cpp:36] System entropy source not available, using fallback algorithm to generate seed instead.
I1022 09:22:58.027338 12048 db_leveldb.cpp:18] Opened leveldb examples/cifar100/cifar100_train_leveldb_padding
I1022 09:22:58.042975  7216 data_layer.cpp:41] output data size: 50,3,32,32
I1022 09:22:58.042975  7216 net.cpp:141] Setting up cifar
I1022 09:22:58.042975  7216 net.cpp:148] Top shape: 50 3 32 32 (153600)
I1022 09:22:58.042975  7216 net.cpp:148] Top shape: 50 (50)
I1022 09:22:58.042975  7216 net.cpp:156] Memory required for data: 614600
I1022 09:22:58.042975  7216 layer_factory.hpp:77] Creating layer conv1
I1022 09:22:58.042975  7216 net.cpp:91] Creating Layer conv1
I1022 09:22:58.042975  7216 net.cpp:425] conv1 <- data
I1022 09:22:58.042975  7216 net.cpp:399] conv1 -> conv1
I1022 09:22:58.058588 12056 common.cpp:36] System entropy source not available, using fallback algorithm to generate seed instead.
I1022 09:22:58.300209  7216 net.cpp:141] Setting up conv1
I1022 09:22:58.300209  7216 net.cpp:148] Top shape: 50 64 32 32 (3276800)
I1022 09:22:58.300209  7216 net.cpp:156] Memory required for data: 13721800
I1022 09:22:58.300209  7216 layer_factory.hpp:77] Creating layer bn1
I1022 09:22:58.300209  7216 net.cpp:91] Creating Layer bn1
I1022 09:22:58.300209  7216 net.cpp:425] bn1 <- conv1
I1022 09:22:58.300209  7216 net.cpp:399] bn1 -> bn1
I1022 09:22:58.300709  7216 net.cpp:141] Setting up bn1
I1022 09:22:58.300709  7216 net.cpp:148] Top shape: 50 64 32 32 (3276800)
I1022 09:22:58.300709  7216 net.cpp:156] Memory required for data: 26829000
I1022 09:22:58.300709  7216 layer_factory.hpp:77] Creating layer scale1
I1022 09:22:58.300709  7216 net.cpp:91] Creating Layer scale1
I1022 09:22:58.300709  7216 net.cpp:425] scale1 <- bn1
I1022 09:22:58.300709  7216 net.cpp:399] scale1 -> scale1
I1022 09:22:58.300709  7216 layer_factory.hpp:77] Creating layer scale1
I1022 09:22:58.300709  7216 net.cpp:141] Setting up scale1
I1022 09:22:58.300709  7216 net.cpp:148] Top shape: 50 64 32 32 (3276800)
I1022 09:22:58.300709  7216 net.cpp:156] Memory required for data: 39936200
I1022 09:22:58.300709  7216 layer_factory.hpp:77] Creating layer relu1
I1022 09:22:58.300709  7216 net.cpp:91] Creating Layer relu1
I1022 09:22:58.300709  7216 net.cpp:425] relu1 <- scale1
I1022 09:22:58.300709  7216 net.cpp:399] relu1 -> relu1
I1022 09:22:58.301209  7216 net.cpp:141] Setting up relu1
I1022 09:22:58.301209  7216 net.cpp:148] Top shape: 50 64 32 32 (3276800)
I1022 09:22:58.301209  7216 net.cpp:156] Memory required for data: 53043400
I1022 09:22:58.301209  7216 layer_factory.hpp:77] Creating layer drop2_1
I1022 09:22:58.301209  7216 net.cpp:91] Creating Layer drop2_1
I1022 09:22:58.301209  7216 net.cpp:425] drop2_1 <- relu1
I1022 09:22:58.301209  7216 net.cpp:386] drop2_1 -> relu1 (in-place)
I1022 09:22:58.301209  7216 net.cpp:141] Setting up drop2_1
I1022 09:22:58.301209  7216 net.cpp:148] Top shape: 50 64 32 32 (3276800)
I1022 09:22:58.301209  7216 net.cpp:156] Memory required for data: 66150600
I1022 09:22:58.301209  7216 layer_factory.hpp:77] Creating layer conv1_0
I1022 09:22:58.301209  7216 net.cpp:91] Creating Layer conv1_0
I1022 09:22:58.301209  7216 net.cpp:425] conv1_0 <- relu1
I1022 09:22:58.301209  7216 net.cpp:399] conv1_0 -> conv1_0
I1022 09:22:58.303036  7216 net.cpp:141] Setting up conv1_0
I1022 09:22:58.303036  7216 net.cpp:148] Top shape: 50 128 32 32 (6553600)
I1022 09:22:58.303536  7216 net.cpp:156] Memory required for data: 92365000
I1022 09:22:58.303536  7216 layer_factory.hpp:77] Creating layer bn1_0
I1022 09:22:58.303536  7216 net.cpp:91] Creating Layer bn1_0
I1022 09:22:58.303536  7216 net.cpp:425] bn1_0 <- conv1_0
I1022 09:22:58.303536  7216 net.cpp:399] bn1_0 -> bn1_0
I1022 09:22:58.303536  7216 net.cpp:141] Setting up bn1_0
I1022 09:22:58.303536  7216 net.cpp:148] Top shape: 50 128 32 32 (6553600)
I1022 09:22:58.303536  7216 net.cpp:156] Memory required for data: 118579400
I1022 09:22:58.303536  7216 layer_factory.hpp:77] Creating layer scale1_0
I1022 09:22:58.303536  7216 net.cpp:91] Creating Layer scale1_0
I1022 09:22:58.303536  7216 net.cpp:425] scale1_0 <- bn1_0
I1022 09:22:58.303536  7216 net.cpp:399] scale1_0 -> scale1_0
I1022 09:22:58.303536  7216 layer_factory.hpp:77] Creating layer scale1_0
I1022 09:22:58.304038  7216 net.cpp:141] Setting up scale1_0
I1022 09:22:58.304038  7216 net.cpp:148] Top shape: 50 128 32 32 (6553600)
I1022 09:22:58.304038  7216 net.cpp:156] Memory required for data: 144793800
I1022 09:22:58.304038  7216 layer_factory.hpp:77] Creating layer relu1_0
I1022 09:22:58.304038  7216 net.cpp:91] Creating Layer relu1_0
I1022 09:22:58.304038  7216 net.cpp:425] relu1_0 <- scale1_0
I1022 09:22:58.304038  7216 net.cpp:399] relu1_0 -> relu1_0
I1022 09:22:58.304538  7216 net.cpp:141] Setting up relu1_0
I1022 09:22:58.304538  7216 net.cpp:148] Top shape: 50 128 32 32 (6553600)
I1022 09:22:58.304538  7216 net.cpp:156] Memory required for data: 171008200
I1022 09:22:58.304538  7216 layer_factory.hpp:77] Creating layer drop1_0
I1022 09:22:58.304538  7216 net.cpp:91] Creating Layer drop1_0
I1022 09:22:58.304538  7216 net.cpp:425] drop1_0 <- relu1_0
I1022 09:22:58.304538  7216 net.cpp:386] drop1_0 -> relu1_0 (in-place)
I1022 09:22:58.304538  7216 net.cpp:141] Setting up drop1_0
I1022 09:22:58.304538  7216 net.cpp:148] Top shape: 50 128 32 32 (6553600)
I1022 09:22:58.304538  7216 net.cpp:156] Memory required for data: 197222600
I1022 09:22:58.304538  7216 layer_factory.hpp:77] Creating layer conv2
I1022 09:22:58.304538  7216 net.cpp:91] Creating Layer conv2
I1022 09:22:58.304538  7216 net.cpp:425] conv2 <- relu1_0
I1022 09:22:58.304538  7216 net.cpp:399] conv2 -> conv2
I1022 09:22:58.308300  7216 net.cpp:141] Setting up conv2
I1022 09:22:58.308300  7216 net.cpp:148] Top shape: 50 128 32 32 (6553600)
I1022 09:22:58.308300  7216 net.cpp:156] Memory required for data: 223437000
I1022 09:22:58.308300  7216 layer_factory.hpp:77] Creating layer bn2
I1022 09:22:58.308300  7216 net.cpp:91] Creating Layer bn2
I1022 09:22:58.308300  7216 net.cpp:425] bn2 <- conv2
I1022 09:22:58.308300  7216 net.cpp:399] bn2 -> bn2
I1022 09:22:58.308300  7216 net.cpp:141] Setting up bn2
I1022 09:22:58.308300  7216 net.cpp:148] Top shape: 50 128 32 32 (6553600)
I1022 09:22:58.308300  7216 net.cpp:156] Memory required for data: 249651400
I1022 09:22:58.308300  7216 layer_factory.hpp:77] Creating layer scale2
I1022 09:22:58.308300  7216 net.cpp:91] Creating Layer scale2
I1022 09:22:58.308300  7216 net.cpp:425] scale2 <- bn2
I1022 09:22:58.308300  7216 net.cpp:399] scale2 -> scale2
I1022 09:22:58.308799  7216 layer_factory.hpp:77] Creating layer scale2
I1022 09:22:58.308799  7216 net.cpp:141] Setting up scale2
I1022 09:22:58.308799  7216 net.cpp:148] Top shape: 50 128 32 32 (6553600)
I1022 09:22:58.308799  7216 net.cpp:156] Memory required for data: 275865800
I1022 09:22:58.308799  7216 layer_factory.hpp:77] Creating layer relu2
I1022 09:22:58.308799  7216 net.cpp:91] Creating Layer relu2
I1022 09:22:58.308799  7216 net.cpp:425] relu2 <- scale2
I1022 09:22:58.308799  7216 net.cpp:399] relu2 -> relu2
I1022 09:22:58.309231  7216 net.cpp:141] Setting up relu2
I1022 09:22:58.309231  7216 net.cpp:148] Top shape: 50 128 32 32 (6553600)
I1022 09:22:58.309231  7216 net.cpp:156] Memory required for data: 302080200
I1022 09:22:58.309231  7216 layer_factory.hpp:77] Creating layer drop2_0
I1022 09:22:58.309231  7216 net.cpp:91] Creating Layer drop2_0
I1022 09:22:58.309231  7216 net.cpp:425] drop2_0 <- relu2
I1022 09:22:58.309231  7216 net.cpp:386] drop2_0 -> relu2 (in-place)
I1022 09:22:58.309231  7216 net.cpp:141] Setting up drop2_0
I1022 09:22:58.309231  7216 net.cpp:148] Top shape: 50 128 32 32 (6553600)
I1022 09:22:58.309231  7216 net.cpp:156] Memory required for data: 328294600
I1022 09:22:58.309231  7216 layer_factory.hpp:77] Creating layer conv2_1
I1022 09:22:58.309231  7216 net.cpp:91] Creating Layer conv2_1
I1022 09:22:58.309231  7216 net.cpp:425] conv2_1 <- relu2
I1022 09:22:58.309231  7216 net.cpp:399] conv2_1 -> conv2_1
I1022 09:22:58.313381  7216 net.cpp:141] Setting up conv2_1
I1022 09:22:58.313381  7216 net.cpp:148] Top shape: 50 128 32 32 (6553600)
I1022 09:22:58.313381  7216 net.cpp:156] Memory required for data: 354509000
I1022 09:22:58.313381  7216 layer_factory.hpp:77] Creating layer bn2_1
I1022 09:22:58.313381  7216 net.cpp:91] Creating Layer bn2_1
I1022 09:22:58.313381  7216 net.cpp:425] bn2_1 <- conv2_1
I1022 09:22:58.313381  7216 net.cpp:399] bn2_1 -> bn2_1
I1022 09:22:58.313884  7216 net.cpp:141] Setting up bn2_1
I1022 09:22:58.313884  7216 net.cpp:148] Top shape: 50 128 32 32 (6553600)
I1022 09:22:58.313884  7216 net.cpp:156] Memory required for data: 380723400
I1022 09:22:58.313884  7216 layer_factory.hpp:77] Creating layer scale2_1
I1022 09:22:58.313884  7216 net.cpp:91] Creating Layer scale2_1
I1022 09:22:58.313884  7216 net.cpp:425] scale2_1 <- bn2_1
I1022 09:22:58.313884  7216 net.cpp:399] scale2_1 -> scale2_1
I1022 09:22:58.313884  7216 layer_factory.hpp:77] Creating layer scale2_1
I1022 09:22:58.313884  7216 net.cpp:141] Setting up scale2_1
I1022 09:22:58.313884  7216 net.cpp:148] Top shape: 50 128 32 32 (6553600)
I1022 09:22:58.313884  7216 net.cpp:156] Memory required for data: 406937800
I1022 09:22:58.313884  7216 layer_factory.hpp:77] Creating layer relu2_1
I1022 09:22:58.313884  7216 net.cpp:91] Creating Layer relu2_1
I1022 09:22:58.314383  7216 net.cpp:425] relu2_1 <- scale2_1
I1022 09:22:58.314383  7216 net.cpp:399] relu2_1 -> relu2_1
I1022 09:22:58.314383  7216 net.cpp:141] Setting up relu2_1
I1022 09:22:58.314383  7216 net.cpp:148] Top shape: 50 128 32 32 (6553600)
I1022 09:22:58.314383  7216 net.cpp:156] Memory required for data: 433152200
I1022 09:22:58.314383  7216 layer_factory.hpp:77] Creating layer pool2_1
I1022 09:22:58.314383  7216 net.cpp:91] Creating Layer pool2_1
I1022 09:22:58.314383  7216 net.cpp:425] pool2_1 <- relu2_1
I1022 09:22:58.314383  7216 net.cpp:399] pool2_1 -> pool2_1
I1022 09:22:58.314383  7216 net.cpp:141] Setting up pool2_1
I1022 09:22:58.314383  7216 net.cpp:148] Top shape: 50 128 16 16 (1638400)
I1022 09:22:58.314383  7216 net.cpp:156] Memory required for data: 439705800
I1022 09:22:58.314383  7216 layer_factory.hpp:77] Creating layer drop2_1
I1022 09:22:58.314383  7216 net.cpp:91] Creating Layer drop2_1
I1022 09:22:58.314383  7216 net.cpp:425] drop2_1 <- pool2_1
I1022 09:22:58.314383  7216 net.cpp:386] drop2_1 -> pool2_1 (in-place)
I1022 09:22:58.314383  7216 net.cpp:141] Setting up drop2_1
I1022 09:22:58.314383  7216 net.cpp:148] Top shape: 50 128 16 16 (1638400)
I1022 09:22:58.314383  7216 net.cpp:156] Memory required for data: 446259400
I1022 09:22:58.314883  7216 layer_factory.hpp:77] Creating layer conv2_2
I1022 09:22:58.314883  7216 net.cpp:91] Creating Layer conv2_2
I1022 09:22:58.314883  7216 net.cpp:425] conv2_2 <- pool2_1
I1022 09:22:58.314883  7216 net.cpp:399] conv2_2 -> conv2_2
I1022 09:22:58.318610  7216 net.cpp:141] Setting up conv2_2
I1022 09:22:58.318610  7216 net.cpp:148] Top shape: 50 128 16 16 (1638400)
I1022 09:22:58.318610  7216 net.cpp:156] Memory required for data: 452813000
I1022 09:22:58.318610  7216 layer_factory.hpp:77] Creating layer bn2_2
I1022 09:22:58.318610  7216 net.cpp:91] Creating Layer bn2_2
I1022 09:22:58.318610  7216 net.cpp:425] bn2_2 <- conv2_2
I1022 09:22:58.318610  7216 net.cpp:399] bn2_2 -> bn2_2
I1022 09:22:58.318610  7216 net.cpp:141] Setting up bn2_2
I1022 09:22:58.318610  7216 net.cpp:148] Top shape: 50 128 16 16 (1638400)
I1022 09:22:58.318610  7216 net.cpp:156] Memory required for data: 459366600
I1022 09:22:58.318610  7216 layer_factory.hpp:77] Creating layer scale2_2
I1022 09:22:58.318610  7216 net.cpp:91] Creating Layer scale2_2
I1022 09:22:58.318610  7216 net.cpp:425] scale2_2 <- bn2_2
I1022 09:22:58.318610  7216 net.cpp:399] scale2_2 -> scale2_2
I1022 09:22:58.318610  7216 layer_factory.hpp:77] Creating layer scale2_2
I1022 09:22:58.319098  7216 net.cpp:141] Setting up scale2_2
I1022 09:22:58.319098  7216 net.cpp:148] Top shape: 50 128 16 16 (1638400)
I1022 09:22:58.319098  7216 net.cpp:156] Memory required for data: 465920200
I1022 09:22:58.319098  7216 layer_factory.hpp:77] Creating layer relu2_2
I1022 09:22:58.319098  7216 net.cpp:91] Creating Layer relu2_2
I1022 09:22:58.319098  7216 net.cpp:425] relu2_2 <- scale2_2
I1022 09:22:58.319098  7216 net.cpp:399] relu2_2 -> relu2_2
I1022 09:22:58.319600  7216 net.cpp:141] Setting up relu2_2
I1022 09:22:58.319600  7216 net.cpp:148] Top shape: 50 128 16 16 (1638400)
I1022 09:22:58.319600  7216 net.cpp:156] Memory required for data: 472473800
I1022 09:22:58.319600  7216 layer_factory.hpp:77] Creating layer drop2_2
I1022 09:22:58.319600  7216 net.cpp:91] Creating Layer drop2_2
I1022 09:22:58.319600  7216 net.cpp:425] drop2_2 <- relu2_2
I1022 09:22:58.319600  7216 net.cpp:386] drop2_2 -> relu2_2 (in-place)
I1022 09:22:58.319600  7216 net.cpp:141] Setting up drop2_2
I1022 09:22:58.319600  7216 net.cpp:148] Top shape: 50 128 16 16 (1638400)
I1022 09:22:58.319600  7216 net.cpp:156] Memory required for data: 479027400
I1022 09:22:58.319600  7216 layer_factory.hpp:77] Creating layer conv3
I1022 09:22:58.319600  7216 net.cpp:91] Creating Layer conv3
I1022 09:22:58.319600  7216 net.cpp:425] conv3 <- relu2_2
I1022 09:22:58.319600  7216 net.cpp:399] conv3 -> conv3
I1022 09:22:58.322492  7216 net.cpp:141] Setting up conv3
I1022 09:22:58.322492  7216 net.cpp:148] Top shape: 50 128 16 16 (1638400)
I1022 09:22:58.322492  7216 net.cpp:156] Memory required for data: 485581000
I1022 09:22:58.322492  7216 layer_factory.hpp:77] Creating layer bn3
I1022 09:22:58.322492  7216 net.cpp:91] Creating Layer bn3
I1022 09:22:58.322492  7216 net.cpp:425] bn3 <- conv3
I1022 09:22:58.322492  7216 net.cpp:399] bn3 -> bn3
I1022 09:22:58.322492  7216 net.cpp:141] Setting up bn3
I1022 09:22:58.322492  7216 net.cpp:148] Top shape: 50 128 16 16 (1638400)
I1022 09:22:58.322492  7216 net.cpp:156] Memory required for data: 492134600
I1022 09:22:58.322492  7216 layer_factory.hpp:77] Creating layer scale3
I1022 09:22:58.322492  7216 net.cpp:91] Creating Layer scale3
I1022 09:22:58.322492  7216 net.cpp:425] scale3 <- bn3
I1022 09:22:58.322492  7216 net.cpp:399] scale3 -> scale3
I1022 09:22:58.322993  7216 layer_factory.hpp:77] Creating layer scale3
I1022 09:22:58.322993  7216 net.cpp:141] Setting up scale3
I1022 09:22:58.322993  7216 net.cpp:148] Top shape: 50 128 16 16 (1638400)
I1022 09:22:58.322993  7216 net.cpp:156] Memory required for data: 498688200
I1022 09:22:58.322993  7216 layer_factory.hpp:77] Creating layer relu3
I1022 09:22:58.322993  7216 net.cpp:91] Creating Layer relu3
I1022 09:22:58.322993  7216 net.cpp:425] relu3 <- scale3
I1022 09:22:58.322993  7216 net.cpp:399] relu3 -> relu3
I1022 09:22:58.323385  7216 net.cpp:141] Setting up relu3
I1022 09:22:58.323385  7216 net.cpp:148] Top shape: 50 128 16 16 (1638400)
I1022 09:22:58.323385  7216 net.cpp:156] Memory required for data: 505241800
I1022 09:22:58.323385  7216 layer_factory.hpp:77] Creating layer drop3
I1022 09:22:58.323385  7216 net.cpp:91] Creating Layer drop3
I1022 09:22:58.323385  7216 net.cpp:425] drop3 <- relu3
I1022 09:22:58.323385  7216 net.cpp:386] drop3 -> relu3 (in-place)
I1022 09:22:58.323385  7216 net.cpp:141] Setting up drop3
I1022 09:22:58.323385  7216 net.cpp:148] Top shape: 50 128 16 16 (1638400)
I1022 09:22:58.323385  7216 net.cpp:156] Memory required for data: 511795400
I1022 09:22:58.323385  7216 layer_factory.hpp:77] Creating layer conv4
I1022 09:22:58.323385  7216 net.cpp:91] Creating Layer conv4
I1022 09:22:58.323385  7216 net.cpp:425] conv4 <- relu3
I1022 09:22:58.323385  7216 net.cpp:399] conv4 -> conv4
I1022 09:22:58.328954  7216 net.cpp:141] Setting up conv4
I1022 09:22:58.328954  7216 net.cpp:148] Top shape: 50 256 16 16 (3276800)
I1022 09:22:58.328954  7216 net.cpp:156] Memory required for data: 524902600
I1022 09:22:58.328954  7216 layer_factory.hpp:77] Creating layer pool4
I1022 09:22:58.328954  7216 net.cpp:91] Creating Layer pool4
I1022 09:22:58.328954  7216 net.cpp:425] pool4 <- conv4
I1022 09:22:58.328954  7216 net.cpp:399] pool4 -> pool4
I1022 09:22:58.328954  7216 net.cpp:141] Setting up pool4
I1022 09:22:58.328954  7216 net.cpp:148] Top shape: 50 256 8 8 (819200)
I1022 09:22:58.328954  7216 net.cpp:156] Memory required for data: 528179400
I1022 09:22:58.328954  7216 layer_factory.hpp:77] Creating layer bn4
I1022 09:22:58.328954  7216 net.cpp:91] Creating Layer bn4
I1022 09:22:58.328954  7216 net.cpp:425] bn4 <- pool4
I1022 09:22:58.328954  7216 net.cpp:399] bn4 -> bn4
I1022 09:22:58.329454  7216 net.cpp:141] Setting up bn4
I1022 09:22:58.329454  7216 net.cpp:148] Top shape: 50 256 8 8 (819200)
I1022 09:22:58.329454  7216 net.cpp:156] Memory required for data: 531456200
I1022 09:22:58.329454  7216 layer_factory.hpp:77] Creating layer scale4
I1022 09:22:58.329454  7216 net.cpp:91] Creating Layer scale4
I1022 09:22:58.329454  7216 net.cpp:425] scale4 <- bn4
I1022 09:22:58.329454  7216 net.cpp:399] scale4 -> scale4
I1022 09:22:58.329454  7216 layer_factory.hpp:77] Creating layer scale4
I1022 09:22:58.329454  7216 net.cpp:141] Setting up scale4
I1022 09:22:58.329454  7216 net.cpp:148] Top shape: 50 256 8 8 (819200)
I1022 09:22:58.329454  7216 net.cpp:156] Memory required for data: 534733000
I1022 09:22:58.329454  7216 layer_factory.hpp:77] Creating layer relu4
I1022 09:22:58.329454  7216 net.cpp:91] Creating Layer relu4
I1022 09:22:58.329454  7216 net.cpp:425] relu4 <- scale4
I1022 09:22:58.329954  7216 net.cpp:399] relu4 -> relu4
I1022 09:22:58.329954  7216 net.cpp:141] Setting up relu4
I1022 09:22:58.329954  7216 net.cpp:148] Top shape: 50 256 8 8 (819200)
I1022 09:22:58.329954  7216 net.cpp:156] Memory required for data: 538009800
I1022 09:22:58.329954  7216 layer_factory.hpp:77] Creating layer drop4
I1022 09:22:58.329954  7216 net.cpp:91] Creating Layer drop4
I1022 09:22:58.329954  7216 net.cpp:425] drop4 <- relu4
I1022 09:22:58.329954  7216 net.cpp:386] drop4 -> relu4 (in-place)
I1022 09:22:58.329954  7216 net.cpp:141] Setting up drop4
I1022 09:22:58.329954  7216 net.cpp:148] Top shape: 50 256 8 8 (819200)
I1022 09:22:58.329954  7216 net.cpp:156] Memory required for data: 541286600
I1022 09:22:58.329954  7216 layer_factory.hpp:77] Creating layer conv4_1
I1022 09:22:58.329954  7216 net.cpp:91] Creating Layer conv4_1
I1022 09:22:58.330454  7216 net.cpp:425] conv4_1 <- relu4
I1022 09:22:58.330454  7216 net.cpp:399] conv4_1 -> conv4_1
I1022 09:22:58.336959  7216 net.cpp:141] Setting up conv4_1
I1022 09:22:58.336959  7216 net.cpp:148] Top shape: 50 256 8 8 (819200)
I1022 09:22:58.336959  7216 net.cpp:156] Memory required for data: 544563400
I1022 09:22:58.336959  7216 layer_factory.hpp:77] Creating layer bn4_1
I1022 09:22:58.336959  7216 net.cpp:91] Creating Layer bn4_1
I1022 09:22:58.336959  7216 net.cpp:425] bn4_1 <- conv4_1
I1022 09:22:58.336959  7216 net.cpp:399] bn4_1 -> bn4_1
I1022 09:22:58.337460  7216 net.cpp:141] Setting up bn4_1
I1022 09:22:58.337460  7216 net.cpp:148] Top shape: 50 256 8 8 (819200)
I1022 09:22:58.337460  7216 net.cpp:156] Memory required for data: 547840200
I1022 09:22:58.337460  7216 layer_factory.hpp:77] Creating layer scale4_1
I1022 09:22:58.337460  7216 net.cpp:91] Creating Layer scale4_1
I1022 09:22:58.337460  7216 net.cpp:425] scale4_1 <- bn4_1
I1022 09:22:58.337460  7216 net.cpp:399] scale4_1 -> scale4_1
I1022 09:22:58.337460  7216 layer_factory.hpp:77] Creating layer scale4_1
I1022 09:22:58.337460  7216 net.cpp:141] Setting up scale4_1
I1022 09:22:58.337460  7216 net.cpp:148] Top shape: 50 256 8 8 (819200)
I1022 09:22:58.337460  7216 net.cpp:156] Memory required for data: 551117000
I1022 09:22:58.337460  7216 layer_factory.hpp:77] Creating layer relu4_1
I1022 09:22:58.337460  7216 net.cpp:91] Creating Layer relu4_1
I1022 09:22:58.337460  7216 net.cpp:425] relu4_1 <- scale4_1
I1022 09:22:58.337460  7216 net.cpp:399] relu4_1 -> relu4_1
I1022 09:22:58.338461  7216 net.cpp:141] Setting up relu4_1
I1022 09:22:58.338461  7216 net.cpp:148] Top shape: 50 256 8 8 (819200)
I1022 09:22:58.338461  7216 net.cpp:156] Memory required for data: 554393800
I1022 09:22:58.338461  7216 layer_factory.hpp:77] Creating layer drop4_1
I1022 09:22:58.338461  7216 net.cpp:91] Creating Layer drop4_1
I1022 09:22:58.338461  7216 net.cpp:425] drop4_1 <- relu4_1
I1022 09:22:58.338461  7216 net.cpp:386] drop4_1 -> relu4_1 (in-place)
I1022 09:22:58.338461  7216 net.cpp:141] Setting up drop4_1
I1022 09:22:58.338461  7216 net.cpp:148] Top shape: 50 256 8 8 (819200)
I1022 09:22:58.338461  7216 net.cpp:156] Memory required for data: 557670600
I1022 09:22:58.338461  7216 layer_factory.hpp:77] Creating layer conv4_2
I1022 09:22:58.338461  7216 net.cpp:91] Creating Layer conv4_2
I1022 09:22:58.338461  7216 net.cpp:425] conv4_2 <- relu4_1
I1022 09:22:58.338461  7216 net.cpp:399] conv4_2 -> conv4_2
I1022 09:22:58.344965  7216 net.cpp:141] Setting up conv4_2
I1022 09:22:58.344965  7216 net.cpp:148] Top shape: 50 256 8 8 (819200)
I1022 09:22:58.344965  7216 net.cpp:156] Memory required for data: 560947400
I1022 09:22:58.344965  7216 layer_factory.hpp:77] Creating layer bn4_2
I1022 09:22:58.344965  7216 net.cpp:91] Creating Layer bn4_2
I1022 09:22:58.344965  7216 net.cpp:425] bn4_2 <- conv4_2
I1022 09:22:58.344965  7216 net.cpp:399] bn4_2 -> bn4_2
I1022 09:22:58.345465  7216 net.cpp:141] Setting up bn4_2
I1022 09:22:58.345465  7216 net.cpp:148] Top shape: 50 256 8 8 (819200)
I1022 09:22:58.345465  7216 net.cpp:156] Memory required for data: 564224200
I1022 09:22:58.345465  7216 layer_factory.hpp:77] Creating layer scale4_2
I1022 09:22:58.345465  7216 net.cpp:91] Creating Layer scale4_2
I1022 09:22:58.345465  7216 net.cpp:425] scale4_2 <- bn4_2
I1022 09:22:58.345465  7216 net.cpp:399] scale4_2 -> scale4_2
I1022 09:22:58.345465  7216 layer_factory.hpp:77] Creating layer scale4_2
I1022 09:22:58.345465  7216 net.cpp:141] Setting up scale4_2
I1022 09:22:58.345968  7216 net.cpp:148] Top shape: 50 256 8 8 (819200)
I1022 09:22:58.345968  7216 net.cpp:156] Memory required for data: 567501000
I1022 09:22:58.345968  7216 layer_factory.hpp:77] Creating layer relu4_2
I1022 09:22:58.345968  7216 net.cpp:91] Creating Layer relu4_2
I1022 09:22:58.345968  7216 net.cpp:425] relu4_2 <- scale4_2
I1022 09:22:58.345968  7216 net.cpp:399] relu4_2 -> relu4_2
I1022 09:22:58.346467  7216 net.cpp:141] Setting up relu4_2
I1022 09:22:58.346467  7216 net.cpp:148] Top shape: 50 256 8 8 (819200)
I1022 09:22:58.346467  7216 net.cpp:156] Memory required for data: 570777800
I1022 09:22:58.346467  7216 layer_factory.hpp:77] Creating layer drop4_2
I1022 09:22:58.346467  7216 net.cpp:91] Creating Layer drop4_2
I1022 09:22:58.346467  7216 net.cpp:425] drop4_2 <- relu4_2
I1022 09:22:58.346467  7216 net.cpp:386] drop4_2 -> relu4_2 (in-place)
I1022 09:22:58.346467  7216 net.cpp:141] Setting up drop4_2
I1022 09:22:58.346467  7216 net.cpp:148] Top shape: 50 256 8 8 (819200)
I1022 09:22:58.346467  7216 net.cpp:156] Memory required for data: 574054600
I1022 09:22:58.346467  7216 layer_factory.hpp:77] Creating layer pool4_2
I1022 09:22:58.346467  7216 net.cpp:91] Creating Layer pool4_2
I1022 09:22:58.346467  7216 net.cpp:425] pool4_2 <- relu4_2
I1022 09:22:58.346467  7216 net.cpp:399] pool4_2 -> pool4_2
I1022 09:22:58.346467  7216 net.cpp:141] Setting up pool4_2
I1022 09:22:58.346467  7216 net.cpp:148] Top shape: 50 256 4 4 (204800)
I1022 09:22:58.346467  7216 net.cpp:156] Memory required for data: 574873800
I1022 09:22:58.346467  7216 layer_factory.hpp:77] Creating layer conv4_0
I1022 09:22:58.346467  7216 net.cpp:91] Creating Layer conv4_0
I1022 09:22:58.346467  7216 net.cpp:425] conv4_0 <- pool4_2
I1022 09:22:58.346467  7216 net.cpp:399] conv4_0 -> conv4_0
I1022 09:22:58.358975  7216 net.cpp:141] Setting up conv4_0
I1022 09:22:58.358975  7216 net.cpp:148] Top shape: 50 512 4 4 (409600)
I1022 09:22:58.358975  7216 net.cpp:156] Memory required for data: 576512200
I1022 09:22:58.358975  7216 layer_factory.hpp:77] Creating layer bn4_0
I1022 09:22:58.358975  7216 net.cpp:91] Creating Layer bn4_0
I1022 09:22:58.358975  7216 net.cpp:425] bn4_0 <- conv4_0
I1022 09:22:58.358975  7216 net.cpp:399] bn4_0 -> bn4_0
I1022 09:22:58.358975  7216 net.cpp:141] Setting up bn4_0
I1022 09:22:58.358975  7216 net.cpp:148] Top shape: 50 512 4 4 (409600)
I1022 09:22:58.358975  7216 net.cpp:156] Memory required for data: 578150600
I1022 09:22:58.358975  7216 layer_factory.hpp:77] Creating layer scale4_0
I1022 09:22:58.358975  7216 net.cpp:91] Creating Layer scale4_0
I1022 09:22:58.358975  7216 net.cpp:425] scale4_0 <- bn4_0
I1022 09:22:58.358975  7216 net.cpp:399] scale4_0 -> scale4_0
I1022 09:22:58.358975  7216 layer_factory.hpp:77] Creating layer scale4_0
I1022 09:22:58.359475  7216 net.cpp:141] Setting up scale4_0
I1022 09:22:58.359475  7216 net.cpp:148] Top shape: 50 512 4 4 (409600)
I1022 09:22:58.359475  7216 net.cpp:156] Memory required for data: 579789000
I1022 09:22:58.359475  7216 layer_factory.hpp:77] Creating layer relu4_0
I1022 09:22:58.359475  7216 net.cpp:91] Creating Layer relu4_0
I1022 09:22:58.359475  7216 net.cpp:425] relu4_0 <- scale4_0
I1022 09:22:58.359475  7216 net.cpp:399] relu4_0 -> relu4_0
I1022 09:22:58.359975  7216 net.cpp:141] Setting up relu4_0
I1022 09:22:58.359975  7216 net.cpp:148] Top shape: 50 512 4 4 (409600)
I1022 09:22:58.359975  7216 net.cpp:156] Memory required for data: 581427400
I1022 09:22:58.359975  7216 layer_factory.hpp:77] Creating layer drop4_0
I1022 09:22:58.359975  7216 net.cpp:91] Creating Layer drop4_0
I1022 09:22:58.359975  7216 net.cpp:425] drop4_0 <- relu4_0
I1022 09:22:58.359975  7216 net.cpp:386] drop4_0 -> relu4_0 (in-place)
I1022 09:22:58.359975  7216 net.cpp:141] Setting up drop4_0
I1022 09:22:58.359975  7216 net.cpp:148] Top shape: 50 512 4 4 (409600)
I1022 09:22:58.359975  7216 net.cpp:156] Memory required for data: 583065800
I1022 09:22:58.359975  7216 layer_factory.hpp:77] Creating layer cccp4
I1022 09:22:58.359975  7216 net.cpp:91] Creating Layer cccp4
I1022 09:22:58.359975  7216 net.cpp:425] cccp4 <- relu4_0
I1022 09:22:58.359975  7216 net.cpp:399] cccp4 -> cccp4
I1022 09:22:58.370437  7216 net.cpp:141] Setting up cccp4
I1022 09:22:58.370437  7216 net.cpp:148] Top shape: 50 2048 4 4 (1638400)
I1022 09:22:58.370437  7216 net.cpp:156] Memory required for data: 589619400
I1022 09:22:58.370437  7216 layer_factory.hpp:77] Creating layer relu_cccp4
I1022 09:22:58.370437  7216 net.cpp:91] Creating Layer relu_cccp4
I1022 09:22:58.370437  7216 net.cpp:425] relu_cccp4 <- cccp4
I1022 09:22:58.370437  7216 net.cpp:386] relu_cccp4 -> cccp4 (in-place)
I1022 09:22:58.370939  7216 net.cpp:141] Setting up relu_cccp4
I1022 09:22:58.370939  7216 net.cpp:148] Top shape: 50 2048 4 4 (1638400)
I1022 09:22:58.370939  7216 net.cpp:156] Memory required for data: 596173000
I1022 09:22:58.370939  7216 layer_factory.hpp:77] Creating layer drop4_3
I1022 09:22:58.370939  7216 net.cpp:91] Creating Layer drop4_3
I1022 09:22:58.370939  7216 net.cpp:425] drop4_3 <- cccp4
I1022 09:22:58.370939  7216 net.cpp:386] drop4_3 -> cccp4 (in-place)
I1022 09:22:58.370939  7216 net.cpp:141] Setting up drop4_3
I1022 09:22:58.370939  7216 net.cpp:148] Top shape: 50 2048 4 4 (1638400)
I1022 09:22:58.370939  7216 net.cpp:156] Memory required for data: 602726600
I1022 09:22:58.370939  7216 layer_factory.hpp:77] Creating layer cccp5
I1022 09:22:58.370939  7216 net.cpp:91] Creating Layer cccp5
I1022 09:22:58.370939  7216 net.cpp:425] cccp5 <- cccp4
I1022 09:22:58.370939  7216 net.cpp:399] cccp5 -> cccp5
I1022 09:22:58.376696  7216 net.cpp:141] Setting up cccp5
I1022 09:22:58.376696  7216 net.cpp:148] Top shape: 50 256 4 4 (204800)
I1022 09:22:58.376696  7216 net.cpp:156] Memory required for data: 603545800
I1022 09:22:58.376696  7216 layer_factory.hpp:77] Creating layer relu_cccp5
I1022 09:22:58.376696  7216 net.cpp:91] Creating Layer relu_cccp5
I1022 09:22:58.376696  7216 net.cpp:425] relu_cccp5 <- cccp5
I1022 09:22:58.376696  7216 net.cpp:386] relu_cccp5 -> cccp5 (in-place)
I1022 09:22:58.377197  7216 net.cpp:141] Setting up relu_cccp5
I1022 09:22:58.377197  7216 net.cpp:148] Top shape: 50 256 4 4 (204800)
I1022 09:22:58.377197  7216 net.cpp:156] Memory required for data: 604365000
I1022 09:22:58.377197  7216 layer_factory.hpp:77] Creating layer poolcp5
I1022 09:22:58.377197  7216 net.cpp:91] Creating Layer poolcp5
I1022 09:22:58.377197  7216 net.cpp:425] poolcp5 <- cccp5
I1022 09:22:58.377197  7216 net.cpp:399] poolcp5 -> poolcp5
I1022 09:22:58.377197  7216 net.cpp:141] Setting up poolcp5
I1022 09:22:58.377197  7216 net.cpp:148] Top shape: 50 256 2 2 (51200)
I1022 09:22:58.377197  7216 net.cpp:156] Memory required for data: 604569800
I1022 09:22:58.377197  7216 layer_factory.hpp:77] Creating layer drop4_5
I1022 09:22:58.377197  7216 net.cpp:91] Creating Layer drop4_5
I1022 09:22:58.377197  7216 net.cpp:425] drop4_5 <- poolcp5
I1022 09:22:58.377197  7216 net.cpp:386] drop4_5 -> poolcp5 (in-place)
I1022 09:22:58.377197  7216 net.cpp:141] Setting up drop4_5
I1022 09:22:58.377197  7216 net.cpp:148] Top shape: 50 256 2 2 (51200)
I1022 09:22:58.377197  7216 net.cpp:156] Memory required for data: 604774600
I1022 09:22:58.377197  7216 layer_factory.hpp:77] Creating layer cccp6
I1022 09:22:58.377197  7216 net.cpp:91] Creating Layer cccp6
I1022 09:22:58.377197  7216 net.cpp:425] cccp6 <- poolcp5
I1022 09:22:58.377197  7216 net.cpp:399] cccp6 -> cccp6
I1022 09:22:58.383746  7216 net.cpp:141] Setting up cccp6
I1022 09:22:58.383746  7216 net.cpp:148] Top shape: 50 256 2 2 (51200)
I1022 09:22:58.384248  7216 net.cpp:156] Memory required for data: 604979400
I1022 09:22:58.384248  7216 layer_factory.hpp:77] Creating layer relu_cccp6
I1022 09:22:58.384248  7216 net.cpp:91] Creating Layer relu_cccp6
I1022 09:22:58.384248  7216 net.cpp:425] relu_cccp6 <- cccp6
I1022 09:22:58.384248  7216 net.cpp:386] relu_cccp6 -> cccp6 (in-place)
I1022 09:22:58.384248  7216 net.cpp:141] Setting up relu_cccp6
I1022 09:22:58.384248  7216 net.cpp:148] Top shape: 50 256 2 2 (51200)
I1022 09:22:58.384248  7216 net.cpp:156] Memory required for data: 605184200
I1022 09:22:58.384248  7216 layer_factory.hpp:77] Creating layer poolcp6
I1022 09:22:58.384248  7216 net.cpp:91] Creating Layer poolcp6
I1022 09:22:58.384248  7216 net.cpp:425] poolcp6 <- cccp6
I1022 09:22:58.384248  7216 net.cpp:399] poolcp6 -> poolcp6
I1022 09:22:58.384747  7216 net.cpp:141] Setting up poolcp6
I1022 09:22:58.384747  7216 net.cpp:148] Top shape: 50 256 1 1 (12800)
I1022 09:22:58.384747  7216 net.cpp:156] Memory required for data: 605235400
I1022 09:22:58.384747  7216 layer_factory.hpp:77] Creating layer ip1
I1022 09:22:58.384747  7216 net.cpp:91] Creating Layer ip1
I1022 09:22:58.384747  7216 net.cpp:425] ip1 <- poolcp6
I1022 09:22:58.384747  7216 net.cpp:399] ip1 -> ip1
I1022 09:22:58.385247  7216 net.cpp:141] Setting up ip1
I1022 09:22:58.385247  7216 net.cpp:148] Top shape: 50 100 (5000)
I1022 09:22:58.385247  7216 net.cpp:156] Memory required for data: 605255400
I1022 09:22:58.385247  7216 layer_factory.hpp:77] Creating layer loss
I1022 09:22:58.385247  7216 net.cpp:91] Creating Layer loss
I1022 09:22:58.385247  7216 net.cpp:425] loss <- ip1
I1022 09:22:58.385247  7216 net.cpp:425] loss <- label
I1022 09:22:58.385247  7216 net.cpp:399] loss -> loss
I1022 09:22:58.385247  7216 layer_factory.hpp:77] Creating layer loss
…
I1022 09:22:58.387889  7216 net.cpp:313] The NetState phase (1) differed from the phase (0) specified by a rule in layer bn4_2
I1022 09:22:58.387889  7216 net.cpp:313] The NetState phase (1) differed from the phase (0) specified by a rule in layer bn4_0
I1022 09:22:58.388389  7216 net.cpp:49] Initializing net from parameters: 
name: "CIFAR100_full"
state {
  phase: TEST
}
layer {
  name: "cifar"
  type: "Data"
  top: "data"
  top: "label"
  include {
    phase: TEST
  }
  transform_param {
    mirror: true
    crop_size: 32
  }
  data_param {
    source: "examples/cifar100/cifar100_test_leveldb_padding"
    batch_size: 50
    backend: LEVELDB
  }
}
layer {
  name: "conv1"
  type: "Convolution"
  bottom: "data"
  top: "conv1"
  param {
    lr_mult: 1
  }
  convolution_param {
    num_output: 64
    bias_term: true
    pad: 1
    kernel_size: 3
    stride: 1
    weight_filler {
      type: "xavier"
    }
  }
}
layer {
  name: "bn1"
  type: "BatchNorm"
  bottom: "conv1"
  top: "bn1"
  param {
    lr_mult: 0
    decay_mult: 0
  }
  param {
    lr_mult: 0
    decay_mult: 0
  }
  param {
    lr_mult: 0
    decay_mult: 0
  }
  include {
    phase: TEST
  }
  batch_norm_param {
    use_global_stats: true
    moving_average_fraction: 0.95
  }
}
layer {
  name: "scale1"
  type: "Scale"
  bottom: "bn1"
  top: "scale1"
  scale_param {
    bias_term: true
  }
}
layer {
  name: "relu1"
  type: "ReLU"
  bottom: "scale1"
  top: "relu1"
}
layer {
  name: "drop2_1"
  type: "Dropout"
  bottom: "relu1"
  top: "relu1"
  dropout_param {
    dropout_ratio: 0.2
  }
}
layer {
  name: "conv1_0"
  type: "Convolution"
  bottom: "relu1"
  top: "conv1_0"
  param {
    lr_mult: 1
  }
  convolution_param {
    num_output: 128
    bias_term: true
    pad: 1
    kernel_size: 3
    stride: 1
    weight_filler {
      type: "xavier"
    }
  }
}
layer {
  name: "bn1_0"
  type: "BatchNorm"
  bottom: "conv1_0"
  top: "bn1_0"
  param {
    lr_mult: 0
    decay_mult: 0
  }
  param {
    lr_mult: 0
    decay_mult: 0
  }
  param {
    lr_mult: 0
    decay_mult: 0
  }
  include {
    phase: TEST
  }
  batch_norm_param {
    use_global_stats: true
    moving_average_fraction: 0.95
  }
}
layer {
  name: "scale1_0"
  type: "Scale"
  bottom: "bn1_0"
  top: "scale1_0"
  scale_param {
    bias_term: true
  }
}
layer {
  name: "relu1_0"
  type: "ReLU"
  bottom: "scale1_0"
  top: "relu1_0"
}
layer {
  name: "drop1_0"
  type: "Dropout"
  bottom: "relu1_0"
  top: "relu1_0"
  dropout_param {
    dropout_ratio: 0.2
  }
}
layer {
  name: "conv2"
  type: "Convolution"
  bottom: "relu1_0"
  top: "conv2"
  param {
    lr_mult: 1
  }
  convolution_param {
    num_output: 128
    bias_term: true
    pad: 1
    kernel_size: 3
    stride: 1
    weight_filler {
      type: "gaussian"
      std: 0.01
    }
  }
}
layer {
  name: "bn2"
  type: "BatchNorm"
  bottom: "conv2"
  top: "bn2"
  param {
    lr_mult: 0
    decay_mult: 0
  }
  param {
    lr_mult: 0
    decay_mult: 0
  }
  param {
    lr_mult: 0
    decay_mult: 0
  }
  include {
    phase: TEST
  }
  batch_norm_param {
    use_global_stats: true
    moving_average_fraction: 0.95
  }
}
layer {
  name: "scale2"
  type: "Scale"
  bottom: "bn2"
  top: "scale2"
  scale_param {
    bias_term: true
  }
}
layer {
  name: "relu2"
  type: "ReLU"
  bottom: "scale2"
  top: "relu2"
}
layer {
  name: "drop2_0"
  type: "Dropout"
  bottom: "relu2"
  top: "relu2"
  dropout_param {
    dropout_ratio: 0.2
  }
}
layer {
  name: "conv2_1"
  type: "Convolution"
  bottom: "relu2"
  top: "conv2_1"
  param {
    lr_mult: 1
  }
  convolution_param {
    num_output: 128
    bias_term: true
    pad: 1
    kernel_size: 3
    stride: 1
    weight_filler {
      type: "gaussian"
      std: 0.01
    }
  }
}
layer {
  name: "bn2_1"
  type: "BatchNorm"
  bottom: "conv2_1"
  top: "bn2_1"
  param {
    lr_mult: 0
    decay_mult: 0
  }
  param {
    lr_mult: 0
    decay_mult: 0
  }
  param {
    lr_mult: 0
    decay_mult: 0
  }
  include {
    phase: TEST
  }
  batch_norm_param {
    use_global_stats: true
    moving_average_fraction: 0.95
  }
}
layer {
  name: "scale2_1"
  type: "Scale"
  bottom: "bn2_1"
  top: "scale2_1"
  scale_param {
    bias_term: true
  }
}
layer {
  name: "relu2_1"
  type: "ReLU"
  bottom: "scale2_1"
  top: "relu2_1"
}
layer {
  name: "pool2_1"
  type: "Pooling"
  bottom: "relu2_1"
  top: "pool2_1"
  pooling_param {
    pool: MAX
    kernel_size: 2
    stride: 2
  }
}
layer {
  name: "drop2_1"
  type: "Dropout"
  bottom: "pool2_1"
  top: "pool2_1"
  dropout_param {
    dropout_ratio: 0.2
  }
}
layer {
  name: "conv2_2"
  type: "Convolution"
  bottom: "pool2_1"
  top: "conv2_2"
  param {
    lr_mult: 1
  }
  convolution_param {
    num_output: 128
    bias_term: true
    pad: 1
    kernel_size: 3
    stride: 1
    weight_filler {
      type: "gaussian"
      std: 0.01
    }
  }
}
layer {
  name: "bn2_2"
  type: "BatchNorm"
  bottom: "conv2_2"
  top: "bn2_2"
  param {
    lr_mult: 0
    decay_mult: 0
  }
  param {
    lr_mult: 0
    decay_mult: 0
  }
  param {
    lr_mult: 0
    decay_mult: 0
  }
  include {
    phase: TEST
  }
  batch_norm_param {
    use_global_stats: true
    moving_average_fraction: 0.95
  }
}
layer {
  name: "scale2_2"
  type: "Scale"
  bottom: "bn2_2"
  top: "scale2_2"
  scale_param {
    bias_term: true
  }
}
layer {
  name: "relu2_2"
  type: "ReLU"
  bottom: "scale2_2"
  top: "relu2_2"
}
layer {
  name: "drop2_2"
  type: "Dropout"
  bottom: "relu2_2"
  top: "relu2_2"
  dropout_param {
    dropout_ratio: 0.2
  }
}
layer {
  name: "conv3"
  type: "Convolution"
  bottom: "relu2_2"
  top: "conv3"
  param {
    lr_mult: 1
  }
  convolution_param {
    num_output: 128
    bias_term: true
    pad: 1
    kernel_size: 3
    stride: 1
    weight_filler {
      type: "xavier"
    }
  }
}
layer {
  name: "bn3"
  type: "BatchNorm"
  bottom: "conv3"
  top: "bn3"
  param {
    lr_mult: 0
    decay_mult: 0
  }
  param {
    lr_mult: 0
    decay_mult: 0
  }
  param {
    lr_mult: 0
    decay_mult: 0
  }
  include {
    phase: TEST
  }
  batch_norm_param {
    use_global_stats: true
    moving_average_fraction: 0.95
  }
}
layer {
  name: "scale3"
  type: "Scale"
  bottom: "bn3"
  top: "scale3"
  scale_param {
    bias_term: true
  }
}
layer {
  name: "relu3"
  type: "ReLU"
  bottom: "scale3"
  top: "relu3"
}
layer {
  name: "drop3"
  type: "Dropout"
  bottom: "relu3"
  top: "relu3"
  dropout_param {
    dropout_ratio: 0.2
  }
}
layer {
  name: "conv4"
  type: "Convolution"
  bottom: "relu3"
  top: "conv4"
  param {
    lr_mult: 1
  }
  convolution_param {
    num_output: 256
    bias_term: true
    pad: 1
    kernel_size: 3
    stride: 1
    weight_filler {
      type: "xavier"
    }
  }
}
layer {
  name: "pool4"
  type: "Pooling"
  bottom: "conv4"
  top: "pool4"
  pooling_param {
    pool: MAX
    kernel_size: 2
    stride: 2
  }
}
layer {
  name: "bn4"
  type: "BatchNorm"
  bottom: "pool4"
  top: "bn4"
  param {
    lr_mult: 0
    decay_mult: 0
  }
  param {
    lr_mult: 0
    decay_mult: 0
  }
  param {
    lr_mult: 0
    decay_mult: 0
  }
  include {
    phase: TEST
  }
  batch_norm_param {
    use_global_stats: true
    moving_average_fraction: 0.95
  }
}
layer {
  name: "scale4"
  type: "Scale"
  bottom: "bn4"
  top: "scale4"
  scale_param {
    bias_term: true
  }
}
layer {
  name: "relu4"
  type: "ReLU"
  bottom: "scale4"
  top: "relu4"
}
layer {
  name: "drop4"
  type: "Dropout"
  bottom: "relu4"
  top: "relu4"
  dropout_param {
    dropout_ratio: 0.2
  }
}
layer {
  name: "conv4_1"
  type: "Convolution"
  bottom: "relu4"
  top: "conv4_1"
  param {
    lr_mult: 1
  }
  convolution_param {
    num_output: 256
    bias_term: true
    pad: 1
    kernel_size: 3
    stride: 1
    weight_filler {
      type: "xavier"
    }
  }
}
layer {
  name: "bn4_1"
  type: "BatchNorm"
  bottom: "conv4_1"
  top: "bn4_1"
  param {
    lr_mult: 0
    decay_mult: 0
  }
  param {
    lr_mult: 0
    decay_mult: 0
  }
  param {
    lr_mult: 0
    decay_mult: 0
  }
  include {
    phase: TEST
  }
  batch_norm_param {
    use_global_stats: true
    moving_average_fraction: 0.95
  }
}
layer {
  name: "scale4_1"
  type: "Scale"
  bottom: "bn4_1"
  top: "scale4_1"
  scale_param {
    bias_term: true
  }
}
layer {
  name: "relu4_1"
  type: "ReLU"
  bottom: "scale4_1"
  top: "relu4_1"
}
layer {
  name: "drop4_1"
  type: "Dropout"
  bottom: "relu4_1"
  top: "relu4_1"
  dropout_param {
    dropout_ratio: 0.2
  }
}
layer {
  name: "conv4_2"
  type: "Convolution"
  bottom: "relu4_1"
  top: "conv4_2"
  param {
    lr_mult: 1
  }
  convolution_param {
    num_output: 256
    bias_term: true
    pad: 1
    kernel_size: 3
    stride: 1
    weight_filler {
      type: "xavier"
    }
  }
}
layer {
  name: "bn4_2"
  type: "BatchNorm"
  bottom: "conv4_2"
  top: "bn4_2"
  param {
    lr_mult: 0
    decay_mult: 0
  }
  param {
    lr_mult: 0
    decay_mult: 0
  }
  param {
    lr_mult: 0
    decay_mult: 0
  }
  include {
    phase: TEST
  }
  batch_norm_param {
    use_global_stats: true
    moving_average_fraction: 0.95
  }
}
layer {
  name: "scale4_2"
  type: "Scale"
  bottom: "bn4_2"
  top: "scale4_2"
  scale_param {
    bias_term: true
  }
}
layer {
  name: "relu4_2"
  type: "ReLU"
  bottom: "scale4_2"
  top: "relu4_2"
}
layer {
  name: "drop4_2"
  type: "Dropout"
  bottom: "relu4_2"
  top: "relu4_2"
  dropout_param {
    dropout_ratio: 0.2
  }
}
layer {
  name: "pool4_2"
  type: "Pooling"
  bottom: "relu4_2"
  top: "pool4_2"
  pooling_param {
    pool: MAX
    kernel_size: 2
    stride: 2
  }
}
layer {
  name: "conv4_0"
  type: "Convolution"
  bottom: "pool4_2"
  top: "conv4_0"
  param {
    lr_mult: 1
  }
  convolution_param {
    num_output: 512
    bias_term: true
    pad: 1
    kernel_size: 3
    stride: 1
    weight_filler {
      type: "xavier"
    }
  }
}
layer {
  name: "bn4_0"
  type: "BatchNorm"
  bottom: "conv4_0"
  top: "bn4_0"
  param {
    lr_mult: 0
    decay_mult: 0
  }
  param {
    lr_mult: 0
    decay_mult: 0
  }
  param {
    lr_mult: 0
    decay_mult: 0
  }
  include {
    phase: TEST
  }
  batch_norm_param {
    use_global_stats: true
    moving_average_fraction: 0.95
  }
}
layer {
  name: "scale4_0"
  type: "Scale"
  bottom: "bn4_0"
  top: "scale4_0"
  scale_param {
    bias_term: true
  }
}
layer {
  name: "relu4_0"
  type: "ReLU"
  bottom: "scale4_0"
  top: "relu4_0"
}
layer {
  name: "drop4_0"
  type: "Dropout"
  bottom: "relu4_0"
  top: "relu4_0"
  dropout_param {
    dropout_ratio: 0.2
  }
}
layer {
  name: "cccp4"
  type: "Convolution"
  bottom: "relu4_0"
  top: "cccp4"
  param {
    lr_mult: 1
    decay_mult: 1
  }
  param {
    lr_mult: 2
    decay_mult: 0
  }
  convolution_param {
    num_output: 2048
    kernel_size: 1
    group: 1
    weight_filler {
      type: "xavier"
    }
    bias_filler {
      type: "constant"
      value: 0
    }
  }
}
layer {
  name: "relu_cccp4"
  type: "ReLU"
  bottom: "cccp4"
  top: "cccp4"
}
layer {
  name: "drop4_3"
  type: "Dropout"
  bottom: "cccp4"
  top: "cccp4"
  dropout_param {
    dropout_ratio: 0.2
  }
}
layer {
  name: "cccp5"
  type: "Convolution"
  bottom: "cccp4"
  top: "cccp5"
  param {
    lr_mult: 1
    decay_mult: 1
  }
  param {
    lr_mult: 2
    decay_mult: 0
  }
  convolution_param {
    num_output: 256
    kernel_size: 1
    group: 1
    weight_filler {
      type: "xavier"
    }
    bias_filler {
      type: "constant"
      value: 0
    }
  }
}
layer {
  name: "relu_cccp5"
  type: "ReLU"
  bottom: "cccp5"
  top: "cccp5"
}
layer {
  name: "poolcp5"
  type: "Pooling"
  bottom: "cccp5"
  top: "poolcp5"
  pooling_param {
    pool: MAX
    kernel_size: 2
    stride: 2
  }
}
layer {
  name: "drop4_5"
  type: "Dropout"
  bottom: "poolcp5"
  top: "poolcp5"
  dropout_param {
    dropout_ratio: 0.2
  }
}
layer {
  name: "cccp6"
  type: "Convolution"
  bottom: "poolcp5"
  top: "cccp6"
  param {
    lr_mult: 1
    decay_mult: 1
  }
  param {
    lr_mult: 2
    decay_mult: 0
  }
  convolution_param {
    num_output: 256
    pad: 1
    kernel_size: 3
    group: 1
    weight_filler {
      type: "xavier"
    }
    bias_filler {
      type: "constant"
      value: 0
    }
  }
}
layer {
  name: "relu_cccp6"
  type: "ReLU"
  bottom: "cccp6"
  top: "cccp6"
}
layer {
  name: "poolcp6"
  type: "Pooling"
  bottom: "cccp6"
  top: "poolcp6"
  pooling_param {
    pool: MAX
    kernel_size: 2
    stride: 2
  }
}
layer {
  name: "ip1"
  type: "InnerProduct"
  bottom: "poolcp6"
  top: "ip1"
  param {
    lr_mult: 1
    decay_mult: 0
  }
  param {
    lr_mult: 2
    decay_mult: 0
  }
  inner_product_param {
    num_output: 100
    weight_filler {
      type: "xavier"
    }
    bias_filler {
      type: "constant"
    }
  }
}
layer {
  name: "accuracy"
  type: "Accuracy"
  bottom: "ip1"
  bottom: "label"
  top: "accuracy"
  include {
    phase: TEST
  }
}
layer {
  name: "loss"
  type: "SoftmaxWithLoss"
  bottom: "ip1"
  bottom: "label"
  top: "loss"
}
I1022 09:22:58.388890  7216 layer_factory.hpp:77] Creating layer cifar
I1022 09:22:58.389390  7216 net.cpp:91] Creating Layer cifar
I1022 09:22:58.389390  7216 net.cpp:399] cifar -> data
I1022 09:22:58.389390  7216 net.cpp:399] cifar -> label
I1022 09:22:58.390391  4624 common.cpp:36] System entropy source not available, using fallback algorithm to generate seed instead.
I1022 09:22:58.393893  4624 db_leveldb.cpp:18] Opened leveldb examples/cifar100/cifar100_test_leveldb_padding
I1022 09:22:58.393893  7216 data_layer.cpp:41] output data size: 50,3,32,32
I1022 09:22:58.406402  7216 net.cpp:141] Setting up cifar
I1022 09:22:58.406402  7216 net.cpp:148] Top shape: 50 3 32 32 (153600)
I1022 09:22:58.406402  7216 net.cpp:148] Top shape: 50 (50)
I1022 09:22:58.406402  7216 net.cpp:156] Memory required for data: 614600
I1022 09:22:58.406402  7216 layer_factory.hpp:77] Creating layer label_cifar_1_split
I1022 09:22:58.406402  7216 net.cpp:91] Creating Layer label_cifar_1_split
I1022 09:22:58.406402  7216 net.cpp:425] label_cifar_1_split <- label
I1022 09:22:58.406402  7216 net.cpp:399] label_cifar_1_split -> label_cifar_1_split_0
I1022 09:22:58.406402  7216 net.cpp:399] label_cifar_1_split -> label_cifar_1_split_1
I1022 09:22:58.406402  7216 net.cpp:141] Setting up label_cifar_1_split
I1022 09:22:58.406402  7216 net.cpp:148] Top shape: 50 (50)
I1022 09:22:58.406402  7216 net.cpp:148] Top shape: 50 (50)
I1022 09:22:58.406402  7216 net.cpp:156] Memory required for data: 615000
I1022 09:22:58.406402  7216 layer_factory.hpp:77] Creating layer conv1
I1022 09:22:58.406402  7216 net.cpp:91] Creating Layer conv1
I1022 09:22:58.406402  7216 net.cpp:425] conv1 <- data
I1022 09:22:58.406402  7216 net.cpp:399] conv1 -> conv1
I1022 09:22:58.409404 10768 common.cpp:36] System entropy source not available, using fallback algorithm to generate seed instead.
I1022 09:22:58.417910  7216 net.cpp:141] Setting up conv1
I1022 09:22:58.417910  7216 net.cpp:148] Top shape: 50 64 32 32 (3276800)
I1022 09:22:58.417910  7216 net.cpp:156] Memory required for data: 13722200
I1022 09:22:58.417910  7216 layer_factory.hpp:77] Creating layer bn1
I1022 09:22:58.417910  7216 net.cpp:91] Creating Layer bn1
I1022 09:22:58.417910  7216 net.cpp:425] bn1 <- conv1
I1022 09:22:58.417910  7216 net.cpp:399] bn1 -> bn1
I1022 09:22:58.417910  7216 net.cpp:141] Setting up bn1
I1022 09:22:58.417910  7216 net.cpp:148] Top shape: 50 64 32 32 (3276800)
I1022 09:22:58.417910  7216 net.cpp:156] Memory required for data: 26829400
I1022 09:22:58.418411  7216 layer_factory.hpp:77] Creating layer scale1
I1022 09:22:58.418411  7216 net.cpp:91] Creating Layer scale1
I1022 09:22:58.418411  7216 net.cpp:425] scale1 <- bn1
I1022 09:22:58.418411  7216 net.cpp:399] scale1 -> scale1
I1022 09:22:58.418411  7216 layer_factory.hpp:77] Creating layer scale1
I1022 09:22:58.418411  7216 net.cpp:141] Setting up scale1
I1022 09:22:58.418411  7216 net.cpp:148] Top shape: 50 64 32 32 (3276800)
I1022 09:22:58.418411  7216 net.cpp:156] Memory required for data: 39936600
I1022 09:22:58.418411  7216 layer_factory.hpp:77] Creating layer relu1
I1022 09:22:58.418411  7216 net.cpp:91] Creating Layer relu1
I1022 09:22:58.418411  7216 net.cpp:425] relu1 <- scale1
I1022 09:22:58.418411  7216 net.cpp:399] relu1 -> relu1
I1022 09:22:58.418911  7216 net.cpp:141] Setting up relu1
I1022 09:22:58.418911  7216 net.cpp:148] Top shape: 50 64 32 32 (3276800)
I1022 09:22:58.418911  7216 net.cpp:156] Memory required for data: 53043800
I1022 09:22:58.418911  7216 layer_factory.hpp:77] Creating layer drop2_1
I1022 09:22:58.418911  7216 net.cpp:91] Creating Layer drop2_1
I1022 09:22:58.418911  7216 net.cpp:425] drop2_1 <- relu1
I1022 09:22:58.418911  7216 net.cpp:386] drop2_1 -> relu1 (in-place)
I1022 09:22:58.418911  7216 net.cpp:141] Setting up drop2_1
I1022 09:22:58.418911  7216 net.cpp:148] Top shape: 50 64 32 32 (3276800)
I1022 09:22:58.418911  7216 net.cpp:156] Memory required for data: 66151000
I1022 09:22:58.418911  7216 layer_factory.hpp:77] Creating layer conv1_0
I1022 09:22:58.418911  7216 net.cpp:91] Creating Layer conv1_0
I1022 09:22:58.418911  7216 net.cpp:425] conv1_0 <- relu1
I1022 09:22:58.418911  7216 net.cpp:399] conv1_0 -> conv1_0
I1022 09:22:58.421413  7216 net.cpp:141] Setting up conv1_0
I1022 09:22:58.421413  7216 net.cpp:148] Top shape: 50 128 32 32 (6553600)
I1022 09:22:58.421413  7216 net.cpp:156] Memory required for data: 92365400
I1022 09:22:58.421413  7216 layer_factory.hpp:77] Creating layer bn1_0
I1022 09:22:58.421413  7216 net.cpp:91] Creating Layer bn1_0
I1022 09:22:58.421413  7216 net.cpp:425] bn1_0 <- conv1_0
I1022 09:22:58.421413  7216 net.cpp:399] bn1_0 -> bn1_0
I1022 09:22:58.421413  7216 net.cpp:141] Setting up bn1_0
I1022 09:22:58.421413  7216 net.cpp:148] Top shape: 50 128 32 32 (6553600)
I1022 09:22:58.421413  7216 net.cpp:156] Memory required for data: 118579800
I1022 09:22:58.421413  7216 layer_factory.hpp:77] Creating layer scale1_0
I1022 09:22:58.421413  7216 net.cpp:91] Creating Layer scale1_0
I1022 09:22:58.421413  7216 net.cpp:425] scale1_0 <- bn1_0
I1022 09:22:58.421413  7216 net.cpp:399] scale1_0 -> scale1_0
I1022 09:22:58.421913  7216 layer_factory.hpp:77] Creating layer scale1_0
I1022 09:22:58.421913  7216 net.cpp:141] Setting up scale1_0
I1022 09:22:58.421913  7216 net.cpp:148] Top shape: 50 128 32 32 (6553600)
I1022 09:22:58.421913  7216 net.cpp:156] Memory required for data: 144794200
I1022 09:22:58.421913  7216 layer_factory.hpp:77] Creating layer relu1_0
I1022 09:22:58.421913  7216 net.cpp:91] Creating Layer relu1_0
I1022 09:22:58.421913  7216 net.cpp:425] relu1_0 <- scale1_0
I1022 09:22:58.421913  7216 net.cpp:399] relu1_0 -> relu1_0
I1022 09:22:58.422415  7216 net.cpp:141] Setting up relu1_0
I1022 09:22:58.422415  7216 net.cpp:148] Top shape: 50 128 32 32 (6553600)
I1022 09:22:58.422415  7216 net.cpp:156] Memory required for data: 171008600
I1022 09:22:58.422415  7216 layer_factory.hpp:77] Creating layer drop1_0
I1022 09:22:58.422415  7216 net.cpp:91] Creating Layer drop1_0
I1022 09:22:58.422415  7216 net.cpp:425] drop1_0 <- relu1_0
I1022 09:22:58.422415  7216 net.cpp:386] drop1_0 -> relu1_0 (in-place)
I1022 09:22:58.422415  7216 net.cpp:141] Setting up drop1_0
I1022 09:22:58.422415  7216 net.cpp:148] Top shape: 50 128 32 32 (6553600)
I1022 09:22:58.422415  7216 net.cpp:156] Memory required for data: 197223000
I1022 09:22:58.422415  7216 layer_factory.hpp:77] Creating layer conv2
I1022 09:22:58.422415  7216 net.cpp:91] Creating Layer conv2
I1022 09:22:58.422415  7216 net.cpp:425] conv2 <- relu1_0
I1022 09:22:58.422415  7216 net.cpp:399] conv2 -> conv2
I1022 09:22:58.425485  7216 net.cpp:141] Setting up conv2
I1022 09:22:58.425987  7216 net.cpp:148] Top shape: 50 128 32 32 (6553600)
I1022 09:22:58.425987  7216 net.cpp:156] Memory required for data: 223437400
I1022 09:22:58.425987  7216 layer_factory.hpp:77] Creating layer bn2
I1022 09:22:58.425987  7216 net.cpp:91] Creating Layer bn2
I1022 09:22:58.425987  7216 net.cpp:425] bn2 <- conv2
I1022 09:22:58.425987  7216 net.cpp:399] bn2 -> bn2
I1022 09:22:58.425987  7216 net.cpp:141] Setting up bn2
I1022 09:22:58.425987  7216 net.cpp:148] Top shape: 50 128 32 32 (6553600)
I1022 09:22:58.425987  7216 net.cpp:156] Memory required for data: 249651800
I1022 09:22:58.425987  7216 layer_factory.hpp:77] Creating layer scale2
I1022 09:22:58.425987  7216 net.cpp:91] Creating Layer scale2
I1022 09:22:58.425987  7216 net.cpp:425] scale2 <- bn2
I1022 09:22:58.425987  7216 net.cpp:399] scale2 -> scale2
I1022 09:22:58.425987  7216 layer_factory.hpp:77] Creating layer scale2
I1022 09:22:58.426487  7216 net.cpp:141] Setting up scale2
I1022 09:22:58.426487  7216 net.cpp:148] Top shape: 50 128 32 32 (6553600)
I1022 09:22:58.426487  7216 net.cpp:156] Memory required for data: 275866200
I1022 09:22:58.426487  7216 layer_factory.hpp:77] Creating layer relu2
I1022 09:22:58.426487  7216 net.cpp:91] Creating Layer relu2
I1022 09:22:58.426487  7216 net.cpp:425] relu2 <- scale2
I1022 09:22:58.426487  7216 net.cpp:399] relu2 -> relu2
I1022 09:22:58.426879  7216 net.cpp:141] Setting up relu2
I1022 09:22:58.426879  7216 net.cpp:148] Top shape: 50 128 32 32 (6553600)
I1022 09:22:58.426879  7216 net.cpp:156] Memory required for data: 302080600
I1022 09:22:58.426879  7216 layer_factory.hpp:77] Creating layer drop2_0
I1022 09:22:58.426879  7216 net.cpp:91] Creating Layer drop2_0
I1022 09:22:58.426879  7216 net.cpp:425] drop2_0 <- relu2
I1022 09:22:58.426879  7216 net.cpp:386] drop2_0 -> relu2 (in-place)
I1022 09:22:58.426879  7216 net.cpp:141] Setting up drop2_0
I1022 09:22:58.426879  7216 net.cpp:148] Top shape: 50 128 32 32 (6553600)
I1022 09:22:58.426879  7216 net.cpp:156] Memory required for data: 328295000
I1022 09:22:58.426879  7216 layer_factory.hpp:77] Creating layer conv2_1
I1022 09:22:58.426879  7216 net.cpp:91] Creating Layer conv2_1
I1022 09:22:58.426879  7216 net.cpp:425] conv2_1 <- relu2
I1022 09:22:58.426879  7216 net.cpp:399] conv2_1 -> conv2_1
I1022 09:22:58.431115  7216 net.cpp:141] Setting up conv2_1
I1022 09:22:58.431115  7216 net.cpp:148] Top shape: 50 128 32 32 (6553600)
I1022 09:22:58.431115  7216 net.cpp:156] Memory required for data: 354509400
I1022 09:22:58.431115  7216 layer_factory.hpp:77] Creating layer bn2_1
I1022 09:22:58.431115  7216 net.cpp:91] Creating Layer bn2_1
I1022 09:22:58.431115  7216 net.cpp:425] bn2_1 <- conv2_1
I1022 09:22:58.431115  7216 net.cpp:399] bn2_1 -> bn2_1
I1022 09:22:58.431617  7216 net.cpp:141] Setting up bn2_1
I1022 09:22:58.431617  7216 net.cpp:148] Top shape: 50 128 32 32 (6553600)
I1022 09:22:58.431617  7216 net.cpp:156] Memory required for data: 380723800
I1022 09:22:58.431617  7216 layer_factory.hpp:77] Creating layer scale2_1
I1022 09:22:58.431617  7216 net.cpp:91] Creating Layer scale2_1
I1022 09:22:58.431617  7216 net.cpp:425] scale2_1 <- bn2_1
I1022 09:22:58.431617  7216 net.cpp:399] scale2_1 -> scale2_1
I1022 09:22:58.431617  7216 layer_factory.hpp:77] Creating layer scale2_1
I1022 09:22:58.431617  7216 net.cpp:141] Setting up scale2_1
I1022 09:22:58.431617  7216 net.cpp:148] Top shape: 50 128 32 32 (6553600)
I1022 09:22:58.431617  7216 net.cpp:156] Memory required for data: 406938200
I1022 09:22:58.431617  7216 layer_factory.hpp:77] Creating layer relu2_1
I1022 09:22:58.431617  7216 net.cpp:91] Creating Layer relu2_1
I1022 09:22:58.431617  7216 net.cpp:425] relu2_1 <- scale2_1
I1022 09:22:58.431617  7216 net.cpp:399] relu2_1 -> relu2_1
I1022 09:22:58.432117  7216 net.cpp:141] Setting up relu2_1
I1022 09:22:58.432117  7216 net.cpp:148] Top shape: 50 128 32 32 (6553600)
I1022 09:22:58.432117  7216 net.cpp:156] Memory required for data: 433152600
I1022 09:22:58.432117  7216 layer_factory.hpp:77] Creating layer pool2_1
I1022 09:22:58.432117  7216 net.cpp:91] Creating Layer pool2_1
I1022 09:22:58.432117  7216 net.cpp:425] pool2_1 <- relu2_1
I1022 09:22:58.432117  7216 net.cpp:399] pool2_1 -> pool2_1
I1022 09:22:58.432117  7216 net.cpp:141] Setting up pool2_1
I1022 09:22:58.432117  7216 net.cpp:148] Top shape: 50 128 16 16 (1638400)
I1022 09:22:58.432117  7216 net.cpp:156] Memory required for data: 439706200
I1022 09:22:58.432117  7216 layer_factory.hpp:77] Creating layer drop2_1
I1022 09:22:58.432117  7216 net.cpp:91] Creating Layer drop2_1
I1022 09:22:58.432117  7216 net.cpp:425] drop2_1 <- pool2_1
I1022 09:22:58.432117  7216 net.cpp:386] drop2_1 -> pool2_1 (in-place)
I1022 09:22:58.432117  7216 net.cpp:141] Setting up drop2_1
I1022 09:22:58.432117  7216 net.cpp:148] Top shape: 50 128 16 16 (1638400)
I1022 09:22:58.432117  7216 net.cpp:156] Memory required for data: 446259800
I1022 09:22:58.432117  7216 layer_factory.hpp:77] Creating layer conv2_2
I1022 09:22:58.432117  7216 net.cpp:91] Creating Layer conv2_2
I1022 09:22:58.432117  7216 net.cpp:425] conv2_2 <- pool2_1
I1022 09:22:58.432617  7216 net.cpp:399] conv2_2 -> conv2_2
I1022 09:22:58.435739  7216 net.cpp:141] Setting up conv2_2
I1022 09:22:58.435739  7216 net.cpp:148] Top shape: 50 128 16 16 (1638400)
I1022 09:22:58.435739  7216 net.cpp:156] Memory required for data: 452813400
I1022 09:22:58.436239  7216 layer_factory.hpp:77] Creating layer bn2_2
I1022 09:22:58.436239  7216 net.cpp:91] Creating Layer bn2_2
I1022 09:22:58.436239  7216 net.cpp:425] bn2_2 <- conv2_2
I1022 09:22:58.436239  7216 net.cpp:399] bn2_2 -> bn2_2
I1022 09:22:58.436239  7216 net.cpp:141] Setting up bn2_2
I1022 09:22:58.436239  7216 net.cpp:148] Top shape: 50 128 16 16 (1638400)
I1022 09:22:58.436239  7216 net.cpp:156] Memory required for data: 459367000
I1022 09:22:58.436239  7216 layer_factory.hpp:77] Creating layer scale2_2
I1022 09:22:58.436239  7216 net.cpp:91] Creating Layer scale2_2
I1022 09:22:58.436239  7216 net.cpp:425] scale2_2 <- bn2_2
I1022 09:22:58.436239  7216 net.cpp:399] scale2_2 -> scale2_2
I1022 09:22:58.436239  7216 layer_factory.hpp:77] Creating layer scale2_2
I1022 09:22:58.436239  7216 net.cpp:141] Setting up scale2_2
I1022 09:22:58.436239  7216 net.cpp:148] Top shape: 50 128 16 16 (1638400)
I1022 09:22:58.436239  7216 net.cpp:156] Memory required for data: 465920600
I1022 09:22:58.436239  7216 layer_factory.hpp:77] Creating layer relu2_2
I1022 09:22:58.436739  7216 net.cpp:91] Creating Layer relu2_2
I1022 09:22:58.436739  7216 net.cpp:425] relu2_2 <- scale2_2
I1022 09:22:58.436739  7216 net.cpp:399] relu2_2 -> relu2_2
I1022 09:22:58.437239  7216 net.cpp:141] Setting up relu2_2
I1022 09:22:58.437239  7216 net.cpp:148] Top shape: 50 128 16 16 (1638400)
I1022 09:22:58.437239  7216 net.cpp:156] Memory required for data: 472474200
I1022 09:22:58.437239  7216 layer_factory.hpp:77] Creating layer drop2_2
I1022 09:22:58.437239  7216 net.cpp:91] Creating Layer drop2_2
I1022 09:22:58.437239  7216 net.cpp:425] drop2_2 <- relu2_2
I1022 09:22:58.437239  7216 net.cpp:386] drop2_2 -> relu2_2 (in-place)
I1022 09:22:58.437239  7216 net.cpp:141] Setting up drop2_2
I1022 09:22:58.437239  7216 net.cpp:148] Top shape: 50 128 16 16 (1638400)
I1022 09:22:58.437239  7216 net.cpp:156] Memory required for data: 479027800
I1022 09:22:58.437239  7216 layer_factory.hpp:77] Creating layer conv3
I1022 09:22:58.437239  7216 net.cpp:91] Creating Layer conv3
I1022 09:22:58.437239  7216 net.cpp:425] conv3 <- relu2_2
I1022 09:22:58.437239  7216 net.cpp:399] conv3 -> conv3
I1022 09:22:58.440243  7216 net.cpp:141] Setting up conv3
I1022 09:22:58.440742  7216 net.cpp:148] Top shape: 50 128 16 16 (1638400)
I1022 09:22:58.440742  7216 net.cpp:156] Memory required for data: 485581400
I1022 09:22:58.440742  7216 layer_factory.hpp:77] Creating layer bn3
I1022 09:22:58.440742  7216 net.cpp:91] Creating Layer bn3
I1022 09:22:58.440742  7216 net.cpp:425] bn3 <- conv3
I1022 09:22:58.440742  7216 net.cpp:399] bn3 -> bn3
I1022 09:22:58.440742  7216 net.cpp:141] Setting up bn3
I1022 09:22:58.440742  7216 net.cpp:148] Top shape: 50 128 16 16 (1638400)
I1022 09:22:58.440742  7216 net.cpp:156] Memory required for data: 492135000
I1022 09:22:58.440742  7216 layer_factory.hpp:77] Creating layer scale3
I1022 09:22:58.440742  7216 net.cpp:91] Creating Layer scale3
I1022 09:22:58.440742  7216 net.cpp:425] scale3 <- bn3
I1022 09:22:58.440742  7216 net.cpp:399] scale3 -> scale3
I1022 09:22:58.440742  7216 layer_factory.hpp:77] Creating layer scale3
I1022 09:22:58.441242  7216 net.cpp:141] Setting up scale3
I1022 09:22:58.441242  7216 net.cpp:148] Top shape: 50 128 16 16 (1638400)
I1022 09:22:58.441242  7216 net.cpp:156] Memory required for data: 498688600
I1022 09:22:58.441242  7216 layer_factory.hpp:77] Creating layer relu3
I1022 09:22:58.441242  7216 net.cpp:91] Creating Layer relu3
I1022 09:22:58.441242  7216 net.cpp:425] relu3 <- scale3
I1022 09:22:58.441242  7216 net.cpp:399] relu3 -> relu3
I1022 09:22:58.441743  7216 net.cpp:141] Setting up relu3
I1022 09:22:58.441743  7216 net.cpp:148] Top shape: 50 128 16 16 (1638400)
I1022 09:22:58.441743  7216 net.cpp:156] Memory required for data: 505242200
I1022 09:22:58.441743  7216 layer_factory.hpp:77] Creating layer drop3
I1022 09:22:58.441743  7216 net.cpp:91] Creating Layer drop3
I1022 09:22:58.441743  7216 net.cpp:425] drop3 <- relu3
I1022 09:22:58.441743  7216 net.cpp:386] drop3 -> relu3 (in-place)
I1022 09:22:58.441743  7216 net.cpp:141] Setting up drop3
I1022 09:22:58.441743  7216 net.cpp:148] Top shape: 50 128 16 16 (1638400)
I1022 09:22:58.441743  7216 net.cpp:156] Memory required for data: 511795800
I1022 09:22:58.441743  7216 layer_factory.hpp:77] Creating layer conv4
I1022 09:22:58.441743  7216 net.cpp:91] Creating Layer conv4
I1022 09:22:58.441743  7216 net.cpp:425] conv4 <- relu3
I1022 09:22:58.441743  7216 net.cpp:399] conv4 -> conv4
I1022 09:22:58.446789  7216 net.cpp:141] Setting up conv4
I1022 09:22:58.446789  7216 net.cpp:148] Top shape: 50 256 16 16 (3276800)
I1022 09:22:58.446789  7216 net.cpp:156] Memory required for data: 524903000
I1022 09:22:58.446789  7216 layer_factory.hpp:77] Creating layer pool4
I1022 09:22:58.446789  7216 net.cpp:91] Creating Layer pool4
I1022 09:22:58.446789  7216 net.cpp:425] pool4 <- conv4
I1022 09:22:58.446789  7216 net.cpp:399] pool4 -> pool4
I1022 09:22:58.446789  7216 net.cpp:141] Setting up pool4
I1022 09:22:58.446789  7216 net.cpp:148] Top shape: 50 256 8 8 (819200)
I1022 09:22:58.446789  7216 net.cpp:156] Memory required for data: 528179800
I1022 09:22:58.446789  7216 layer_factory.hpp:77] Creating layer bn4
I1022 09:22:58.446789  7216 net.cpp:91] Creating Layer bn4
I1022 09:22:58.446789  7216 net.cpp:425] bn4 <- pool4
I1022 09:22:58.446789  7216 net.cpp:399] bn4 -> bn4
I1022 09:22:58.447289  7216 net.cpp:141] Setting up bn4
I1022 09:22:58.447289  7216 net.cpp:148] Top shape: 50 256 8 8 (819200)
I1022 09:22:58.447289  7216 net.cpp:156] Memory required for data: 531456600
I1022 09:22:58.447289  7216 layer_factory.hpp:77] Creating layer scale4
I1022 09:22:58.447289  7216 net.cpp:91] Creating Layer scale4
I1022 09:22:58.447289  7216 net.cpp:425] scale4 <- bn4
I1022 09:22:58.447289  7216 net.cpp:399] scale4 -> scale4
I1022 09:22:58.447289  7216 layer_factory.hpp:77] Creating layer scale4
I1022 09:22:58.447289  7216 net.cpp:141] Setting up scale4
I1022 09:22:58.447289  7216 net.cpp:148] Top shape: 50 256 8 8 (819200)
I1022 09:22:58.447289  7216 net.cpp:156] Memory required for data: 534733400
I1022 09:22:58.447289  7216 layer_factory.hpp:77] Creating layer relu4
I1022 09:22:58.447289  7216 net.cpp:91] Creating Layer relu4
I1022 09:22:58.447289  7216 net.cpp:425] relu4 <- scale4
I1022 09:22:58.447289  7216 net.cpp:399] relu4 -> relu4
I1022 09:22:58.447790  7216 net.cpp:141] Setting up relu4
I1022 09:22:58.447790  7216 net.cpp:148] Top shape: 50 256 8 8 (819200)
I1022 09:22:58.447790  7216 net.cpp:156] Memory required for data: 538010200
I1022 09:22:58.447790  7216 layer_factory.hpp:77] Creating layer drop4
I1022 09:22:58.447790  7216 net.cpp:91] Creating Layer drop4
I1022 09:22:58.447790  7216 net.cpp:425] drop4 <- relu4
I1022 09:22:58.447790  7216 net.cpp:386] drop4 -> relu4 (in-place)
I1022 09:22:58.447790  7216 net.cpp:141] Setting up drop4
I1022 09:22:58.447790  7216 net.cpp:148] Top shape: 50 256 8 8 (819200)
I1022 09:22:58.447790  7216 net.cpp:156] Memory required for data: 541287000
I1022 09:22:58.447790  7216 layer_factory.hpp:77] Creating layer conv4_1
I1022 09:22:58.447790  7216 net.cpp:91] Creating Layer conv4_1
I1022 09:22:58.447790  7216 net.cpp:425] conv4_1 <- relu4
I1022 09:22:58.447790  7216 net.cpp:399] conv4_1 -> conv4_1
I1022 09:22:58.454382  7216 net.cpp:141] Setting up conv4_1
I1022 09:22:58.454382  7216 net.cpp:148] Top shape: 50 256 8 8 (819200)
I1022 09:22:58.454382  7216 net.cpp:156] Memory required for data: 544563800
I1022 09:22:58.454382  7216 layer_factory.hpp:77] Creating layer bn4_1
I1022 09:22:58.454382  7216 net.cpp:91] Creating Layer bn4_1
I1022 09:22:58.454885  7216 net.cpp:425] bn4_1 <- conv4_1
I1022 09:22:58.454885  7216 net.cpp:399] bn4_1 -> bn4_1
I1022 09:22:58.454885  7216 net.cpp:141] Setting up bn4_1
I1022 09:22:58.454885  7216 net.cpp:148] Top shape: 50 256 8 8 (819200)
I1022 09:22:58.454885  7216 net.cpp:156] Memory required for data: 547840600
I1022 09:22:58.454885  7216 layer_factory.hpp:77] Creating layer scale4_1
I1022 09:22:58.454885  7216 net.cpp:91] Creating Layer scale4_1
I1022 09:22:58.454885  7216 net.cpp:425] scale4_1 <- bn4_1
I1022 09:22:58.454885  7216 net.cpp:399] scale4_1 -> scale4_1
I1022 09:22:58.454885  7216 layer_factory.hpp:77] Creating layer scale4_1
I1022 09:22:58.455384  7216 net.cpp:141] Setting up scale4_1
I1022 09:22:58.455384  7216 net.cpp:148] Top shape: 50 256 8 8 (819200)
I1022 09:22:58.455384  7216 net.cpp:156] Memory required for data: 551117400
I1022 09:22:58.455384  7216 layer_factory.hpp:77] Creating layer relu4_1
I1022 09:22:58.455384  7216 net.cpp:91] Creating Layer relu4_1
I1022 09:22:58.455384  7216 net.cpp:425] relu4_1 <- scale4_1
I1022 09:22:58.455384  7216 net.cpp:399] relu4_1 -> relu4_1
I1022 09:22:58.455885  7216 net.cpp:141] Setting up relu4_1
I1022 09:22:58.455885  7216 net.cpp:148] Top shape: 50 256 8 8 (819200)
I1022 09:22:58.455885  7216 net.cpp:156] Memory required for data: 554394200
I1022 09:22:58.455885  7216 layer_factory.hpp:77] Creating layer drop4_1
I1022 09:22:58.455885  7216 net.cpp:91] Creating Layer drop4_1
I1022 09:22:58.455885  7216 net.cpp:425] drop4_1 <- relu4_1
I1022 09:22:58.455885  7216 net.cpp:386] drop4_1 -> relu4_1 (in-place)
I1022 09:22:58.455885  7216 net.cpp:141] Setting up drop4_1
I1022 09:22:58.455885  7216 net.cpp:148] Top shape: 50 256 8 8 (819200)
I1022 09:22:58.455885  7216 net.cpp:156] Memory required for data: 557671000
I1022 09:22:58.455885  7216 layer_factory.hpp:77] Creating layer conv4_2
I1022 09:22:58.455885  7216 net.cpp:91] Creating Layer conv4_2
I1022 09:22:58.455885  7216 net.cpp:425] conv4_2 <- relu4_1
I1022 09:22:58.455885  7216 net.cpp:399] conv4_2 -> conv4_2
I1022 09:22:58.463390  7216 net.cpp:141] Setting up conv4_2
I1022 09:22:58.463390  7216 net.cpp:148] Top shape: 50 256 8 8 (819200)
I1022 09:22:58.463390  7216 net.cpp:156] Memory required for data: 560947800
I1022 09:22:58.463390  7216 layer_factory.hpp:77] Creating layer bn4_2
I1022 09:22:58.463390  7216 net.cpp:91] Creating Layer bn4_2
I1022 09:22:58.463390  7216 net.cpp:425] bn4_2 <- conv4_2
I1022 09:22:58.463390  7216 net.cpp:399] bn4_2 -> bn4_2
I1022 09:22:58.463891  7216 net.cpp:141] Setting up bn4_2
I1022 09:22:58.463891  7216 net.cpp:148] Top shape: 50 256 8 8 (819200)
I1022 09:22:58.463891  7216 net.cpp:156] Memory required for data: 564224600
I1022 09:22:58.463891  7216 layer_factory.hpp:77] Creating layer scale4_2
I1022 09:22:58.463891  7216 net.cpp:91] Creating Layer scale4_2
I1022 09:22:58.463891  7216 net.cpp:425] scale4_2 <- bn4_2
I1022 09:22:58.463891  7216 net.cpp:399] scale4_2 -> scale4_2
I1022 09:22:58.463891  7216 layer_factory.hpp:77] Creating layer scale4_2
I1022 09:22:58.463891  7216 net.cpp:141] Setting up scale4_2
I1022 09:22:58.463891  7216 net.cpp:148] Top shape: 50 256 8 8 (819200)
I1022 09:22:58.463891  7216 net.cpp:156] Memory required for data: 567501400
I1022 09:22:58.463891  7216 layer_factory.hpp:77] Creating layer relu4_2
I1022 09:22:58.463891  7216 net.cpp:91] Creating Layer relu4_2
I1022 09:22:58.463891  7216 net.cpp:425] relu4_2 <- scale4_2
I1022 09:22:58.463891  7216 net.cpp:399] relu4_2 -> relu4_2
I1022 09:22:58.464618  7216 net.cpp:141] Setting up relu4_2
I1022 09:22:58.464618  7216 net.cpp:148] Top shape: 50 256 8 8 (819200)
I1022 09:22:58.464618  7216 net.cpp:156] Memory required for data: 570778200
I1022 09:22:58.464618  7216 layer_factory.hpp:77] Creating layer drop4_2
I1022 09:22:58.464618  7216 net.cpp:91] Creating Layer drop4_2
I1022 09:22:58.464618  7216 net.cpp:425] drop4_2 <- relu4_2
I1022 09:22:58.464618  7216 net.cpp:386] drop4_2 -> relu4_2 (in-place)
I1022 09:22:58.464618  7216 net.cpp:141] Setting up drop4_2
I1022 09:22:58.464618  7216 net.cpp:148] Top shape: 50 256 8 8 (819200)
I1022 09:22:58.464618  7216 net.cpp:156] Memory required for data: 574055000
I1022 09:22:58.464618  7216 layer_factory.hpp:77] Creating layer pool4_2
I1022 09:22:58.464618  7216 net.cpp:91] Creating Layer pool4_2
I1022 09:22:58.464618  7216 net.cpp:425] pool4_2 <- relu4_2
I1022 09:22:58.464618  7216 net.cpp:399] pool4_2 -> pool4_2
I1022 09:22:58.465119  7216 net.cpp:141] Setting up pool4_2
I1022 09:22:58.465119  7216 net.cpp:148] Top shape: 50 256 4 4 (204800)
I1022 09:22:58.465119  7216 net.cpp:156] Memory required for data: 574874200
I1022 09:22:58.465119  7216 layer_factory.hpp:77] Creating layer conv4_0
I1022 09:22:58.465119  7216 net.cpp:91] Creating Layer conv4_0
I1022 09:22:58.465119  7216 net.cpp:425] conv4_0 <- pool4_2
I1022 09:22:58.465119  7216 net.cpp:399] conv4_0 -> conv4_0
I1022 09:22:58.476127  7216 net.cpp:141] Setting up conv4_0
I1022 09:22:58.476127  7216 net.cpp:148] Top shape: 50 512 4 4 (409600)
I1022 09:22:58.476127  7216 net.cpp:156] Memory required for data: 576512600
I1022 09:22:58.476127  7216 layer_factory.hpp:77] Creating layer bn4_0
I1022 09:22:58.476127  7216 net.cpp:91] Creating Layer bn4_0
I1022 09:22:58.476127  7216 net.cpp:425] bn4_0 <- conv4_0
I1022 09:22:58.476127  7216 net.cpp:399] bn4_0 -> bn4_0
I1022 09:22:58.476627  7216 net.cpp:141] Setting up bn4_0
I1022 09:22:58.476627  7216 net.cpp:148] Top shape: 50 512 4 4 (409600)
I1022 09:22:58.476627  7216 net.cpp:156] Memory required for data: 578151000
I1022 09:22:58.476627  7216 layer_factory.hpp:77] Creating layer scale4_0
I1022 09:22:58.476627  7216 net.cpp:91] Creating Layer scale4_0
I1022 09:22:58.476627  7216 net.cpp:425] scale4_0 <- bn4_0
I1022 09:22:58.476627  7216 net.cpp:399] scale4_0 -> scale4_0
I1022 09:22:58.476627  7216 layer_factory.hpp:77] Creating layer scale4_0
I1022 09:22:58.477128  7216 net.cpp:141] Setting up scale4_0
I1022 09:22:58.477128  7216 net.cpp:148] Top shape: 50 512 4 4 (409600)
I1022 09:22:58.477128  7216 net.cpp:156] Memory required for data: 579789400
I1022 09:22:58.477128  7216 layer_factory.hpp:77] Creating layer relu4_0
I1022 09:22:58.477128  7216 net.cpp:91] Creating Layer relu4_0
I1022 09:22:58.477128  7216 net.cpp:425] relu4_0 <- scale4_0
I1022 09:22:58.477128  7216 net.cpp:399] relu4_0 -> relu4_0
I1022 09:22:58.477128  7216 net.cpp:141] Setting up relu4_0
I1022 09:22:58.477128  7216 net.cpp:148] Top shape: 50 512 4 4 (409600)
I1022 09:22:58.477128  7216 net.cpp:156] Memory required for data: 581427800
I1022 09:22:58.477128  7216 layer_factory.hpp:77] Creating layer drop4_0
I1022 09:22:58.477128  7216 net.cpp:91] Creating Layer drop4_0
I1022 09:22:58.477128  7216 net.cpp:425] drop4_0 <- relu4_0
I1022 09:22:58.477128  7216 net.cpp:386] drop4_0 -> relu4_0 (in-place)
I1022 09:22:58.477128  7216 net.cpp:141] Setting up drop4_0
I1022 09:22:58.477128  7216 net.cpp:148] Top shape: 50 512 4 4 (409600)
I1022 09:22:58.477128  7216 net.cpp:156] Memory required for data: 583066200
I1022 09:22:58.477128  7216 layer_factory.hpp:77] Creating layer cccp4
I1022 09:22:58.477128  7216 net.cpp:91] Creating Layer cccp4
I1022 09:22:58.477628  7216 net.cpp:425] cccp4 <- relu4_0
I1022 09:22:58.477628  7216 net.cpp:399] cccp4 -> cccp4
I1022 09:22:58.488744  7216 net.cpp:141] Setting up cccp4
I1022 09:22:58.488744  7216 net.cpp:148] Top shape: 50 2048 4 4 (1638400)
I1022 09:22:58.488744  7216 net.cpp:156] Memory required for data: 589619800
I1022 09:22:58.488744  7216 layer_factory.hpp:77] Creating layer relu_cccp4
I1022 09:22:58.488744  7216 net.cpp:91] Creating Layer relu_cccp4
I1022 09:22:58.488744  7216 net.cpp:425] relu_cccp4 <- cccp4
I1022 09:22:58.488744  7216 net.cpp:386] relu_cccp4 -> cccp4 (in-place)
I1022 09:22:58.489245  7216 net.cpp:141] Setting up relu_cccp4
I1022 09:22:58.489245  7216 net.cpp:148] Top shape: 50 2048 4 4 (1638400)
I1022 09:22:58.489245  7216 net.cpp:156] Memory required for data: 596173400
I1022 09:22:58.489245  7216 layer_factory.hpp:77] Creating layer drop4_3
I1022 09:22:58.489245  7216 net.cpp:91] Creating Layer drop4_3
I1022 09:22:58.489245  7216 net.cpp:425] drop4_3 <- cccp4
I1022 09:22:58.489245  7216 net.cpp:386] drop4_3 -> cccp4 (in-place)
I1022 09:22:58.489745  7216 net.cpp:141] Setting up drop4_3
I1022 09:22:58.489745  7216 net.cpp:148] Top shape: 50 2048 4 4 (1638400)
I1022 09:22:58.489745  7216 net.cpp:156] Memory required for data: 602727000
I1022 09:22:58.489745  7216 layer_factory.hpp:77] Creating layer cccp5
I1022 09:22:58.489745  7216 net.cpp:91] Creating Layer cccp5
I1022 09:22:58.489745  7216 net.cpp:425] cccp5 <- cccp4
I1022 09:22:58.489745  7216 net.cpp:399] cccp5 -> cccp5
I1022 09:22:58.496094  7216 net.cpp:141] Setting up cccp5
I1022 09:22:58.496094  7216 net.cpp:148] Top shape: 50 256 4 4 (204800)
I1022 09:22:58.496094  7216 net.cpp:156] Memory required for data: 603546200
I1022 09:22:58.496593  7216 layer_factory.hpp:77] Creating layer relu_cccp5
I1022 09:22:58.496593  7216 net.cpp:91] Creating Layer relu_cccp5
I1022 09:22:58.496593  7216 net.cpp:425] relu_cccp5 <- cccp5
I1022 09:22:58.496593  7216 net.cpp:386] relu_cccp5 -> cccp5 (in-place)
I1022 09:22:58.497093  7216 net.cpp:141] Setting up relu_cccp5
I1022 09:22:58.497093  7216 net.cpp:148] Top shape: 50 256 4 4 (204800)
I1022 09:22:58.497093  7216 net.cpp:156] Memory required for data: 604365400
I1022 09:22:58.497093  7216 layer_factory.hpp:77] Creating layer poolcp5
I1022 09:22:58.497093  7216 net.cpp:91] Creating Layer poolcp5
I1022 09:22:58.497093  7216 net.cpp:425] poolcp5 <- cccp5
I1022 09:22:58.497093  7216 net.cpp:399] poolcp5 -> poolcp5
I1022 09:22:58.497093  7216 net.cpp:141] Setting up poolcp5
I1022 09:22:58.497093  7216 net.cpp:148] Top shape: 50 256 2 2 (51200)
I1022 09:22:58.497093  7216 net.cpp:156] Memory required for data: 604570200
I1022 09:22:58.497093  7216 layer_factory.hpp:77] Creating layer drop4_5
I1022 09:22:58.497093  7216 net.cpp:91] Creating Layer drop4_5
I1022 09:22:58.497093  7216 net.cpp:425] drop4_5 <- poolcp5
I1022 09:22:58.497093  7216 net.cpp:386] drop4_5 -> poolcp5 (in-place)
I1022 09:22:58.497093  7216 net.cpp:141] Setting up drop4_5
I1022 09:22:58.497093  7216 net.cpp:148] Top shape: 50 256 2 2 (51200)
I1022 09:22:58.497093  7216 net.cpp:156] Memory required for data: 604775000
I1022 09:22:58.497093  7216 layer_factory.hpp:77] Creating layer cccp6
I1022 09:22:58.497093  7216 net.cpp:91] Creating Layer cccp6
I1022 09:22:58.497093  7216 net.cpp:425] cccp6 <- poolcp5
I1022 09:22:58.497093  7216 net.cpp:399] cccp6 -> cccp6
I1022 09:22:58.504600  7216 net.cpp:141] Setting up cccp6
I1022 09:22:58.504600  7216 net.cpp:148] Top shape: 50 256 2 2 (51200)
I1022 09:22:58.504600  7216 net.cpp:156] Memory required for data: 604979800
I1022 09:22:58.504600  7216 layer_factory.hpp:77] Creating layer relu_cccp6
I1022 09:22:58.504600  7216 net.cpp:91] Creating Layer relu_cccp6
I1022 09:22:58.504600  7216 net.cpp:425] relu_cccp6 <- cccp6
I1022 09:22:58.504600  7216 net.cpp:386] relu_cccp6 -> cccp6 (in-place)
I1022 09:22:58.504600  7216 net.cpp:141] Setting up relu_cccp6
I1022 09:22:58.504600  7216 net.cpp:148] Top shape: 50 256 2 2 (51200)
I1022 09:22:58.504600  7216 net.cpp:156] Memory required for data: 605184600
I1022 09:22:58.504600  7216 layer_factory.hpp:77] Creating layer poolcp6
I1022 09:22:58.504600  7216 net.cpp:91] Creating Layer poolcp6
I1022 09:22:58.504600  7216 net.cpp:425] poolcp6 <- cccp6
I1022 09:22:58.504600  7216 net.cpp:399] poolcp6 -> poolcp6
I1022 09:22:58.505100  7216 net.cpp:141] Setting up poolcp6
I1022 09:22:58.505100  7216 net.cpp:148] Top shape: 50 256 1 1 (12800)
I1022 09:22:58.505100  7216 net.cpp:156] Memory required for data: 605235800
I1022 09:22:58.505100  7216 layer_factory.hpp:77] Creating layer ip1
I1022 09:22:58.505100  7216 net.cpp:91] Creating Layer ip1
I1022 09:22:58.505100  7216 net.cpp:425] ip1 <- poolcp6
I1022 09:22:58.505100  7216 net.cpp:399] ip1 -> ip1
I1022 09:22:58.505100  7216 net.cpp:141] Setting up ip1
I1022 09:22:58.505100  7216 net.cpp:148] Top shape: 50 100 (5000)
I1022 09:22:58.505100  7216 net.cpp:156] Memory required for data: 605255800
I1022 09:22:58.505100  7216 layer_factory.hpp:77] Creating layer ip1_ip1_0_split
I1022 09:22:58.505100  7216 net.cpp:91] Creating Layer ip1_ip1_0_split
I1022 09:22:58.505599  7216 net.cpp:425] ip1_ip1_0_split <- ip1
I1022 09:22:58.505599  7216 net.cpp:399] ip1_ip1_0_split -> ip1_ip1_0_split_0
I1022 09:22:58.505599  7216 net.cpp:399] ip1_ip1_0_split -> ip1_ip1_0_split_1
I1022 09:22:58.505599  7216 net.cpp:141] Setting up ip1_ip1_0_split
I1022 09:22:58.505599  7216 net.cpp:148] Top shape: 50 100 (5000)
I1022 09:22:58.505599  7216 net.cpp:148] Top shape: 50 100 (5000)
I1022 09:22:58.505599  7216 net.cpp:156] Memory required for data: 605295800
I1022 09:22:58.505599  7216 layer_factory.hpp:77] Creating layer accuracy
I1022 09:22:58.505599  7216 net.cpp:91] Creating Layer accuracy
I1022 09:22:58.505599  7216 net.cpp:425] accuracy <- ip1_ip1_0_split_0
I1022 09:22:58.505599  7216 net.cpp:425] accuracy <- label_cifar_1_split_0
I1022 09:22:58.505599  7216 net.cpp:399] accuracy -> accuracy
…
