…
I0310 23:29:05.930707 17628 net.cpp:322] The NetState phase (1) differed from the phase (0) specified by a rule in layer bn4_2
I0310 23:29:05.930707 17628 net.cpp:322] The NetState phase (1) differed from the phase (0) specified by a rule in layer bn4_0
I0310 23:29:05.940693 17628 net.cpp:58] Initializing net from parameters:
name: "CIFAR100_full"
state {
  phase: TEST
  level: 0
  stage: ""
}
layer {
  name: "cifar"
  type: "Data"
  top: "data"
  top: "label"
  include {
    phase: TEST
  }
  transform_param {
    crop_size: 32
  }
  data_param {
    source: "G:/Caffe/examples/cifar100/cifar100_test_leveldb_padding"
    batch_size: 50
    backend: LEVELDB
  }
}
layer {
  name: "conv1"
  type: "Convolution"
  bottom: "data"
  top: "conv1"
  param {
    lr_mult: 1
  }
  convolution_param {
    num_output: 64
    bias_term: true
    pad: 1
    kernel_size: 3
    stride: 1
    weight_filler {
      type: "xavier"
    }
  }
}
layer {
  name: "bn1"
  type: "BatchNorm"
  bottom: "conv1"
  top: "bn1"
  include {
    phase: TEST
  }
  batch_norm_param {
    use_global_stats: true
    moving_average_fraction: 0.95
  }
}
layer {
  name: "scale1"
  type: "Scale"
  bottom: "bn1"
  top: "scale1"
  scale_param {
    bias_term: true
  }
}
layer {
  name: "relu1"
  type: "ReLU"
  bottom: "scale1"
  top: "relu1"
}
layer {
  name: "drop2_1"
  type: "Dropout"
  bottom: "relu1"
  top: "relu1"
  dropout_param {
    dropout_ratio: 0.2
  }
}
layer {
  name: "conv1_0"
  type: "Convolution"
  bottom: "relu1"
  top: "conv1_0"
  param {
    lr_mult: 1
  }
  convolution_param {
    num_output: 128
    bias_term: true
    pad: 1
    kernel_size: 3
    stride: 1
    weight_filler {
      type: "xavier"
    }
  }
}
layer {
  name: "bn1_0"
  type: "BatchNorm"
  bottom: "conv1_0"
  top: "bn1_0"
  include {
    phase: TEST
  }
  batch_norm_param {
    use_global_stats: true
    moving_average_fraction: 0.95
  }
}
layer {
  name: "scale1_0"
  type: "Scale"
  bottom: "bn1_0"
  top: "scale1_0"
  scale_param {
    bias_term: true
  }
}
layer {
  name: "relu1_0"
  type: "ReLU"
  bottom: "scale1_0"
  top: "relu1_0"
}
layer {
  name: "drop1_0"
  type: "Dropout"
  bottom: "relu1_0"
  top: "relu1_0"
  dropout_param {
    dropout_ratio: 0.2
  }
}
layer {
  name: "conv2"
  type: "Convolution"
  bottom: "relu1_0"
  top: "conv2"
  param {
    lr_mult: 1
  }
  convolution_param {
    num_output: 128
    bias_term: true
    pad: 1
    kernel_size: 3
    stride: 1
    weight_filler {
      type: "gaussian"
      std: 0.01
    }
  }
}
layer {
  name: "bn2"
  type: "BatchNorm"
  bottom: "conv2"
  top: "bn2"
  include {
    phase: TEST
  }
  batch_norm_param {
    use_global_stats: true
    moving_average_fraction: 0.95
  }
}
layer {
  name: "scale2"
  type: "Scale"
  bottom: "bn2"
  top: "scale2"
  scale_param {
    bias_term: true
  }
}
layer {
  name: "relu2"
  type: "ReLU"
  bottom: "scale2"
  top: "relu2"
}
layer {
  name: "drop2_0"
  type: "Dropout"
  bottom: "relu2"
  top: "relu2"
  dropout_param {
    dropout_ratio: 0.2
  }
}
layer {
  name: "conv2_1"
  type: "Convolution"
  bottom: "relu2"
  top: "conv2_1"
  param {
    lr_mult: 1
  }
  convolution_param {
    num_output: 128
    bias_term: true
    pad: 1
    kernel_size: 3
    stride: 1
    weight_filler {
      type: "gaussian"
      std: 0.01
    }
  }
}
layer {
  name: "bn2_1"
  type: "BatchNorm"
  bottom: "conv2_1"
  top: "bn2_1"
  include {
    phase: TEST
  }
  batch_norm_param {
    use_global_stats: true
    moving_average_fraction: 0.95
  }
}
layer {
  name: "scale2_1"
  type: "Scale"
  bottom: "bn2_1"
  top: "scale2_1"
  scale_param {
    bias_term: true
  }
}
layer {
  name: "relu2_1"
  type: "ReLU"
  bottom: "scale2_1"
  top: "relu2_1"
}
layer {
  name: "pool2_1"
  type: "Pooling"
  bottom: "relu2_1"
  top: "pool2_1"
  pooling_param {
    pool: MAX
    kernel_size: 2
    stride: 2
  }
}
layer {
  name: "drop2_1"
  type: "Dropout"
  bottom: "pool2_1"
  top: "pool2_1"
  dropout_param {
    dropout_ratio: 0.2
  }
}
layer {
  name: "conv2_2"
  type: "Convolution"
  bottom: "pool2_1"
  top: "conv2_2"
  param {
    lr_mult: 1
  }
  convolution_param {
    num_output: 128
    bias_term: true
    pad: 1
    kernel_size: 3
    stride: 1
    weight_filler {
      type: "gaussian"
      std: 0.01
    }
  }
}
layer {
  name: "bn2_2"
  type: "BatchNorm"
  bottom: "conv2_2"
  top: "bn2_2"
  include {
    phase: TEST
  }
  batch_norm_param {
    use_global_stats: true
    moving_average_fraction: 0.95
  }
}
layer {
  name: "scale2_2"
  type: "Scale"
  bottom: "bn2_2"
  top: "scale2_2"
  scale_param {
    bias_term: true
  }
}
layer {
  name: "relu2_2"
  type: "ReLU"
  bottom: "scale2_2"
  top: "relu2_2"
}
layer {
  name: "drop2_2"
  type: "Dropout"
  bottom: "relu2_2"
  top: "relu2_2"
  dropout_param {
    dropout_ratio: 0.2
  }
}
layer {
  name: "conv3"
  type: "Convolution"
  bottom: "relu2_2"
  top: "conv3"
  param {
    lr_mult: 1
  }
  convolution_param {
    num_output: 128
    bias_term: true
    pad: 1
    kernel_size: 3
    stride: 1
    weight_filler {
      type: "xavier"
    }
  }
}
layer {
  name: "bn3"
  type: "BatchNorm"
  bottom: "conv3"
  top: "bn3"
  include {
    phase: TEST
  }
  batch_norm_param {
    use_global_stats: true
    moving_average_fraction: 0.95
  }
}
layer {
  name: "scale3"
  type: "Scale"
  bottom: "bn3"
  top: "scale3"
  scale_param {
    bias_term: true
  }
}
layer {
  name: "relu3"
  type: "ReLU"
  bottom: "scale3"
  top: "relu3"
}
layer {
  name: "drop3"
  type: "Dropout"
  bottom: "relu3"
  top: "relu3"
  dropout_param {
    dropout_ratio: 0.2
  }
}
layer {
  name: "conv4"
  type: "Convolution"
  bottom: "relu3"
  top: "conv4"
  param {
    lr_mult: 1
  }
  convolution_param {
    num_output: 256
    bias_term: true
    pad: 1
    kernel_size: 3
    stride: 1
    weight_filler {
      type: "xavier"
    }
  }
}
layer {
  name: "pool4"
  type: "Pooling"
  bottom: "conv4"
  top: "pool4"
  pooling_param {
    pool: MAX
    kernel_size: 2
    stride: 2
  }
}
layer {
  name: "bn4"
  type: "BatchNorm"
  bottom: "pool4"
  top: "bn4"
  include {
    phase: TEST
  }
  batch_norm_param {
    use_global_stats: true
    moving_average_fraction: 0.95
  }
}
layer {
  name: "scale4"
  type: "Scale"
  bottom: "bn4"
  top: "scale4"
  scale_param {
    bias_term: true
  }
}
layer {
  name: "relu4"
  type: "ReLU"
  bottom: "scale4"
  top: "relu4"
}
layer {
  name: "drop4"
  type: "Dropout"
  bottom: "relu4"
  top: "relu4"
  dropout_param {
    dropout_ratio: 0.2
  }
}
layer {
  name: "conv4_1"
  type: "Convolution"
  bottom: "relu4"
  top: "conv4_1"
  param {
    lr_mult: 1
  }
  convolution_param {
    num_output: 256
    bias_term: true
    pad: 1
    kernel_size: 3
    stride: 1
    weight_filler {
      type: "xavier"
    }
  }
}
layer {
  name: "bn4_1"
  type: "BatchNorm"
  bottom: "conv4_1"
  top: "bn4_1"
  include {
    phase: TEST
  }
  batch_norm_param {
    use_global_stats: true
    moving_average_fraction: 0.95
  }
}
layer {
  name: "scale4_1"
  type: "Scale"
  bottom: "bn4_1"
  top: "scale4_1"
  scale_param {
    bias_term: true
  }
}
layer {
  name: "relu4_1"
  type: "ReLU"
  bottom: "scale4_1"
  top: "relu4_1"
}
layer {
  name: "drop4_1"
  type: "Dropout"
  bottom: "relu4_1"
  top: "relu4_1"
  dropout_param {
    dropout_ratio: 0.2
  }
}
layer {
  name: "conv4_2"
  type: "Convolution"
  bottom: "relu4_1"
  top: "conv4_2"
  param {
    lr_mult: 1
  }
  convolution_param {
    num_output: 256
    bias_term: true
    pad: 1
    kernel_size: 3
    stride: 1
    weight_filler {
      type: "xavier"
    }
  }
}
layer {
  name: "bn4_2"
  type: "BatchNorm"
  bottom: "conv4_2"
  top: "bn4_2"
  include {
    phase: TEST
  }
  batch_norm_param {
    use_global_stats: true
    moving_average_fraction: 0.95
  }
}
layer {
  name: "scale4_2"
  type: "Scale"
  bottom: "bn4_2"
  top: "scale4_2"
  scale_param {
    bias_term: true
  }
}
layer {
  name: "relu4_2"
  type: "ReLU"
  bottom: "scale4_2"
  top: "relu4_2"
}
layer {
  name: "drop4_2"
  type: "Dropout"
  bottom: "relu4_2"
  top: "relu4_2"
  dropout_param {
    dropout_ratio: 0.2
  }
}
layer {
  name: "pool4_2"
  type: "Pooling"
  bottom: "relu4_2"
  top: "pool4_2"
  pooling_param {
    pool: MAX
    kernel_size: 2
    stride: 2
  }
}
layer {
  name: "conv4_0"
  type: "Convolution"
  bottom: "pool4_2"
  top: "conv4_0"
  param {
    lr_mult: 1
  }
  convolution_param {
    num_output: 512
    bias_term: true
    pad: 1
    kernel_size: 3
    stride: 1
    weight_filler {
      type: "xavier"
    }
  }
}
layer {
  name: "bn4_0"
  type: "BatchNorm"
  bottom: "conv4_0"
  top: "bn4_0"
  include {
    phase: TEST
  }
  batch_norm_param {
    use_global_stats: true
    moving_average_fraction: 0.95
  }
}
layer {
  name: "scale4_0"
  type: "Scale"
  bottom: "bn4_0"
  top: "scale4_0"
  scale_param {
    bias_term: true
  }
}
layer {
  name: "relu4_0"
  type: "ReLU"
  bottom: "scale4_0"
  top: "relu4_0"
}
layer {
  name: "drop4_0"
  type: "Dropout"
  bottom: "relu4_0"
  top: "relu4_0"
  dropout_param {
    dropout_ratio: 0.2
  }
}
layer {
  name: "cccp4"
  type: "Convolution"
  bottom: "relu4_0"
  top: "cccp4"
  param {
    lr_mult: 1
    decay_mult: 1
  }
  param {
    lr_mult: 2
    decay_mult: 0
  }
  convolution_param {
    num_output: 2048
    kernel_size: 1
    group: 1
    weight_filler {
      type: "xavier"
    }
    bias_filler {
      type: "constant"
      value: 0
    }
  }
}
layer {
  name: "relu_cccp4"
  type: "ReLU"
  bottom: "cccp4"
  top: "cccp4"
}
layer {
  name: "drop4_3"
  type: "Dropout"
  bottom: "cccp4"
  top: "cccp4"
  dropout_param {
    dropout_ratio: 0.2
  }
}
layer {
  name: "cccp5"
  type: "Convolution"
  bottom: "cccp4"
  top: "cccp5"
  param {
    lr_mult: 1
    decay_mult: 1
  }
  param {
    lr_mult: 2
    decay_mult: 0
  }
  convolution_param {
    num_output: 256
    kernel_size: 1
    group: 1
    weight_filler {
      type: "xavier"
    }
    bias_filler {
      type: "constant"
      value: 0
    }
  }
}
layer {
  name: "relu_cccp5"
  type: "ReLU"
  bottom: "cccp5"
  top: "cccp5"
}
layer {
  name: "poolcp5"
  type: "Pooling"
  bottom: "cccp5"
  top: "poolcp5"
  pooling_param {
    pool: MAX
    kernel_size: 2
    stride: 2
  }
}
layer {
  name: "drop4_5"
  type: "Dropout"
  bottom: "poolcp5"
  top: "poolcp5"
  dropout_param {
    dropout_ratio: 0.2
  }
}
layer {
  name: "cccp6"
  type: "Convolution"
  bottom: "poolcp5"
  top: "cccp6"
  param {
    lr_mult: 1
    decay_mult: 1
  }
  param {
    lr_mult: 2
    decay_mult: 0
  }
  convolution_param {
    num_output: 256
    pad: 1
    kernel_size: 3
    group: 1
    weight_filler {
      type: "xavier"
    }
    bias_filler {
      type: "constant"
      value: 0
    }
  }
}
layer {
  name: "relu_cccp6"
  type: "ReLU"
  bottom: "cccp6"
  top: "cccp6"
}
layer {
  name: "poolcp6"
  type: "Pooling"
  bottom: "cccp6"
  top: "poolcp6"
  pooling_param {
    pool: MAX
    kernel_size: 2
    stride: 2
  }
}
layer {
  name: "ip1"
  type: "InnerProduct"
  bottom: "poolcp6"
  top: "ip1"
  param {
    lr_mult: 1
    decay_mult: 0
  }
  param {
    lr_mult: 2
    decay_mult: 0
  }
  inner_product_param {
    num_output: 100
    weight_filler {
      type: "xavier"
    }
    bias_filler {
      type: "constant"
    }
  }
}
layer {
  name: "accuracy"
  type: "Accuracy"
  bottom: "ip1"
  bottom: "label"
  top: "accuracy"
  include {
    phase: TEST
  }
}
layer {
  name: "loss"
  type: "SoftmaxWithLoss"
  bottom: "ip1"
  bottom: "label"
  top: "loss"
}
I0310 23:29:05.960695 17628 layer_factory.cpp:58] Creating layer cifar
I0310 23:29:05.960695 17628 common.cpp:36] System entropy source not available, using fallback algorithm to generate seed instead.
I0310 23:29:05.960695 17628 net.cpp:100] Creating Layer cifar
I0310 23:29:05.960695 17628 net.cpp:408] cifar -> data
I0310 23:29:05.960695 17628 net.cpp:408] cifar -> label
I0310 23:29:05.960695  2532 common.cpp:36] System entropy source not available, using fallback algorithm to generate seed instead.
I0310 23:29:05.960695  2532 db_leveldb.cpp:18] Opened leveldb G:/Caffe/examples/cifar100/cifar100_test_leveldb_padding
I0310 23:29:05.980695 17628 data_layer.cpp:41] output data size: 50,3,32,32
I0310 23:29:05.990694 17628 net.cpp:150] Setting up cifar
I0310 23:29:05.990694 17628 net.cpp:157] Top shape: 50 3 32 32 (153600)
I0310 23:29:05.990694  9432 common.cpp:36] System entropy source not available, using fallback algorithm to generate seed instead.
I0310 23:29:05.990694 17628 net.cpp:157] Top shape: 50 (50)
I0310 23:29:05.990694 17628 net.cpp:165] Memory required for data: 614600
I0310 23:29:05.990694 17628 layer_factory.cpp:58] Creating layer label_cifar_1_split
I0310 23:29:05.990694 17628 net.cpp:100] Creating Layer label_cifar_1_split
I0310 23:29:05.990694 17628 net.cpp:434] label_cifar_1_split <- label
I0310 23:29:05.990694 17628 net.cpp:408] label_cifar_1_split -> label_cifar_1_split_0
I0310 23:29:05.990694 17628 net.cpp:408] label_cifar_1_split -> label_cifar_1_split_1
I0310 23:29:05.990694 17628 net.cpp:150] Setting up label_cifar_1_split
I0310 23:29:05.990694 17628 net.cpp:157] Top shape: 50 (50)
I0310 23:29:05.990694 17628 net.cpp:157] Top shape: 50 (50)
I0310 23:29:05.990694 17628 net.cpp:165] Memory required for data: 615000
I0310 23:29:05.990694 17628 layer_factory.cpp:58] Creating layer conv1
I0310 23:29:05.990694 17628 net.cpp:100] Creating Layer conv1
I0310 23:29:05.990694 17628 net.cpp:434] conv1 <- data
I0310 23:29:05.990694 17628 net.cpp:408] conv1 -> conv1
I0310 23:29:06.225769 17628 net.cpp:150] Setting up conv1
I0310 23:29:06.225769 17628 net.cpp:157] Top shape: 50 64 32 32 (3276800)
I0310 23:29:06.226269 17628 net.cpp:165] Memory required for data: 13722200
I0310 23:29:06.226771 17628 layer_factory.cpp:58] Creating layer bn1
I0310 23:29:06.227269 17628 net.cpp:100] Creating Layer bn1
I0310 23:29:06.227269 17628 net.cpp:434] bn1 <- conv1
I0310 23:29:06.227771 17628 net.cpp:408] bn1 -> bn1
I0310 23:29:06.228269 17628 net.cpp:150] Setting up bn1
I0310 23:29:06.228269 17628 net.cpp:157] Top shape: 50 64 32 32 (3276800)
I0310 23:29:06.228770 17628 net.cpp:165] Memory required for data: 26829400
I0310 23:29:06.228770 17628 layer_factory.cpp:58] Creating layer scale1
I0310 23:29:06.229269 17628 net.cpp:100] Creating Layer scale1
I0310 23:29:06.229769 17628 net.cpp:434] scale1 <- bn1
I0310 23:29:06.229769 17628 net.cpp:408] scale1 -> scale1
I0310 23:29:06.230269 17628 layer_factory.cpp:58] Creating layer scale1
I0310 23:29:06.230770 17628 net.cpp:150] Setting up scale1
I0310 23:29:06.230770 17628 net.cpp:157] Top shape: 50 64 32 32 (3276800)
I0310 23:29:06.230770 17628 net.cpp:165] Memory required for data: 39936600
I0310 23:29:06.230770 17628 layer_factory.cpp:58] Creating layer relu1
I0310 23:29:06.230770 17628 net.cpp:100] Creating Layer relu1
I0310 23:29:06.230770 17628 net.cpp:434] relu1 <- scale1
I0310 23:29:06.230770 17628 net.cpp:408] relu1 -> relu1
I0310 23:29:06.230770 17628 net.cpp:150] Setting up relu1
I0310 23:29:06.230770 17628 net.cpp:157] Top shape: 50 64 32 32 (3276800)
I0310 23:29:06.230770 17628 net.cpp:165] Memory required for data: 53043800
I0310 23:29:06.230770 17628 layer_factory.cpp:58] Creating layer drop2_1
I0310 23:29:06.230770 17628 net.cpp:100] Creating Layer drop2_1
I0310 23:29:06.230770 17628 net.cpp:434] drop2_1 <- relu1
I0310 23:29:06.230770 17628 net.cpp:395] drop2_1 -> relu1 (in-place)
I0310 23:29:06.230770 17628 net.cpp:150] Setting up drop2_1
I0310 23:29:06.230770 17628 net.cpp:157] Top shape: 50 64 32 32 (3276800)
I0310 23:29:06.230770 17628 net.cpp:165] Memory required for data: 66151000
I0310 23:29:06.230770 17628 layer_factory.cpp:58] Creating layer conv1_0
I0310 23:29:06.230770 17628 net.cpp:100] Creating Layer conv1_0
I0310 23:29:06.230770 17628 net.cpp:434] conv1_0 <- relu1
I0310 23:29:06.230770 17628 net.cpp:408] conv1_0 -> conv1_0
I0310 23:29:06.230770 17628 net.cpp:150] Setting up conv1_0
I0310 23:29:06.230770 17628 net.cpp:157] Top shape: 50 128 32 32 (6553600)
I0310 23:29:06.230770 17628 net.cpp:165] Memory required for data: 92365400
I0310 23:29:06.230770 17628 layer_factory.cpp:58] Creating layer bn1_0
I0310 23:29:06.230770 17628 net.cpp:100] Creating Layer bn1_0
I0310 23:29:06.230770 17628 net.cpp:434] bn1_0 <- conv1_0
I0310 23:29:06.230770 17628 net.cpp:408] bn1_0 -> bn1_0
I0310 23:29:06.240882 17628 net.cpp:150] Setting up bn1_0
I0310 23:29:06.240882 17628 net.cpp:157] Top shape: 50 128 32 32 (6553600)
I0310 23:29:06.240882 17628 net.cpp:165] Memory required for data: 118579800
I0310 23:29:06.240882 17628 layer_factory.cpp:58] Creating layer scale1_0
I0310 23:29:06.240882 17628 net.cpp:100] Creating Layer scale1_0
I0310 23:29:06.240882 17628 net.cpp:434] scale1_0 <- bn1_0
I0310 23:29:06.240882 17628 net.cpp:408] scale1_0 -> scale1_0
I0310 23:29:06.240882 17628 layer_factory.cpp:58] Creating layer scale1_0
I0310 23:29:06.240882 17628 net.cpp:150] Setting up scale1_0
I0310 23:29:06.240882 17628 net.cpp:157] Top shape: 50 128 32 32 (6553600)
I0310 23:29:06.240882 17628 net.cpp:165] Memory required for data: 144794200
I0310 23:29:06.240882 17628 layer_factory.cpp:58] Creating layer relu1_0
I0310 23:29:06.240882 17628 net.cpp:100] Creating Layer relu1_0
I0310 23:29:06.240882 17628 net.cpp:434] relu1_0 <- scale1_0
I0310 23:29:06.240882 17628 net.cpp:408] relu1_0 -> relu1_0
I0310 23:29:06.240882 17628 net.cpp:150] Setting up relu1_0
I0310 23:29:06.240882 17628 net.cpp:157] Top shape: 50 128 32 32 (6553600)
I0310 23:29:06.240882 17628 net.cpp:165] Memory required for data: 171008600
I0310 23:29:06.240882 17628 layer_factory.cpp:58] Creating layer drop1_0
I0310 23:29:06.240882 17628 net.cpp:100] Creating Layer drop1_0
I0310 23:29:06.240882 17628 net.cpp:434] drop1_0 <- relu1_0
I0310 23:29:06.240882 17628 net.cpp:395] drop1_0 -> relu1_0 (in-place)
I0310 23:29:06.240882 17628 net.cpp:150] Setting up drop1_0
I0310 23:29:06.240882 17628 net.cpp:157] Top shape: 50 128 32 32 (6553600)
I0310 23:29:06.240882 17628 net.cpp:165] Memory required for data: 197223000
I0310 23:29:06.250877 17628 layer_factory.cpp:58] Creating layer conv2
I0310 23:29:06.250877 17628 net.cpp:100] Creating Layer conv2
I0310 23:29:06.250877 17628 net.cpp:434] conv2 <- relu1_0
I0310 23:29:06.250877 17628 net.cpp:408] conv2 -> conv2
I0310 23:29:06.250877 17628 net.cpp:150] Setting up conv2
I0310 23:29:06.250877 17628 net.cpp:157] Top shape: 50 128 32 32 (6553600)
I0310 23:29:06.250877 17628 net.cpp:165] Memory required for data: 223437400
I0310 23:29:06.250877 17628 layer_factory.cpp:58] Creating layer bn2
I0310 23:29:06.250877 17628 net.cpp:100] Creating Layer bn2
I0310 23:29:06.250877 17628 net.cpp:434] bn2 <- conv2
I0310 23:29:06.250877 17628 net.cpp:408] bn2 -> bn2
I0310 23:29:06.250877 17628 net.cpp:150] Setting up bn2
I0310 23:29:06.250877 17628 net.cpp:157] Top shape: 50 128 32 32 (6553600)
I0310 23:29:06.250877 17628 net.cpp:165] Memory required for data: 249651800
I0310 23:29:06.260877 17628 layer_factory.cpp:58] Creating layer scale2
I0310 23:29:06.260877 17628 net.cpp:100] Creating Layer scale2
I0310 23:29:06.260877 17628 net.cpp:434] scale2 <- bn2
I0310 23:29:06.260877 17628 net.cpp:408] scale2 -> scale2
I0310 23:29:06.260877 17628 layer_factory.cpp:58] Creating layer scale2
I0310 23:29:06.260877 17628 net.cpp:150] Setting up scale2
I0310 23:29:06.260877 17628 net.cpp:157] Top shape: 50 128 32 32 (6553600)
I0310 23:29:06.260877 17628 net.cpp:165] Memory required for data: 275866200
I0310 23:29:06.260877 17628 layer_factory.cpp:58] Creating layer relu2
I0310 23:29:06.260877 17628 net.cpp:100] Creating Layer relu2
I0310 23:29:06.260877 17628 net.cpp:434] relu2 <- scale2
I0310 23:29:06.260877 17628 net.cpp:408] relu2 -> relu2
I0310 23:29:06.260877 17628 net.cpp:150] Setting up relu2
I0310 23:29:06.260877 17628 net.cpp:157] Top shape: 50 128 32 32 (6553600)
I0310 23:29:06.260877 17628 net.cpp:165] Memory required for data: 302080600
I0310 23:29:06.260877 17628 layer_factory.cpp:58] Creating layer drop2_0
I0310 23:29:06.260877 17628 net.cpp:100] Creating Layer drop2_0
I0310 23:29:06.260877 17628 net.cpp:434] drop2_0 <- relu2
I0310 23:29:06.260877 17628 net.cpp:395] drop2_0 -> relu2 (in-place)
I0310 23:29:06.260877 17628 net.cpp:150] Setting up drop2_0
I0310 23:29:06.260877 17628 net.cpp:157] Top shape: 50 128 32 32 (6553600)
I0310 23:29:06.260877 17628 net.cpp:165] Memory required for data: 328295000
I0310 23:29:06.260877 17628 layer_factory.cpp:58] Creating layer conv2_1
I0310 23:29:06.260877 17628 net.cpp:100] Creating Layer conv2_1
I0310 23:29:06.260877 17628 net.cpp:434] conv2_1 <- relu2
I0310 23:29:06.260877 17628 net.cpp:408] conv2_1 -> conv2_1
I0310 23:29:06.270876 17628 net.cpp:150] Setting up conv2_1
I0310 23:29:06.270876 17628 net.cpp:157] Top shape: 50 128 32 32 (6553600)
I0310 23:29:06.270876 17628 net.cpp:165] Memory required for data: 354509400
I0310 23:29:06.270876 17628 layer_factory.cpp:58] Creating layer bn2_1
I0310 23:29:06.270876 17628 net.cpp:100] Creating Layer bn2_1
I0310 23:29:06.270876 17628 net.cpp:434] bn2_1 <- conv2_1
I0310 23:29:06.270876 17628 net.cpp:408] bn2_1 -> bn2_1
I0310 23:29:06.270876 17628 net.cpp:150] Setting up bn2_1
I0310 23:29:06.270876 17628 net.cpp:157] Top shape: 50 128 32 32 (6553600)
I0310 23:29:06.270876 17628 net.cpp:165] Memory required for data: 380723800
I0310 23:29:06.270876 17628 layer_factory.cpp:58] Creating layer scale2_1
I0310 23:29:06.270876 17628 net.cpp:100] Creating Layer scale2_1
I0310 23:29:06.270876 17628 net.cpp:434] scale2_1 <- bn2_1
I0310 23:29:06.270876 17628 net.cpp:408] scale2_1 -> scale2_1
I0310 23:29:06.270876 17628 layer_factory.cpp:58] Creating layer scale2_1
I0310 23:29:06.270876 17628 net.cpp:150] Setting up scale2_1
I0310 23:29:06.270876 17628 net.cpp:157] Top shape: 50 128 32 32 (6553600)
I0310 23:29:06.270876 17628 net.cpp:165] Memory required for data: 406938200
I0310 23:29:06.270876 17628 layer_factory.cpp:58] Creating layer relu2_1
I0310 23:29:06.270876 17628 net.cpp:100] Creating Layer relu2_1
I0310 23:29:06.270876 17628 net.cpp:434] relu2_1 <- scale2_1
I0310 23:29:06.270876 17628 net.cpp:408] relu2_1 -> relu2_1
I0310 23:29:06.280877 17628 net.cpp:150] Setting up relu2_1
I0310 23:29:06.280877 17628 net.cpp:157] Top shape: 50 128 32 32 (6553600)
I0310 23:29:06.280877 17628 net.cpp:165] Memory required for data: 433152600
I0310 23:29:06.280877 17628 layer_factory.cpp:58] Creating layer pool2_1
I0310 23:29:06.280877 17628 net.cpp:100] Creating Layer pool2_1
I0310 23:29:06.280877 17628 net.cpp:434] pool2_1 <- relu2_1
I0310 23:29:06.280877 17628 net.cpp:408] pool2_1 -> pool2_1
I0310 23:29:06.280877 17628 net.cpp:150] Setting up pool2_1
I0310 23:29:06.280877 17628 net.cpp:157] Top shape: 50 128 16 16 (1638400)
I0310 23:29:06.280877 17628 net.cpp:165] Memory required for data: 439706200
I0310 23:29:06.280877 17628 layer_factory.cpp:58] Creating layer drop2_1
I0310 23:29:06.280877 17628 net.cpp:100] Creating Layer drop2_1
I0310 23:29:06.280877 17628 net.cpp:434] drop2_1 <- pool2_1
I0310 23:29:06.280877 17628 net.cpp:395] drop2_1 -> pool2_1 (in-place)
I0310 23:29:06.280877 17628 net.cpp:150] Setting up drop2_1
I0310 23:29:06.280877 17628 net.cpp:157] Top shape: 50 128 16 16 (1638400)
I0310 23:29:06.280877 17628 net.cpp:165] Memory required for data: 446259800
I0310 23:29:06.280877 17628 layer_factory.cpp:58] Creating layer conv2_2
I0310 23:29:06.280877 17628 net.cpp:100] Creating Layer conv2_2
I0310 23:29:06.280877 17628 net.cpp:434] conv2_2 <- pool2_1
I0310 23:29:06.280877 17628 net.cpp:408] conv2_2 -> conv2_2
I0310 23:29:06.290879 17628 net.cpp:150] Setting up conv2_2
I0310 23:29:06.290879 17628 net.cpp:157] Top shape: 50 128 16 16 (1638400)
I0310 23:29:06.290879 17628 net.cpp:165] Memory required for data: 452813400
I0310 23:29:06.290879 17628 layer_factory.cpp:58] Creating layer bn2_2
I0310 23:29:06.290879 17628 net.cpp:100] Creating Layer bn2_2
I0310 23:29:06.290879 17628 net.cpp:434] bn2_2 <- conv2_2
I0310 23:29:06.290879 17628 net.cpp:408] bn2_2 -> bn2_2
I0310 23:29:06.290879 17628 net.cpp:150] Setting up bn2_2
I0310 23:29:06.290879 17628 net.cpp:157] Top shape: 50 128 16 16 (1638400)
I0310 23:29:06.290879 17628 net.cpp:165] Memory required for data: 459367000
I0310 23:29:06.290879 17628 layer_factory.cpp:58] Creating layer scale2_2
I0310 23:29:06.290879 17628 net.cpp:100] Creating Layer scale2_2
I0310 23:29:06.290879 17628 net.cpp:434] scale2_2 <- bn2_2
I0310 23:29:06.290879 17628 net.cpp:408] scale2_2 -> scale2_2
I0310 23:29:06.290879 17628 layer_factory.cpp:58] Creating layer scale2_2
I0310 23:29:06.290879 17628 net.cpp:150] Setting up scale2_2
I0310 23:29:06.290879 17628 net.cpp:157] Top shape: 50 128 16 16 (1638400)
I0310 23:29:06.290879 17628 net.cpp:165] Memory required for data: 465920600
I0310 23:29:06.290879 17628 layer_factory.cpp:58] Creating layer relu2_2
I0310 23:29:06.290879 17628 net.cpp:100] Creating Layer relu2_2
I0310 23:29:06.290879 17628 net.cpp:434] relu2_2 <- scale2_2
I0310 23:29:06.290879 17628 net.cpp:408] relu2_2 -> relu2_2
I0310 23:29:06.290879 17628 net.cpp:150] Setting up relu2_2
I0310 23:29:06.290879 17628 net.cpp:157] Top shape: 50 128 16 16 (1638400)
I0310 23:29:06.300879 17628 net.cpp:165] Memory required for data: 472474200
I0310 23:29:06.300879 17628 layer_factory.cpp:58] Creating layer drop2_2
I0310 23:29:06.300879 17628 net.cpp:100] Creating Layer drop2_2
I0310 23:29:06.300879 17628 net.cpp:434] drop2_2 <- relu2_2
I0310 23:29:06.300879 17628 net.cpp:395] drop2_2 -> relu2_2 (in-place)
I0310 23:29:06.300879 17628 net.cpp:150] Setting up drop2_2
I0310 23:29:06.300879 17628 net.cpp:157] Top shape: 50 128 16 16 (1638400)
I0310 23:29:06.300879 17628 net.cpp:165] Memory required for data: 479027800
I0310 23:29:06.300879 17628 layer_factory.cpp:58] Creating layer conv3
I0310 23:29:06.300879 17628 net.cpp:100] Creating Layer conv3
I0310 23:29:06.300879 17628 net.cpp:434] conv3 <- relu2_2
I0310 23:29:06.300879 17628 net.cpp:408] conv3 -> conv3
I0310 23:29:06.300879 17628 net.cpp:150] Setting up conv3
I0310 23:29:06.300879 17628 net.cpp:157] Top shape: 50 128 16 16 (1638400)
I0310 23:29:06.300879 17628 net.cpp:165] Memory required for data: 485581400
I0310 23:29:06.300879 17628 layer_factory.cpp:58] Creating layer bn3
I0310 23:29:06.300879 17628 net.cpp:100] Creating Layer bn3
I0310 23:29:06.310878 17628 net.cpp:434] bn3 <- conv3
I0310 23:29:06.310878 17628 net.cpp:408] bn3 -> bn3
I0310 23:29:06.310878 17628 net.cpp:150] Setting up bn3
I0310 23:29:06.310878 17628 net.cpp:157] Top shape: 50 128 16 16 (1638400)
I0310 23:29:06.310878 17628 net.cpp:165] Memory required for data: 492135000
I0310 23:29:06.310878 17628 layer_factory.cpp:58] Creating layer scale3
I0310 23:29:06.310878 17628 net.cpp:100] Creating Layer scale3
I0310 23:29:06.310878 17628 net.cpp:434] scale3 <- bn3
I0310 23:29:06.310878 17628 net.cpp:408] scale3 -> scale3
I0310 23:29:06.310878 17628 layer_factory.cpp:58] Creating layer scale3
I0310 23:29:06.310878 17628 net.cpp:150] Setting up scale3
I0310 23:29:06.310878 17628 net.cpp:157] Top shape: 50 128 16 16 (1638400)
I0310 23:29:06.310878 17628 net.cpp:165] Memory required for data: 498688600
I0310 23:29:06.310878 17628 layer_factory.cpp:58] Creating layer relu3
I0310 23:29:06.310878 17628 net.cpp:100] Creating Layer relu3
I0310 23:29:06.310878 17628 net.cpp:434] relu3 <- scale3
I0310 23:29:06.310878 17628 net.cpp:408] relu3 -> relu3
I0310 23:29:06.310878 17628 net.cpp:150] Setting up relu3
I0310 23:29:06.310878 17628 net.cpp:157] Top shape: 50 128 16 16 (1638400)
I0310 23:29:06.310878 17628 net.cpp:165] Memory required for data: 505242200
I0310 23:29:06.310878 17628 layer_factory.cpp:58] Creating layer drop3
I0310 23:29:06.310878 17628 net.cpp:100] Creating Layer drop3
I0310 23:29:06.310878 17628 net.cpp:434] drop3 <- relu3
I0310 23:29:06.310878 17628 net.cpp:395] drop3 -> relu3 (in-place)
I0310 23:29:06.310878 17628 net.cpp:150] Setting up drop3
I0310 23:29:06.310878 17628 net.cpp:157] Top shape: 50 128 16 16 (1638400)
I0310 23:29:06.310878 17628 net.cpp:165] Memory required for data: 511795800
I0310 23:29:06.322398 17628 layer_factory.cpp:58] Creating layer conv4
I0310 23:29:06.322882 17628 net.cpp:100] Creating Layer conv4
I0310 23:29:06.322882 17628 net.cpp:434] conv4 <- relu3
I0310 23:29:06.323390 17628 net.cpp:408] conv4 -> conv4
I0310 23:29:06.327893 17628 net.cpp:150] Setting up conv4
I0310 23:29:06.328414 17628 net.cpp:157] Top shape: 50 256 16 16 (3276800)
I0310 23:29:06.328883 17628 net.cpp:165] Memory required for data: 524903000
I0310 23:29:06.329382 17628 layer_factory.cpp:58] Creating layer pool4
I0310 23:29:06.329882 17628 net.cpp:100] Creating Layer pool4
I0310 23:29:06.329882 17628 net.cpp:434] pool4 <- conv4
I0310 23:29:06.330883 17628 net.cpp:408] pool4 -> pool4
I0310 23:29:06.330883 17628 net.cpp:150] Setting up pool4
I0310 23:29:06.331382 17628 net.cpp:157] Top shape: 50 256 8 8 (819200)
I0310 23:29:06.331382 17628 net.cpp:165] Memory required for data: 528179800
I0310 23:29:06.331382 17628 layer_factory.cpp:58] Creating layer bn4
I0310 23:29:06.331382 17628 net.cpp:100] Creating Layer bn4
I0310 23:29:06.331382 17628 net.cpp:434] bn4 <- pool4
I0310 23:29:06.331382 17628 net.cpp:408] bn4 -> bn4
I0310 23:29:06.331382 17628 net.cpp:150] Setting up bn4
I0310 23:29:06.331382 17628 net.cpp:157] Top shape: 50 256 8 8 (819200)
I0310 23:29:06.331382 17628 net.cpp:165] Memory required for data: 531456600
I0310 23:29:06.331382 17628 layer_factory.cpp:58] Creating layer scale4
I0310 23:29:06.331382 17628 net.cpp:100] Creating Layer scale4
I0310 23:29:06.331382 17628 net.cpp:434] scale4 <- bn4
I0310 23:29:06.331382 17628 net.cpp:408] scale4 -> scale4
I0310 23:29:06.331382 17628 layer_factory.cpp:58] Creating layer scale4
I0310 23:29:06.331382 17628 net.cpp:150] Setting up scale4
I0310 23:29:06.331382 17628 net.cpp:157] Top shape: 50 256 8 8 (819200)
I0310 23:29:06.331382 17628 net.cpp:165] Memory required for data: 534733400
I0310 23:29:06.331382 17628 layer_factory.cpp:58] Creating layer relu4
I0310 23:29:06.331382 17628 net.cpp:100] Creating Layer relu4
I0310 23:29:06.331382 17628 net.cpp:434] relu4 <- scale4
I0310 23:29:06.331382 17628 net.cpp:408] relu4 -> relu4
I0310 23:29:06.331382 17628 net.cpp:150] Setting up relu4
I0310 23:29:06.331382 17628 net.cpp:157] Top shape: 50 256 8 8 (819200)
I0310 23:29:06.331382 17628 net.cpp:165] Memory required for data: 538010200
I0310 23:29:06.331382 17628 layer_factory.cpp:58] Creating layer drop4
I0310 23:29:06.331382 17628 net.cpp:100] Creating Layer drop4
I0310 23:29:06.331382 17628 net.cpp:434] drop4 <- relu4
I0310 23:29:06.331382 17628 net.cpp:395] drop4 -> relu4 (in-place)
I0310 23:29:06.331382 17628 net.cpp:150] Setting up drop4
I0310 23:29:06.331382 17628 net.cpp:157] Top shape: 50 256 8 8 (819200)
I0310 23:29:06.331382 17628 net.cpp:165] Memory required for data: 541287000
I0310 23:29:06.341387 17628 layer_factory.cpp:58] Creating layer conv4_1
I0310 23:29:06.341387 17628 net.cpp:100] Creating Layer conv4_1
I0310 23:29:06.341387 17628 net.cpp:434] conv4_1 <- relu4
I0310 23:29:06.341387 17628 net.cpp:408] conv4_1 -> conv4_1
I0310 23:29:06.351399 17628 net.cpp:150] Setting up conv4_1
I0310 23:29:06.351399 17628 net.cpp:157] Top shape: 50 256 8 8 (819200)
I0310 23:29:06.351399 17628 net.cpp:165] Memory required for data: 544563800
I0310 23:29:06.351399 17628 layer_factory.cpp:58] Creating layer bn4_1
I0310 23:29:06.351399 17628 net.cpp:100] Creating Layer bn4_1
I0310 23:29:06.351399 17628 net.cpp:434] bn4_1 <- conv4_1
I0310 23:29:06.351399 17628 net.cpp:408] bn4_1 -> bn4_1
I0310 23:29:06.351399 17628 net.cpp:150] Setting up bn4_1
I0310 23:29:06.351399 17628 net.cpp:157] Top shape: 50 256 8 8 (819200)
I0310 23:29:06.351399 17628 net.cpp:165] Memory required for data: 547840600
I0310 23:29:06.351399 17628 layer_factory.cpp:58] Creating layer scale4_1
I0310 23:29:06.351399 17628 net.cpp:100] Creating Layer scale4_1
I0310 23:29:06.351399 17628 net.cpp:434] scale4_1 <- bn4_1
I0310 23:29:06.351399 17628 net.cpp:408] scale4_1 -> scale4_1
I0310 23:29:06.351399 17628 layer_factory.cpp:58] Creating layer scale4_1
I0310 23:29:06.351399 17628 net.cpp:150] Setting up scale4_1
I0310 23:29:06.351399 17628 net.cpp:157] Top shape: 50 256 8 8 (819200)
I0310 23:29:06.351399 17628 net.cpp:165] Memory required for data: 551117400
I0310 23:29:06.351399 17628 layer_factory.cpp:58] Creating layer relu4_1
I0310 23:29:06.351399 17628 net.cpp:100] Creating Layer relu4_1
I0310 23:29:06.351399 17628 net.cpp:434] relu4_1 <- scale4_1
I0310 23:29:06.351399 17628 net.cpp:408] relu4_1 -> relu4_1
I0310 23:29:06.351399 17628 net.cpp:150] Setting up relu4_1
I0310 23:29:06.351399 17628 net.cpp:157] Top shape: 50 256 8 8 (819200)
I0310 23:29:06.351399 17628 net.cpp:165] Memory required for data: 554394200
I0310 23:29:06.351399 17628 layer_factory.cpp:58] Creating layer drop4_1
I0310 23:29:06.361397 17628 net.cpp:100] Creating Layer drop4_1
I0310 23:29:06.361397 17628 net.cpp:434] drop4_1 <- relu4_1
I0310 23:29:06.361397 17628 net.cpp:395] drop4_1 -> relu4_1 (in-place)
I0310 23:29:06.361397 17628 net.cpp:150] Setting up drop4_1
I0310 23:29:06.361397 17628 net.cpp:157] Top shape: 50 256 8 8 (819200)
I0310 23:29:06.361397 17628 net.cpp:165] Memory required for data: 557671000
I0310 23:29:06.361397 17628 layer_factory.cpp:58] Creating layer conv4_2
I0310 23:29:06.361397 17628 net.cpp:100] Creating Layer conv4_2
I0310 23:29:06.361397 17628 net.cpp:434] conv4_2 <- relu4_1
I0310 23:29:06.361397 17628 net.cpp:408] conv4_2 -> conv4_2
I0310 23:29:06.371387 17628 net.cpp:150] Setting up conv4_2
I0310 23:29:06.371387 17628 net.cpp:157] Top shape: 50 256 8 8 (819200)
I0310 23:29:06.371387 17628 net.cpp:165] Memory required for data: 560947800
I0310 23:29:06.371387 17628 layer_factory.cpp:58] Creating layer bn4_2
I0310 23:29:06.371387 17628 net.cpp:100] Creating Layer bn4_2
I0310 23:29:06.371387 17628 net.cpp:434] bn4_2 <- conv4_2
I0310 23:29:06.371387 17628 net.cpp:408] bn4_2 -> bn4_2
I0310 23:29:06.371387 17628 net.cpp:150] Setting up bn4_2
I0310 23:29:06.371387 17628 net.cpp:157] Top shape: 50 256 8 8 (819200)
I0310 23:29:06.371387 17628 net.cpp:165] Memory required for data: 564224600
I0310 23:29:06.371387 17628 layer_factory.cpp:58] Creating layer scale4_2
I0310 23:29:06.371387 17628 net.cpp:100] Creating Layer scale4_2
I0310 23:29:06.371387 17628 net.cpp:434] scale4_2 <- bn4_2
I0310 23:29:06.371387 17628 net.cpp:408] scale4_2 -> scale4_2
I0310 23:29:06.371387 17628 layer_factory.cpp:58] Creating layer scale4_2
I0310 23:29:06.371387 17628 net.cpp:150] Setting up scale4_2
I0310 23:29:06.371387 17628 net.cpp:157] Top shape: 50 256 8 8 (819200)
I0310 23:29:06.371387 17628 net.cpp:165] Memory required for data: 567501400
I0310 23:29:06.371387 17628 layer_factory.cpp:58] Creating layer relu4_2
I0310 23:29:06.371387 17628 net.cpp:100] Creating Layer relu4_2
I0310 23:29:06.371387 17628 net.cpp:434] relu4_2 <- scale4_2
I0310 23:29:06.371387 17628 net.cpp:408] relu4_2 -> relu4_2
I0310 23:29:06.371387 17628 net.cpp:150] Setting up relu4_2
I0310 23:29:06.371387 17628 net.cpp:157] Top shape: 50 256 8 8 (819200)
I0310 23:29:06.371387 17628 net.cpp:165] Memory required for data: 570778200
I0310 23:29:06.371387 17628 layer_factory.cpp:58] Creating layer drop4_2
I0310 23:29:06.381387 17628 net.cpp:100] Creating Layer drop4_2
I0310 23:29:06.381387 17628 net.cpp:434] drop4_2 <- relu4_2
I0310 23:29:06.381387 17628 net.cpp:395] drop4_2 -> relu4_2 (in-place)
I0310 23:29:06.381387 17628 net.cpp:150] Setting up drop4_2
I0310 23:29:06.381387 17628 net.cpp:157] Top shape: 50 256 8 8 (819200)
I0310 23:29:06.381387 17628 net.cpp:165] Memory required for data: 574055000
I0310 23:29:06.391387 17628 layer_factory.cpp:58] Creating layer pool4_2
I0310 23:29:06.391387 17628 net.cpp:100] Creating Layer pool4_2
I0310 23:29:06.391387 17628 net.cpp:434] pool4_2 <- relu4_2
I0310 23:29:06.391387 17628 net.cpp:408] pool4_2 -> pool4_2
I0310 23:29:06.391387 17628 net.cpp:150] Setting up pool4_2
I0310 23:29:06.391387 17628 net.cpp:157] Top shape: 50 256 4 4 (204800)
I0310 23:29:06.391387 17628 net.cpp:165] Memory required for data: 574874200
I0310 23:29:06.391387 17628 layer_factory.cpp:58] Creating layer conv4_0
I0310 23:29:06.391387 17628 net.cpp:100] Creating Layer conv4_0
I0310 23:29:06.391387 17628 net.cpp:434] conv4_0 <- pool4_2
I0310 23:29:06.391387 17628 net.cpp:408] conv4_0 -> conv4_0
I0310 23:29:06.401388 17628 net.cpp:150] Setting up conv4_0
I0310 23:29:06.401388 17628 net.cpp:157] Top shape: 50 512 4 4 (409600)
I0310 23:29:06.401388 17628 net.cpp:165] Memory required for data: 576512600
I0310 23:29:06.401388 17628 layer_factory.cpp:58] Creating layer bn4_0
I0310 23:29:06.411387 17628 net.cpp:100] Creating Layer bn4_0
I0310 23:29:06.411387 17628 net.cpp:434] bn4_0 <- conv4_0
I0310 23:29:06.411387 17628 net.cpp:408] bn4_0 -> bn4_0
I0310 23:29:06.411387 17628 net.cpp:150] Setting up bn4_0
I0310 23:29:06.411387 17628 net.cpp:157] Top shape: 50 512 4 4 (409600)
I0310 23:29:06.411387 17628 net.cpp:165] Memory required for data: 578151000
I0310 23:29:06.411387 17628 layer_factory.cpp:58] Creating layer scale4_0
I0310 23:29:06.411387 17628 net.cpp:100] Creating Layer scale4_0
I0310 23:29:06.411387 17628 net.cpp:434] scale4_0 <- bn4_0
I0310 23:29:06.411387 17628 net.cpp:408] scale4_0 -> scale4_0
I0310 23:29:06.411387 17628 layer_factory.cpp:58] Creating layer scale4_0
I0310 23:29:06.411387 17628 net.cpp:150] Setting up scale4_0
I0310 23:29:06.411387 17628 net.cpp:157] Top shape: 50 512 4 4 (409600)
I0310 23:29:06.411387 17628 net.cpp:165] Memory required for data: 579789400
I0310 23:29:06.411387 17628 layer_factory.cpp:58] Creating layer relu4_0
I0310 23:29:06.411387 17628 net.cpp:100] Creating Layer relu4_0
I0310 23:29:06.411387 17628 net.cpp:434] relu4_0 <- scale4_0
I0310 23:29:06.411387 17628 net.cpp:408] relu4_0 -> relu4_0
I0310 23:29:06.411387 17628 net.cpp:150] Setting up relu4_0
I0310 23:29:06.411387 17628 net.cpp:157] Top shape: 50 512 4 4 (409600)
I0310 23:29:06.411387 17628 net.cpp:165] Memory required for data: 581427800
I0310 23:29:06.411387 17628 layer_factory.cpp:58] Creating layer drop4_0
I0310 23:29:06.411387 17628 net.cpp:100] Creating Layer drop4_0
I0310 23:29:06.411387 17628 net.cpp:434] drop4_0 <- relu4_0
I0310 23:29:06.422855 17628 net.cpp:395] drop4_0 -> relu4_0 (in-place)
I0310 23:29:06.422855 17628 net.cpp:150] Setting up drop4_0
I0310 23:29:06.423360 17628 net.cpp:157] Top shape: 50 512 4 4 (409600)
I0310 23:29:06.423360 17628 net.cpp:165] Memory required for data: 583066200
I0310 23:29:06.423857 17628 layer_factory.cpp:58] Creating layer cccp4
I0310 23:29:06.424358 17628 net.cpp:100] Creating Layer cccp4
I0310 23:29:06.424860 17628 net.cpp:434] cccp4 <- relu4_0
I0310 23:29:06.424860 17628 net.cpp:408] cccp4 -> cccp4
I0310 23:29:06.431360 17628 net.cpp:150] Setting up cccp4
I0310 23:29:06.431360 17628 net.cpp:157] Top shape: 50 2048 4 4 (1638400)
I0310 23:29:06.431360 17628 net.cpp:165] Memory required for data: 589619800
I0310 23:29:06.431360 17628 layer_factory.cpp:58] Creating layer relu_cccp4
I0310 23:29:06.431360 17628 net.cpp:100] Creating Layer relu_cccp4
I0310 23:29:06.431360 17628 net.cpp:434] relu_cccp4 <- cccp4
I0310 23:29:06.431360 17628 net.cpp:395] relu_cccp4 -> cccp4 (in-place)
I0310 23:29:06.431360 17628 net.cpp:150] Setting up relu_cccp4
I0310 23:29:06.431360 17628 net.cpp:157] Top shape: 50 2048 4 4 (1638400)
I0310 23:29:06.431360 17628 net.cpp:165] Memory required for data: 596173400
I0310 23:29:06.431360 17628 layer_factory.cpp:58] Creating layer drop4_3
I0310 23:29:06.431360 17628 net.cpp:100] Creating Layer drop4_3
I0310 23:29:06.431360 17628 net.cpp:434] drop4_3 <- cccp4
I0310 23:29:06.431360 17628 net.cpp:395] drop4_3 -> cccp4 (in-place)
I0310 23:29:06.431360 17628 net.cpp:150] Setting up drop4_3
I0310 23:29:06.431360 17628 net.cpp:157] Top shape: 50 2048 4 4 (1638400)
I0310 23:29:06.431360 17628 net.cpp:165] Memory required for data: 602727000
I0310 23:29:06.431360 17628 layer_factory.cpp:58] Creating layer cccp5
I0310 23:29:06.431360 17628 net.cpp:100] Creating Layer cccp5
I0310 23:29:06.441362 17628 net.cpp:434] cccp5 <- cccp4
I0310 23:29:06.441362 17628 net.cpp:408] cccp5 -> cccp5
I0310 23:29:06.441362 17628 net.cpp:150] Setting up cccp5
I0310 23:29:06.441362 17628 net.cpp:157] Top shape: 50 256 4 4 (204800)
I0310 23:29:06.441362 17628 net.cpp:165] Memory required for data: 603546200
I0310 23:29:06.441362 17628 layer_factory.cpp:58] Creating layer relu_cccp5
I0310 23:29:06.441362 17628 net.cpp:100] Creating Layer relu_cccp5
I0310 23:29:06.441362 17628 net.cpp:434] relu_cccp5 <- cccp5
I0310 23:29:06.451364 17628 net.cpp:395] relu_cccp5 -> cccp5 (in-place)
I0310 23:29:06.451364 17628 net.cpp:150] Setting up relu_cccp5
I0310 23:29:06.451364 17628 net.cpp:157] Top shape: 50 256 4 4 (204800)
I0310 23:29:06.451364 17628 net.cpp:165] Memory required for data: 604365400
I0310 23:29:06.451364 17628 layer_factory.cpp:58] Creating layer poolcp5
I0310 23:29:06.451364 17628 net.cpp:100] Creating Layer poolcp5
I0310 23:29:06.451364 17628 net.cpp:434] poolcp5 <- cccp5
I0310 23:29:06.451364 17628 net.cpp:408] poolcp5 -> poolcp5
I0310 23:29:06.451364 17628 net.cpp:150] Setting up poolcp5
I0310 23:29:06.451364 17628 net.cpp:157] Top shape: 50 256 2 2 (51200)
I0310 23:29:06.451364 17628 net.cpp:165] Memory required for data: 604570200
I0310 23:29:06.451364 17628 layer_factory.cpp:58] Creating layer drop4_5
I0310 23:29:06.451364 17628 net.cpp:100] Creating Layer drop4_5
I0310 23:29:06.451364 17628 net.cpp:434] drop4_5 <- poolcp5
I0310 23:29:06.451364 17628 net.cpp:395] drop4_5 -> poolcp5 (in-place)
I0310 23:29:06.451364 17628 net.cpp:150] Setting up drop4_5
I0310 23:29:06.451364 17628 net.cpp:157] Top shape: 50 256 2 2 (51200)
I0310 23:29:06.451364 17628 net.cpp:165] Memory required for data: 604775000
I0310 23:29:06.451364 17628 layer_factory.cpp:58] Creating layer cccp6
I0310 23:29:06.451364 17628 net.cpp:100] Creating Layer cccp6
I0310 23:29:06.451364 17628 net.cpp:434] cccp6 <- poolcp5
I0310 23:29:06.451364 17628 net.cpp:408] cccp6 -> cccp6
I0310 23:29:06.461362 17628 net.cpp:150] Setting up cccp6
I0310 23:29:06.461362 17628 net.cpp:157] Top shape: 50 256 2 2 (51200)
I0310 23:29:06.461362 17628 net.cpp:165] Memory required for data: 604979800
I0310 23:29:06.461362 17628 layer_factory.cpp:58] Creating layer relu_cccp6
I0310 23:29:06.461362 17628 net.cpp:100] Creating Layer relu_cccp6
I0310 23:29:06.461362 17628 net.cpp:434] relu_cccp6 <- cccp6
I0310 23:29:06.461362 17628 net.cpp:395] relu_cccp6 -> cccp6 (in-place)
I0310 23:29:06.461362 17628 net.cpp:150] Setting up relu_cccp6
I0310 23:29:06.461362 17628 net.cpp:157] Top shape: 50 256 2 2 (51200)
I0310 23:29:06.461362 17628 net.cpp:165] Memory required for data: 605184600
I0310 23:29:06.461362 17628 layer_factory.cpp:58] Creating layer poolcp6
I0310 23:29:06.461362 17628 net.cpp:100] Creating Layer poolcp6
I0310 23:29:06.471364 17628 net.cpp:434] poolcp6 <- cccp6
I0310 23:29:06.471364 17628 net.cpp:408] poolcp6 -> poolcp6
I0310 23:29:06.471364 17628 net.cpp:150] Setting up poolcp6
I0310 23:29:06.471364 17628 net.cpp:157] Top shape: 50 256 1 1 (12800)
I0310 23:29:06.471364 17628 net.cpp:165] Memory required for data: 605235800
I0310 23:29:06.471364 17628 layer_factory.cpp:58] Creating layer ip1
I0310 23:29:06.471364 17628 net.cpp:100] Creating Layer ip1
I0310 23:29:06.471364 17628 net.cpp:434] ip1 <- poolcp6
I0310 23:29:06.471364 17628 net.cpp:408] ip1 -> ip1
I0310 23:29:06.471364 17628 net.cpp:150] Setting up ip1
I0310 23:29:06.471364 17628 net.cpp:157] Top shape: 50 100 (5000)
I0310 23:29:06.471364 17628 net.cpp:165] Memory required for data: 605255800
I0310 23:29:06.471364 17628 layer_factory.cpp:58] Creating layer ip1_ip1_0_split
I0310 23:29:06.471364 17628 net.cpp:100] Creating Layer ip1_ip1_0_split
I0310 23:29:06.471364 17628 net.cpp:434] ip1_ip1_0_split <- ip1
I0310 23:29:06.471364 17628 net.cpp:408] ip1_ip1_0_split -> ip1_ip1_0_split_0
I0310 23:29:06.471364 17628 net.cpp:408] ip1_ip1_0_split -> ip1_ip1_0_split_1
I0310 23:29:06.471364 17628 net.cpp:150] Setting up ip1_ip1_0_split
I0310 23:29:06.471364 17628 net.cpp:157] Top shape: 50 100 (5000)
I0310 23:29:06.471364 17628 net.cpp:157] Top shape: 50 100 (5000)
I0310 23:29:06.471364 17628 net.cpp:165] Memory required for data: 605295800
I0310 23:29:06.471364 17628 layer_factory.cpp:58] Creating layer accuracy
I0310 23:29:06.471364 17628 net.cpp:100] Creating Layer accuracy
I0310 23:29:06.471364 17628 net.cpp:434] accuracy <- ip1_ip1_0_split_0
I0310 23:29:06.471364 17628 net.cpp:434] accuracy <- label_cifar_1_split_0
I0310 23:29:06.471364 17628 net.cpp:408] accuracy -> accuracy
…
