…
I0312 15:03:15.699612  1600 net.cpp:322] The NetState phase (0) differed from the phase (1) specified by a rule in layer accuracy
I0312 15:03:15.700111  1600 net.cpp:58] Initializing net from parameters: 
name: "CIFAR100_full"
state {
  phase: TRAIN
  level: 0
  stage: ""
}
layer {
  name: "cifar"
  type: "Data"
  top: "data"
  top: "label"
  include {
    phase: TRAIN
  }
  transform_param {
    mirror: true
    crop_size: 32
  }
  data_param {
    source: "examples/cifar100/cifar100_train_leveldb_padding"
    batch_size: 64
    backend: LEVELDB
  }
}
layer {
  name: "conv1"
  type: "Convolution"
  bottom: "data"
  top: "conv1"
  param {
    lr_mult: 1
  }
  convolution_param {
    num_output: 64
    bias_term: true
    pad: 1
    kernel_size: 3
    stride: 1
    weight_filler {
      type: "xavier"
    }
  }
}
layer {
  name: "bn1"
  type: "BatchNorm"
  bottom: "conv1"
  top: "bn1"
  include {
    phase: TRAIN
  }
  batch_norm_param {
    use_global_stats: false
    moving_average_fraction: 0.95
  }
}
layer {
  name: "scale1"
  type: "Scale"
  bottom: "bn1"
  top: "scale1"
  scale_param {
    bias_term: true
  }
}
layer {
  name: "relu1"
  type: "ReLU"
  bottom: "scale1"
  top: "relu1"
}
layer {
  name: "conv1_0"
  type: "Convolution"
  bottom: "relu1"
  top: "conv1_0"
  param {
    lr_mult: 1
  }
  convolution_param {
    num_output: 32
    bias_term: true
    pad: 1
    kernel_size: 3
    stride: 1
    weight_filler {
      type: "xavier"
    }
  }
}
layer {
  name: "bn1_0"
  type: "BatchNorm"
  bottom: "conv1_0"
  top: "bn1_0"
  include {
    phase: TRAIN
  }
  batch_norm_param {
    use_global_stats: false
    moving_average_fraction: 0.95
  }
}
layer {
  name: "scale1_0"
  type: "Scale"
  bottom: "bn1_0"
  top: "scale1_0"
  scale_param {
    bias_term: true
  }
}
layer {
  name: "relu1_0"
  type: "ReLU"
  bottom: "scale1_0"
  top: "relu1_0"
}
layer {
  name: "conv2"
  type: "Convolution"
  bottom: "relu1_0"
  top: "conv2"
  param {
    lr_mult: 1
  }
  convolution_param {
    num_output: 32
    bias_term: true
    pad: 1
    kernel_size: 3
    stride: 1
    weight_filler {
      type: "gaussian"
      std: 0.01
    }
  }
}
layer {
  name: "bn2"
  type: "BatchNorm"
  bottom: "conv2"
  top: "bn2"
  include {
    phase: TRAIN
  }
  batch_norm_param {
    use_global_stats: false
    moving_average_fraction: 0.95
  }
}
layer {
  name: "scale2"
  type: "Scale"
  bottom: "bn2"
  top: "scale2"
  scale_param {
    bias_term: true
  }
}
layer {
  name: "relu2"
  type: "ReLU"
  bottom: "scale2"
  top: "relu2"
}
layer {
  name: "conv2_1"
  type: "Convolution"
  bottom: "relu2"
  top: "conv2_1"
  param {
    lr_mult: 1
  }
  convolution_param {
    num_output: 32
    bias_term: true
    pad: 1
    kernel_size: 3
    stride: 1
    weight_filler {
      type: "gaussian"
      std: 0.01
    }
  }
}
layer {
  name: "bn2_1"
  type: "BatchNorm"
  bottom: "conv2_1"
  top: "bn2_1"
  include {
    phase: TRAIN
  }
  batch_norm_param {
    use_global_stats: false
    moving_average_fraction: 0.95
  }
}
layer {
  name: "scale2_1"
  type: "Scale"
  bottom: "bn2_1"
  top: "scale2_1"
  scale_param {
    bias_term: true
  }
}
layer {
  name: "relu2_1"
  type: "ReLU"
  bottom: "scale2_1"
  top: "relu2_1"
}
layer {
  name: "pool2_1"
  type: "Pooling"
  bottom: "relu2_1"
  top: "pool2_1"
  pooling_param {
    pool: MAX
    kernel_size: 2
    stride: 2
  }
}
layer {
  name: "conv2_2"
  type: "Convolution"
  bottom: "pool2_1"
  top: "conv2_2"
  param {
    lr_mult: 1
  }
  convolution_param {
    num_output: 32
    bias_term: true
    pad: 1
    kernel_size: 3
    stride: 1
    weight_filler {
      type: "gaussian"
      std: 0.01
    }
  }
}
layer {
  name: "bn2_2"
  type: "BatchNorm"
  bottom: "conv2_2"
  top: "bn2_2"
  include {
    phase: TRAIN
  }
  batch_norm_param {
    use_global_stats: false
    moving_average_fraction: 0.95
  }
}
layer {
  name: "scale2_2"
  type: "Scale"
  bottom: "bn2_2"
  top: "scale2_2"
  scale_param {
    bias_term: true
  }
}
layer {
  name: "relu2_2"
  type: "ReLU"
  bottom: "scale2_2"
  top: "relu2_2"
}
layer {
  name: "conv3"
  type: "Convolution"
  bottom: "relu2_2"
  top: "conv3"
  param {
    lr_mult: 1
  }
  convolution_param {
    num_output: 32
    bias_term: true
    pad: 1
    kernel_size: 3
    stride: 1
    weight_filler {
      type: "xavier"
    }
  }
}
layer {
  name: "bn3"
  type: "BatchNorm"
  bottom: "conv3"
  top: "bn3"
  include {
    phase: TRAIN
  }
  batch_norm_param {
    use_global_stats: false
    moving_average_fraction: 0.95
  }
}
layer {
  name: "scale3"
  type: "Scale"
  bottom: "bn3"
  top: "scale3"
  scale_param {
    bias_term: true
  }
}
layer {
  name: "relu3"
  type: "ReLU"
  bottom: "scale3"
  top: "relu3"
}
layer {
  name: "conv4"
  type: "Convolution"
  bottom: "relu3"
  top: "conv4"
  param {
    lr_mult: 1
  }
  convolution_param {
    num_output: 64
    bias_term: true
    pad: 1
    kernel_size: 3
    stride: 1
    weight_filler {
      type: "xavier"
    }
  }
}
layer {
  name: "pool4"
  type: "Pooling"
  bottom: "conv4"
  top: "pool4"
  pooling_param {
    pool: MAX
    kernel_size: 2
    stride: 2
  }
}
layer {
  name: "bn4"
  type: "BatchNorm"
  bottom: "pool4"
  top: "bn4"
  include {
    phase: TRAIN
  }
  batch_norm_param {
    use_global_stats: false
    moving_average_fraction: 0.95
  }
}
layer {
  name: "scale4"
  type: "Scale"
  bottom: "bn4"
  top: "scale4"
  scale_param {
    bias_term: true
  }
}
layer {
  name: "relu4"
  type: "ReLU"
  bottom: "scale4"
  top: "relu4"
}
layer {
  name: "conv4_1"
  type: "Convolution"
  bottom: "relu4"
  top: "conv4_1"
  param {
    lr_mult: 1
  }
  convolution_param {
    num_output: 64
    bias_term: true
    pad: 1
    kernel_size: 3
    stride: 1
    weight_filler {
      type: "xavier"
    }
  }
}
layer {
  name: "bn4_1"
  type: "BatchNorm"
  bottom: "conv4_1"
  top: "bn4_1"
  include {
    phase: TRAIN
  }
  batch_norm_param {
    use_global_stats: false
    moving_average_fraction: 0.95
  }
}
layer {
  name: "scale4_1"
  type: "Scale"
  bottom: "bn4_1"
  top: "scale4_1"
  scale_param {
    bias_term: true
  }
}
layer {
  name: "relu4_1"
  type: "ReLU"
  bottom: "scale4_1"
  top: "relu4_1"
}
layer {
  name: "conv4_2"
  type: "Convolution"
  bottom: "relu4_1"
  top: "conv4_2"
  param {
    lr_mult: 1
  }
  convolution_param {
    num_output: 64
    bias_term: true
    pad: 1
    kernel_size: 3
    stride: 1
    weight_filler {
      type: "xavier"
    }
  }
}
layer {
  name: "bn4_2"
  type: "BatchNorm"
  bottom: "conv4_2"
  top: "bn4_2"
  include {
    phase: TRAIN
  }
  batch_norm_param {
    use_global_stats: false
    moving_average_fraction: 0.95
  }
}
layer {
  name: "scale4_2"
  type: "Scale"
  bottom: "bn4_2"
  top: "scale4_2"
  scale_param {
    bias_term: true
  }
}
layer {
  name: "relu4_2"
  type: "ReLU"
  bottom: "scale4_2"
  top: "relu4_2"
}
layer {
  name: "pool4_2"
  type: "Pooling"
  bottom: "relu4_2"
  top: "pool4_2"
  pooling_param {
    pool: MAX
    kernel_size: 2
    stride: 2
  }
}
layer {
  name: "conv4_0"
  type: "Convolution"
  bottom: "pool4_2"
  top: "conv4_0"
  param {
    lr_mult: 1
  }
  convolution_param {
    num_output: 128
    bias_term: true
    pad: 1
    kernel_size: 3
    stride: 1
    weight_filler {
      type: "xavier"
    }
  }
}
layer {
  name: "bn4_0"
  type: "BatchNorm"
  bottom: "conv4_0"
  top: "bn4_0"
  include {
    phase: TRAIN
  }
  batch_norm_param {
    use_global_stats: false
    moving_average_fraction: 0.95
  }
}
layer {
  name: "scale4_0"
  type: "Scale"
  bottom: "bn4_0"
  top: "scale4_0"
  scale_param {
    bias_term: true
  }
}
layer {
  name: "relu4_0"
  type: "ReLU"
  bottom: "scale4_0"
  top: "relu4_0"
}
layer {
  name: "cccp4"
  type: "Convolution"
  bottom: "relu4_0"
  top: "cccp4"
  param {
    lr_mult: 1
    decay_mult: 1
  }
  param {
    lr_mult: 2
    decay_mult: 0
  }
  convolution_param {
    num_output: 256
    kernel_size: 1
    group: 1
    weight_filler {
      type: "xavier"
    }
    bias_filler {
      type: "constant"
      value: 0
    }
  }
}
layer {
  name: "relu_cccp4"
  type: "ReLU"
  bottom: "cccp4"
  top: "cccp4"
}
layer {
  name: "cccp5"
  type: "Convolution"
  bottom: "cccp4"
  top: "cccp5"
  param {
    lr_mult: 1
    decay_mult: 1
  }
  param {
    lr_mult: 2
    decay_mult: 0
  }
  convolution_param {
    num_output: 64
    kernel_size: 1
    group: 1
    weight_filler {
      type: "xavier"
    }
    bias_filler {
      type: "constant"
      value: 0
    }
  }
}
layer {
  name: "relu_cccp5"
  type: "ReLU"
  bottom: "cccp5"
  top: "cccp5"
}
layer {
  name: "poolcp5"
  type: "Pooling"
  bottom: "cccp5"
  top: "poolcp5"
  pooling_param {
    pool: MAX
    kernel_size: 2
    stride: 2
  }
}
layer {
  name: "cccp6"
  type: "Convolution"
  bottom: "poolcp5"
  top: "cccp6"
  param {
    lr_mult: 1
    decay_mult: 1
  }
  param {
    lr_mult: 2
    decay_mult: 0
  }
  convolution_param {
    num_output: 64
    pad: 1
    kernel_size: 3
    group: 1
    weight_filler {
      type: "xavier"
    }
    bias_filler {
      type: "constant"
      value: 0
    }
  }
}
layer {
  name: "relu_cccp6"
  type: "ReLU"
  bottom: "cccp6"
  top: "cccp6"
}
layer {
  name: "poolcp6"
  type: "Pooling"
  bottom: "cccp6"
  top: "poolcp6"
  pooling_param {
    pool: MAX
    kernel_size: 2
    stride: 2
  }
}
layer {
  name: "ip1"
  type: "InnerProduct"
  bottom: "poolcp6"
  top: "ip1"
  param {
    lr_mult: 1
    decay_mult: 0
  }
  param {
    lr_mult: 2
    decay_mult: 0
  }
  inner_product_param {
    num_output: 100
    weight_filler {
      type: "xavier"
    }
    bias_filler {
      type: "constant"
    }
  }
}
layer {
  name: "accuracy_training"
  type: "Accuracy"
  bottom: "ip1"
  bottom: "label"
  top: "accuracy_training"
  include {
    phase: TRAIN
  }
}
layer {
  name: "loss"
  type: "SoftmaxWithLoss"
  bottom: "ip1"
  bottom: "label"
  top: "loss"
}
I0312 15:03:15.700611  1600 layer_factory.cpp:58] Creating layer cifar
I0312 15:03:15.701612  1600 net.cpp:100] Creating Layer cifar
I0312 15:03:15.701612  1600 net.cpp:408] cifar -> data
I0312 15:03:15.701612  1600 net.cpp:408] cifar -> label
I0312 15:03:15.702611 12704 common.cpp:36] System entropy source not available, using fallback algorithm to generate seed instead.
I0312 15:03:15.708612 12704 db_leveldb.cpp:18] Opened leveldb examples/cifar100/cifar100_train_leveldb_padding
I0312 15:03:15.803611  1600 data_layer.cpp:41] output data size: 64,3,32,32
I0312 15:03:15.815111  1600 net.cpp:150] Setting up cifar
I0312 15:03:15.815111  1600 net.cpp:157] Top shape: 64 3 32 32 (196608)
I0312 15:03:15.815111  1600 net.cpp:157] Top shape: 64 (64)
I0312 15:03:15.815111  1600 net.cpp:165] Memory required for data: 786688
I0312 15:03:15.815613  1600 layer_factory.cpp:58] Creating layer label_cifar_1_split
I0312 15:03:15.815613  1600 net.cpp:100] Creating Layer label_cifar_1_split
I0312 15:03:15.815613  1600 net.cpp:434] label_cifar_1_split <- label
I0312 15:03:15.815613  1600 net.cpp:408] label_cifar_1_split -> label_cifar_1_split_0
I0312 15:03:15.815613  1600 net.cpp:408] label_cifar_1_split -> label_cifar_1_split_1
I0312 15:03:15.815613  1600 net.cpp:150] Setting up label_cifar_1_split
I0312 15:03:15.815613  1600 net.cpp:157] Top shape: 64 (64)
I0312 15:03:15.815613  1600 net.cpp:157] Top shape: 64 (64)
I0312 15:03:15.815613  1600 net.cpp:165] Memory required for data: 787200
I0312 15:03:15.815613  1600 layer_factory.cpp:58] Creating layer conv1
I0312 15:03:15.815613  1600 net.cpp:100] Creating Layer conv1
I0312 15:03:15.815613  1600 net.cpp:434] conv1 <- data
I0312 15:03:15.815613  1600 net.cpp:408] conv1 -> conv1
I0312 15:03:15.816625 11876 common.cpp:36] System entropy source not available, using fallback algorithm to generate seed instead.
I0312 15:03:16.505159  1600 net.cpp:150] Setting up conv1
I0312 15:03:16.505159  1600 net.cpp:157] Top shape: 64 64 32 32 (4194304)
I0312 15:03:16.505159  1600 net.cpp:165] Memory required for data: 17564416
I0312 15:03:16.505159  1600 layer_factory.cpp:58] Creating layer bn1
I0312 15:03:16.505159  1600 net.cpp:100] Creating Layer bn1
I0312 15:03:16.505159  1600 net.cpp:434] bn1 <- conv1
I0312 15:03:16.505159  1600 net.cpp:408] bn1 -> bn1
I0312 15:03:16.505658  1600 net.cpp:150] Setting up bn1
I0312 15:03:16.505658  1600 net.cpp:157] Top shape: 64 64 32 32 (4194304)
I0312 15:03:16.505658  1600 net.cpp:165] Memory required for data: 34341632
I0312 15:03:16.505658  1600 layer_factory.cpp:58] Creating layer scale1
I0312 15:03:16.505658  1600 net.cpp:100] Creating Layer scale1
I0312 15:03:16.505658  1600 net.cpp:434] scale1 <- bn1
I0312 15:03:16.505658  1600 net.cpp:408] scale1 -> scale1
I0312 15:03:16.505658  1600 layer_factory.cpp:58] Creating layer scale1
I0312 15:03:16.505658  1600 net.cpp:150] Setting up scale1
I0312 15:03:16.505658  1600 net.cpp:157] Top shape: 64 64 32 32 (4194304)
I0312 15:03:16.505658  1600 net.cpp:165] Memory required for data: 51118848
I0312 15:03:16.505658  1600 layer_factory.cpp:58] Creating layer relu1
I0312 15:03:16.505658  1600 net.cpp:100] Creating Layer relu1
I0312 15:03:16.505658  1600 net.cpp:434] relu1 <- scale1
I0312 15:03:16.505658  1600 net.cpp:408] relu1 -> relu1
I0312 15:03:16.506659  1600 net.cpp:150] Setting up relu1
I0312 15:03:16.506659  1600 net.cpp:157] Top shape: 64 64 32 32 (4194304)
I0312 15:03:16.506659  1600 net.cpp:165] Memory required for data: 67896064
I0312 15:03:16.506659  1600 layer_factory.cpp:58] Creating layer conv1_0
I0312 15:03:16.506659  1600 net.cpp:100] Creating Layer conv1_0
I0312 15:03:16.506659  1600 net.cpp:434] conv1_0 <- relu1
I0312 15:03:16.506659  1600 net.cpp:408] conv1_0 -> conv1_0
I0312 15:03:16.509660  1600 net.cpp:150] Setting up conv1_0
I0312 15:03:16.509660  1600 net.cpp:157] Top shape: 64 32 32 32 (2097152)
I0312 15:03:16.509660  1600 net.cpp:165] Memory required for data: 76284672
I0312 15:03:16.509660  1600 layer_factory.cpp:58] Creating layer bn1_0
I0312 15:03:16.509660  1600 net.cpp:100] Creating Layer bn1_0
I0312 15:03:16.509660  1600 net.cpp:434] bn1_0 <- conv1_0
I0312 15:03:16.509660  1600 net.cpp:408] bn1_0 -> bn1_0
I0312 15:03:16.510159  1600 net.cpp:150] Setting up bn1_0
I0312 15:03:16.510159  1600 net.cpp:157] Top shape: 64 32 32 32 (2097152)
I0312 15:03:16.510159  1600 net.cpp:165] Memory required for data: 84673280
I0312 15:03:16.510159  1600 layer_factory.cpp:58] Creating layer scale1_0
I0312 15:03:16.510159  1600 net.cpp:100] Creating Layer scale1_0
I0312 15:03:16.510159  1600 net.cpp:434] scale1_0 <- bn1_0
I0312 15:03:16.510159  1600 net.cpp:408] scale1_0 -> scale1_0
I0312 15:03:16.510159  1600 layer_factory.cpp:58] Creating layer scale1_0
I0312 15:03:16.510659  1600 net.cpp:150] Setting up scale1_0
I0312 15:03:16.510659  1600 net.cpp:157] Top shape: 64 32 32 32 (2097152)
I0312 15:03:16.510659  1600 net.cpp:165] Memory required for data: 93061888
I0312 15:03:16.510659  1600 layer_factory.cpp:58] Creating layer relu1_0
I0312 15:03:16.510659  1600 net.cpp:100] Creating Layer relu1_0
I0312 15:03:16.510659  1600 net.cpp:434] relu1_0 <- scale1_0
I0312 15:03:16.510659  1600 net.cpp:408] relu1_0 -> relu1_0
I0312 15:03:16.511159  1600 net.cpp:150] Setting up relu1_0
I0312 15:03:16.511159  1600 net.cpp:157] Top shape: 64 32 32 32 (2097152)
I0312 15:03:16.511159  1600 net.cpp:165] Memory required for data: 101450496
I0312 15:03:16.511159  1600 layer_factory.cpp:58] Creating layer conv2
I0312 15:03:16.511159  1600 net.cpp:100] Creating Layer conv2
I0312 15:03:16.511159  1600 net.cpp:434] conv2 <- relu1_0
I0312 15:03:16.511159  1600 net.cpp:408] conv2 -> conv2
I0312 15:03:16.515159  1600 net.cpp:150] Setting up conv2
I0312 15:03:16.515159  1600 net.cpp:157] Top shape: 64 32 32 32 (2097152)
I0312 15:03:16.515159  1600 net.cpp:165] Memory required for data: 109839104
I0312 15:03:16.515666  1600 layer_factory.cpp:58] Creating layer bn2
I0312 15:03:16.515666  1600 net.cpp:100] Creating Layer bn2
I0312 15:03:16.515666  1600 net.cpp:434] bn2 <- conv2
I0312 15:03:16.515666  1600 net.cpp:408] bn2 -> bn2
I0312 15:03:16.515666  1600 net.cpp:150] Setting up bn2
I0312 15:03:16.515666  1600 net.cpp:157] Top shape: 64 32 32 32 (2097152)
I0312 15:03:16.515666  1600 net.cpp:165] Memory required for data: 118227712
I0312 15:03:16.515666  1600 layer_factory.cpp:58] Creating layer scale2
I0312 15:03:16.515666  1600 net.cpp:100] Creating Layer scale2
I0312 15:03:16.515666  1600 net.cpp:434] scale2 <- bn2
I0312 15:03:16.515666  1600 net.cpp:408] scale2 -> scale2
I0312 15:03:16.516160  1600 layer_factory.cpp:58] Creating layer scale2
I0312 15:03:16.516160  1600 net.cpp:150] Setting up scale2
I0312 15:03:16.516160  1600 net.cpp:157] Top shape: 64 32 32 32 (2097152)
I0312 15:03:16.516160  1600 net.cpp:165] Memory required for data: 126616320
I0312 15:03:16.516160  1600 layer_factory.cpp:58] Creating layer relu2
I0312 15:03:16.516160  1600 net.cpp:100] Creating Layer relu2
I0312 15:03:16.516160  1600 net.cpp:434] relu2 <- scale2
I0312 15:03:16.516160  1600 net.cpp:408] relu2 -> relu2
I0312 15:03:16.517659  1600 net.cpp:150] Setting up relu2
I0312 15:03:16.517659  1600 net.cpp:157] Top shape: 64 32 32 32 (2097152)
I0312 15:03:16.517659  1600 net.cpp:165] Memory required for data: 135004928
I0312 15:03:16.517659  1600 layer_factory.cpp:58] Creating layer conv2_1
I0312 15:03:16.517659  1600 net.cpp:100] Creating Layer conv2_1
I0312 15:03:16.517659  1600 net.cpp:434] conv2_1 <- relu2
I0312 15:03:16.517659  1600 net.cpp:408] conv2_1 -> conv2_1
I0312 15:03:16.522158  1600 net.cpp:150] Setting up conv2_1
I0312 15:03:16.522158  1600 net.cpp:157] Top shape: 64 32 32 32 (2097152)
I0312 15:03:16.522158  1600 net.cpp:165] Memory required for data: 143393536
I0312 15:03:16.522158  1600 layer_factory.cpp:58] Creating layer bn2_1
I0312 15:03:16.522158  1600 net.cpp:100] Creating Layer bn2_1
I0312 15:03:16.522158  1600 net.cpp:434] bn2_1 <- conv2_1
I0312 15:03:16.522158  1600 net.cpp:408] bn2_1 -> bn2_1
I0312 15:03:16.522660  1600 net.cpp:150] Setting up bn2_1
I0312 15:03:16.522660  1600 net.cpp:157] Top shape: 64 32 32 32 (2097152)
I0312 15:03:16.522660  1600 net.cpp:165] Memory required for data: 151782144
I0312 15:03:16.522660  1600 layer_factory.cpp:58] Creating layer scale2_1
I0312 15:03:16.522660  1600 net.cpp:100] Creating Layer scale2_1
I0312 15:03:16.522660  1600 net.cpp:434] scale2_1 <- bn2_1
I0312 15:03:16.522660  1600 net.cpp:408] scale2_1 -> scale2_1
I0312 15:03:16.522660  1600 layer_factory.cpp:58] Creating layer scale2_1
I0312 15:03:16.522660  1600 net.cpp:150] Setting up scale2_1
I0312 15:03:16.522660  1600 net.cpp:157] Top shape: 64 32 32 32 (2097152)
I0312 15:03:16.522660  1600 net.cpp:165] Memory required for data: 160170752
I0312 15:03:16.522660  1600 layer_factory.cpp:58] Creating layer relu2_1
I0312 15:03:16.522660  1600 net.cpp:100] Creating Layer relu2_1
I0312 15:03:16.522660  1600 net.cpp:434] relu2_1 <- scale2_1
I0312 15:03:16.522660  1600 net.cpp:408] relu2_1 -> relu2_1
I0312 15:03:16.524657  1600 net.cpp:150] Setting up relu2_1
I0312 15:03:16.524657  1600 net.cpp:157] Top shape: 64 32 32 32 (2097152)
I0312 15:03:16.524657  1600 net.cpp:165] Memory required for data: 168559360
I0312 15:03:16.524657  1600 layer_factory.cpp:58] Creating layer pool2_1
I0312 15:03:16.524657  1600 net.cpp:100] Creating Layer pool2_1
I0312 15:03:16.524657  1600 net.cpp:434] pool2_1 <- relu2_1
I0312 15:03:16.524657  1600 net.cpp:408] pool2_1 -> pool2_1
I0312 15:03:16.524657  1600 net.cpp:150] Setting up pool2_1
I0312 15:03:16.524657  1600 net.cpp:157] Top shape: 64 32 16 16 (524288)
I0312 15:03:16.524657  1600 net.cpp:165] Memory required for data: 170656512
I0312 15:03:16.524657  1600 layer_factory.cpp:58] Creating layer conv2_2
I0312 15:03:16.524657  1600 net.cpp:100] Creating Layer conv2_2
I0312 15:03:16.524657  1600 net.cpp:434] conv2_2 <- pool2_1
I0312 15:03:16.524657  1600 net.cpp:408] conv2_2 -> conv2_2
I0312 15:03:16.531658  1600 net.cpp:150] Setting up conv2_2
I0312 15:03:16.531658  1600 net.cpp:157] Top shape: 64 32 16 16 (524288)
I0312 15:03:16.531658  1600 net.cpp:165] Memory required for data: 172753664
I0312 15:03:16.531658  1600 layer_factory.cpp:58] Creating layer bn2_2
I0312 15:03:16.531658  1600 net.cpp:100] Creating Layer bn2_2
I0312 15:03:16.531658  1600 net.cpp:434] bn2_2 <- conv2_2
I0312 15:03:16.531658  1600 net.cpp:408] bn2_2 -> bn2_2
I0312 15:03:16.532158  1600 net.cpp:150] Setting up bn2_2
I0312 15:03:16.532158  1600 net.cpp:157] Top shape: 64 32 16 16 (524288)
I0312 15:03:16.532158  1600 net.cpp:165] Memory required for data: 174850816
I0312 15:03:16.532158  1600 layer_factory.cpp:58] Creating layer scale2_2
I0312 15:03:16.532158  1600 net.cpp:100] Creating Layer scale2_2
I0312 15:03:16.532158  1600 net.cpp:434] scale2_2 <- bn2_2
I0312 15:03:16.532158  1600 net.cpp:408] scale2_2 -> scale2_2
I0312 15:03:16.532158  1600 layer_factory.cpp:58] Creating layer scale2_2
I0312 15:03:16.532667  1600 net.cpp:150] Setting up scale2_2
I0312 15:03:16.532667  1600 net.cpp:157] Top shape: 64 32 16 16 (524288)
I0312 15:03:16.532667  1600 net.cpp:165] Memory required for data: 176947968
I0312 15:03:16.532667  1600 layer_factory.cpp:58] Creating layer relu2_2
I0312 15:03:16.532667  1600 net.cpp:100] Creating Layer relu2_2
I0312 15:03:16.532667  1600 net.cpp:434] relu2_2 <- scale2_2
I0312 15:03:16.532667  1600 net.cpp:408] relu2_2 -> relu2_2
I0312 15:03:16.536159  1600 net.cpp:150] Setting up relu2_2
I0312 15:03:16.536159  1600 net.cpp:157] Top shape: 64 32 16 16 (524288)
I0312 15:03:16.536159  1600 net.cpp:165] Memory required for data: 179045120
I0312 15:03:16.536159  1600 layer_factory.cpp:58] Creating layer conv3
I0312 15:03:16.536159  1600 net.cpp:100] Creating Layer conv3
I0312 15:03:16.536159  1600 net.cpp:434] conv3 <- relu2_2
I0312 15:03:16.536159  1600 net.cpp:408] conv3 -> conv3
I0312 15:03:16.544658  1600 net.cpp:150] Setting up conv3
I0312 15:03:16.544658  1600 net.cpp:157] Top shape: 64 32 16 16 (524288)
I0312 15:03:16.544658  1600 net.cpp:165] Memory required for data: 181142272
I0312 15:03:16.544658  1600 layer_factory.cpp:58] Creating layer bn3
I0312 15:03:16.544658  1600 net.cpp:100] Creating Layer bn3
I0312 15:03:16.544658  1600 net.cpp:434] bn3 <- conv3
I0312 15:03:16.544658  1600 net.cpp:408] bn3 -> bn3
I0312 15:03:16.544658  1600 net.cpp:150] Setting up bn3
I0312 15:03:16.544658  1600 net.cpp:157] Top shape: 64 32 16 16 (524288)
I0312 15:03:16.545158  1600 net.cpp:165] Memory required for data: 183239424
I0312 15:03:16.545158  1600 layer_factory.cpp:58] Creating layer scale3
I0312 15:03:16.545158  1600 net.cpp:100] Creating Layer scale3
I0312 15:03:16.545158  1600 net.cpp:434] scale3 <- bn3
I0312 15:03:16.545158  1600 net.cpp:408] scale3 -> scale3
I0312 15:03:16.545158  1600 layer_factory.cpp:58] Creating layer scale3
I0312 15:03:16.545158  1600 net.cpp:150] Setting up scale3
I0312 15:03:16.545158  1600 net.cpp:157] Top shape: 64 32 16 16 (524288)
I0312 15:03:16.545158  1600 net.cpp:165] Memory required for data: 185336576
I0312 15:03:16.545158  1600 layer_factory.cpp:58] Creating layer relu3
I0312 15:03:16.545158  1600 net.cpp:100] Creating Layer relu3
I0312 15:03:16.545158  1600 net.cpp:434] relu3 <- scale3
I0312 15:03:16.545158  1600 net.cpp:408] relu3 -> relu3
I0312 15:03:16.549657  1600 net.cpp:150] Setting up relu3
I0312 15:03:16.549657  1600 net.cpp:157] Top shape: 64 32 16 16 (524288)
I0312 15:03:16.549657  1600 net.cpp:165] Memory required for data: 187433728
I0312 15:03:16.549657  1600 layer_factory.cpp:58] Creating layer conv4
I0312 15:03:16.549657  1600 net.cpp:100] Creating Layer conv4
I0312 15:03:16.549657  1600 net.cpp:434] conv4 <- relu3
I0312 15:03:16.549657  1600 net.cpp:408] conv4 -> conv4
I0312 15:03:16.551658  1600 net.cpp:150] Setting up conv4
I0312 15:03:16.551658  1600 net.cpp:157] Top shape: 64 64 16 16 (1048576)
I0312 15:03:16.551658  1600 net.cpp:165] Memory required for data: 191628032
I0312 15:03:16.552158  1600 layer_factory.cpp:58] Creating layer pool4
I0312 15:03:16.552158  1600 net.cpp:100] Creating Layer pool4
I0312 15:03:16.552158  1600 net.cpp:434] pool4 <- conv4
I0312 15:03:16.552158  1600 net.cpp:408] pool4 -> pool4
I0312 15:03:16.552158  1600 net.cpp:150] Setting up pool4
I0312 15:03:16.552158  1600 net.cpp:157] Top shape: 64 64 8 8 (262144)
I0312 15:03:16.552158  1600 net.cpp:165] Memory required for data: 192676608
I0312 15:03:16.552158  1600 layer_factory.cpp:58] Creating layer bn4
I0312 15:03:16.552158  1600 net.cpp:100] Creating Layer bn4
I0312 15:03:16.552158  1600 net.cpp:434] bn4 <- pool4
I0312 15:03:16.552158  1600 net.cpp:408] bn4 -> bn4
I0312 15:03:16.552158  1600 net.cpp:150] Setting up bn4
I0312 15:03:16.552158  1600 net.cpp:157] Top shape: 64 64 8 8 (262144)
I0312 15:03:16.552158  1600 net.cpp:165] Memory required for data: 193725184
I0312 15:03:16.552158  1600 layer_factory.cpp:58] Creating layer scale4
I0312 15:03:16.552158  1600 net.cpp:100] Creating Layer scale4
I0312 15:03:16.552158  1600 net.cpp:434] scale4 <- bn4
I0312 15:03:16.552158  1600 net.cpp:408] scale4 -> scale4
I0312 15:03:16.552659  1600 layer_factory.cpp:58] Creating layer scale4
I0312 15:03:16.552659  1600 net.cpp:150] Setting up scale4
I0312 15:03:16.552659  1600 net.cpp:157] Top shape: 64 64 8 8 (262144)
I0312 15:03:16.552659  1600 net.cpp:165] Memory required for data: 194773760
I0312 15:03:16.552659  1600 layer_factory.cpp:58] Creating layer relu4
I0312 15:03:16.552659  1600 net.cpp:100] Creating Layer relu4
I0312 15:03:16.552659  1600 net.cpp:434] relu4 <- scale4
I0312 15:03:16.552659  1600 net.cpp:408] relu4 -> relu4
I0312 15:03:16.553158  1600 net.cpp:150] Setting up relu4
I0312 15:03:16.553158  1600 net.cpp:157] Top shape: 64 64 8 8 (262144)
I0312 15:03:16.553158  1600 net.cpp:165] Memory required for data: 195822336
I0312 15:03:16.553158  1600 layer_factory.cpp:58] Creating layer conv4_1
I0312 15:03:16.553158  1600 net.cpp:100] Creating Layer conv4_1
I0312 15:03:16.553158  1600 net.cpp:434] conv4_1 <- relu4
I0312 15:03:16.553158  1600 net.cpp:408] conv4_1 -> conv4_1
I0312 15:03:16.562160  1600 net.cpp:150] Setting up conv4_1
I0312 15:03:16.562160  1600 net.cpp:157] Top shape: 64 64 8 8 (262144)
I0312 15:03:16.562160  1600 net.cpp:165] Memory required for data: 196870912
I0312 15:03:16.562160  1600 layer_factory.cpp:58] Creating layer bn4_1
I0312 15:03:16.562160  1600 net.cpp:100] Creating Layer bn4_1
I0312 15:03:16.562160  1600 net.cpp:434] bn4_1 <- conv4_1
I0312 15:03:16.562160  1600 net.cpp:408] bn4_1 -> bn4_1
I0312 15:03:16.562659  1600 net.cpp:150] Setting up bn4_1
I0312 15:03:16.562659  1600 net.cpp:157] Top shape: 64 64 8 8 (262144)
I0312 15:03:16.562659  1600 net.cpp:165] Memory required for data: 197919488
I0312 15:03:16.562659  1600 layer_factory.cpp:58] Creating layer scale4_1
I0312 15:03:16.562659  1600 net.cpp:100] Creating Layer scale4_1
I0312 15:03:16.562659  1600 net.cpp:434] scale4_1 <- bn4_1
I0312 15:03:16.562659  1600 net.cpp:408] scale4_1 -> scale4_1
I0312 15:03:16.562659  1600 layer_factory.cpp:58] Creating layer scale4_1
I0312 15:03:16.562659  1600 net.cpp:150] Setting up scale4_1
I0312 15:03:16.562659  1600 net.cpp:157] Top shape: 64 64 8 8 (262144)
I0312 15:03:16.562659  1600 net.cpp:165] Memory required for data: 198968064
I0312 15:03:16.562659  1600 layer_factory.cpp:58] Creating layer relu4_1
I0312 15:03:16.562659  1600 net.cpp:100] Creating Layer relu4_1
I0312 15:03:16.562659  1600 net.cpp:434] relu4_1 <- scale4_1
I0312 15:03:16.562659  1600 net.cpp:408] relu4_1 -> relu4_1
I0312 15:03:16.564157  1600 net.cpp:150] Setting up relu4_1
I0312 15:03:16.564157  1600 net.cpp:157] Top shape: 64 64 8 8 (262144)
I0312 15:03:16.564157  1600 net.cpp:165] Memory required for data: 200016640
I0312 15:03:16.564157  1600 layer_factory.cpp:58] Creating layer conv4_2
I0312 15:03:16.564157  1600 net.cpp:100] Creating Layer conv4_2
I0312 15:03:16.564157  1600 net.cpp:434] conv4_2 <- relu4_1
I0312 15:03:16.564157  1600 net.cpp:408] conv4_2 -> conv4_2
I0312 15:03:16.568158  1600 net.cpp:150] Setting up conv4_2
I0312 15:03:16.568158  1600 net.cpp:157] Top shape: 64 64 8 8 (262144)
I0312 15:03:16.568158  1600 net.cpp:165] Memory required for data: 201065216
I0312 15:03:16.568158  1600 layer_factory.cpp:58] Creating layer bn4_2
I0312 15:03:16.568158  1600 net.cpp:100] Creating Layer bn4_2
I0312 15:03:16.568158  1600 net.cpp:434] bn4_2 <- conv4_2
I0312 15:03:16.568158  1600 net.cpp:408] bn4_2 -> bn4_2
I0312 15:03:16.568658  1600 net.cpp:150] Setting up bn4_2
I0312 15:03:16.568658  1600 net.cpp:157] Top shape: 64 64 8 8 (262144)
I0312 15:03:16.568658  1600 net.cpp:165] Memory required for data: 202113792
I0312 15:03:16.568658  1600 layer_factory.cpp:58] Creating layer scale4_2
I0312 15:03:16.568658  1600 net.cpp:100] Creating Layer scale4_2
I0312 15:03:16.568658  1600 net.cpp:434] scale4_2 <- bn4_2
I0312 15:03:16.568658  1600 net.cpp:408] scale4_2 -> scale4_2
I0312 15:03:16.568658  1600 layer_factory.cpp:58] Creating layer scale4_2
I0312 15:03:16.568658  1600 net.cpp:150] Setting up scale4_2
I0312 15:03:16.568658  1600 net.cpp:157] Top shape: 64 64 8 8 (262144)
I0312 15:03:16.568658  1600 net.cpp:165] Memory required for data: 203162368
I0312 15:03:16.568658  1600 layer_factory.cpp:58] Creating layer relu4_2
I0312 15:03:16.568658  1600 net.cpp:100] Creating Layer relu4_2
I0312 15:03:16.568658  1600 net.cpp:434] relu4_2 <- scale4_2
I0312 15:03:16.568658  1600 net.cpp:408] relu4_2 -> relu4_2
I0312 15:03:16.569159  1600 net.cpp:150] Setting up relu4_2
I0312 15:03:16.569159  1600 net.cpp:157] Top shape: 64 64 8 8 (262144)
I0312 15:03:16.569159  1600 net.cpp:165] Memory required for data: 204210944
I0312 15:03:16.569159  1600 layer_factory.cpp:58] Creating layer pool4_2
I0312 15:03:16.569159  1600 net.cpp:100] Creating Layer pool4_2
I0312 15:03:16.569159  1600 net.cpp:434] pool4_2 <- relu4_2
I0312 15:03:16.569159  1600 net.cpp:408] pool4_2 -> pool4_2
I0312 15:03:16.569159  1600 net.cpp:150] Setting up pool4_2
I0312 15:03:16.569660  1600 net.cpp:157] Top shape: 64 64 4 4 (65536)
I0312 15:03:16.569660  1600 net.cpp:165] Memory required for data: 204473088
I0312 15:03:16.569660  1600 layer_factory.cpp:58] Creating layer conv4_0
I0312 15:03:16.569660  1600 net.cpp:100] Creating Layer conv4_0
I0312 15:03:16.569660  1600 net.cpp:434] conv4_0 <- pool4_2
I0312 15:03:16.569660  1600 net.cpp:408] conv4_0 -> conv4_0
I0312 15:03:16.577658  1600 net.cpp:150] Setting up conv4_0
I0312 15:03:16.577658  1600 net.cpp:157] Top shape: 64 128 4 4 (131072)
I0312 15:03:16.577658  1600 net.cpp:165] Memory required for data: 204997376
I0312 15:03:16.578158  1600 layer_factory.cpp:58] Creating layer bn4_0
I0312 15:03:16.578158  1600 net.cpp:100] Creating Layer bn4_0
I0312 15:03:16.578158  1600 net.cpp:434] bn4_0 <- conv4_0
I0312 15:03:16.578158  1600 net.cpp:408] bn4_0 -> bn4_0
I0312 15:03:16.578158  1600 net.cpp:150] Setting up bn4_0
I0312 15:03:16.578158  1600 net.cpp:157] Top shape: 64 128 4 4 (131072)
I0312 15:03:16.578158  1600 net.cpp:165] Memory required for data: 205521664
I0312 15:03:16.578158  1600 layer_factory.cpp:58] Creating layer scale4_0
I0312 15:03:16.578158  1600 net.cpp:100] Creating Layer scale4_0
I0312 15:03:16.578158  1600 net.cpp:434] scale4_0 <- bn4_0
I0312 15:03:16.578158  1600 net.cpp:408] scale4_0 -> scale4_0
I0312 15:03:16.578158  1600 layer_factory.cpp:58] Creating layer scale4_0
I0312 15:03:16.578660  1600 net.cpp:150] Setting up scale4_0
I0312 15:03:16.578660  1600 net.cpp:157] Top shape: 64 128 4 4 (131072)
I0312 15:03:16.578660  1600 net.cpp:165] Memory required for data: 206045952
I0312 15:03:16.578660  1600 layer_factory.cpp:58] Creating layer relu4_0
I0312 15:03:16.578660  1600 net.cpp:100] Creating Layer relu4_0
I0312 15:03:16.578660  1600 net.cpp:434] relu4_0 <- scale4_0
I0312 15:03:16.578660  1600 net.cpp:408] relu4_0 -> relu4_0
I0312 15:03:16.579160  1600 net.cpp:150] Setting up relu4_0
I0312 15:03:16.579160  1600 net.cpp:157] Top shape: 64 128 4 4 (131072)
I0312 15:03:16.579160  1600 net.cpp:165] Memory required for data: 206570240
I0312 15:03:16.579160  1600 layer_factory.cpp:58] Creating layer cccp4
I0312 15:03:16.579160  1600 net.cpp:100] Creating Layer cccp4
I0312 15:03:16.579658  1600 net.cpp:434] cccp4 <- relu4_0
I0312 15:03:16.579658  1600 net.cpp:408] cccp4 -> cccp4
I0312 15:03:16.584658  1600 net.cpp:150] Setting up cccp4
I0312 15:03:16.584658  1600 net.cpp:157] Top shape: 64 256 4 4 (262144)
I0312 15:03:16.584658  1600 net.cpp:165] Memory required for data: 207618816
I0312 15:03:16.584658  1600 layer_factory.cpp:58] Creating layer relu_cccp4
I0312 15:03:16.584658  1600 net.cpp:100] Creating Layer relu_cccp4
I0312 15:03:16.584658  1600 net.cpp:434] relu_cccp4 <- cccp4
I0312 15:03:16.584658  1600 net.cpp:395] relu_cccp4 -> cccp4 (in-place)
I0312 15:03:16.586158  1600 net.cpp:150] Setting up relu_cccp4
I0312 15:03:16.586158  1600 net.cpp:157] Top shape: 64 256 4 4 (262144)
I0312 15:03:16.586158  1600 net.cpp:165] Memory required for data: 208667392
I0312 15:03:16.586158  1600 layer_factory.cpp:58] Creating layer cccp5
I0312 15:03:16.586158  1600 net.cpp:100] Creating Layer cccp5
I0312 15:03:16.586158  1600 net.cpp:434] cccp5 <- cccp4
I0312 15:03:16.586158  1600 net.cpp:408] cccp5 -> cccp5
I0312 15:03:16.595659  1600 net.cpp:150] Setting up cccp5
I0312 15:03:16.595659  1600 net.cpp:157] Top shape: 64 64 4 4 (65536)
I0312 15:03:16.595659  1600 net.cpp:165] Memory required for data: 208929536
I0312 15:03:16.595659  1600 layer_factory.cpp:58] Creating layer relu_cccp5
I0312 15:03:16.595659  1600 net.cpp:100] Creating Layer relu_cccp5
I0312 15:03:16.595659  1600 net.cpp:434] relu_cccp5 <- cccp5
I0312 15:03:16.595659  1600 net.cpp:395] relu_cccp5 -> cccp5 (in-place)
I0312 15:03:16.596160  1600 net.cpp:150] Setting up relu_cccp5
I0312 15:03:16.596160  1600 net.cpp:157] Top shape: 64 64 4 4 (65536)
I0312 15:03:16.596160  1600 net.cpp:165] Memory required for data: 209191680
I0312 15:03:16.596160  1600 layer_factory.cpp:58] Creating layer poolcp5
I0312 15:03:16.596160  1600 net.cpp:100] Creating Layer poolcp5
I0312 15:03:16.596160  1600 net.cpp:434] poolcp5 <- cccp5
I0312 15:03:16.596160  1600 net.cpp:408] poolcp5 -> poolcp5
I0312 15:03:16.596160  1600 net.cpp:150] Setting up poolcp5
I0312 15:03:16.596160  1600 net.cpp:157] Top shape: 64 64 2 2 (16384)
I0312 15:03:16.596660  1600 net.cpp:165] Memory required for data: 209257216
I0312 15:03:16.596660  1600 layer_factory.cpp:58] Creating layer cccp6
I0312 15:03:16.596660  1600 net.cpp:100] Creating Layer cccp6
I0312 15:03:16.596660  1600 net.cpp:434] cccp6 <- poolcp5
I0312 15:03:16.596660  1600 net.cpp:408] cccp6 -> cccp6
I0312 15:03:16.609659  1600 net.cpp:150] Setting up cccp6
I0312 15:03:16.609659  1600 net.cpp:157] Top shape: 64 64 2 2 (16384)
I0312 15:03:16.609659  1600 net.cpp:165] Memory required for data: 209322752
I0312 15:03:16.609659  1600 layer_factory.cpp:58] Creating layer relu_cccp6
I0312 15:03:16.609659  1600 net.cpp:100] Creating Layer relu_cccp6
I0312 15:03:16.609659  1600 net.cpp:434] relu_cccp6 <- cccp6
I0312 15:03:16.609659  1600 net.cpp:395] relu_cccp6 -> cccp6 (in-place)
I0312 15:03:16.610158  1600 net.cpp:150] Setting up relu_cccp6
I0312 15:03:16.610158  1600 net.cpp:157] Top shape: 64 64 2 2 (16384)
I0312 15:03:16.610158  1600 net.cpp:165] Memory required for data: 209388288
I0312 15:03:16.610158  1600 layer_factory.cpp:58] Creating layer poolcp6
I0312 15:03:16.610158  1600 net.cpp:100] Creating Layer poolcp6
I0312 15:03:16.610158  1600 net.cpp:434] poolcp6 <- cccp6
I0312 15:03:16.610158  1600 net.cpp:408] poolcp6 -> poolcp6
I0312 15:03:16.610158  1600 net.cpp:150] Setting up poolcp6
I0312 15:03:16.610158  1600 net.cpp:157] Top shape: 64 64 1 1 (4096)
I0312 15:03:16.610158  1600 net.cpp:165] Memory required for data: 209404672
I0312 15:03:16.610158  1600 layer_factory.cpp:58] Creating layer ip1
I0312 15:03:16.610158  1600 net.cpp:100] Creating Layer ip1
I0312 15:03:16.610158  1600 net.cpp:434] ip1 <- poolcp6
I0312 15:03:16.610158  1600 net.cpp:408] ip1 -> ip1
I0312 15:03:16.610658  1600 net.cpp:150] Setting up ip1
I0312 15:03:16.610658  1600 net.cpp:157] Top shape: 64 100 (6400)
I0312 15:03:16.610658  1600 net.cpp:165] Memory required for data: 209430272
I0312 15:03:16.610658  1600 layer_factory.cpp:58] Creating layer ip1_ip1_0_split
I0312 15:03:16.610658  1600 net.cpp:100] Creating Layer ip1_ip1_0_split
I0312 15:03:16.610658  1600 net.cpp:434] ip1_ip1_0_split <- ip1
I0312 15:03:16.610658  1600 net.cpp:408] ip1_ip1_0_split -> ip1_ip1_0_split_0
I0312 15:03:16.610658  1600 net.cpp:408] ip1_ip1_0_split -> ip1_ip1_0_split_1
I0312 15:03:16.610658  1600 net.cpp:150] Setting up ip1_ip1_0_split
I0312 15:03:16.610658  1600 net.cpp:157] Top shape: 64 100 (6400)
I0312 15:03:16.610658  1600 net.cpp:157] Top shape: 64 100 (6400)
I0312 15:03:16.610658  1600 net.cpp:165] Memory required for data: 209481472
I0312 15:03:16.610658  1600 layer_factory.cpp:58] Creating layer accuracy_training
I0312 15:03:16.610658  1600 net.cpp:100] Creating Layer accuracy_training
I0312 15:03:16.610658  1600 net.cpp:434] accuracy_training <- ip1_ip1_0_split_0
I0312 15:03:16.610658  1600 net.cpp:434] accuracy_training <- label_cifar_1_split_0
…
I0312 15:03:16.612658  1600 net.cpp:322] The NetState phase (1) differed from the phase (0) specified by a rule in layer bn4_0
I0312 15:03:16.612658  1600 net.cpp:322] The NetState phase (1) differed from the phase (0) specified by a rule in layer accuracy_training
I0312 15:03:16.613160  1600 net.cpp:58] Initializing net from parameters: 
name: "CIFAR100_full"
state {
  phase: TEST
}
layer {
  name: "cifar"
  type: "Data"
  top: "data"
  top: "label"
  include {
    phase: TEST
  }
  transform_param {
    crop_size: 32
  }
  data_param {
    source: "examples/cifar100/cifar100_test_leveldb_padding"
    batch_size: 50
    backend: LEVELDB
  }
}
layer {
  name: "conv1"
  type: "Convolution"
  bottom: "data"
  top: "conv1"
  param {
    lr_mult: 1
  }
  convolution_param {
    num_output: 64
    bias_term: true
    pad: 1
    kernel_size: 3
    stride: 1
    weight_filler {
      type: "xavier"
    }
  }
}
layer {
  name: "bn1"
  type: "BatchNorm"
  bottom: "conv1"
  top: "bn1"
  include {
    phase: TEST
  }
  batch_norm_param {
    use_global_stats: true
    moving_average_fraction: 0.95
  }
}
layer {
  name: "scale1"
  type: "Scale"
  bottom: "bn1"
  top: "scale1"
  scale_param {
    bias_term: true
  }
}
layer {
  name: "relu1"
  type: "ReLU"
  bottom: "scale1"
  top: "relu1"
}
layer {
  name: "conv1_0"
  type: "Convolution"
  bottom: "relu1"
  top: "conv1_0"
  param {
    lr_mult: 1
  }
  convolution_param {
    num_output: 32
    bias_term: true
    pad: 1
    kernel_size: 3
    stride: 1
    weight_filler {
      type: "xavier"
    }
  }
}
layer {
  name: "bn1_0"
  type: "BatchNorm"
  bottom: "conv1_0"
  top: "bn1_0"
  include {
    phase: TEST
  }
  batch_norm_param {
    use_global_stats: true
    moving_average_fraction: 0.95
  }
}
layer {
  name: "scale1_0"
  type: "Scale"
  bottom: "bn1_0"
  top: "scale1_0"
  scale_param {
    bias_term: true
  }
}
layer {
  name: "relu1_0"
  type: "ReLU"
  bottom: "scale1_0"
  top: "relu1_0"
}
layer {
  name: "conv2"
  type: "Convolution"
  bottom: "relu1_0"
  top: "conv2"
  param {
    lr_mult: 1
  }
  convolution_param {
    num_output: 32
    bias_term: true
    pad: 1
    kernel_size: 3
    stride: 1
    weight_filler {
      type: "gaussian"
      std: 0.01
    }
  }
}
layer {
  name: "bn2"
  type: "BatchNorm"
  bottom: "conv2"
  top: "bn2"
  include {
    phase: TEST
  }
  batch_norm_param {
    use_global_stats: true
    moving_average_fraction: 0.95
  }
}
layer {
  name: "scale2"
  type: "Scale"
  bottom: "bn2"
  top: "scale2"
  scale_param {
    bias_term: true
  }
}
layer {
  name: "relu2"
  type: "ReLU"
  bottom: "scale2"
  top: "relu2"
}
layer {
  name: "conv2_1"
  type: "Convolution"
  bottom: "relu2"
  top: "conv2_1"
  param {
    lr_mult: 1
  }
  convolution_param {
    num_output: 32
    bias_term: true
    pad: 1
    kernel_size: 3
    stride: 1
    weight_filler {
      type: "gaussian"
      std: 0.01
    }
  }
}
layer {
  name: "bn2_1"
  type: "BatchNorm"
  bottom: "conv2_1"
  top: "bn2_1"
  include {
    phase: TEST
  }
  batch_norm_param {
    use_global_stats: true
    moving_average_fraction: 0.95
  }
}
layer {
  name: "scale2_1"
  type: "Scale"
  bottom: "bn2_1"
  top: "scale2_1"
  scale_param {
    bias_term: true
  }
}
layer {
  name: "relu2_1"
  type: "ReLU"
  bottom: "scale2_1"
  top: "relu2_1"
}
layer {
  name: "pool2_1"
  type: "Pooling"
  bottom: "relu2_1"
  top: "pool2_1"
  pooling_param {
    pool: MAX
    kernel_size: 2
    stride: 2
  }
}
layer {
  name: "conv2_2"
  type: "Convolution"
  bottom: "pool2_1"
  top: "conv2_2"
  param {
    lr_mult: 1
  }
  convolution_param {
    num_output: 32
    bias_term: true
    pad: 1
    kernel_size: 3
    stride: 1
    weight_filler {
      type: "gaussian"
      std: 0.01
    }
  }
}
layer {
  name: "bn2_2"
  type: "BatchNorm"
  bottom: "conv2_2"
  top: "bn2_2"
  include {
    phase: TEST
  }
  batch_norm_param {
    use_global_stats: true
    moving_average_fraction: 0.95
  }
}
layer {
  name: "scale2_2"
  type: "Scale"
  bottom: "bn2_2"
  top: "scale2_2"
  scale_param {
    bias_term: true
  }
}
layer {
  name: "relu2_2"
  type: "ReLU"
  bottom: "scale2_2"
  top: "relu2_2"
}
layer {
  name: "conv3"
  type: "Convolution"
  bottom: "relu2_2"
  top: "conv3"
  param {
    lr_mult: 1
  }
  convolution_param {
    num_output: 32
    bias_term: true
    pad: 1
    kernel_size: 3
    stride: 1
    weight_filler {
      type: "xavier"
    }
  }
}
layer {
  name: "bn3"
  type: "BatchNorm"
  bottom: "conv3"
  top: "bn3"
  include {
    phase: TEST
  }
  batch_norm_param {
    use_global_stats: true
    moving_average_fraction: 0.95
  }
}
layer {
  name: "scale3"
  type: "Scale"
  bottom: "bn3"
  top: "scale3"
  scale_param {
    bias_term: true
  }
}
layer {
  name: "relu3"
  type: "ReLU"
  bottom: "scale3"
  top: "relu3"
}
layer {
  name: "conv4"
  type: "Convolution"
  bottom: "relu3"
  top: "conv4"
  param {
    lr_mult: 1
  }
  convolution_param {
    num_output: 64
    bias_term: true
    pad: 1
    kernel_size: 3
    stride: 1
    weight_filler {
      type: "xavier"
    }
  }
}
layer {
  name: "pool4"
  type: "Pooling"
  bottom: "conv4"
  top: "pool4"
  pooling_param {
    pool: MAX
    kernel_size: 2
    stride: 2
  }
}
layer {
  name: "bn4"
  type: "BatchNorm"
  bottom: "pool4"
  top: "bn4"
  include {
    phase: TEST
  }
  batch_norm_param {
    use_global_stats: true
    moving_average_fraction: 0.95
  }
}
layer {
  name: "scale4"
  type: "Scale"
  bottom: "bn4"
  top: "scale4"
  scale_param {
    bias_term: true
  }
}
layer {
  name: "relu4"
  type: "ReLU"
  bottom: "scale4"
  top: "relu4"
}
layer {
  name: "conv4_1"
  type: "Convolution"
  bottom: "relu4"
  top: "conv4_1"
  param {
    lr_mult: 1
  }
  convolution_param {
    num_output: 64
    bias_term: true
    pad: 1
    kernel_size: 3
    stride: 1
    weight_filler {
      type: "xavier"
    }
  }
}
layer {
  name: "bn4_1"
  type: "BatchNorm"
  bottom: "conv4_1"
  top: "bn4_1"
  include {
    phase: TEST
  }
  batch_norm_param {
    use_global_stats: true
    moving_average_fraction: 0.95
  }
}
layer {
  name: "scale4_1"
  type: "Scale"
  bottom: "bn4_1"
  top: "scale4_1"
  scale_param {
    bias_term: true
  }
}
layer {
  name: "relu4_1"
  type: "ReLU"
  bottom: "scale4_1"
  top: "relu4_1"
}
layer {
  name: "conv4_2"
  type: "Convolution"
  bottom: "relu4_1"
  top: "conv4_2"
  param {
    lr_mult: 1
  }
  convolution_param {
    num_output: 64
    bias_term: true
    pad: 1
    kernel_size: 3
    stride: 1
    weight_filler {
      type: "xavier"
    }
  }
}
layer {
  name: "bn4_2"
  type: "BatchNorm"
  bottom: "conv4_2"
  top: "bn4_2"
  include {
    phase: TEST
  }
  batch_norm_param {
    use_global_stats: true
    moving_average_fraction: 0.95
  }
}
layer {
  name: "scale4_2"
  type: "Scale"
  bottom: "bn4_2"
  top: "scale4_2"
  scale_param {
    bias_term: true
  }
}
layer {
  name: "relu4_2"
  type: "ReLU"
  bottom: "scale4_2"
  top: "relu4_2"
}
layer {
  name: "pool4_2"
  type: "Pooling"
  bottom: "relu4_2"
  top: "pool4_2"
  pooling_param {
    pool: MAX
    kernel_size: 2
    stride: 2
  }
}
layer {
  name: "conv4_0"
  type: "Convolution"
  bottom: "pool4_2"
  top: "conv4_0"
  param {
    lr_mult: 1
  }
  convolution_param {
    num_output: 128
    bias_term: true
    pad: 1
    kernel_size: 3
    stride: 1
    weight_filler {
      type: "xavier"
    }
  }
}
layer {
  name: "bn4_0"
  type: "BatchNorm"
  bottom: "conv4_0"
  top: "bn4_0"
  include {
    phase: TEST
  }
  batch_norm_param {
    use_global_stats: true
    moving_average_fraction: 0.95
  }
}
layer {
  name: "scale4_0"
  type: "Scale"
  bottom: "bn4_0"
  top: "scale4_0"
  scale_param {
    bias_term: true
  }
}
layer {
  name: "relu4_0"
  type: "ReLU"
  bottom: "scale4_0"
  top: "relu4_0"
}
layer {
  name: "cccp4"
  type: "Convolution"
  bottom: "relu4_0"
  top: "cccp4"
  param {
    lr_mult: 1
    decay_mult: 1
  }
  param {
    lr_mult: 2
    decay_mult: 0
  }
  convolution_param {
    num_output: 256
    kernel_size: 1
    group: 1
    weight_filler {
      type: "xavier"
    }
    bias_filler {
      type: "constant"
      value: 0
    }
  }
}
layer {
  name: "relu_cccp4"
  type: "ReLU"
  bottom: "cccp4"
  top: "cccp4"
}
layer {
  name: "cccp5"
  type: "Convolution"
  bottom: "cccp4"
  top: "cccp5"
  param {
    lr_mult: 1
    decay_mult: 1
  }
  param {
    lr_mult: 2
    decay_mult: 0
  }
  convolution_param {
    num_output: 64
    kernel_size: 1
    group: 1
    weight_filler {
      type: "xavier"
    }
    bias_filler {
      type: "constant"
      value: 0
    }
  }
}
layer {
  name: "relu_cccp5"
  type: "ReLU"
  bottom: "cccp5"
  top: "cccp5"
}
layer {
  name: "poolcp5"
  type: "Pooling"
  bottom: "cccp5"
  top: "poolcp5"
  pooling_param {
    pool: MAX
    kernel_size: 2
    stride: 2
  }
}
layer {
  name: "cccp6"
  type: "Convolution"
  bottom: "poolcp5"
  top: "cccp6"
  param {
    lr_mult: 1
    decay_mult: 1
  }
  param {
    lr_mult: 2
    decay_mult: 0
  }
  convolution_param {
    num_output: 64
    pad: 1
    kernel_size: 3
    group: 1
    weight_filler {
      type: "xavier"
    }
    bias_filler {
      type: "constant"
      value: 0
    }
  }
}
layer {
  name: "relu_cccp6"
  type: "ReLU"
  bottom: "cccp6"
  top: "cccp6"
}
layer {
  name: "poolcp6"
  type: "Pooling"
  bottom: "cccp6"
  top: "poolcp6"
  pooling_param {
    pool: MAX
    kernel_size: 2
    stride: 2
  }
}
layer {
  name: "ip1"
  type: "InnerProduct"
  bottom: "poolcp6"
  top: "ip1"
  param {
    lr_mult: 1
    decay_mult: 0
  }
  param {
    lr_mult: 2
    decay_mult: 0
  }
  inner_product_param {
    num_output: 100
    weight_filler {
      type: "xavier"
    }
    bias_filler {
      type: "constant"
    }
  }
}
layer {
  name: "accuracy"
  type: "Accuracy"
  bottom: "ip1"
  bottom: "label"
  top: "accuracy"
  include {
    phase: TEST
  }
}
layer {
  name: "loss"
  type: "SoftmaxWithLoss"
  bottom: "ip1"
  bottom: "label"
  top: "loss"
}
I0312 15:03:16.613160  1600 layer_factory.cpp:58] Creating layer cifar
I0312 15:03:16.614161  1600 net.cpp:100] Creating Layer cifar
I0312 15:03:16.614161  1600 net.cpp:408] cifar -> data
I0312 15:03:16.614161  1600 net.cpp:408] cifar -> label
I0312 15:03:16.615658 11028 common.cpp:36] System entropy source not available, using fallback algorithm to generate seed instead.
I0312 15:03:16.618659 11028 db_leveldb.cpp:18] Opened leveldb examples/cifar100/cifar100_test_leveldb_padding
I0312 15:03:16.619159  1600 data_layer.cpp:41] output data size: 50,3,32,32
I0312 15:03:16.628163  1600 net.cpp:150] Setting up cifar
I0312 15:03:16.628163  1600 net.cpp:157] Top shape: 50 3 32 32 (153600)
I0312 15:03:16.628163  1600 net.cpp:157] Top shape: 50 (50)
I0312 15:03:16.628163  1600 net.cpp:165] Memory required for data: 614600
I0312 15:03:16.628163  1600 layer_factory.cpp:58] Creating layer label_cifar_1_split
I0312 15:03:16.628163  1600 net.cpp:100] Creating Layer label_cifar_1_split
I0312 15:03:16.628163  1600 net.cpp:434] label_cifar_1_split <- label
I0312 15:03:16.628163  1600 net.cpp:408] label_cifar_1_split -> label_cifar_1_split_0
I0312 15:03:16.628163  1600 net.cpp:408] label_cifar_1_split -> label_cifar_1_split_1
I0312 15:03:16.628659  1600 net.cpp:150] Setting up label_cifar_1_split
I0312 15:03:16.628659  1600 net.cpp:157] Top shape: 50 (50)
I0312 15:03:16.628659  1600 net.cpp:157] Top shape: 50 (50)
I0312 15:03:16.628659  1600 net.cpp:165] Memory required for data: 615000
I0312 15:03:16.628659  1600 layer_factory.cpp:58] Creating layer conv1
I0312 15:03:16.628659  1600 net.cpp:100] Creating Layer conv1
I0312 15:03:16.628659  1600 net.cpp:434] conv1 <- data
I0312 15:03:16.628659  1600 net.cpp:408] conv1 -> conv1
I0312 15:03:16.629658 13932 common.cpp:36] System entropy source not available, using fallback algorithm to generate seed instead.
I0312 15:03:16.632159  1600 net.cpp:150] Setting up conv1
I0312 15:03:16.632159  1600 net.cpp:157] Top shape: 50 64 32 32 (3276800)
I0312 15:03:16.632159  1600 net.cpp:165] Memory required for data: 13722200
I0312 15:03:16.632659  1600 layer_factory.cpp:58] Creating layer bn1
I0312 15:03:16.632659  1600 net.cpp:100] Creating Layer bn1
I0312 15:03:16.632659  1600 net.cpp:434] bn1 <- conv1
I0312 15:03:16.632659  1600 net.cpp:408] bn1 -> bn1
I0312 15:03:16.632659  1600 net.cpp:150] Setting up bn1
I0312 15:03:16.632659  1600 net.cpp:157] Top shape: 50 64 32 32 (3276800)
I0312 15:03:16.632659  1600 net.cpp:165] Memory required for data: 26829400
I0312 15:03:16.632659  1600 layer_factory.cpp:58] Creating layer scale1
I0312 15:03:16.632659  1600 net.cpp:100] Creating Layer scale1
I0312 15:03:16.632659  1600 net.cpp:434] scale1 <- bn1
I0312 15:03:16.632659  1600 net.cpp:408] scale1 -> scale1
I0312 15:03:16.632659  1600 layer_factory.cpp:58] Creating layer scale1
I0312 15:03:16.633158  1600 net.cpp:150] Setting up scale1
I0312 15:03:16.633158  1600 net.cpp:157] Top shape: 50 64 32 32 (3276800)
I0312 15:03:16.633158  1600 net.cpp:165] Memory required for data: 39936600
I0312 15:03:16.633158  1600 layer_factory.cpp:58] Creating layer relu1
I0312 15:03:16.633158  1600 net.cpp:100] Creating Layer relu1
I0312 15:03:16.633158  1600 net.cpp:434] relu1 <- scale1
I0312 15:03:16.633158  1600 net.cpp:408] relu1 -> relu1
I0312 15:03:16.634658  1600 net.cpp:150] Setting up relu1
I0312 15:03:16.634658  1600 net.cpp:157] Top shape: 50 64 32 32 (3276800)
I0312 15:03:16.634658  1600 net.cpp:165] Memory required for data: 53043800
I0312 15:03:16.634658  1600 layer_factory.cpp:58] Creating layer conv1_0
I0312 15:03:16.634658  1600 net.cpp:100] Creating Layer conv1_0
I0312 15:03:16.634658  1600 net.cpp:434] conv1_0 <- relu1
I0312 15:03:16.634658  1600 net.cpp:408] conv1_0 -> conv1_0
I0312 15:03:16.638659  1600 net.cpp:150] Setting up conv1_0
I0312 15:03:16.638659  1600 net.cpp:157] Top shape: 50 32 32 32 (1638400)
I0312 15:03:16.638659  1600 net.cpp:165] Memory required for data: 59597400
I0312 15:03:16.638659  1600 layer_factory.cpp:58] Creating layer bn1_0
I0312 15:03:16.638659  1600 net.cpp:100] Creating Layer bn1_0
I0312 15:03:16.638659  1600 net.cpp:434] bn1_0 <- conv1_0
I0312 15:03:16.638659  1600 net.cpp:408] bn1_0 -> bn1_0
I0312 15:03:16.639158  1600 net.cpp:150] Setting up bn1_0
I0312 15:03:16.639158  1600 net.cpp:157] Top shape: 50 32 32 32 (1638400)
I0312 15:03:16.639158  1600 net.cpp:165] Memory required for data: 66151000
I0312 15:03:16.639158  1600 layer_factory.cpp:58] Creating layer scale1_0
I0312 15:03:16.639158  1600 net.cpp:100] Creating Layer scale1_0
I0312 15:03:16.639158  1600 net.cpp:434] scale1_0 <- bn1_0
I0312 15:03:16.639158  1600 net.cpp:408] scale1_0 -> scale1_0
I0312 15:03:16.639158  1600 layer_factory.cpp:58] Creating layer scale1_0
I0312 15:03:16.639657  1600 net.cpp:150] Setting up scale1_0
I0312 15:03:16.639657  1600 net.cpp:157] Top shape: 50 32 32 32 (1638400)
I0312 15:03:16.639657  1600 net.cpp:165] Memory required for data: 72704600
I0312 15:03:16.639657  1600 layer_factory.cpp:58] Creating layer relu1_0
I0312 15:03:16.639657  1600 net.cpp:100] Creating Layer relu1_0
I0312 15:03:16.639657  1600 net.cpp:434] relu1_0 <- scale1_0
I0312 15:03:16.639657  1600 net.cpp:408] relu1_0 -> relu1_0
I0312 15:03:16.640657  1600 net.cpp:150] Setting up relu1_0
I0312 15:03:16.640657  1600 net.cpp:157] Top shape: 50 32 32 32 (1638400)
I0312 15:03:16.640657  1600 net.cpp:165] Memory required for data: 79258200
I0312 15:03:16.640657  1600 layer_factory.cpp:58] Creating layer conv2
I0312 15:03:16.640657  1600 net.cpp:100] Creating Layer conv2
I0312 15:03:16.640657  1600 net.cpp:434] conv2 <- relu1_0
I0312 15:03:16.640657  1600 net.cpp:408] conv2 -> conv2
I0312 15:03:16.646158  1600 net.cpp:150] Setting up conv2
I0312 15:03:16.646158  1600 net.cpp:157] Top shape: 50 32 32 32 (1638400)
I0312 15:03:16.646158  1600 net.cpp:165] Memory required for data: 85811800
I0312 15:03:16.646158  1600 layer_factory.cpp:58] Creating layer bn2
I0312 15:03:16.646158  1600 net.cpp:100] Creating Layer bn2
I0312 15:03:16.646158  1600 net.cpp:434] bn2 <- conv2
I0312 15:03:16.646158  1600 net.cpp:408] bn2 -> bn2
I0312 15:03:16.646659  1600 net.cpp:150] Setting up bn2
I0312 15:03:16.646659  1600 net.cpp:157] Top shape: 50 32 32 32 (1638400)
I0312 15:03:16.646659  1600 net.cpp:165] Memory required for data: 92365400
I0312 15:03:16.646659  1600 layer_factory.cpp:58] Creating layer scale2
I0312 15:03:16.646659  1600 net.cpp:100] Creating Layer scale2
I0312 15:03:16.646659  1600 net.cpp:434] scale2 <- bn2
I0312 15:03:16.646659  1600 net.cpp:408] scale2 -> scale2
I0312 15:03:16.646659  1600 layer_factory.cpp:58] Creating layer scale2
I0312 15:03:16.646659  1600 net.cpp:150] Setting up scale2
I0312 15:03:16.646659  1600 net.cpp:157] Top shape: 50 32 32 32 (1638400)
I0312 15:03:16.646659  1600 net.cpp:165] Memory required for data: 98919000
I0312 15:03:16.646659  1600 layer_factory.cpp:58] Creating layer relu2
I0312 15:03:16.646659  1600 net.cpp:100] Creating Layer relu2
I0312 15:03:16.646659  1600 net.cpp:434] relu2 <- scale2
I0312 15:03:16.646659  1600 net.cpp:408] relu2 -> relu2
I0312 15:03:16.651160  1600 net.cpp:150] Setting up relu2
I0312 15:03:16.651160  1600 net.cpp:157] Top shape: 50 32 32 32 (1638400)
I0312 15:03:16.651160  1600 net.cpp:165] Memory required for data: 105472600
I0312 15:03:16.651160  1600 layer_factory.cpp:58] Creating layer conv2_1
I0312 15:03:16.651160  1600 net.cpp:100] Creating Layer conv2_1
I0312 15:03:16.651160  1600 net.cpp:434] conv2_1 <- relu2
I0312 15:03:16.651160  1600 net.cpp:408] conv2_1 -> conv2_1
I0312 15:03:16.658159  1600 net.cpp:150] Setting up conv2_1
I0312 15:03:16.658159  1600 net.cpp:157] Top shape: 50 32 32 32 (1638400)
I0312 15:03:16.658159  1600 net.cpp:165] Memory required for data: 112026200
I0312 15:03:16.658159  1600 layer_factory.cpp:58] Creating layer bn2_1
I0312 15:03:16.658159  1600 net.cpp:100] Creating Layer bn2_1
I0312 15:03:16.658159  1600 net.cpp:434] bn2_1 <- conv2_1
I0312 15:03:16.658159  1600 net.cpp:408] bn2_1 -> bn2_1
I0312 15:03:16.658159  1600 net.cpp:150] Setting up bn2_1
I0312 15:03:16.658159  1600 net.cpp:157] Top shape: 50 32 32 32 (1638400)
I0312 15:03:16.658159  1600 net.cpp:165] Memory required for data: 118579800
I0312 15:03:16.658159  1600 layer_factory.cpp:58] Creating layer scale2_1
I0312 15:03:16.658159  1600 net.cpp:100] Creating Layer scale2_1
I0312 15:03:16.658159  1600 net.cpp:434] scale2_1 <- bn2_1
I0312 15:03:16.658159  1600 net.cpp:408] scale2_1 -> scale2_1
I0312 15:03:16.658659  1600 layer_factory.cpp:58] Creating layer scale2_1
I0312 15:03:16.658659  1600 net.cpp:150] Setting up scale2_1
I0312 15:03:16.658659  1600 net.cpp:157] Top shape: 50 32 32 32 (1638400)
I0312 15:03:16.658659  1600 net.cpp:165] Memory required for data: 125133400
I0312 15:03:16.658659  1600 layer_factory.cpp:58] Creating layer relu2_1
I0312 15:03:16.658659  1600 net.cpp:100] Creating Layer relu2_1
I0312 15:03:16.658659  1600 net.cpp:434] relu2_1 <- scale2_1
I0312 15:03:16.658659  1600 net.cpp:408] relu2_1 -> relu2_1
I0312 15:03:16.663658  1600 net.cpp:150] Setting up relu2_1
I0312 15:03:16.663658  1600 net.cpp:157] Top shape: 50 32 32 32 (1638400)
I0312 15:03:16.663658  1600 net.cpp:165] Memory required for data: 131687000
I0312 15:03:16.663658  1600 layer_factory.cpp:58] Creating layer pool2_1
I0312 15:03:16.663658  1600 net.cpp:100] Creating Layer pool2_1
I0312 15:03:16.663658  1600 net.cpp:434] pool2_1 <- relu2_1
I0312 15:03:16.663658  1600 net.cpp:408] pool2_1 -> pool2_1
I0312 15:03:16.663658  1600 net.cpp:150] Setting up pool2_1
I0312 15:03:16.663658  1600 net.cpp:157] Top shape: 50 32 16 16 (409600)
I0312 15:03:16.663658  1600 net.cpp:165] Memory required for data: 133325400
I0312 15:03:16.663658  1600 layer_factory.cpp:58] Creating layer conv2_2
I0312 15:03:16.663658  1600 net.cpp:100] Creating Layer conv2_2
I0312 15:03:16.663658  1600 net.cpp:434] conv2_2 <- pool2_1
I0312 15:03:16.663658  1600 net.cpp:408] conv2_2 -> conv2_2
I0312 15:03:16.670658  1600 net.cpp:150] Setting up conv2_2
I0312 15:03:16.670658  1600 net.cpp:157] Top shape: 50 32 16 16 (409600)
I0312 15:03:16.670658  1600 net.cpp:165] Memory required for data: 134963800
I0312 15:03:16.670658  1600 layer_factory.cpp:58] Creating layer bn2_2
I0312 15:03:16.670658  1600 net.cpp:100] Creating Layer bn2_2
I0312 15:03:16.670658  1600 net.cpp:434] bn2_2 <- conv2_2
I0312 15:03:16.670658  1600 net.cpp:408] bn2_2 -> bn2_2
I0312 15:03:16.670658  1600 net.cpp:150] Setting up bn2_2
I0312 15:03:16.670658  1600 net.cpp:157] Top shape: 50 32 16 16 (409600)
I0312 15:03:16.670658  1600 net.cpp:165] Memory required for data: 136602200
I0312 15:03:16.670658  1600 layer_factory.cpp:58] Creating layer scale2_2
I0312 15:03:16.670658  1600 net.cpp:100] Creating Layer scale2_2
I0312 15:03:16.670658  1600 net.cpp:434] scale2_2 <- bn2_2
I0312 15:03:16.670658  1600 net.cpp:408] scale2_2 -> scale2_2
I0312 15:03:16.670658  1600 layer_factory.cpp:58] Creating layer scale2_2
I0312 15:03:16.671159  1600 net.cpp:150] Setting up scale2_2
I0312 15:03:16.671159  1600 net.cpp:157] Top shape: 50 32 16 16 (409600)
I0312 15:03:16.671159  1600 net.cpp:165] Memory required for data: 138240600
I0312 15:03:16.671159  1600 layer_factory.cpp:58] Creating layer relu2_2
I0312 15:03:16.671159  1600 net.cpp:100] Creating Layer relu2_2
I0312 15:03:16.671159  1600 net.cpp:434] relu2_2 <- scale2_2
I0312 15:03:16.671159  1600 net.cpp:408] relu2_2 -> relu2_2
I0312 15:03:16.671659  1600 net.cpp:150] Setting up relu2_2
I0312 15:03:16.671659  1600 net.cpp:157] Top shape: 50 32 16 16 (409600)
I0312 15:03:16.671659  1600 net.cpp:165] Memory required for data: 139879000
I0312 15:03:16.671659  1600 layer_factory.cpp:58] Creating layer conv3
I0312 15:03:16.671659  1600 net.cpp:100] Creating Layer conv3
I0312 15:03:16.671659  1600 net.cpp:434] conv3 <- relu2_2
I0312 15:03:16.671659  1600 net.cpp:408] conv3 -> conv3
I0312 15:03:16.673158  1600 net.cpp:150] Setting up conv3
I0312 15:03:16.673158  1600 net.cpp:157] Top shape: 50 32 16 16 (409600)
I0312 15:03:16.673658  1600 net.cpp:165] Memory required for data: 141517400
I0312 15:03:16.673658  1600 layer_factory.cpp:58] Creating layer bn3
I0312 15:03:16.673658  1600 net.cpp:100] Creating Layer bn3
I0312 15:03:16.673658  1600 net.cpp:434] bn3 <- conv3
I0312 15:03:16.673658  1600 net.cpp:408] bn3 -> bn3
I0312 15:03:16.673658  1600 net.cpp:150] Setting up bn3
I0312 15:03:16.673658  1600 net.cpp:157] Top shape: 50 32 16 16 (409600)
I0312 15:03:16.673658  1600 net.cpp:165] Memory required for data: 143155800
I0312 15:03:16.673658  1600 layer_factory.cpp:58] Creating layer scale3
I0312 15:03:16.673658  1600 net.cpp:100] Creating Layer scale3
I0312 15:03:16.673658  1600 net.cpp:434] scale3 <- bn3
I0312 15:03:16.673658  1600 net.cpp:408] scale3 -> scale3
I0312 15:03:16.674160  1600 layer_factory.cpp:58] Creating layer scale3
I0312 15:03:16.674160  1600 net.cpp:150] Setting up scale3
I0312 15:03:16.674160  1600 net.cpp:157] Top shape: 50 32 16 16 (409600)
I0312 15:03:16.674160  1600 net.cpp:165] Memory required for data: 144794200
I0312 15:03:16.674160  1600 layer_factory.cpp:58] Creating layer relu3
I0312 15:03:16.674160  1600 net.cpp:100] Creating Layer relu3
I0312 15:03:16.674160  1600 net.cpp:434] relu3 <- scale3
I0312 15:03:16.674160  1600 net.cpp:408] relu3 -> relu3
I0312 15:03:16.676159  1600 net.cpp:150] Setting up relu3
I0312 15:03:16.676159  1600 net.cpp:157] Top shape: 50 32 16 16 (409600)
I0312 15:03:16.676159  1600 net.cpp:165] Memory required for data: 146432600
I0312 15:03:16.676159  1600 layer_factory.cpp:58] Creating layer conv4
I0312 15:03:16.676159  1600 net.cpp:100] Creating Layer conv4
I0312 15:03:16.676159  1600 net.cpp:434] conv4 <- relu3
I0312 15:03:16.676159  1600 net.cpp:408] conv4 -> conv4
I0312 15:03:16.685158  1600 net.cpp:150] Setting up conv4
I0312 15:03:16.685158  1600 net.cpp:157] Top shape: 50 64 16 16 (819200)
I0312 15:03:16.685158  1600 net.cpp:165] Memory required for data: 149709400
I0312 15:03:16.685158  1600 layer_factory.cpp:58] Creating layer pool4
I0312 15:03:16.685158  1600 net.cpp:100] Creating Layer pool4
I0312 15:03:16.685158  1600 net.cpp:434] pool4 <- conv4
I0312 15:03:16.685158  1600 net.cpp:408] pool4 -> pool4
I0312 15:03:16.685158  1600 net.cpp:150] Setting up pool4
I0312 15:03:16.685158  1600 net.cpp:157] Top shape: 50 64 8 8 (204800)
I0312 15:03:16.685158  1600 net.cpp:165] Memory required for data: 150528600
I0312 15:03:16.685158  1600 layer_factory.cpp:58] Creating layer bn4
I0312 15:03:16.685158  1600 net.cpp:100] Creating Layer bn4
I0312 15:03:16.685158  1600 net.cpp:434] bn4 <- pool4
I0312 15:03:16.685158  1600 net.cpp:408] bn4 -> bn4
I0312 15:03:16.685659  1600 net.cpp:150] Setting up bn4
I0312 15:03:16.685659  1600 net.cpp:157] Top shape: 50 64 8 8 (204800)
I0312 15:03:16.685659  1600 net.cpp:165] Memory required for data: 151347800
I0312 15:03:16.685659  1600 layer_factory.cpp:58] Creating layer scale4
I0312 15:03:16.685659  1600 net.cpp:100] Creating Layer scale4
I0312 15:03:16.685659  1600 net.cpp:434] scale4 <- bn4
I0312 15:03:16.685659  1600 net.cpp:408] scale4 -> scale4
I0312 15:03:16.685659  1600 layer_factory.cpp:58] Creating layer scale4
I0312 15:03:16.685659  1600 net.cpp:150] Setting up scale4
I0312 15:03:16.685659  1600 net.cpp:157] Top shape: 50 64 8 8 (204800)
I0312 15:03:16.685659  1600 net.cpp:165] Memory required for data: 152167000
I0312 15:03:16.685659  1600 layer_factory.cpp:58] Creating layer relu4
I0312 15:03:16.685659  1600 net.cpp:100] Creating Layer relu4
I0312 15:03:16.685659  1600 net.cpp:434] relu4 <- scale4
I0312 15:03:16.685659  1600 net.cpp:408] relu4 -> relu4
I0312 15:03:16.686158  1600 net.cpp:150] Setting up relu4
I0312 15:03:16.686158  1600 net.cpp:157] Top shape: 50 64 8 8 (204800)
I0312 15:03:16.686158  1600 net.cpp:165] Memory required for data: 152986200
I0312 15:03:16.686658  1600 layer_factory.cpp:58] Creating layer conv4_1
I0312 15:03:16.686658  1600 net.cpp:100] Creating Layer conv4_1
I0312 15:03:16.686658  1600 net.cpp:434] conv4_1 <- relu4
I0312 15:03:16.686658  1600 net.cpp:408] conv4_1 -> conv4_1
I0312 15:03:16.689158  1600 net.cpp:150] Setting up conv4_1
I0312 15:03:16.689158  1600 net.cpp:157] Top shape: 50 64 8 8 (204800)
I0312 15:03:16.689158  1600 net.cpp:165] Memory required for data: 153805400
I0312 15:03:16.689659  1600 layer_factory.cpp:58] Creating layer bn4_1
I0312 15:03:16.689659  1600 net.cpp:100] Creating Layer bn4_1
I0312 15:03:16.689659  1600 net.cpp:434] bn4_1 <- conv4_1
I0312 15:03:16.689659  1600 net.cpp:408] bn4_1 -> bn4_1
I0312 15:03:16.689659  1600 net.cpp:150] Setting up bn4_1
I0312 15:03:16.689659  1600 net.cpp:157] Top shape: 50 64 8 8 (204800)
I0312 15:03:16.689659  1600 net.cpp:165] Memory required for data: 154624600
I0312 15:03:16.689659  1600 layer_factory.cpp:58] Creating layer scale4_1
I0312 15:03:16.689659  1600 net.cpp:100] Creating Layer scale4_1
I0312 15:03:16.689659  1600 net.cpp:434] scale4_1 <- bn4_1
I0312 15:03:16.689659  1600 net.cpp:408] scale4_1 -> scale4_1
I0312 15:03:16.689659  1600 layer_factory.cpp:58] Creating layer scale4_1
I0312 15:03:16.690158  1600 net.cpp:150] Setting up scale4_1
I0312 15:03:16.690158  1600 net.cpp:157] Top shape: 50 64 8 8 (204800)
I0312 15:03:16.690158  1600 net.cpp:165] Memory required for data: 155443800
I0312 15:03:16.690158  1600 layer_factory.cpp:58] Creating layer relu4_1
I0312 15:03:16.690158  1600 net.cpp:100] Creating Layer relu4_1
I0312 15:03:16.690158  1600 net.cpp:434] relu4_1 <- scale4_1
I0312 15:03:16.690158  1600 net.cpp:408] relu4_1 -> relu4_1
I0312 15:03:16.690659  1600 net.cpp:150] Setting up relu4_1
I0312 15:03:16.690659  1600 net.cpp:157] Top shape: 50 64 8 8 (204800)
I0312 15:03:16.690659  1600 net.cpp:165] Memory required for data: 156263000
I0312 15:03:16.690659  1600 layer_factory.cpp:58] Creating layer conv4_2
I0312 15:03:16.690659  1600 net.cpp:100] Creating Layer conv4_2
I0312 15:03:16.690659  1600 net.cpp:434] conv4_2 <- relu4_1
I0312 15:03:16.690659  1600 net.cpp:408] conv4_2 -> conv4_2
I0312 15:03:16.695158  1600 net.cpp:150] Setting up conv4_2
I0312 15:03:16.695158  1600 net.cpp:157] Top shape: 50 64 8 8 (204800)
I0312 15:03:16.695158  1600 net.cpp:165] Memory required for data: 157082200
I0312 15:03:16.695158  1600 layer_factory.cpp:58] Creating layer bn4_2
I0312 15:03:16.695158  1600 net.cpp:100] Creating Layer bn4_2
I0312 15:03:16.695158  1600 net.cpp:434] bn4_2 <- conv4_2
I0312 15:03:16.695158  1600 net.cpp:408] bn4_2 -> bn4_2
I0312 15:03:16.695158  1600 net.cpp:150] Setting up bn4_2
I0312 15:03:16.695158  1600 net.cpp:157] Top shape: 50 64 8 8 (204800)
I0312 15:03:16.695158  1600 net.cpp:165] Memory required for data: 157901400
I0312 15:03:16.695158  1600 layer_factory.cpp:58] Creating layer scale4_2
I0312 15:03:16.695158  1600 net.cpp:100] Creating Layer scale4_2
I0312 15:03:16.695158  1600 net.cpp:434] scale4_2 <- bn4_2
I0312 15:03:16.695158  1600 net.cpp:408] scale4_2 -> scale4_2
I0312 15:03:16.695158  1600 layer_factory.cpp:58] Creating layer scale4_2
I0312 15:03:16.695158  1600 net.cpp:150] Setting up scale4_2
I0312 15:03:16.695158  1600 net.cpp:157] Top shape: 50 64 8 8 (204800)
I0312 15:03:16.695158  1600 net.cpp:165] Memory required for data: 158720600
I0312 15:03:16.695657  1600 layer_factory.cpp:58] Creating layer relu4_2
I0312 15:03:16.695657  1600 net.cpp:100] Creating Layer relu4_2
I0312 15:03:16.695657  1600 net.cpp:434] relu4_2 <- scale4_2
I0312 15:03:16.695657  1600 net.cpp:408] relu4_2 -> relu4_2
I0312 15:03:16.696158  1600 net.cpp:150] Setting up relu4_2
I0312 15:03:16.696158  1600 net.cpp:157] Top shape: 50 64 8 8 (204800)
I0312 15:03:16.696158  1600 net.cpp:165] Memory required for data: 159539800
I0312 15:03:16.696158  1600 layer_factory.cpp:58] Creating layer pool4_2
I0312 15:03:16.696158  1600 net.cpp:100] Creating Layer pool4_2
I0312 15:03:16.696158  1600 net.cpp:434] pool4_2 <- relu4_2
I0312 15:03:16.696158  1600 net.cpp:408] pool4_2 -> pool4_2
I0312 15:03:16.696158  1600 net.cpp:150] Setting up pool4_2
I0312 15:03:16.696158  1600 net.cpp:157] Top shape: 50 64 4 4 (51200)
I0312 15:03:16.696158  1600 net.cpp:165] Memory required for data: 159744600
I0312 15:03:16.696158  1600 layer_factory.cpp:58] Creating layer conv4_0
I0312 15:03:16.696158  1600 net.cpp:100] Creating Layer conv4_0
I0312 15:03:16.696158  1600 net.cpp:434] conv4_0 <- pool4_2
I0312 15:03:16.696158  1600 net.cpp:408] conv4_0 -> conv4_0
I0312 15:03:16.705657  1600 net.cpp:150] Setting up conv4_0
I0312 15:03:16.705657  1600 net.cpp:157] Top shape: 50 128 4 4 (102400)
I0312 15:03:16.705657  1600 net.cpp:165] Memory required for data: 160154200
I0312 15:03:16.705657  1600 layer_factory.cpp:58] Creating layer bn4_0
I0312 15:03:16.705657  1600 net.cpp:100] Creating Layer bn4_0
I0312 15:03:16.706158  1600 net.cpp:434] bn4_0 <- conv4_0
I0312 15:03:16.706158  1600 net.cpp:408] bn4_0 -> bn4_0
I0312 15:03:16.706158  1600 net.cpp:150] Setting up bn4_0
I0312 15:03:16.706158  1600 net.cpp:157] Top shape: 50 128 4 4 (102400)
I0312 15:03:16.706158  1600 net.cpp:165] Memory required for data: 160563800
I0312 15:03:16.706158  1600 layer_factory.cpp:58] Creating layer scale4_0
I0312 15:03:16.706158  1600 net.cpp:100] Creating Layer scale4_0
I0312 15:03:16.706158  1600 net.cpp:434] scale4_0 <- bn4_0
I0312 15:03:16.706158  1600 net.cpp:408] scale4_0 -> scale4_0
I0312 15:03:16.706158  1600 layer_factory.cpp:58] Creating layer scale4_0
I0312 15:03:16.706158  1600 net.cpp:150] Setting up scale4_0
I0312 15:03:16.706657  1600 net.cpp:157] Top shape: 50 128 4 4 (102400)
I0312 15:03:16.706657  1600 net.cpp:165] Memory required for data: 160973400
I0312 15:03:16.706657  1600 layer_factory.cpp:58] Creating layer relu4_0
I0312 15:03:16.706657  1600 net.cpp:100] Creating Layer relu4_0
I0312 15:03:16.706657  1600 net.cpp:434] relu4_0 <- scale4_0
I0312 15:03:16.706657  1600 net.cpp:408] relu4_0 -> relu4_0
I0312 15:03:16.710157  1600 net.cpp:150] Setting up relu4_0
I0312 15:03:16.710157  1600 net.cpp:157] Top shape: 50 128 4 4 (102400)
I0312 15:03:16.710157  1600 net.cpp:165] Memory required for data: 161383000
I0312 15:03:16.710157  1600 layer_factory.cpp:58] Creating layer cccp4
I0312 15:03:16.710157  1600 net.cpp:100] Creating Layer cccp4
I0312 15:03:16.710157  1600 net.cpp:434] cccp4 <- relu4_0
I0312 15:03:16.710157  1600 net.cpp:408] cccp4 -> cccp4
I0312 15:03:16.716657  1600 net.cpp:150] Setting up cccp4
I0312 15:03:16.716657  1600 net.cpp:157] Top shape: 50 256 4 4 (204800)
I0312 15:03:16.716657  1600 net.cpp:165] Memory required for data: 162202200
I0312 15:03:16.716657  1600 layer_factory.cpp:58] Creating layer relu_cccp4
I0312 15:03:16.716657  1600 net.cpp:100] Creating Layer relu_cccp4
I0312 15:03:16.716657  1600 net.cpp:434] relu_cccp4 <- cccp4
I0312 15:03:16.716657  1600 net.cpp:395] relu_cccp4 -> cccp4 (in-place)
I0312 15:03:16.719657  1600 net.cpp:150] Setting up relu_cccp4
I0312 15:03:16.719657  1600 net.cpp:157] Top shape: 50 256 4 4 (204800)
I0312 15:03:16.719657  1600 net.cpp:165] Memory required for data: 163021400
I0312 15:03:16.719657  1600 layer_factory.cpp:58] Creating layer cccp5
I0312 15:03:16.719657  1600 net.cpp:100] Creating Layer cccp5
I0312 15:03:16.719657  1600 net.cpp:434] cccp5 <- cccp4
I0312 15:03:16.719657  1600 net.cpp:408] cccp5 -> cccp5
I0312 15:03:16.729157  1600 net.cpp:150] Setting up cccp5
I0312 15:03:16.729157  1600 net.cpp:157] Top shape: 50 64 4 4 (51200)
I0312 15:03:16.729157  1600 net.cpp:165] Memory required for data: 163226200
I0312 15:03:16.729157  1600 layer_factory.cpp:58] Creating layer relu_cccp5
I0312 15:03:16.729157  1600 net.cpp:100] Creating Layer relu_cccp5
I0312 15:03:16.729157  1600 net.cpp:434] relu_cccp5 <- cccp5
I0312 15:03:16.729157  1600 net.cpp:395] relu_cccp5 -> cccp5 (in-place)
I0312 15:03:16.729658  1600 net.cpp:150] Setting up relu_cccp5
I0312 15:03:16.729658  1600 net.cpp:157] Top shape: 50 64 4 4 (51200)
I0312 15:03:16.729658  1600 net.cpp:165] Memory required for data: 163431000
I0312 15:03:16.729658  1600 layer_factory.cpp:58] Creating layer poolcp5
I0312 15:03:16.729658  1600 net.cpp:100] Creating Layer poolcp5
I0312 15:03:16.729658  1600 net.cpp:434] poolcp5 <- cccp5
I0312 15:03:16.729658  1600 net.cpp:408] poolcp5 -> poolcp5
I0312 15:03:16.729658  1600 net.cpp:150] Setting up poolcp5
I0312 15:03:16.729658  1600 net.cpp:157] Top shape: 50 64 2 2 (12800)
I0312 15:03:16.729658  1600 net.cpp:165] Memory required for data: 163482200
I0312 15:03:16.729658  1600 layer_factory.cpp:58] Creating layer cccp6
I0312 15:03:16.729658  1600 net.cpp:100] Creating Layer cccp6
I0312 15:03:16.729658  1600 net.cpp:434] cccp6 <- poolcp5
I0312 15:03:16.729658  1600 net.cpp:408] cccp6 -> cccp6
I0312 15:03:16.731657  1600 net.cpp:150] Setting up cccp6
I0312 15:03:16.731657  1600 net.cpp:157] Top shape: 50 64 2 2 (12800)
I0312 15:03:16.731657  1600 net.cpp:165] Memory required for data: 163533400
I0312 15:03:16.731657  1600 layer_factory.cpp:58] Creating layer relu_cccp6
I0312 15:03:16.731657  1600 net.cpp:100] Creating Layer relu_cccp6
I0312 15:03:16.731657  1600 net.cpp:434] relu_cccp6 <- cccp6
I0312 15:03:16.731657  1600 net.cpp:395] relu_cccp6 -> cccp6 (in-place)
I0312 15:03:16.732657  1600 net.cpp:150] Setting up relu_cccp6
I0312 15:03:16.732657  1600 net.cpp:157] Top shape: 50 64 2 2 (12800)
I0312 15:03:16.732657  1600 net.cpp:165] Memory required for data: 163584600
I0312 15:03:16.732657  1600 layer_factory.cpp:58] Creating layer poolcp6
I0312 15:03:16.732657  1600 net.cpp:100] Creating Layer poolcp6
I0312 15:03:16.732657  1600 net.cpp:434] poolcp6 <- cccp6
I0312 15:03:16.732657  1600 net.cpp:408] poolcp6 -> poolcp6
I0312 15:03:16.732657  1600 net.cpp:150] Setting up poolcp6
I0312 15:03:16.732657  1600 net.cpp:157] Top shape: 50 64 1 1 (3200)
I0312 15:03:16.732657  1600 net.cpp:165] Memory required for data: 163597400
I0312 15:03:16.732657  1600 layer_factory.cpp:58] Creating layer ip1
I0312 15:03:16.732657  1600 net.cpp:100] Creating Layer ip1
I0312 15:03:16.732657  1600 net.cpp:434] ip1 <- poolcp6
I0312 15:03:16.732657  1600 net.cpp:408] ip1 -> ip1
I0312 15:03:16.732657  1600 net.cpp:150] Setting up ip1
I0312 15:03:16.732657  1600 net.cpp:157] Top shape: 50 100 (5000)
I0312 15:03:16.732657  1600 net.cpp:165] Memory required for data: 163617400
I0312 15:03:16.732657  1600 layer_factory.cpp:58] Creating layer ip1_ip1_0_split
I0312 15:03:16.732657  1600 net.cpp:100] Creating Layer ip1_ip1_0_split
I0312 15:03:16.732657  1600 net.cpp:434] ip1_ip1_0_split <- ip1
I0312 15:03:16.732657  1600 net.cpp:408] ip1_ip1_0_split -> ip1_ip1_0_split_0
I0312 15:03:16.732657  1600 net.cpp:408] ip1_ip1_0_split -> ip1_ip1_0_split_1
I0312 15:03:16.732657  1600 net.cpp:150] Setting up ip1_ip1_0_split
I0312 15:03:16.732657  1600 net.cpp:157] Top shape: 50 100 (5000)
I0312 15:03:16.732657  1600 net.cpp:157] Top shape: 50 100 (5000)
I0312 15:03:16.732657  1600 net.cpp:165] Memory required for data: 163657400
I0312 15:03:16.732657  1600 layer_factory.cpp:58] Creating layer accuracy
I0312 15:03:16.732657  1600 net.cpp:100] Creating Layer accuracy
I0312 15:03:16.732657  1600 net.cpp:434] accuracy <- ip1_ip1_0_split_0
I0312 15:03:16.732657  1600 net.cpp:434] accuracy <- label_cifar_1_split_0
I0312 15:03:16.732657  1600 net.cpp:408] accuracy -> accuracy
…
