…
I0401 01:06:03.192250 11876 net.cpp:322] The NetState phase (0) differed from the phase (1) specified by a rule in layer accuracy
I0401 01:06:03.192250 11876 net.cpp:58] Initializing net from parameters: 
name: "CIFAR10_full"
state {
  phase: TRAIN
  level: 0
  stage: ""
}
layer {
  name: "cifar"
  type: "Data"
  top: "data"
  top: "label"
  include {
    phase: TRAIN
  }
  transform_param {
    mirror: true
    crop_size: 32
  }
  data_param {
    source: "examples/cifar10/cifar10_train_leveldb_padding"
    batch_size: 100
    backend: LEVELDB
  }
}
layer {
  name: "conv1"
  type: "Convolution"
  bottom: "data"
  top: "conv1"
  param {
    lr_mult: 1
  }
  convolution_param {
    num_output: 32
    bias_term: true
    pad: 1
    kernel_size: 3
    stride: 1
    weight_filler {
      type: "xavier"
    }
  }
}
layer {
  name: "bn1"
  type: "BatchNorm"
  bottom: "conv1"
  top: "bn1"
  include {
    phase: TRAIN
  }
  batch_norm_param {
    use_global_stats: false
    moving_average_fraction: 0.95
  }
}
layer {
  name: "scale1"
  type: "Scale"
  bottom: "bn1"
  top: "scale1"
  scale_param {
    bias_term: true
  }
}
layer {
  name: "relu1"
  type: "ReLU"
  bottom: "scale1"
  top: "relu1"
}
layer {
  name: "conv1_0"
  type: "Convolution"
  bottom: "relu1"
  top: "conv1_0"
  param {
    lr_mult: 1
  }
  convolution_param {
    num_output: 32
    bias_term: true
    pad: 1
    kernel_size: 3
    stride: 1
    weight_filler {
      type: "xavier"
    }
  }
}
layer {
  name: "bn1_0"
  type: "BatchNorm"
  bottom: "conv1_0"
  top: "bn1_0"
  include {
    phase: TRAIN
  }
  batch_norm_param {
    use_global_stats: false
    moving_average_fraction: 0.95
  }
}
layer {
  name: "scale1_0"
  type: "Scale"
  bottom: "bn1_0"
  top: "scale1_0"
  scale_param {
    bias_term: true
  }
}
layer {
  name: "relu1_0"
  type: "ReLU"
  bottom: "scale1_0"
  top: "relu1_0"
}
layer {
  name: "conv2"
  type: "Convolution"
  bottom: "relu1_0"
  top: "conv2"
  param {
    lr_mult: 1
  }
  convolution_param {
    num_output: 32
    bias_term: true
    pad: 1
    kernel_size: 3
    stride: 1
    weight_filler {
      type: "gaussian"
      std: 0.01
    }
  }
}
layer {
  name: "bn2"
  type: "BatchNorm"
  bottom: "conv2"
  top: "bn2"
  include {
    phase: TRAIN
  }
  batch_norm_param {
    use_global_stats: false
    moving_average_fraction: 0.95
  }
}
layer {
  name: "scale2"
  type: "Scale"
  bottom: "bn2"
  top: "scale2"
  scale_param {
    bias_term: true
  }
}
layer {
  name: "relu2"
  type: "ReLU"
  bottom: "scale2"
  top: "relu2"
}
layer {
  name: "conv2_1"
  type: "Convolution"
  bottom: "relu2"
  top: "conv2_1"
  param {
    lr_mult: 1
  }
  convolution_param {
    num_output: 32
    bias_term: true
    pad: 1
    kernel_size: 3
    stride: 1
    weight_filler {
      type: "gaussian"
      std: 0.01
    }
  }
}
layer {
  name: "bn2_1"
  type: "BatchNorm"
  bottom: "conv2_1"
  top: "bn2_1"
  include {
    phase: TRAIN
  }
  batch_norm_param {
    use_global_stats: false
    moving_average_fraction: 0.95
  }
}
layer {
  name: "scale2_1"
  type: "Scale"
  bottom: "bn2_1"
  top: "scale2_1"
  scale_param {
    bias_term: true
  }
}
layer {
  name: "relu2_1"
  type: "ReLU"
  bottom: "scale2_1"
  top: "relu2_1"
}
layer {
  name: "pool2_1"
  type: "Pooling"
  bottom: "relu2_1"
  top: "pool2_1"
  pooling_param {
    pool: MAX
    kernel_size: 2
    stride: 2
  }
}
layer {
  name: "conv2_2"
  type: "Convolution"
  bottom: "pool2_1"
  top: "conv2_2"
  param {
    lr_mult: 1
  }
  convolution_param {
    num_output: 50
    bias_term: true
    pad: 1
    kernel_size: 3
    stride: 1
    weight_filler {
      type: "gaussian"
      std: 0.01
    }
  }
}
layer {
  name: "bn2_2"
  type: "BatchNorm"
  bottom: "conv2_2"
  top: "bn2_2"
  include {
    phase: TRAIN
  }
  batch_norm_param {
    use_global_stats: false
    moving_average_fraction: 0.95
  }
}
layer {
  name: "scale2_2"
  type: "Scale"
  bottom: "bn2_2"
  top: "scale2_2"
  scale_param {
    bias_term: true
  }
}
layer {
  name: "relu2_2"
  type: "ReLU"
  bottom: "scale2_2"
  top: "relu2_2"
}
layer {
  name: "conv3"
  type: "Convolution"
  bottom: "relu2_2"
  top: "conv3"
  param {
    lr_mult: 1
  }
  convolution_param {
    num_output: 64
    bias_term: true
    pad: 1
    kernel_size: 3
    stride: 1
    weight_filler {
      type: "xavier"
    }
  }
}
layer {
  name: "bn3"
  type: "BatchNorm"
  bottom: "conv3"
  top: "bn3"
  include {
    phase: TRAIN
  }
  batch_norm_param {
    use_global_stats: false
    moving_average_fraction: 0.95
  }
}
layer {
  name: "scale3"
  type: "Scale"
  bottom: "bn3"
  top: "scale3"
  scale_param {
    bias_term: true
  }
}
layer {
  name: "relu3"
  type: "ReLU"
  bottom: "scale3"
  top: "relu3"
}
layer {
  name: "conv4"
  type: "Convolution"
  bottom: "relu3"
  top: "conv4"
  param {
    lr_mult: 1
  }
  convolution_param {
    num_output: 64
    bias_term: true
    pad: 1
    kernel_size: 3
    stride: 1
    weight_filler {
      type: "xavier"
    }
  }
}
layer {
  name: "pool4"
  type: "Pooling"
  bottom: "conv4"
  top: "pool4"
  pooling_param {
    pool: MAX
    kernel_size: 2
    stride: 2
  }
}
layer {
  name: "bn4"
  type: "BatchNorm"
  bottom: "pool4"
  top: "bn4"
  include {
    phase: TRAIN
  }
  batch_norm_param {
    use_global_stats: false
    moving_average_fraction: 0.95
  }
}
layer {
  name: "scale4"
  type: "Scale"
  bottom: "bn4"
  top: "scale4"
  scale_param {
    bias_term: true
  }
}
layer {
  name: "relu4"
  type: "ReLU"
  bottom: "scale4"
  top: "relu4"
}
layer {
  name: "conv4_1"
  type: "Convolution"
  bottom: "relu4"
  top: "conv4_1"
  param {
    lr_mult: 1
  }
  convolution_param {
    num_output: 64
    bias_term: true
    pad: 1
    kernel_size: 3
    stride: 1
    weight_filler {
      type: "xavier"
    }
  }
}
layer {
  name: "bn4_1"
  type: "BatchNorm"
  bottom: "conv4_1"
  top: "bn4_1"
  include {
    phase: TRAIN
  }
  batch_norm_param {
    use_global_stats: false
    moving_average_fraction: 0.95
  }
}
layer {
  name: "scale4_1"
  type: "Scale"
  bottom: "bn4_1"
  top: "scale4_1"
  scale_param {
    bias_term: true
  }
}
layer {
  name: "relu4_1"
  type: "ReLU"
  bottom: "scale4_1"
  top: "relu4_1"
}
layer {
  name: "conv4_2"
  type: "Convolution"
  bottom: "relu4_1"
  top: "conv4_2"
  param {
    lr_mult: 1
  }
  convolution_param {
    num_output: 64
    bias_term: true
    pad: 1
    kernel_size: 3
    stride: 1
    weight_filler {
      type: "xavier"
    }
  }
}
layer {
  name: "bn4_2"
  type: "BatchNorm"
  bottom: "conv4_2"
  top: "bn4_2"
  include {
    phase: TRAIN
  }
  batch_norm_param {
    use_global_stats: false
    moving_average_fraction: 0.95
  }
}
layer {
  name: "scale4_2"
  type: "Scale"
  bottom: "bn4_2"
  top: "scale4_2"
  scale_param {
    bias_term: true
  }
}
layer {
  name: "relu4_2"
  type: "ReLU"
  bottom: "scale4_2"
  top: "relu4_2"
}
layer {
  name: "pool4_2"
  type: "Pooling"
  bottom: "relu4_2"
  top: "pool4_2"
  pooling_param {
    pool: MAX
    kernel_size: 2
    stride: 2
  }
}
layer {
  name: "conv4_0"
  type: "Convolution"
  bottom: "pool4_2"
  top: "conv4_0"
  param {
    lr_mult: 1
  }
  convolution_param {
    num_output: 64
    bias_term: true
    pad: 1
    kernel_size: 3
    stride: 1
    weight_filler {
      type: "xavier"
    }
  }
}
layer {
  name: "bn4_0"
  type: "BatchNorm"
  bottom: "conv4_0"
  top: "bn4_0"
  include {
    phase: TRAIN
  }
  batch_norm_param {
    use_global_stats: false
    moving_average_fraction: 0.95
  }
}
layer {
  name: "scale4_0"
  type: "Scale"
  bottom: "bn4_0"
  top: "scale4_0"
  scale_param {
    bias_term: true
  }
}
layer {
  name: "relu4_0"
  type: "ReLU"
  bottom: "scale4_0"
  top: "relu4_0"
}
layer {
  name: "cccp4"
  type: "Convolution"
  bottom: "relu4_0"
  top: "cccp4"
  param {
    lr_mult: 1
    decay_mult: 1
  }
  param {
    lr_mult: 2
    decay_mult: 0
  }
  convolution_param {
    num_output: 64
    pad: 1
    kernel_size: 3
    weight_filler {
      type: "xavier"
    }
    bias_filler {
      type: "constant"
      value: 0
    }
  }
}
layer {
  name: "relu_cccp4"
  type: "ReLU"
  bottom: "cccp4"
  top: "cccp4"
}
layer {
  name: "cccp5"
  type: "Convolution"
  bottom: "cccp4"
  top: "cccp5"
  param {
    lr_mult: 1
    decay_mult: 1
  }
  param {
    lr_mult: 2
    decay_mult: 0
  }
  convolution_param {
    num_output: 64
    pad: 1
    kernel_size: 3
    weight_filler {
      type: "xavier"
    }
    bias_filler {
      type: "constant"
      value: 0
    }
  }
}
layer {
  name: "relu_cccp5"
  type: "ReLU"
  bottom: "cccp5"
  top: "cccp5"
}
layer {
  name: "poolcp5"
  type: "Pooling"
  bottom: "cccp5"
  top: "poolcp5"
  pooling_param {
    pool: MAX
    kernel_size: 2
    stride: 2
  }
}
layer {
  name: "cccp6"
  type: "Convolution"
  bottom: "poolcp5"
  top: "cccp6"
  param {
    lr_mult: 1
    decay_mult: 1
  }
  param {
    lr_mult: 2
    decay_mult: 0
  }
  convolution_param {
    num_output: 100
    kernel_size: 1
    group: 1
    weight_filler {
      type: "xavier"
    }
    bias_filler {
      type: "constant"
      value: 0
    }
  }
}
layer {
  name: "relu_cccp6"
  type: "ReLU"
  bottom: "cccp6"
  top: "cccp6"
}
layer {
  name: "poolcp6"
  type: "Pooling"
  bottom: "cccp6"
  top: "poolcp6"
  pooling_param {
    pool: MAX
    kernel_size: 2
    stride: 2
  }
}
layer {
  name: "ip1"
  type: "InnerProduct"
  bottom: "poolcp6"
  top: "ip1"
  param {
    lr_mult: 1
    decay_mult: 0
  }
  param {
    lr_mult: 2
    decay_mult: 0
  }
  inner_product_param {
    num_output: 10
    weight_filler {
      type: "xavier"
    }
    bias_filler {
      type: "constant"
    }
  }
}
layer {
  name: "accuracy_training"
  type: "Accuracy"
  bottom: "ip1"
  bottom: "label"
  top: "accuracy_training"
  include {
    phase: TRAIN
  }
}
layer {
  name: "loss"
  type: "SoftmaxWithLoss"
  bottom: "ip1"
  bottom: "label"
  top: "loss"
}
I0401 01:06:03.198271 11876 layer_factory.cpp:58] Creating layer cifar
I0401 01:06:03.198271 11876 common.cpp:36] System entropy source not available, using fallback algorithm to generate seed instead.
I0401 01:06:03.199256 11876 net.cpp:100] Creating Layer cifar
I0401 01:06:03.199256 11876 net.cpp:408] cifar -> data
I0401 01:06:03.199256 11876 net.cpp:408] cifar -> label
I0401 01:06:03.201259  8832 common.cpp:36] System entropy source not available, using fallback algorithm to generate seed instead.
I0401 01:06:03.205253  8832 db_leveldb.cpp:18] Opened leveldb examples/cifar10/cifar10_train_leveldb_padding
I0401 01:06:03.248256 11876 data_layer.cpp:41] output data size: 100,3,32,32
I0401 01:06:03.260257 11876 net.cpp:150] Setting up cifar
I0401 01:06:03.260257 11876 net.cpp:157] Top shape: 100 3 32 32 (307200)
I0401 01:06:03.260257 11876 net.cpp:157] Top shape: 100 (100)
I0401 01:06:03.260257 11876 net.cpp:165] Memory required for data: 1229200
I0401 01:06:03.260257 11876 layer_factory.cpp:58] Creating layer label_cifar_1_split
I0401 01:06:03.260257 11876 net.cpp:100] Creating Layer label_cifar_1_split
I0401 01:06:03.260257 11876 net.cpp:434] label_cifar_1_split <- label
I0401 01:06:03.260257 11876 net.cpp:408] label_cifar_1_split -> label_cifar_1_split_0
I0401 01:06:03.260257 11876 net.cpp:408] label_cifar_1_split -> label_cifar_1_split_1
I0401 01:06:03.261257 11876 net.cpp:150] Setting up label_cifar_1_split
I0401 01:06:03.261257 11876 net.cpp:157] Top shape: 100 (100)
I0401 01:06:03.261257 11876 net.cpp:157] Top shape: 100 (100)
I0401 01:06:03.261257 11876 net.cpp:165] Memory required for data: 1230000
I0401 01:06:03.261257 11876 layer_factory.cpp:58] Creating layer conv1
I0401 01:06:03.261257 11876 net.cpp:100] Creating Layer conv1
I0401 01:06:03.261257 11876 net.cpp:434] conv1 <- data
I0401 01:06:03.261257 11876 net.cpp:408] conv1 -> conv1
I0401 01:06:03.261257  3648 common.cpp:36] System entropy source not available, using fallback algorithm to generate seed instead.
I0401 01:06:03.673316 11876 net.cpp:150] Setting up conv1
I0401 01:06:03.673316 11876 net.cpp:157] Top shape: 100 32 32 32 (3276800)
I0401 01:06:03.673316 11876 net.cpp:165] Memory required for data: 14337200
I0401 01:06:03.673316 11876 layer_factory.cpp:58] Creating layer bn1
I0401 01:06:03.673316 11876 net.cpp:100] Creating Layer bn1
I0401 01:06:03.673316 11876 net.cpp:434] bn1 <- conv1
I0401 01:06:03.673316 11876 net.cpp:408] bn1 -> bn1
I0401 01:06:03.673316 11876 net.cpp:150] Setting up bn1
I0401 01:06:03.673316 11876 net.cpp:157] Top shape: 100 32 32 32 (3276800)
I0401 01:06:03.673316 11876 net.cpp:165] Memory required for data: 27444400
I0401 01:06:03.673316 11876 layer_factory.cpp:58] Creating layer scale1
I0401 01:06:03.673316 11876 net.cpp:100] Creating Layer scale1
I0401 01:06:03.673316 11876 net.cpp:434] scale1 <- bn1
I0401 01:06:03.673316 11876 net.cpp:408] scale1 -> scale1
I0401 01:06:03.673316 11876 layer_factory.cpp:58] Creating layer scale1
I0401 01:06:03.673316 11876 net.cpp:150] Setting up scale1
I0401 01:06:03.673316 11876 net.cpp:157] Top shape: 100 32 32 32 (3276800)
I0401 01:06:03.673316 11876 net.cpp:165] Memory required for data: 40551600
I0401 01:06:03.673316 11876 layer_factory.cpp:58] Creating layer relu1
I0401 01:06:03.673316 11876 net.cpp:100] Creating Layer relu1
I0401 01:06:03.673316 11876 net.cpp:434] relu1 <- scale1
I0401 01:06:03.673316 11876 net.cpp:408] relu1 -> relu1
I0401 01:06:03.674317 11876 net.cpp:150] Setting up relu1
I0401 01:06:03.674317 11876 net.cpp:157] Top shape: 100 32 32 32 (3276800)
I0401 01:06:03.674317 11876 net.cpp:165] Memory required for data: 53658800
I0401 01:06:03.674317 11876 layer_factory.cpp:58] Creating layer conv1_0
I0401 01:06:03.674317 11876 net.cpp:100] Creating Layer conv1_0
I0401 01:06:03.674317 11876 net.cpp:434] conv1_0 <- relu1
I0401 01:06:03.674317 11876 net.cpp:408] conv1_0 -> conv1_0
I0401 01:06:03.678829 11876 net.cpp:150] Setting up conv1_0
I0401 01:06:03.679332 11876 net.cpp:157] Top shape: 100 32 32 32 (3276800)
I0401 01:06:03.679332 11876 net.cpp:165] Memory required for data: 66766000
I0401 01:06:03.679332 11876 layer_factory.cpp:58] Creating layer bn1_0
I0401 01:06:03.679332 11876 net.cpp:100] Creating Layer bn1_0
I0401 01:06:03.679332 11876 net.cpp:434] bn1_0 <- conv1_0
I0401 01:06:03.679332 11876 net.cpp:408] bn1_0 -> bn1_0
I0401 01:06:03.679332 11876 net.cpp:150] Setting up bn1_0
I0401 01:06:03.679332 11876 net.cpp:157] Top shape: 100 32 32 32 (3276800)
I0401 01:06:03.679332 11876 net.cpp:165] Memory required for data: 79873200
I0401 01:06:03.679332 11876 layer_factory.cpp:58] Creating layer scale1_0
I0401 01:06:03.679332 11876 net.cpp:100] Creating Layer scale1_0
I0401 01:06:03.679332 11876 net.cpp:434] scale1_0 <- bn1_0
I0401 01:06:03.679332 11876 net.cpp:408] scale1_0 -> scale1_0
I0401 01:06:03.679832 11876 layer_factory.cpp:58] Creating layer scale1_0
I0401 01:06:03.679832 11876 net.cpp:150] Setting up scale1_0
I0401 01:06:03.679832 11876 net.cpp:157] Top shape: 100 32 32 32 (3276800)
I0401 01:06:03.679832 11876 net.cpp:165] Memory required for data: 92980400
I0401 01:06:03.679832 11876 layer_factory.cpp:58] Creating layer relu1_0
I0401 01:06:03.679832 11876 net.cpp:100] Creating Layer relu1_0
I0401 01:06:03.679832 11876 net.cpp:434] relu1_0 <- scale1_0
I0401 01:06:03.679832 11876 net.cpp:408] relu1_0 -> relu1_0
I0401 01:06:03.680831 11876 net.cpp:150] Setting up relu1_0
I0401 01:06:03.680831 11876 net.cpp:157] Top shape: 100 32 32 32 (3276800)
I0401 01:06:03.680831 11876 net.cpp:165] Memory required for data: 106087600
I0401 01:06:03.680831 11876 layer_factory.cpp:58] Creating layer conv2
I0401 01:06:03.680831 11876 net.cpp:100] Creating Layer conv2
I0401 01:06:03.680831 11876 net.cpp:434] conv2 <- relu1_0
I0401 01:06:03.680831 11876 net.cpp:408] conv2 -> conv2
I0401 01:06:03.682831 11876 net.cpp:150] Setting up conv2
I0401 01:06:03.682831 11876 net.cpp:157] Top shape: 100 32 32 32 (3276800)
I0401 01:06:03.682831 11876 net.cpp:165] Memory required for data: 119194800
I0401 01:06:03.682831 11876 layer_factory.cpp:58] Creating layer bn2
I0401 01:06:03.683343 11876 net.cpp:100] Creating Layer bn2
I0401 01:06:03.683343 11876 net.cpp:434] bn2 <- conv2
I0401 01:06:03.683343 11876 net.cpp:408] bn2 -> bn2
I0401 01:06:03.683343 11876 net.cpp:150] Setting up bn2
I0401 01:06:03.683343 11876 net.cpp:157] Top shape: 100 32 32 32 (3276800)
I0401 01:06:03.683343 11876 net.cpp:165] Memory required for data: 132302000
I0401 01:06:03.683343 11876 layer_factory.cpp:58] Creating layer scale2
I0401 01:06:03.683343 11876 net.cpp:100] Creating Layer scale2
I0401 01:06:03.683343 11876 net.cpp:434] scale2 <- bn2
I0401 01:06:03.683343 11876 net.cpp:408] scale2 -> scale2
I0401 01:06:03.683843 11876 layer_factory.cpp:58] Creating layer scale2
I0401 01:06:03.683843 11876 net.cpp:150] Setting up scale2
I0401 01:06:03.683843 11876 net.cpp:157] Top shape: 100 32 32 32 (3276800)
I0401 01:06:03.683843 11876 net.cpp:165] Memory required for data: 145409200
I0401 01:06:03.683843 11876 layer_factory.cpp:58] Creating layer relu2
I0401 01:06:03.683843 11876 net.cpp:100] Creating Layer relu2
I0401 01:06:03.683843 11876 net.cpp:434] relu2 <- scale2
I0401 01:06:03.683843 11876 net.cpp:408] relu2 -> relu2
I0401 01:06:03.691828 11876 net.cpp:150] Setting up relu2
I0401 01:06:03.691828 11876 net.cpp:157] Top shape: 100 32 32 32 (3276800)
I0401 01:06:03.691828 11876 net.cpp:165] Memory required for data: 158516400
I0401 01:06:03.691828 11876 layer_factory.cpp:58] Creating layer conv2_1
I0401 01:06:03.691828 11876 net.cpp:100] Creating Layer conv2_1
I0401 01:06:03.691828 11876 net.cpp:434] conv2_1 <- relu2
I0401 01:06:03.691828 11876 net.cpp:408] conv2_1 -> conv2_1
I0401 01:06:03.693358 11876 net.cpp:150] Setting up conv2_1
I0401 01:06:03.693358 11876 net.cpp:157] Top shape: 100 32 32 32 (3276800)
I0401 01:06:03.693358 11876 net.cpp:165] Memory required for data: 171623600
I0401 01:06:03.693358 11876 layer_factory.cpp:58] Creating layer bn2_1
I0401 01:06:03.693358 11876 net.cpp:100] Creating Layer bn2_1
I0401 01:06:03.693358 11876 net.cpp:434] bn2_1 <- conv2_1
I0401 01:06:03.693358 11876 net.cpp:408] bn2_1 -> bn2_1
I0401 01:06:03.693358 11876 net.cpp:150] Setting up bn2_1
I0401 01:06:03.693358 11876 net.cpp:157] Top shape: 100 32 32 32 (3276800)
I0401 01:06:03.693358 11876 net.cpp:165] Memory required for data: 184730800
I0401 01:06:03.693358 11876 layer_factory.cpp:58] Creating layer scale2_1
I0401 01:06:03.693358 11876 net.cpp:100] Creating Layer scale2_1
I0401 01:06:03.693358 11876 net.cpp:434] scale2_1 <- bn2_1
I0401 01:06:03.693358 11876 net.cpp:408] scale2_1 -> scale2_1
I0401 01:06:03.693358 11876 layer_factory.cpp:58] Creating layer scale2_1
I0401 01:06:03.694344 11876 net.cpp:150] Setting up scale2_1
I0401 01:06:03.694344 11876 net.cpp:157] Top shape: 100 32 32 32 (3276800)
I0401 01:06:03.694344 11876 net.cpp:165] Memory required for data: 197838000
I0401 01:06:03.694344 11876 layer_factory.cpp:58] Creating layer relu2_1
I0401 01:06:03.694344 11876 net.cpp:100] Creating Layer relu2_1
I0401 01:06:03.694344 11876 net.cpp:434] relu2_1 <- scale2_1
I0401 01:06:03.694344 11876 net.cpp:408] relu2_1 -> relu2_1
I0401 01:06:03.694344 11876 net.cpp:150] Setting up relu2_1
I0401 01:06:03.694344 11876 net.cpp:157] Top shape: 100 32 32 32 (3276800)
I0401 01:06:03.694344 11876 net.cpp:165] Memory required for data: 210945200
I0401 01:06:03.694344 11876 layer_factory.cpp:58] Creating layer pool2_1
I0401 01:06:03.694344 11876 net.cpp:100] Creating Layer pool2_1
I0401 01:06:03.694344 11876 net.cpp:434] pool2_1 <- relu2_1
I0401 01:06:03.694344 11876 net.cpp:408] pool2_1 -> pool2_1
I0401 01:06:03.694344 11876 net.cpp:150] Setting up pool2_1
I0401 01:06:03.694344 11876 net.cpp:157] Top shape: 100 32 16 16 (819200)
I0401 01:06:03.694344 11876 net.cpp:165] Memory required for data: 214222000
I0401 01:06:03.694344 11876 layer_factory.cpp:58] Creating layer conv2_2
I0401 01:06:03.694344 11876 net.cpp:100] Creating Layer conv2_2
I0401 01:06:03.694344 11876 net.cpp:434] conv2_2 <- pool2_1
I0401 01:06:03.694344 11876 net.cpp:408] conv2_2 -> conv2_2
I0401 01:06:03.696358 11876 net.cpp:150] Setting up conv2_2
I0401 01:06:03.696358 11876 net.cpp:157] Top shape: 100 50 16 16 (1280000)
I0401 01:06:03.696358 11876 net.cpp:165] Memory required for data: 219342000
I0401 01:06:03.696358 11876 layer_factory.cpp:58] Creating layer bn2_2
I0401 01:06:03.696358 11876 net.cpp:100] Creating Layer bn2_2
I0401 01:06:03.696358 11876 net.cpp:434] bn2_2 <- conv2_2
I0401 01:06:03.696358 11876 net.cpp:408] bn2_2 -> bn2_2
I0401 01:06:03.697358 11876 net.cpp:150] Setting up bn2_2
I0401 01:06:03.697358 11876 net.cpp:157] Top shape: 100 50 16 16 (1280000)
I0401 01:06:03.697358 11876 net.cpp:165] Memory required for data: 224462000
I0401 01:06:03.697358 11876 layer_factory.cpp:58] Creating layer scale2_2
I0401 01:06:03.697358 11876 net.cpp:100] Creating Layer scale2_2
I0401 01:06:03.697358 11876 net.cpp:434] scale2_2 <- bn2_2
I0401 01:06:03.697358 11876 net.cpp:408] scale2_2 -> scale2_2
I0401 01:06:03.697358 11876 layer_factory.cpp:58] Creating layer scale2_2
I0401 01:06:03.697358 11876 net.cpp:150] Setting up scale2_2
I0401 01:06:03.697358 11876 net.cpp:157] Top shape: 100 50 16 16 (1280000)
I0401 01:06:03.697358 11876 net.cpp:165] Memory required for data: 229582000
I0401 01:06:03.697358 11876 layer_factory.cpp:58] Creating layer relu2_2
I0401 01:06:03.697358 11876 net.cpp:100] Creating Layer relu2_2
I0401 01:06:03.697358 11876 net.cpp:434] relu2_2 <- scale2_2
I0401 01:06:03.697358 11876 net.cpp:408] relu2_2 -> relu2_2
I0401 01:06:03.697358 11876 net.cpp:150] Setting up relu2_2
I0401 01:06:03.697358 11876 net.cpp:157] Top shape: 100 50 16 16 (1280000)
I0401 01:06:03.697358 11876 net.cpp:165] Memory required for data: 234702000
I0401 01:06:03.697358 11876 layer_factory.cpp:58] Creating layer conv3
I0401 01:06:03.697358 11876 net.cpp:100] Creating Layer conv3
I0401 01:06:03.697358 11876 net.cpp:434] conv3 <- relu2_2
I0401 01:06:03.697358 11876 net.cpp:408] conv3 -> conv3
I0401 01:06:03.700345 11876 net.cpp:150] Setting up conv3
I0401 01:06:03.700345 11876 net.cpp:157] Top shape: 100 64 16 16 (1638400)
I0401 01:06:03.700345 11876 net.cpp:165] Memory required for data: 241255600
I0401 01:06:03.700345 11876 layer_factory.cpp:58] Creating layer bn3
I0401 01:06:03.700345 11876 net.cpp:100] Creating Layer bn3
I0401 01:06:03.700345 11876 net.cpp:434] bn3 <- conv3
I0401 01:06:03.700345 11876 net.cpp:408] bn3 -> bn3
I0401 01:06:03.700345 11876 net.cpp:150] Setting up bn3
I0401 01:06:03.700345 11876 net.cpp:157] Top shape: 100 64 16 16 (1638400)
I0401 01:06:03.700345 11876 net.cpp:165] Memory required for data: 247809200
I0401 01:06:03.700345 11876 layer_factory.cpp:58] Creating layer scale3
I0401 01:06:03.700345 11876 net.cpp:100] Creating Layer scale3
I0401 01:06:03.700345 11876 net.cpp:434] scale3 <- bn3
I0401 01:06:03.700345 11876 net.cpp:408] scale3 -> scale3
I0401 01:06:03.700345 11876 layer_factory.cpp:58] Creating layer scale3
I0401 01:06:03.700345 11876 net.cpp:150] Setting up scale3
I0401 01:06:03.700345 11876 net.cpp:157] Top shape: 100 64 16 16 (1638400)
I0401 01:06:03.700345 11876 net.cpp:165] Memory required for data: 254362800
I0401 01:06:03.700345 11876 layer_factory.cpp:58] Creating layer relu3
I0401 01:06:03.700345 11876 net.cpp:100] Creating Layer relu3
I0401 01:06:03.700345 11876 net.cpp:434] relu3 <- scale3
I0401 01:06:03.700345 11876 net.cpp:408] relu3 -> relu3
I0401 01:06:03.701344 11876 net.cpp:150] Setting up relu3
I0401 01:06:03.701344 11876 net.cpp:157] Top shape: 100 64 16 16 (1638400)
I0401 01:06:03.701344 11876 net.cpp:165] Memory required for data: 260916400
I0401 01:06:03.701344 11876 layer_factory.cpp:58] Creating layer conv4
I0401 01:06:03.701344 11876 net.cpp:100] Creating Layer conv4
I0401 01:06:03.701344 11876 net.cpp:434] conv4 <- relu3
I0401 01:06:03.701344 11876 net.cpp:408] conv4 -> conv4
I0401 01:06:03.703344 11876 net.cpp:150] Setting up conv4
I0401 01:06:03.703344 11876 net.cpp:157] Top shape: 100 64 16 16 (1638400)
I0401 01:06:03.703344 11876 net.cpp:165] Memory required for data: 267470000
I0401 01:06:03.703344 11876 layer_factory.cpp:58] Creating layer pool4
I0401 01:06:03.703344 11876 net.cpp:100] Creating Layer pool4
I0401 01:06:03.703344 11876 net.cpp:434] pool4 <- conv4
I0401 01:06:03.703344 11876 net.cpp:408] pool4 -> pool4
I0401 01:06:03.703344 11876 net.cpp:150] Setting up pool4
I0401 01:06:03.703344 11876 net.cpp:157] Top shape: 100 64 8 8 (409600)
I0401 01:06:03.703344 11876 net.cpp:165] Memory required for data: 269108400
I0401 01:06:03.703344 11876 layer_factory.cpp:58] Creating layer bn4
I0401 01:06:03.703344 11876 net.cpp:100] Creating Layer bn4
I0401 01:06:03.703344 11876 net.cpp:434] bn4 <- pool4
I0401 01:06:03.703344 11876 net.cpp:408] bn4 -> bn4
I0401 01:06:03.704346 11876 net.cpp:150] Setting up bn4
I0401 01:06:03.704346 11876 net.cpp:157] Top shape: 100 64 8 8 (409600)
I0401 01:06:03.704346 11876 net.cpp:165] Memory required for data: 270746800
I0401 01:06:03.704346 11876 layer_factory.cpp:58] Creating layer scale4
I0401 01:06:03.704346 11876 net.cpp:100] Creating Layer scale4
I0401 01:06:03.704346 11876 net.cpp:434] scale4 <- bn4
I0401 01:06:03.704346 11876 net.cpp:408] scale4 -> scale4
I0401 01:06:03.704346 11876 layer_factory.cpp:58] Creating layer scale4
I0401 01:06:03.704346 11876 net.cpp:150] Setting up scale4
I0401 01:06:03.704346 11876 net.cpp:157] Top shape: 100 64 8 8 (409600)
I0401 01:06:03.704346 11876 net.cpp:165] Memory required for data: 272385200
I0401 01:06:03.704346 11876 layer_factory.cpp:58] Creating layer relu4
I0401 01:06:03.704346 11876 net.cpp:100] Creating Layer relu4
I0401 01:06:03.704346 11876 net.cpp:434] relu4 <- scale4
I0401 01:06:03.704346 11876 net.cpp:408] relu4 -> relu4
I0401 01:06:03.707358 11876 net.cpp:150] Setting up relu4
I0401 01:06:03.707358 11876 net.cpp:157] Top shape: 100 64 8 8 (409600)
I0401 01:06:03.707358 11876 net.cpp:165] Memory required for data: 274023600
I0401 01:06:03.707358 11876 layer_factory.cpp:58] Creating layer conv4_1
I0401 01:06:03.707358 11876 net.cpp:100] Creating Layer conv4_1
I0401 01:06:03.708351 11876 net.cpp:434] conv4_1 <- relu4
I0401 01:06:03.708351 11876 net.cpp:408] conv4_1 -> conv4_1
I0401 01:06:03.713356 11876 net.cpp:150] Setting up conv4_1
I0401 01:06:03.713356 11876 net.cpp:157] Top shape: 100 64 8 8 (409600)
I0401 01:06:03.713356 11876 net.cpp:165] Memory required for data: 275662000
I0401 01:06:03.713356 11876 layer_factory.cpp:58] Creating layer bn4_1
I0401 01:06:03.714346 11876 net.cpp:100] Creating Layer bn4_1
I0401 01:06:03.714346 11876 net.cpp:434] bn4_1 <- conv4_1
I0401 01:06:03.714346 11876 net.cpp:408] bn4_1 -> bn4_1
I0401 01:06:03.714346 11876 net.cpp:150] Setting up bn4_1
I0401 01:06:03.714346 11876 net.cpp:157] Top shape: 100 64 8 8 (409600)
I0401 01:06:03.714346 11876 net.cpp:165] Memory required for data: 277300400
I0401 01:06:03.714346 11876 layer_factory.cpp:58] Creating layer scale4_1
I0401 01:06:03.714346 11876 net.cpp:100] Creating Layer scale4_1
I0401 01:06:03.714346 11876 net.cpp:434] scale4_1 <- bn4_1
I0401 01:06:03.714346 11876 net.cpp:408] scale4_1 -> scale4_1
I0401 01:06:03.714346 11876 layer_factory.cpp:58] Creating layer scale4_1
I0401 01:06:03.714346 11876 net.cpp:150] Setting up scale4_1
I0401 01:06:03.714346 11876 net.cpp:157] Top shape: 100 64 8 8 (409600)
I0401 01:06:03.714346 11876 net.cpp:165] Memory required for data: 278938800
I0401 01:06:03.714346 11876 layer_factory.cpp:58] Creating layer relu4_1
I0401 01:06:03.714346 11876 net.cpp:100] Creating Layer relu4_1
I0401 01:06:03.714346 11876 net.cpp:434] relu4_1 <- scale4_1
I0401 01:06:03.714346 11876 net.cpp:408] relu4_1 -> relu4_1
I0401 01:06:03.715361 11876 net.cpp:150] Setting up relu4_1
I0401 01:06:03.715361 11876 net.cpp:157] Top shape: 100 64 8 8 (409600)
I0401 01:06:03.715361 11876 net.cpp:165] Memory required for data: 280577200
I0401 01:06:03.715361 11876 layer_factory.cpp:58] Creating layer conv4_2
I0401 01:06:03.715361 11876 net.cpp:100] Creating Layer conv4_2
I0401 01:06:03.715361 11876 net.cpp:434] conv4_2 <- relu4_1
I0401 01:06:03.715361 11876 net.cpp:408] conv4_2 -> conv4_2
I0401 01:06:03.721349 11876 net.cpp:150] Setting up conv4_2
I0401 01:06:03.721349 11876 net.cpp:157] Top shape: 100 64 8 8 (409600)
I0401 01:06:03.721349 11876 net.cpp:165] Memory required for data: 282215600
I0401 01:06:03.721349 11876 layer_factory.cpp:58] Creating layer bn4_2
I0401 01:06:03.721349 11876 net.cpp:100] Creating Layer bn4_2
I0401 01:06:03.721349 11876 net.cpp:434] bn4_2 <- conv4_2
I0401 01:06:03.721349 11876 net.cpp:408] bn4_2 -> bn4_2
I0401 01:06:03.721349 11876 net.cpp:150] Setting up bn4_2
I0401 01:06:03.721349 11876 net.cpp:157] Top shape: 100 64 8 8 (409600)
I0401 01:06:03.721349 11876 net.cpp:165] Memory required for data: 283854000
I0401 01:06:03.721349 11876 layer_factory.cpp:58] Creating layer scale4_2
I0401 01:06:03.721349 11876 net.cpp:100] Creating Layer scale4_2
I0401 01:06:03.721349 11876 net.cpp:434] scale4_2 <- bn4_2
I0401 01:06:03.721349 11876 net.cpp:408] scale4_2 -> scale4_2
I0401 01:06:03.722359 11876 layer_factory.cpp:58] Creating layer scale4_2
I0401 01:06:03.722359 11876 net.cpp:150] Setting up scale4_2
I0401 01:06:03.722359 11876 net.cpp:157] Top shape: 100 64 8 8 (409600)
I0401 01:06:03.722359 11876 net.cpp:165] Memory required for data: 285492400
I0401 01:06:03.722359 11876 layer_factory.cpp:58] Creating layer relu4_2
I0401 01:06:03.722359 11876 net.cpp:100] Creating Layer relu4_2
I0401 01:06:03.722359 11876 net.cpp:434] relu4_2 <- scale4_2
I0401 01:06:03.722359 11876 net.cpp:408] relu4_2 -> relu4_2
I0401 01:06:03.722359 11876 net.cpp:150] Setting up relu4_2
I0401 01:06:03.722359 11876 net.cpp:157] Top shape: 100 64 8 8 (409600)
I0401 01:06:03.722359 11876 net.cpp:165] Memory required for data: 287130800
I0401 01:06:03.722359 11876 layer_factory.cpp:58] Creating layer pool4_2
I0401 01:06:03.722359 11876 net.cpp:100] Creating Layer pool4_2
I0401 01:06:03.722359 11876 net.cpp:434] pool4_2 <- relu4_2
I0401 01:06:03.722359 11876 net.cpp:408] pool4_2 -> pool4_2
I0401 01:06:03.722359 11876 net.cpp:150] Setting up pool4_2
I0401 01:06:03.722359 11876 net.cpp:157] Top shape: 100 64 4 4 (102400)
I0401 01:06:03.722359 11876 net.cpp:165] Memory required for data: 287540400
I0401 01:06:03.722359 11876 layer_factory.cpp:58] Creating layer conv4_0
I0401 01:06:03.722359 11876 net.cpp:100] Creating Layer conv4_0
I0401 01:06:03.722359 11876 net.cpp:434] conv4_0 <- pool4_2
I0401 01:06:03.722359 11876 net.cpp:408] conv4_0 -> conv4_0
I0401 01:06:03.724359 11876 net.cpp:150] Setting up conv4_0
I0401 01:06:03.724359 11876 net.cpp:157] Top shape: 100 64 4 4 (102400)
I0401 01:06:03.724359 11876 net.cpp:165] Memory required for data: 287950000
I0401 01:06:03.724359 11876 layer_factory.cpp:58] Creating layer bn4_0
I0401 01:06:03.724359 11876 net.cpp:100] Creating Layer bn4_0
I0401 01:06:03.724359 11876 net.cpp:434] bn4_0 <- conv4_0
I0401 01:06:03.724359 11876 net.cpp:408] bn4_0 -> bn4_0
I0401 01:06:03.725363 11876 net.cpp:150] Setting up bn4_0
I0401 01:06:03.725363 11876 net.cpp:157] Top shape: 100 64 4 4 (102400)
I0401 01:06:03.725363 11876 net.cpp:165] Memory required for data: 288359600
I0401 01:06:03.725363 11876 layer_factory.cpp:58] Creating layer scale4_0
I0401 01:06:03.725363 11876 net.cpp:100] Creating Layer scale4_0
I0401 01:06:03.725363 11876 net.cpp:434] scale4_0 <- bn4_0
I0401 01:06:03.725363 11876 net.cpp:408] scale4_0 -> scale4_0
I0401 01:06:03.725363 11876 layer_factory.cpp:58] Creating layer scale4_0
I0401 01:06:03.725363 11876 net.cpp:150] Setting up scale4_0
I0401 01:06:03.725363 11876 net.cpp:157] Top shape: 100 64 4 4 (102400)
I0401 01:06:03.725363 11876 net.cpp:165] Memory required for data: 288769200
I0401 01:06:03.725363 11876 layer_factory.cpp:58] Creating layer relu4_0
I0401 01:06:03.725363 11876 net.cpp:100] Creating Layer relu4_0
I0401 01:06:03.725363 11876 net.cpp:434] relu4_0 <- scale4_0
I0401 01:06:03.725363 11876 net.cpp:408] relu4_0 -> relu4_0
I0401 01:06:03.726366 11876 net.cpp:150] Setting up relu4_0
I0401 01:06:03.726366 11876 net.cpp:157] Top shape: 100 64 4 4 (102400)
I0401 01:06:03.726366 11876 net.cpp:165] Memory required for data: 289178800
I0401 01:06:03.726366 11876 layer_factory.cpp:58] Creating layer cccp4
I0401 01:06:03.726366 11876 net.cpp:100] Creating Layer cccp4
I0401 01:06:03.726366 11876 net.cpp:434] cccp4 <- relu4_0
I0401 01:06:03.726366 11876 net.cpp:408] cccp4 -> cccp4
I0401 01:06:03.728358 11876 net.cpp:150] Setting up cccp4
I0401 01:06:03.728358 11876 net.cpp:157] Top shape: 100 64 4 4 (102400)
I0401 01:06:03.728358 11876 net.cpp:165] Memory required for data: 289588400
I0401 01:06:03.728358 11876 layer_factory.cpp:58] Creating layer relu_cccp4
I0401 01:06:03.728358 11876 net.cpp:100] Creating Layer relu_cccp4
I0401 01:06:03.728358 11876 net.cpp:434] relu_cccp4 <- cccp4
I0401 01:06:03.728358 11876 net.cpp:395] relu_cccp4 -> cccp4 (in-place)
I0401 01:06:03.728358 11876 net.cpp:150] Setting up relu_cccp4
I0401 01:06:03.728358 11876 net.cpp:157] Top shape: 100 64 4 4 (102400)
I0401 01:06:03.728358 11876 net.cpp:165] Memory required for data: 289998000
I0401 01:06:03.728358 11876 layer_factory.cpp:58] Creating layer cccp5
I0401 01:06:03.728358 11876 net.cpp:100] Creating Layer cccp5
I0401 01:06:03.728358 11876 net.cpp:434] cccp5 <- cccp4
I0401 01:06:03.728358 11876 net.cpp:408] cccp5 -> cccp5
I0401 01:06:03.730370 11876 net.cpp:150] Setting up cccp5
I0401 01:06:03.731345 11876 net.cpp:157] Top shape: 100 64 4 4 (102400)
I0401 01:06:03.731345 11876 net.cpp:165] Memory required for data: 290407600
I0401 01:06:03.731345 11876 layer_factory.cpp:58] Creating layer relu_cccp5
I0401 01:06:03.731345 11876 net.cpp:100] Creating Layer relu_cccp5
I0401 01:06:03.731345 11876 net.cpp:434] relu_cccp5 <- cccp5
I0401 01:06:03.731345 11876 net.cpp:395] relu_cccp5 -> cccp5 (in-place)
I0401 01:06:03.731345 11876 net.cpp:150] Setting up relu_cccp5
I0401 01:06:03.731345 11876 net.cpp:157] Top shape: 100 64 4 4 (102400)
I0401 01:06:03.731345 11876 net.cpp:165] Memory required for data: 290817200
I0401 01:06:03.731345 11876 layer_factory.cpp:58] Creating layer poolcp5
I0401 01:06:03.731345 11876 net.cpp:100] Creating Layer poolcp5
I0401 01:06:03.731345 11876 net.cpp:434] poolcp5 <- cccp5
I0401 01:06:03.731345 11876 net.cpp:408] poolcp5 -> poolcp5
I0401 01:06:03.731345 11876 net.cpp:150] Setting up poolcp5
I0401 01:06:03.731345 11876 net.cpp:157] Top shape: 100 64 2 2 (25600)
I0401 01:06:03.731345 11876 net.cpp:165] Memory required for data: 290919600
I0401 01:06:03.731345 11876 layer_factory.cpp:58] Creating layer cccp6
I0401 01:06:03.731345 11876 net.cpp:100] Creating Layer cccp6
I0401 01:06:03.731345 11876 net.cpp:434] cccp6 <- poolcp5
I0401 01:06:03.731345 11876 net.cpp:408] cccp6 -> cccp6
I0401 01:06:03.733356 11876 net.cpp:150] Setting up cccp6
I0401 01:06:03.733356 11876 net.cpp:157] Top shape: 100 100 2 2 (40000)
I0401 01:06:03.733356 11876 net.cpp:165] Memory required for data: 291079600
I0401 01:06:03.733356 11876 layer_factory.cpp:58] Creating layer relu_cccp6
I0401 01:06:03.733356 11876 net.cpp:100] Creating Layer relu_cccp6
I0401 01:06:03.733356 11876 net.cpp:434] relu_cccp6 <- cccp6
I0401 01:06:03.733356 11876 net.cpp:395] relu_cccp6 -> cccp6 (in-place)
I0401 01:06:03.734344 11876 net.cpp:150] Setting up relu_cccp6
I0401 01:06:03.734344 11876 net.cpp:157] Top shape: 100 100 2 2 (40000)
I0401 01:06:03.734344 11876 net.cpp:165] Memory required for data: 291239600
I0401 01:06:03.734344 11876 layer_factory.cpp:58] Creating layer poolcp6
I0401 01:06:03.734344 11876 net.cpp:100] Creating Layer poolcp6
I0401 01:06:03.734344 11876 net.cpp:434] poolcp6 <- cccp6
I0401 01:06:03.734344 11876 net.cpp:408] poolcp6 -> poolcp6
I0401 01:06:03.734344 11876 net.cpp:150] Setting up poolcp6
I0401 01:06:03.734344 11876 net.cpp:157] Top shape: 100 100 1 1 (10000)
I0401 01:06:03.734344 11876 net.cpp:165] Memory required for data: 291279600
I0401 01:06:03.734344 11876 layer_factory.cpp:58] Creating layer ip1
I0401 01:06:03.734344 11876 net.cpp:100] Creating Layer ip1
I0401 01:06:03.734344 11876 net.cpp:434] ip1 <- poolcp6
I0401 01:06:03.734344 11876 net.cpp:408] ip1 -> ip1
I0401 01:06:03.735355 11876 net.cpp:150] Setting up ip1
I0401 01:06:03.735355 11876 net.cpp:157] Top shape: 100 10 (1000)
I0401 01:06:03.735355 11876 net.cpp:165] Memory required for data: 291283600
I0401 01:06:03.735355 11876 layer_factory.cpp:58] Creating layer ip1_ip1_0_split
I0401 01:06:03.735355 11876 net.cpp:100] Creating Layer ip1_ip1_0_split
I0401 01:06:03.735355 11876 net.cpp:434] ip1_ip1_0_split <- ip1
I0401 01:06:03.735355 11876 net.cpp:408] ip1_ip1_0_split -> ip1_ip1_0_split_0
I0401 01:06:03.735355 11876 net.cpp:408] ip1_ip1_0_split -> ip1_ip1_0_split_1
I0401 01:06:03.735355 11876 net.cpp:150] Setting up ip1_ip1_0_split
I0401 01:06:03.735355 11876 net.cpp:157] Top shape: 100 10 (1000)
I0401 01:06:03.735355 11876 net.cpp:157] Top shape: 100 10 (1000)
I0401 01:06:03.735355 11876 net.cpp:165] Memory required for data: 291291600
I0401 01:06:03.735355 11876 layer_factory.cpp:58] Creating layer accuracy_training
I0401 01:06:03.735355 11876 net.cpp:100] Creating Layer accuracy_training
I0401 01:06:03.735355 11876 net.cpp:434] accuracy_training <- ip1_ip1_0_split_0
I0401 01:06:03.735355 11876 net.cpp:434] accuracy_training <- label_cifar_1_split_0
…
I0401 01:06:03.740367 11876 net.cpp:322] The NetState phase (1) differed from the phase (0) specified by a rule in layer bn4_0
I0401 01:06:03.740367 11876 net.cpp:322] The NetState phase (1) differed from the phase (0) specified by a rule in layer accuracy_training
I0401 01:06:03.741358 11876 net.cpp:58] Initializing net from parameters: 
name: "CIFAR10_full"
state {
  phase: TEST
}
layer {
  name: "cifar"
  type: "Data"
  top: "data"
  top: "label"
  include {
    phase: TEST
  }
  transform_param {
    crop_size: 32
  }
  data_param {
    source: "examples/cifar10/cifar10_test_leveldb_padding"
    batch_size: 50
    backend: LEVELDB
  }
}
layer {
  name: "conv1"
  type: "Convolution"
  bottom: "data"
  top: "conv1"
  param {
    lr_mult: 1
  }
  convolution_param {
    num_output: 32
    bias_term: true
    pad: 1
    kernel_size: 3
    stride: 1
    weight_filler {
      type: "xavier"
    }
  }
}
layer {
  name: "bn1"
  type: "BatchNorm"
  bottom: "conv1"
  top: "bn1"
  include {
    phase: TEST
  }
  batch_norm_param {
    use_global_stats: true
    moving_average_fraction: 0.95
  }
}
layer {
  name: "scale1"
  type: "Scale"
  bottom: "bn1"
  top: "scale1"
  scale_param {
    bias_term: true
  }
}
layer {
  name: "relu1"
  type: "ReLU"
  bottom: "scale1"
  top: "relu1"
}
layer {
  name: "conv1_0"
  type: "Convolution"
  bottom: "relu1"
  top: "conv1_0"
  param {
    lr_mult: 1
  }
  convolution_param {
    num_output: 32
    bias_term: true
    pad: 1
    kernel_size: 3
    stride: 1
    weight_filler {
      type: "xavier"
    }
  }
}
layer {
  name: "bn1_0"
  type: "BatchNorm"
  bottom: "conv1_0"
  top: "bn1_0"
  include {
    phase: TEST
  }
  batch_norm_param {
    use_global_stats: true
    moving_average_fraction: 0.95
  }
}
layer {
  name: "scale1_0"
  type: "Scale"
  bottom: "bn1_0"
  top: "scale1_0"
  scale_param {
    bias_term: true
  }
}
layer {
  name: "relu1_0"
  type: "ReLU"
  bottom: "scale1_0"
  top: "relu1_0"
}
layer {
  name: "conv2"
  type: "Convolution"
  bottom: "relu1_0"
  top: "conv2"
  param {
    lr_mult: 1
  }
  convolution_param {
    num_output: 32
    bias_term: true
    pad: 1
    kernel_size: 3
    stride: 1
    weight_filler {
      type: "gaussian"
      std: 0.01
    }
  }
}
layer {
  name: "bn2"
  type: "BatchNorm"
  bottom: "conv2"
  top: "bn2"
  include {
    phase: TEST
  }
  batch_norm_param {
    use_global_stats: true
    moving_average_fraction: 0.95
  }
}
layer {
  name: "scale2"
  type: "Scale"
  bottom: "bn2"
  top: "scale2"
  scale_param {
    bias_term: true
  }
}
layer {
  name: "relu2"
  type: "ReLU"
  bottom: "scale2"
  top: "relu2"
}
layer {
  name: "conv2_1"
  type: "Convolution"
  bottom: "relu2"
  top: "conv2_1"
  param {
    lr_mult: 1
  }
  convolution_param {
    num_output: 32
    bias_term: true
    pad: 1
    kernel_size: 3
    stride: 1
    weight_filler {
      type: "gaussian"
      std: 0.01
    }
  }
}
layer {
  name: "bn2_1"
  type: "BatchNorm"
  bottom: "conv2_1"
  top: "bn2_1"
  include {
    phase: TEST
  }
  batch_norm_param {
    use_global_stats: true
    moving_average_fraction: 0.95
  }
}
layer {
  name: "scale2_1"
  type: "Scale"
  bottom: "bn2_1"
  top: "scale2_1"
  scale_param {
    bias_term: true
  }
}
layer {
  name: "relu2_1"
  type: "ReLU"
  bottom: "scale2_1"
  top: "relu2_1"
}
layer {
  name: "pool2_1"
  type: "Pooling"
  bottom: "relu2_1"
  top: "pool2_1"
  pooling_param {
    pool: MAX
    kernel_size: 2
    stride: 2
  }
}
layer {
  name: "conv2_2"
  type: "Convolution"
  bottom: "pool2_1"
  top: "conv2_2"
  param {
    lr_mult: 1
  }
  convolution_param {
    num_output: 50
    bias_term: true
    pad: 1
    kernel_size: 3
    stride: 1
    weight_filler {
      type: "gaussian"
      std: 0.01
    }
  }
}
layer {
  name: "bn2_2"
  type: "BatchNorm"
  bottom: "conv2_2"
  top: "bn2_2"
  include {
    phase: TEST
  }
  batch_norm_param {
    use_global_stats: true
    moving_average_fraction: 0.95
  }
}
layer {
  name: "scale2_2"
  type: "Scale"
  bottom: "bn2_2"
  top: "scale2_2"
  scale_param {
    bias_term: true
  }
}
layer {
  name: "relu2_2"
  type: "ReLU"
  bottom: "scale2_2"
  top: "relu2_2"
}
layer {
  name: "conv3"
  type: "Convolution"
  bottom: "relu2_2"
  top: "conv3"
  param {
    lr_mult: 1
  }
  convolution_param {
    num_output: 64
    bias_term: true
    pad: 1
    kernel_size: 3
    stride: 1
    weight_filler {
      type: "xavier"
    }
  }
}
layer {
  name: "bn3"
  type: "BatchNorm"
  bottom: "conv3"
  top: "bn3"
  include {
    phase: TEST
  }
  batch_norm_param {
    use_global_stats: true
    moving_average_fraction: 0.95
  }
}
layer {
  name: "scale3"
  type: "Scale"
  bottom: "bn3"
  top: "scale3"
  scale_param {
    bias_term: true
  }
}
layer {
  name: "relu3"
  type: "ReLU"
  bottom: "scale3"
  top: "relu3"
}
layer {
  name: "conv4"
  type: "Convolution"
  bottom: "relu3"
  top: "conv4"
  param {
    lr_mult: 1
  }
  convolution_param {
    num_output: 64
    bias_term: true
    pad: 1
    kernel_size: 3
    stride: 1
    weight_filler {
      type: "xavier"
    }
  }
}
layer {
  name: "pool4"
  type: "Pooling"
  bottom: "conv4"
  top: "pool4"
  pooling_param {
    pool: MAX
    kernel_size: 2
    stride: 2
  }
}
layer {
  name: "bn4"
  type: "BatchNorm"
  bottom: "pool4"
  top: "bn4"
  include {
    phase: TEST
  }
  batch_norm_param {
    use_global_stats: true
    moving_average_fraction: 0.95
  }
}
layer {
  name: "scale4"
  type: "Scale"
  bottom: "bn4"
  top: "scale4"
  scale_param {
    bias_term: true
  }
}
layer {
  name: "relu4"
  type: "ReLU"
  bottom: "scale4"
  top: "relu4"
}
layer {
  name: "conv4_1"
  type: "Convolution"
  bottom: "relu4"
  top: "conv4_1"
  param {
    lr_mult: 1
  }
  convolution_param {
    num_output: 64
    bias_term: true
    pad: 1
    kernel_size: 3
    stride: 1
    weight_filler {
      type: "xavier"
    }
  }
}
layer {
  name: "bn4_1"
  type: "BatchNorm"
  bottom: "conv4_1"
  top: "bn4_1"
  include {
    phase: TEST
  }
  batch_norm_param {
    use_global_stats: true
    moving_average_fraction: 0.95
  }
}
layer {
  name: "scale4_1"
  type: "Scale"
  bottom: "bn4_1"
  top: "scale4_1"
  scale_param {
    bias_term: true
  }
}
layer {
  name: "relu4_1"
  type: "ReLU"
  bottom: "scale4_1"
  top: "relu4_1"
}
layer {
  name: "conv4_2"
  type: "Convolution"
  bottom: "relu4_1"
  top: "conv4_2"
  param {
    lr_mult: 1
  }
  convolution_param {
    num_output: 64
    bias_term: true
    pad: 1
    kernel_size: 3
    stride: 1
    weight_filler {
      type: "xavier"
    }
  }
}
layer {
  name: "bn4_2"
  type: "BatchNorm"
  bottom: "conv4_2"
  top: "bn4_2"
  include {
    phase: TEST
  }
  batch_norm_param {
    use_global_stats: true
    moving_average_fraction: 0.95
  }
}
layer {
  name: "scale4_2"
  type: "Scale"
  bottom: "bn4_2"
  top: "scale4_2"
  scale_param {
    bias_term: true
  }
}
layer {
  name: "relu4_2"
  type: "ReLU"
  bottom: "scale4_2"
  top: "relu4_2"
}
layer {
  name: "pool4_2"
  type: "Pooling"
  bottom: "relu4_2"
  top: "pool4_2"
  pooling_param {
    pool: MAX
    kernel_size: 2
    stride: 2
  }
}
layer {
  name: "conv4_0"
  type: "Convolution"
  bottom: "pool4_2"
  top: "conv4_0"
  param {
    lr_mult: 1
  }
  convolution_param {
    num_output: 64
    bias_term: true
    pad: 1
    kernel_size: 3
    stride: 1
    weight_filler {
      type: "xavier"
    }
  }
}
layer {
  name: "bn4_0"
  type: "BatchNorm"
  bottom: "conv4_0"
  top: "bn4_0"
  include {
    phase: TEST
  }
  batch_norm_param {
    use_global_stats: true
    moving_average_fraction: 0.95
  }
}
layer {
  name: "scale4_0"
  type: "Scale"
  bottom: "bn4_0"
  top: "scale4_0"
  scale_param {
    bias_term: true
  }
}
layer {
  name: "relu4_0"
  type: "ReLU"
  bottom: "scale4_0"
  top: "relu4_0"
}
layer {
  name: "cccp4"
  type: "Convolution"
  bottom: "relu4_0"
  top: "cccp4"
  param {
    lr_mult: 1
    decay_mult: 1
  }
  param {
    lr_mult: 2
    decay_mult: 0
  }
  convolution_param {
    num_output: 64
    pad: 1
    kernel_size: 3
    weight_filler {
      type: "xavier"
    }
    bias_filler {
      type: "constant"
      value: 0
    }
  }
}
layer {
  name: "relu_cccp4"
  type: "ReLU"
  bottom: "cccp4"
  top: "cccp4"
}
layer {
  name: "cccp5"
  type: "Convolution"
  bottom: "cccp4"
  top: "cccp5"
  param {
    lr_mult: 1
    decay_mult: 1
  }
  param {
    lr_mult: 2
    decay_mult: 0
  }
  convolution_param {
    num_output: 64
    pad: 1
    kernel_size: 3
    weight_filler {
      type: "xavier"
    }
    bias_filler {
      type: "constant"
      value: 0
    }
  }
}
layer {
  name: "relu_cccp5"
  type: "ReLU"
  bottom: "cccp5"
  top: "cccp5"
}
layer {
  name: "poolcp5"
  type: "Pooling"
  bottom: "cccp5"
  top: "poolcp5"
  pooling_param {
    pool: MAX
    kernel_size: 2
    stride: 2
  }
}
layer {
  name: "cccp6"
  type: "Convolution"
  bottom: "poolcp5"
  top: "cccp6"
  param {
    lr_mult: 1
    decay_mult: 1
  }
  param {
    lr_mult: 2
    decay_mult: 0
  }
  convolution_param {
    num_output: 100
    kernel_size: 1
    group: 1
    weight_filler {
      type: "xavier"
    }
    bias_filler {
      type: "constant"
      value: 0
    }
  }
}
layer {
  name: "relu_cccp6"
  type: "ReLU"
  bottom: "cccp6"
  top: "cccp6"
}
layer {
  name: "poolcp6"
  type: "Pooling"
  bottom: "cccp6"
  top: "poolcp6"
  pooling_param {
    pool: MAX
    kernel_size: 2
    stride: 2
  }
}
layer {
  name: "ip1"
  type: "InnerProduct"
  bottom: "poolcp6"
  top: "ip1"
  param {
    lr_mult: 1
    decay_mult: 0
  }
  param {
    lr_mult: 2
    decay_mult: 0
  }
  inner_product_param {
    num_output: 10
    weight_filler {
      type: "xavier"
    }
    bias_filler {
      type: "constant"
    }
  }
}
layer {
  name: "accuracy"
  type: "Accuracy"
  bottom: "ip1"
  bottom: "label"
  top: "accuracy"
  include {
    phase: TEST
  }
}
layer {
  name: "loss"
  type: "SoftmaxWithLoss"
  bottom: "ip1"
  bottom: "label"
  top: "loss"
}
I0401 01:06:03.741358 11876 layer_factory.cpp:58] Creating layer cifar
I0401 01:06:03.742367 11876 net.cpp:100] Creating Layer cifar
I0401 01:06:03.742367 11876 net.cpp:408] cifar -> data
I0401 01:06:03.742367 11876 net.cpp:408] cifar -> label
I0401 01:06:03.744343 11704 common.cpp:36] System entropy source not available, using fallback algorithm to generate seed instead.
I0401 01:06:03.750344 11704 db_leveldb.cpp:18] Opened leveldb examples/cifar10/cifar10_test_leveldb_padding
I0401 01:06:03.751345 11876 data_layer.cpp:41] output data size: 50,3,32,32
I0401 01:06:03.756345 11876 net.cpp:150] Setting up cifar
I0401 01:06:03.756345 11876 net.cpp:157] Top shape: 50 3 32 32 (153600)
I0401 01:06:03.756345 11876 net.cpp:157] Top shape: 50 (50)
I0401 01:06:03.756345 11876 net.cpp:165] Memory required for data: 614600
I0401 01:06:03.756345 11876 layer_factory.cpp:58] Creating layer label_cifar_1_split
I0401 01:06:03.756345 11876 net.cpp:100] Creating Layer label_cifar_1_split
I0401 01:06:03.756345 11876 net.cpp:434] label_cifar_1_split <- label
I0401 01:06:03.756345 11876 net.cpp:408] label_cifar_1_split -> label_cifar_1_split_0
I0401 01:06:03.756345 11876 net.cpp:408] label_cifar_1_split -> label_cifar_1_split_1
I0401 01:06:03.756345 11876 net.cpp:150] Setting up label_cifar_1_split
I0401 01:06:03.756345 11876 net.cpp:157] Top shape: 50 (50)
I0401 01:06:03.756345 11876 net.cpp:157] Top shape: 50 (50)
I0401 01:06:03.756345 11876 net.cpp:165] Memory required for data: 615000
I0401 01:06:03.756345 11876 layer_factory.cpp:58] Creating layer conv1
I0401 01:06:03.756345 11876 net.cpp:100] Creating Layer conv1
I0401 01:06:03.756345 11876 net.cpp:434] conv1 <- data
I0401 01:06:03.756345 11876 net.cpp:408] conv1 -> conv1
I0401 01:06:03.757345 11980 common.cpp:36] System entropy source not available, using fallback algorithm to generate seed instead.
I0401 01:06:03.759346 11876 net.cpp:150] Setting up conv1
I0401 01:06:03.759346 11876 net.cpp:157] Top shape: 50 32 32 32 (1638400)
I0401 01:06:03.759346 11876 net.cpp:165] Memory required for data: 7168600
I0401 01:06:03.759346 11876 layer_factory.cpp:58] Creating layer bn1
I0401 01:06:03.759346 11876 net.cpp:100] Creating Layer bn1
I0401 01:06:03.759346 11876 net.cpp:434] bn1 <- conv1
I0401 01:06:03.759346 11876 net.cpp:408] bn1 -> bn1
I0401 01:06:03.760345 11876 net.cpp:150] Setting up bn1
I0401 01:06:03.760345 11876 net.cpp:157] Top shape: 50 32 32 32 (1638400)
I0401 01:06:03.760345 11876 net.cpp:165] Memory required for data: 13722200
I0401 01:06:03.760345 11876 layer_factory.cpp:58] Creating layer scale1
I0401 01:06:03.760345 11876 net.cpp:100] Creating Layer scale1
I0401 01:06:03.760345 11876 net.cpp:434] scale1 <- bn1
I0401 01:06:03.760345 11876 net.cpp:408] scale1 -> scale1
I0401 01:06:03.760345 11876 layer_factory.cpp:58] Creating layer scale1
I0401 01:06:03.760345 11876 net.cpp:150] Setting up scale1
I0401 01:06:03.760345 11876 net.cpp:157] Top shape: 50 32 32 32 (1638400)
I0401 01:06:03.760345 11876 net.cpp:165] Memory required for data: 20275800
I0401 01:06:03.760345 11876 layer_factory.cpp:58] Creating layer relu1
I0401 01:06:03.760345 11876 net.cpp:100] Creating Layer relu1
I0401 01:06:03.760345 11876 net.cpp:434] relu1 <- scale1
I0401 01:06:03.760345 11876 net.cpp:408] relu1 -> relu1
I0401 01:06:03.761345 11876 net.cpp:150] Setting up relu1
I0401 01:06:03.761345 11876 net.cpp:157] Top shape: 50 32 32 32 (1638400)
I0401 01:06:03.761345 11876 net.cpp:165] Memory required for data: 26829400
I0401 01:06:03.761345 11876 layer_factory.cpp:58] Creating layer conv1_0
I0401 01:06:03.761345 11876 net.cpp:100] Creating Layer conv1_0
I0401 01:06:03.761345 11876 net.cpp:434] conv1_0 <- relu1
I0401 01:06:03.761345 11876 net.cpp:408] conv1_0 -> conv1_0
I0401 01:06:03.764348 11876 net.cpp:150] Setting up conv1_0
I0401 01:06:03.765347 11876 net.cpp:157] Top shape: 50 32 32 32 (1638400)
I0401 01:06:03.765347 11876 net.cpp:165] Memory required for data: 33383000
I0401 01:06:03.765347 11876 layer_factory.cpp:58] Creating layer bn1_0
I0401 01:06:03.765347 11876 net.cpp:100] Creating Layer bn1_0
I0401 01:06:03.765347 11876 net.cpp:434] bn1_0 <- conv1_0
I0401 01:06:03.765347 11876 net.cpp:408] bn1_0 -> bn1_0
I0401 01:06:03.765347 11876 net.cpp:150] Setting up bn1_0
I0401 01:06:03.765347 11876 net.cpp:157] Top shape: 50 32 32 32 (1638400)
I0401 01:06:03.765347 11876 net.cpp:165] Memory required for data: 39936600
I0401 01:06:03.765347 11876 layer_factory.cpp:58] Creating layer scale1_0
I0401 01:06:03.765347 11876 net.cpp:100] Creating Layer scale1_0
I0401 01:06:03.765347 11876 net.cpp:434] scale1_0 <- bn1_0
I0401 01:06:03.765347 11876 net.cpp:408] scale1_0 -> scale1_0
I0401 01:06:03.765347 11876 layer_factory.cpp:58] Creating layer scale1_0
I0401 01:06:03.765347 11876 net.cpp:150] Setting up scale1_0
I0401 01:06:03.765347 11876 net.cpp:157] Top shape: 50 32 32 32 (1638400)
I0401 01:06:03.765347 11876 net.cpp:165] Memory required for data: 46490200
I0401 01:06:03.765347 11876 layer_factory.cpp:58] Creating layer relu1_0
I0401 01:06:03.765347 11876 net.cpp:100] Creating Layer relu1_0
I0401 01:06:03.765347 11876 net.cpp:434] relu1_0 <- scale1_0
I0401 01:06:03.765347 11876 net.cpp:408] relu1_0 -> relu1_0
I0401 01:06:03.766366 11876 net.cpp:150] Setting up relu1_0
I0401 01:06:03.766366 11876 net.cpp:157] Top shape: 50 32 32 32 (1638400)
I0401 01:06:03.766366 11876 net.cpp:165] Memory required for data: 53043800
I0401 01:06:03.766366 11876 layer_factory.cpp:58] Creating layer conv2
I0401 01:06:03.766366 11876 net.cpp:100] Creating Layer conv2
I0401 01:06:03.766366 11876 net.cpp:434] conv2 <- relu1_0
I0401 01:06:03.766366 11876 net.cpp:408] conv2 -> conv2
I0401 01:06:03.767366 11876 net.cpp:150] Setting up conv2
I0401 01:06:03.767366 11876 net.cpp:157] Top shape: 50 32 32 32 (1638400)
I0401 01:06:03.767366 11876 net.cpp:165] Memory required for data: 59597400
I0401 01:06:03.767366 11876 layer_factory.cpp:58] Creating layer bn2
I0401 01:06:03.767366 11876 net.cpp:100] Creating Layer bn2
I0401 01:06:03.767366 11876 net.cpp:434] bn2 <- conv2
I0401 01:06:03.767366 11876 net.cpp:408] bn2 -> bn2
I0401 01:06:03.768366 11876 net.cpp:150] Setting up bn2
I0401 01:06:03.768366 11876 net.cpp:157] Top shape: 50 32 32 32 (1638400)
I0401 01:06:03.768366 11876 net.cpp:165] Memory required for data: 66151000
I0401 01:06:03.768366 11876 layer_factory.cpp:58] Creating layer scale2
I0401 01:06:03.768366 11876 net.cpp:100] Creating Layer scale2
I0401 01:06:03.768366 11876 net.cpp:434] scale2 <- bn2
I0401 01:06:03.768366 11876 net.cpp:408] scale2 -> scale2
I0401 01:06:03.768366 11876 layer_factory.cpp:58] Creating layer scale2
I0401 01:06:03.768366 11876 net.cpp:150] Setting up scale2
I0401 01:06:03.768366 11876 net.cpp:157] Top shape: 50 32 32 32 (1638400)
I0401 01:06:03.768366 11876 net.cpp:165] Memory required for data: 72704600
I0401 01:06:03.768366 11876 layer_factory.cpp:58] Creating layer relu2
I0401 01:06:03.768366 11876 net.cpp:100] Creating Layer relu2
I0401 01:06:03.768366 11876 net.cpp:434] relu2 <- scale2
I0401 01:06:03.768366 11876 net.cpp:408] relu2 -> relu2
I0401 01:06:03.768366 11876 net.cpp:150] Setting up relu2
I0401 01:06:03.768366 11876 net.cpp:157] Top shape: 50 32 32 32 (1638400)
I0401 01:06:03.768366 11876 net.cpp:165] Memory required for data: 79258200
I0401 01:06:03.768366 11876 layer_factory.cpp:58] Creating layer conv2_1
I0401 01:06:03.768366 11876 net.cpp:100] Creating Layer conv2_1
I0401 01:06:03.768366 11876 net.cpp:434] conv2_1 <- relu2
I0401 01:06:03.768366 11876 net.cpp:408] conv2_1 -> conv2_1
I0401 01:06:03.770362 11876 net.cpp:150] Setting up conv2_1
I0401 01:06:03.770362 11876 net.cpp:157] Top shape: 50 32 32 32 (1638400)
I0401 01:06:03.770362 11876 net.cpp:165] Memory required for data: 85811800
I0401 01:06:03.770362 11876 layer_factory.cpp:58] Creating layer bn2_1
I0401 01:06:03.770362 11876 net.cpp:100] Creating Layer bn2_1
I0401 01:06:03.770362 11876 net.cpp:434] bn2_1 <- conv2_1
I0401 01:06:03.770362 11876 net.cpp:408] bn2_1 -> bn2_1
I0401 01:06:03.770362 11876 net.cpp:150] Setting up bn2_1
I0401 01:06:03.770362 11876 net.cpp:157] Top shape: 50 32 32 32 (1638400)
I0401 01:06:03.770362 11876 net.cpp:165] Memory required for data: 92365400
I0401 01:06:03.770362 11876 layer_factory.cpp:58] Creating layer scale2_1
I0401 01:06:03.770362 11876 net.cpp:100] Creating Layer scale2_1
I0401 01:06:03.770362 11876 net.cpp:434] scale2_1 <- bn2_1
I0401 01:06:03.770362 11876 net.cpp:408] scale2_1 -> scale2_1
I0401 01:06:03.770362 11876 layer_factory.cpp:58] Creating layer scale2_1
I0401 01:06:03.771355 11876 net.cpp:150] Setting up scale2_1
I0401 01:06:03.771355 11876 net.cpp:157] Top shape: 50 32 32 32 (1638400)
I0401 01:06:03.771355 11876 net.cpp:165] Memory required for data: 98919000
I0401 01:06:03.771355 11876 layer_factory.cpp:58] Creating layer relu2_1
I0401 01:06:03.771355 11876 net.cpp:100] Creating Layer relu2_1
I0401 01:06:03.771355 11876 net.cpp:434] relu2_1 <- scale2_1
I0401 01:06:03.771355 11876 net.cpp:408] relu2_1 -> relu2_1
I0401 01:06:03.771355 11876 net.cpp:150] Setting up relu2_1
I0401 01:06:03.772346 11876 net.cpp:157] Top shape: 50 32 32 32 (1638400)
I0401 01:06:03.772346 11876 net.cpp:165] Memory required for data: 105472600
I0401 01:06:03.772346 11876 layer_factory.cpp:58] Creating layer pool2_1
I0401 01:06:03.772346 11876 net.cpp:100] Creating Layer pool2_1
I0401 01:06:03.772346 11876 net.cpp:434] pool2_1 <- relu2_1
I0401 01:06:03.772346 11876 net.cpp:408] pool2_1 -> pool2_1
I0401 01:06:03.772346 11876 net.cpp:150] Setting up pool2_1
I0401 01:06:03.772346 11876 net.cpp:157] Top shape: 50 32 16 16 (409600)
I0401 01:06:03.772346 11876 net.cpp:165] Memory required for data: 107111000
I0401 01:06:03.772346 11876 layer_factory.cpp:58] Creating layer conv2_2
I0401 01:06:03.772346 11876 net.cpp:100] Creating Layer conv2_2
I0401 01:06:03.772346 11876 net.cpp:434] conv2_2 <- pool2_1
I0401 01:06:03.772346 11876 net.cpp:408] conv2_2 -> conv2_2
I0401 01:06:03.776881 11876 net.cpp:150] Setting up conv2_2
I0401 01:06:03.776881 11876 net.cpp:157] Top shape: 50 50 16 16 (640000)
I0401 01:06:03.776881 11876 net.cpp:165] Memory required for data: 109671000
I0401 01:06:03.776881 11876 layer_factory.cpp:58] Creating layer bn2_2
I0401 01:06:03.776881 11876 net.cpp:100] Creating Layer bn2_2
I0401 01:06:03.776881 11876 net.cpp:434] bn2_2 <- conv2_2
I0401 01:06:03.776881 11876 net.cpp:408] bn2_2 -> bn2_2
I0401 01:06:03.777365 11876 net.cpp:150] Setting up bn2_2
I0401 01:06:03.777365 11876 net.cpp:157] Top shape: 50 50 16 16 (640000)
I0401 01:06:03.777365 11876 net.cpp:165] Memory required for data: 112231000
I0401 01:06:03.777365 11876 layer_factory.cpp:58] Creating layer scale2_2
I0401 01:06:03.777365 11876 net.cpp:100] Creating Layer scale2_2
I0401 01:06:03.777365 11876 net.cpp:434] scale2_2 <- bn2_2
I0401 01:06:03.777365 11876 net.cpp:408] scale2_2 -> scale2_2
I0401 01:06:03.777365 11876 layer_factory.cpp:58] Creating layer scale2_2
I0401 01:06:03.777365 11876 net.cpp:150] Setting up scale2_2
I0401 01:06:03.777365 11876 net.cpp:157] Top shape: 50 50 16 16 (640000)
I0401 01:06:03.777365 11876 net.cpp:165] Memory required for data: 114791000
I0401 01:06:03.777365 11876 layer_factory.cpp:58] Creating layer relu2_2
I0401 01:06:03.777365 11876 net.cpp:100] Creating Layer relu2_2
I0401 01:06:03.777365 11876 net.cpp:434] relu2_2 <- scale2_2
I0401 01:06:03.777365 11876 net.cpp:408] relu2_2 -> relu2_2
I0401 01:06:03.778369 11876 net.cpp:150] Setting up relu2_2
I0401 01:06:03.778369 11876 net.cpp:157] Top shape: 50 50 16 16 (640000)
I0401 01:06:03.778369 11876 net.cpp:165] Memory required for data: 117351000
I0401 01:06:03.778369 11876 layer_factory.cpp:58] Creating layer conv3
I0401 01:06:03.778369 11876 net.cpp:100] Creating Layer conv3
I0401 01:06:03.778369 11876 net.cpp:434] conv3 <- relu2_2
I0401 01:06:03.778369 11876 net.cpp:408] conv3 -> conv3
I0401 01:06:03.788365 11876 net.cpp:150] Setting up conv3
I0401 01:06:03.788365 11876 net.cpp:157] Top shape: 50 64 16 16 (819200)
I0401 01:06:03.788365 11876 net.cpp:165] Memory required for data: 120627800
I0401 01:06:03.788866 11876 layer_factory.cpp:58] Creating layer bn3
I0401 01:06:03.788866 11876 net.cpp:100] Creating Layer bn3
I0401 01:06:03.788866 11876 net.cpp:434] bn3 <- conv3
I0401 01:06:03.788866 11876 net.cpp:408] bn3 -> bn3
I0401 01:06:03.788866 11876 net.cpp:150] Setting up bn3
I0401 01:06:03.788866 11876 net.cpp:157] Top shape: 50 64 16 16 (819200)
I0401 01:06:03.788866 11876 net.cpp:165] Memory required for data: 123904600
I0401 01:06:03.788866 11876 layer_factory.cpp:58] Creating layer scale3
I0401 01:06:03.788866 11876 net.cpp:100] Creating Layer scale3
I0401 01:06:03.788866 11876 net.cpp:434] scale3 <- bn3
I0401 01:06:03.788866 11876 net.cpp:408] scale3 -> scale3
I0401 01:06:03.788866 11876 layer_factory.cpp:58] Creating layer scale3
I0401 01:06:03.789366 11876 net.cpp:150] Setting up scale3
I0401 01:06:03.789366 11876 net.cpp:157] Top shape: 50 64 16 16 (819200)
I0401 01:06:03.789366 11876 net.cpp:165] Memory required for data: 127181400
I0401 01:06:03.789366 11876 layer_factory.cpp:58] Creating layer relu3
I0401 01:06:03.789366 11876 net.cpp:100] Creating Layer relu3
I0401 01:06:03.789366 11876 net.cpp:434] relu3 <- scale3
I0401 01:06:03.789366 11876 net.cpp:408] relu3 -> relu3
I0401 01:06:03.789865 11876 net.cpp:150] Setting up relu3
I0401 01:06:03.789865 11876 net.cpp:157] Top shape: 50 64 16 16 (819200)
I0401 01:06:03.789865 11876 net.cpp:165] Memory required for data: 130458200
I0401 01:06:03.789865 11876 layer_factory.cpp:58] Creating layer conv4
I0401 01:06:03.789865 11876 net.cpp:100] Creating Layer conv4
I0401 01:06:03.789865 11876 net.cpp:434] conv4 <- relu3
I0401 01:06:03.789865 11876 net.cpp:408] conv4 -> conv4
I0401 01:06:03.791885 11876 net.cpp:150] Setting up conv4
I0401 01:06:03.791885 11876 net.cpp:157] Top shape: 50 64 16 16 (819200)
I0401 01:06:03.791885 11876 net.cpp:165] Memory required for data: 133735000
I0401 01:06:03.791885 11876 layer_factory.cpp:58] Creating layer pool4
I0401 01:06:03.791885 11876 net.cpp:100] Creating Layer pool4
I0401 01:06:03.791885 11876 net.cpp:434] pool4 <- conv4
I0401 01:06:03.791885 11876 net.cpp:408] pool4 -> pool4
I0401 01:06:03.791885 11876 net.cpp:150] Setting up pool4
I0401 01:06:03.791885 11876 net.cpp:157] Top shape: 50 64 8 8 (204800)
I0401 01:06:03.791885 11876 net.cpp:165] Memory required for data: 134554200
I0401 01:06:03.791885 11876 layer_factory.cpp:58] Creating layer bn4
I0401 01:06:03.791885 11876 net.cpp:100] Creating Layer bn4
I0401 01:06:03.791885 11876 net.cpp:434] bn4 <- pool4
I0401 01:06:03.791885 11876 net.cpp:408] bn4 -> bn4
I0401 01:06:03.792385 11876 net.cpp:150] Setting up bn4
I0401 01:06:03.792385 11876 net.cpp:157] Top shape: 50 64 8 8 (204800)
I0401 01:06:03.792385 11876 net.cpp:165] Memory required for data: 135373400
I0401 01:06:03.792385 11876 layer_factory.cpp:58] Creating layer scale4
I0401 01:06:03.792385 11876 net.cpp:100] Creating Layer scale4
I0401 01:06:03.792385 11876 net.cpp:434] scale4 <- bn4
I0401 01:06:03.792385 11876 net.cpp:408] scale4 -> scale4
I0401 01:06:03.792385 11876 layer_factory.cpp:58] Creating layer scale4
I0401 01:06:03.792385 11876 net.cpp:150] Setting up scale4
I0401 01:06:03.792385 11876 net.cpp:157] Top shape: 50 64 8 8 (204800)
I0401 01:06:03.792385 11876 net.cpp:165] Memory required for data: 136192600
I0401 01:06:03.792385 11876 layer_factory.cpp:58] Creating layer relu4
I0401 01:06:03.792385 11876 net.cpp:100] Creating Layer relu4
I0401 01:06:03.792385 11876 net.cpp:434] relu4 <- scale4
I0401 01:06:03.792385 11876 net.cpp:408] relu4 -> relu4
I0401 01:06:03.792385 11876 net.cpp:150] Setting up relu4
I0401 01:06:03.792385 11876 net.cpp:157] Top shape: 50 64 8 8 (204800)
I0401 01:06:03.792385 11876 net.cpp:165] Memory required for data: 137011800
I0401 01:06:03.792385 11876 layer_factory.cpp:58] Creating layer conv4_1
I0401 01:06:03.792385 11876 net.cpp:100] Creating Layer conv4_1
I0401 01:06:03.792385 11876 net.cpp:434] conv4_1 <- relu4
I0401 01:06:03.792385 11876 net.cpp:408] conv4_1 -> conv4_1
I0401 01:06:03.794391 11876 net.cpp:150] Setting up conv4_1
I0401 01:06:03.794391 11876 net.cpp:157] Top shape: 50 64 8 8 (204800)
I0401 01:06:03.794391 11876 net.cpp:165] Memory required for data: 137831000
I0401 01:06:03.794391 11876 layer_factory.cpp:58] Creating layer bn4_1
I0401 01:06:03.794391 11876 net.cpp:100] Creating Layer bn4_1
I0401 01:06:03.794391 11876 net.cpp:434] bn4_1 <- conv4_1
I0401 01:06:03.794391 11876 net.cpp:408] bn4_1 -> bn4_1
I0401 01:06:03.795408 11876 net.cpp:150] Setting up bn4_1
I0401 01:06:03.795408 11876 net.cpp:157] Top shape: 50 64 8 8 (204800)
I0401 01:06:03.795408 11876 net.cpp:165] Memory required for data: 138650200
I0401 01:06:03.795408 11876 layer_factory.cpp:58] Creating layer scale4_1
I0401 01:06:03.795408 11876 net.cpp:100] Creating Layer scale4_1
I0401 01:06:03.795408 11876 net.cpp:434] scale4_1 <- bn4_1
I0401 01:06:03.795408 11876 net.cpp:408] scale4_1 -> scale4_1
I0401 01:06:03.795408 11876 layer_factory.cpp:58] Creating layer scale4_1
I0401 01:06:03.795408 11876 net.cpp:150] Setting up scale4_1
I0401 01:06:03.795408 11876 net.cpp:157] Top shape: 50 64 8 8 (204800)
I0401 01:06:03.795408 11876 net.cpp:165] Memory required for data: 139469400
I0401 01:06:03.795408 11876 layer_factory.cpp:58] Creating layer relu4_1
I0401 01:06:03.795408 11876 net.cpp:100] Creating Layer relu4_1
I0401 01:06:03.795408 11876 net.cpp:434] relu4_1 <- scale4_1
I0401 01:06:03.795408 11876 net.cpp:408] relu4_1 -> relu4_1
I0401 01:06:03.796407 11876 net.cpp:150] Setting up relu4_1
I0401 01:06:03.796407 11876 net.cpp:157] Top shape: 50 64 8 8 (204800)
I0401 01:06:03.796407 11876 net.cpp:165] Memory required for data: 140288600
I0401 01:06:03.796407 11876 layer_factory.cpp:58] Creating layer conv4_2
I0401 01:06:03.796407 11876 net.cpp:100] Creating Layer conv4_2
I0401 01:06:03.796407 11876 net.cpp:434] conv4_2 <- relu4_1
I0401 01:06:03.796407 11876 net.cpp:408] conv4_2 -> conv4_2
I0401 01:06:03.798391 11876 net.cpp:150] Setting up conv4_2
I0401 01:06:03.798391 11876 net.cpp:157] Top shape: 50 64 8 8 (204800)
I0401 01:06:03.798391 11876 net.cpp:165] Memory required for data: 141107800
I0401 01:06:03.798391 11876 layer_factory.cpp:58] Creating layer bn4_2
I0401 01:06:03.798391 11876 net.cpp:100] Creating Layer bn4_2
I0401 01:06:03.798391 11876 net.cpp:434] bn4_2 <- conv4_2
I0401 01:06:03.798391 11876 net.cpp:408] bn4_2 -> bn4_2
I0401 01:06:03.798391 11876 net.cpp:150] Setting up bn4_2
I0401 01:06:03.798391 11876 net.cpp:157] Top shape: 50 64 8 8 (204800)
I0401 01:06:03.798391 11876 net.cpp:165] Memory required for data: 141927000
I0401 01:06:03.798391 11876 layer_factory.cpp:58] Creating layer scale4_2
I0401 01:06:03.798391 11876 net.cpp:100] Creating Layer scale4_2
I0401 01:06:03.798391 11876 net.cpp:434] scale4_2 <- bn4_2
I0401 01:06:03.798391 11876 net.cpp:408] scale4_2 -> scale4_2
I0401 01:06:03.798391 11876 layer_factory.cpp:58] Creating layer scale4_2
I0401 01:06:03.798391 11876 net.cpp:150] Setting up scale4_2
I0401 01:06:03.798391 11876 net.cpp:157] Top shape: 50 64 8 8 (204800)
I0401 01:06:03.798391 11876 net.cpp:165] Memory required for data: 142746200
I0401 01:06:03.798391 11876 layer_factory.cpp:58] Creating layer relu4_2
I0401 01:06:03.798391 11876 net.cpp:100] Creating Layer relu4_2
I0401 01:06:03.798391 11876 net.cpp:434] relu4_2 <- scale4_2
I0401 01:06:03.798391 11876 net.cpp:408] relu4_2 -> relu4_2
I0401 01:06:03.798391 11876 net.cpp:150] Setting up relu4_2
I0401 01:06:03.798391 11876 net.cpp:157] Top shape: 50 64 8 8 (204800)
I0401 01:06:03.798391 11876 net.cpp:165] Memory required for data: 143565400
I0401 01:06:03.798391 11876 layer_factory.cpp:58] Creating layer pool4_2
I0401 01:06:03.798391 11876 net.cpp:100] Creating Layer pool4_2
I0401 01:06:03.798391 11876 net.cpp:434] pool4_2 <- relu4_2
I0401 01:06:03.798391 11876 net.cpp:408] pool4_2 -> pool4_2
I0401 01:06:03.799407 11876 net.cpp:150] Setting up pool4_2
I0401 01:06:03.799407 11876 net.cpp:157] Top shape: 50 64 4 4 (51200)
I0401 01:06:03.799407 11876 net.cpp:165] Memory required for data: 143770200
I0401 01:06:03.799407 11876 layer_factory.cpp:58] Creating layer conv4_0
I0401 01:06:03.799407 11876 net.cpp:100] Creating Layer conv4_0
I0401 01:06:03.799407 11876 net.cpp:434] conv4_0 <- pool4_2
I0401 01:06:03.799407 11876 net.cpp:408] conv4_0 -> conv4_0
I0401 01:06:03.802392 11876 net.cpp:150] Setting up conv4_0
I0401 01:06:03.802392 11876 net.cpp:157] Top shape: 50 64 4 4 (51200)
I0401 01:06:03.802392 11876 net.cpp:165] Memory required for data: 143975000
I0401 01:06:03.802392 11876 layer_factory.cpp:58] Creating layer bn4_0
I0401 01:06:03.802392 11876 net.cpp:100] Creating Layer bn4_0
I0401 01:06:03.802392 11876 net.cpp:434] bn4_0 <- conv4_0
I0401 01:06:03.802392 11876 net.cpp:408] bn4_0 -> bn4_0
I0401 01:06:03.802392 11876 net.cpp:150] Setting up bn4_0
I0401 01:06:03.802392 11876 net.cpp:157] Top shape: 50 64 4 4 (51200)
I0401 01:06:03.802392 11876 net.cpp:165] Memory required for data: 144179800
I0401 01:06:03.802392 11876 layer_factory.cpp:58] Creating layer scale4_0
I0401 01:06:03.802392 11876 net.cpp:100] Creating Layer scale4_0
I0401 01:06:03.802392 11876 net.cpp:434] scale4_0 <- bn4_0
I0401 01:06:03.802392 11876 net.cpp:408] scale4_0 -> scale4_0
I0401 01:06:03.802392 11876 layer_factory.cpp:58] Creating layer scale4_0
I0401 01:06:03.802392 11876 net.cpp:150] Setting up scale4_0
I0401 01:06:03.802392 11876 net.cpp:157] Top shape: 50 64 4 4 (51200)
I0401 01:06:03.802392 11876 net.cpp:165] Memory required for data: 144384600
I0401 01:06:03.802392 11876 layer_factory.cpp:58] Creating layer relu4_0
I0401 01:06:03.802392 11876 net.cpp:100] Creating Layer relu4_0
I0401 01:06:03.802392 11876 net.cpp:434] relu4_0 <- scale4_0
I0401 01:06:03.802392 11876 net.cpp:408] relu4_0 -> relu4_0
I0401 01:06:03.805392 11876 net.cpp:150] Setting up relu4_0
I0401 01:06:03.805392 11876 net.cpp:157] Top shape: 50 64 4 4 (51200)
I0401 01:06:03.805392 11876 net.cpp:165] Memory required for data: 144589400
I0401 01:06:03.805392 11876 layer_factory.cpp:58] Creating layer cccp4
I0401 01:06:03.805392 11876 net.cpp:100] Creating Layer cccp4
I0401 01:06:03.805392 11876 net.cpp:434] cccp4 <- relu4_0
I0401 01:06:03.805392 11876 net.cpp:408] cccp4 -> cccp4
I0401 01:06:03.809392 11876 net.cpp:150] Setting up cccp4
I0401 01:06:03.810395 11876 net.cpp:157] Top shape: 50 64 4 4 (51200)
I0401 01:06:03.810395 11876 net.cpp:165] Memory required for data: 144794200
I0401 01:06:03.810395 11876 layer_factory.cpp:58] Creating layer relu_cccp4
I0401 01:06:03.810395 11876 net.cpp:100] Creating Layer relu_cccp4
I0401 01:06:03.810395 11876 net.cpp:434] relu_cccp4 <- cccp4
I0401 01:06:03.810395 11876 net.cpp:395] relu_cccp4 -> cccp4 (in-place)
I0401 01:06:03.812391 11876 net.cpp:150] Setting up relu_cccp4
I0401 01:06:03.812391 11876 net.cpp:157] Top shape: 50 64 4 4 (51200)
I0401 01:06:03.812391 11876 net.cpp:165] Memory required for data: 144999000
I0401 01:06:03.812391 11876 layer_factory.cpp:58] Creating layer cccp5
I0401 01:06:03.812391 11876 net.cpp:100] Creating Layer cccp5
I0401 01:06:03.812391 11876 net.cpp:434] cccp5 <- cccp4
I0401 01:06:03.812391 11876 net.cpp:408] cccp5 -> cccp5
I0401 01:06:03.819394 11876 net.cpp:150] Setting up cccp5
I0401 01:06:03.819394 11876 net.cpp:157] Top shape: 50 64 4 4 (51200)
I0401 01:06:03.819394 11876 net.cpp:165] Memory required for data: 145203800
I0401 01:06:03.819394 11876 layer_factory.cpp:58] Creating layer relu_cccp5
I0401 01:06:03.819394 11876 net.cpp:100] Creating Layer relu_cccp5
I0401 01:06:03.819394 11876 net.cpp:434] relu_cccp5 <- cccp5
I0401 01:06:03.819394 11876 net.cpp:395] relu_cccp5 -> cccp5 (in-place)
I0401 01:06:03.819394 11876 net.cpp:150] Setting up relu_cccp5
I0401 01:06:03.819394 11876 net.cpp:157] Top shape: 50 64 4 4 (51200)
I0401 01:06:03.819394 11876 net.cpp:165] Memory required for data: 145408600
I0401 01:06:03.819394 11876 layer_factory.cpp:58] Creating layer poolcp5
I0401 01:06:03.819394 11876 net.cpp:100] Creating Layer poolcp5
I0401 01:06:03.819394 11876 net.cpp:434] poolcp5 <- cccp5
I0401 01:06:03.819394 11876 net.cpp:408] poolcp5 -> poolcp5
I0401 01:06:03.819394 11876 net.cpp:150] Setting up poolcp5
I0401 01:06:03.820394 11876 net.cpp:157] Top shape: 50 64 2 2 (12800)
I0401 01:06:03.820394 11876 net.cpp:165] Memory required for data: 145459800
I0401 01:06:03.820394 11876 layer_factory.cpp:58] Creating layer cccp6
I0401 01:06:03.820394 11876 net.cpp:100] Creating Layer cccp6
I0401 01:06:03.820394 11876 net.cpp:434] cccp6 <- poolcp5
I0401 01:06:03.820394 11876 net.cpp:408] cccp6 -> cccp6
I0401 01:06:03.822394 11876 net.cpp:150] Setting up cccp6
I0401 01:06:03.822394 11876 net.cpp:157] Top shape: 50 100 2 2 (20000)
I0401 01:06:03.822394 11876 net.cpp:165] Memory required for data: 145539800
I0401 01:06:03.822394 11876 layer_factory.cpp:58] Creating layer relu_cccp6
I0401 01:06:03.822394 11876 net.cpp:100] Creating Layer relu_cccp6
I0401 01:06:03.822394 11876 net.cpp:434] relu_cccp6 <- cccp6
I0401 01:06:03.822394 11876 net.cpp:395] relu_cccp6 -> cccp6 (in-place)
I0401 01:06:03.822394 11876 net.cpp:150] Setting up relu_cccp6
I0401 01:06:03.822394 11876 net.cpp:157] Top shape: 50 100 2 2 (20000)
I0401 01:06:03.822394 11876 net.cpp:165] Memory required for data: 145619800
I0401 01:06:03.822394 11876 layer_factory.cpp:58] Creating layer poolcp6
I0401 01:06:03.822394 11876 net.cpp:100] Creating Layer poolcp6
I0401 01:06:03.822394 11876 net.cpp:434] poolcp6 <- cccp6
I0401 01:06:03.822394 11876 net.cpp:408] poolcp6 -> poolcp6
I0401 01:06:03.823395 11876 net.cpp:150] Setting up poolcp6
I0401 01:06:03.823395 11876 net.cpp:157] Top shape: 50 100 1 1 (5000)
I0401 01:06:03.823395 11876 net.cpp:165] Memory required for data: 145639800
I0401 01:06:03.823395 11876 layer_factory.cpp:58] Creating layer ip1
I0401 01:06:03.823395 11876 net.cpp:100] Creating Layer ip1
I0401 01:06:03.823395 11876 net.cpp:434] ip1 <- poolcp6
I0401 01:06:03.823395 11876 net.cpp:408] ip1 -> ip1
I0401 01:06:03.823395 11876 net.cpp:150] Setting up ip1
I0401 01:06:03.823395 11876 net.cpp:157] Top shape: 50 10 (500)
I0401 01:06:03.823395 11876 net.cpp:165] Memory required for data: 145641800
I0401 01:06:03.823395 11876 layer_factory.cpp:58] Creating layer ip1_ip1_0_split
I0401 01:06:03.823395 11876 net.cpp:100] Creating Layer ip1_ip1_0_split
I0401 01:06:03.823395 11876 net.cpp:434] ip1_ip1_0_split <- ip1
I0401 01:06:03.823395 11876 net.cpp:408] ip1_ip1_0_split -> ip1_ip1_0_split_0
I0401 01:06:03.823395 11876 net.cpp:408] ip1_ip1_0_split -> ip1_ip1_0_split_1
I0401 01:06:03.823395 11876 net.cpp:150] Setting up ip1_ip1_0_split
I0401 01:06:03.823395 11876 net.cpp:157] Top shape: 50 10 (500)
I0401 01:06:03.823395 11876 net.cpp:157] Top shape: 50 10 (500)
I0401 01:06:03.823395 11876 net.cpp:165] Memory required for data: 145645800
I0401 01:06:03.823395 11876 layer_factory.cpp:58] Creating layer accuracy
I0401 01:06:03.823395 11876 net.cpp:100] Creating Layer accuracy
I0401 01:06:03.823395 11876 net.cpp:434] accuracy <- ip1_ip1_0_split_0
I0401 01:06:03.823395 11876 net.cpp:434] accuracy <- label_cifar_1_split_0
I0401 01:06:03.823395 11876 net.cpp:408] accuracy -> accuracy
…
