…
I0506 19:37:40.674278  5896 net.cpp:294] The NetState phase (0) differed from the phase (1) specified by a rule in layer accuracy
I0506 19:37:40.674278  5896 net.cpp:51] Initializing net from parameters: 
name: "CIFAR10_SimpleNet"
state {
  phase: TRAIN
  level: 0
  stage: ""
}
layer {
  name: "cifar"
  type: "Data"
  top: "data"
  top: "label"
  include {
    phase: TRAIN
  }
  transform_param {
    mirror: true
    crop_size: 32
  }
  data_param {
    source: "examples/cifar10/cifar10_train_leveldb_padding"
    batch_size: 100
    backend: LEVELDB
  }
}
layer {
  name: "conv1"
  type: "Convolution"
  bottom: "data"
  top: "conv1"
  param {
    lr_mult: 1
  }
  convolution_param {
    num_output: 32
    bias_term: true
    pad: 1
    kernel_size: 3
    stride: 1
    weight_filler {
      type: "xavier"
    }
  }
}
layer {
  name: "bn1"
  type: "BatchNorm"
  bottom: "conv1"
  top: "bn1"
  param {
    lr_mult: 0
    decay_mult: 0
  }
  param {
    lr_mult: 0
    decay_mult: 0
  }
  param {
    lr_mult: 0
    decay_mult: 0
  }
  include {
    phase: TRAIN
  }
  batch_norm_param {
    use_global_stats: false
    moving_average_fraction: 0.95
  }
}
layer {
  name: "scale1"
  type: "Scale"
  bottom: "bn1"
  top: "scale1"
  scale_param {
    bias_term: true
  }
}
layer {
  name: "relu1"
  type: "ReLU"
  bottom: "scale1"
  top: "relu1"
}
layer {
  name: "conv1_0"
  type: "Convolution"
  bottom: "relu1"
  top: "conv1_0"
  param {
    lr_mult: 1
  }
  convolution_param {
    num_output: 32
    bias_term: true
    pad: 1
    kernel_size: 3
    stride: 1
    weight_filler {
      type: "xavier"
    }
  }
}
layer {
  name: "bn1_0"
  type: "BatchNorm"
  bottom: "conv1_0"
  top: "bn1_0"
  param {
    lr_mult: 0
    decay_mult: 0
  }
  param {
    lr_mult: 0
    decay_mult: 0
  }
  param {
    lr_mult: 0
    decay_mult: 0
  }
  include {
    phase: TRAIN
  }
  batch_norm_param {
    use_global_stats: false
    moving_average_fraction: 0.95
  }
}
layer {
  name: "scale1_0"
  type: "Scale"
  bottom: "bn1_0"
  top: "scale1_0"
  scale_param {
    bias_term: true
  }
}
layer {
  name: "relu1_0"
  type: "ReLU"
  bottom: "scale1_0"
  top: "relu1_0"
}
layer {
  name: "conv2"
  type: "Convolution"
  bottom: "relu1_0"
  top: "conv2"
  param {
    lr_mult: 1
  }
  convolution_param {
    num_output: 32
    bias_term: true
    pad: 1
    kernel_size: 3
    stride: 1
    weight_filler {
      type: "gaussian"
      std: 0.01
    }
  }
}
layer {
  name: "bn2"
  type: "BatchNorm"
  bottom: "conv2"
  top: "bn2"
  param {
    lr_mult: 0
    decay_mult: 0
  }
  param {
    lr_mult: 0
    decay_mult: 0
  }
  param {
    lr_mult: 0
    decay_mult: 0
  }
  include {
    phase: TRAIN
  }
  batch_norm_param {
    use_global_stats: false
    moving_average_fraction: 0.95
  }
}
layer {
  name: "scale2"
  type: "Scale"
  bottom: "bn2"
  top: "scale2"
  scale_param {
    bias_term: true
  }
}
layer {
  name: "relu2"
  type: "ReLU"
  bottom: "scale2"
  top: "relu2"
}
layer {
  name: "conv2_1"
  type: "Convolution"
  bottom: "relu2"
  top: "conv2_1"
  param {
    lr_mult: 1
  }
  convolution_param {
    num_output: 64
    bias_term: true
    pad: 1
    kernel_size: 3
    stride: 1
    weight_filler {
      type: "gaussian"
      std: 0.01
    }
  }
}
layer {
  name: "bn2_1"
  type: "BatchNorm"
  bottom: "conv2_1"
  top: "bn2_1"
  param {
    lr_mult: 0
    decay_mult: 0
  }
  param {
    lr_mult: 0
    decay_mult: 0
  }
  param {
    lr_mult: 0
    decay_mult: 0
  }
  include {
    phase: TRAIN
  }
  batch_norm_param {
    use_global_stats: false
    moving_average_fraction: 0.95
  }
}
layer {
  name: "scale2_1"
  type: "Scale"
  bottom: "bn2_1"
  top: "scale2_1"
  scale_param {
    bias_term: true
  }
}
layer {
  name: "relu2_1"
  type: "ReLU"
  bottom: "scale2_1"
  top: "relu2_1"
}
layer {
  name: "pool2_1"
  type: "Pooling"
  bottom: "relu2_1"
  top: "pool2_1"
  pooling_param {
    pool: MAX
    kernel_size: 2
    stride: 2
  }
}
layer {
  name: "conv2_2"
  type: "Convolution"
  bottom: "pool2_1"
  top: "conv2_2"
  param {
    lr_mult: 1
  }
  convolution_param {
    num_output: 64
    bias_term: true
    pad: 1
    kernel_size: 3
    stride: 1
    weight_filler {
      type: "gaussian"
      std: 0.01
    }
  }
}
layer {
  name: "bn2_2"
  type: "BatchNorm"
  bottom: "conv2_2"
  top: "bn2_2"
  param {
    lr_mult: 0
    decay_mult: 0
  }
  param {
    lr_mult: 0
    decay_mult: 0
  }
  param {
    lr_mult: 0
    decay_mult: 0
  }
  include {
    phase: TRAIN
  }
  batch_norm_param {
    use_global_stats: false
    moving_average_fraction: 0.95
  }
}
layer {
  name: "scale2_2"
  type: "Scale"
  bottom: "bn2_2"
  top: "scale2_2"
  scale_param {
    bias_term: true
  }
}
layer {
  name: "relu2_2"
  type: "ReLU"
  bottom: "scale2_2"
  top: "relu2_2"
}
layer {
  name: "conv3"
  type: "Convolution"
  bottom: "relu2_2"
  top: "conv3"
  param {
    lr_mult: 1
  }
  convolution_param {
    num_output: 64
    bias_term: true
    pad: 1
    kernel_size: 3
    stride: 1
    weight_filler {
      type: "xavier"
    }
  }
}
layer {
  name: "bn3"
  type: "BatchNorm"
  bottom: "conv3"
  top: "bn3"
  param {
    lr_mult: 0
    decay_mult: 0
  }
  param {
    lr_mult: 0
    decay_mult: 0
  }
  param {
    lr_mult: 0
    decay_mult: 0
  }
  include {
    phase: TRAIN
  }
  batch_norm_param {
    use_global_stats: false
    moving_average_fraction: 0.95
  }
}
layer {
  name: "scale3"
  type: "Scale"
  bottom: "bn3"
  top: "scale3"
  scale_param {
    bias_term: true
  }
}
layer {
  name: "relu3"
  type: "ReLU"
  bottom: "scale3"
  top: "relu3"
}
layer {
  name: "conv4"
  type: "Convolution"
  bottom: "relu3"
  top: "conv4"
  param {
    lr_mult: 1
  }
  convolution_param {
    num_output: 64
    bias_term: true
    pad: 1
    kernel_size: 3
    stride: 1
    weight_filler {
      type: "xavier"
    }
  }
}
layer {
  name: "pool4"
  type: "Pooling"
  bottom: "conv4"
  top: "pool4"
  pooling_param {
    pool: MAX
    kernel_size: 2
    stride: 2
  }
}
layer {
  name: "bn4"
  type: "BatchNorm"
  bottom: "pool4"
  top: "bn4"
  param {
    lr_mult: 0
    decay_mult: 0
  }
  param {
    lr_mult: 0
    decay_mult: 0
  }
  param {
    lr_mult: 0
    decay_mult: 0
  }
  include {
    phase: TRAIN
  }
  batch_norm_param {
    use_global_stats: false
    moving_average_fraction: 0.95
  }
}
layer {
  name: "scale4"
  type: "Scale"
  bottom: "bn4"
  top: "scale4"
  scale_param {
    bias_term: true
  }
}
layer {
  name: "relu4"
  type: "ReLU"
  bottom: "scale4"
  top: "relu4"
}
layer {
  name: "conv4_1"
  type: "Convolution"
  bottom: "relu4"
  top: "conv4_1"
  param {
    lr_mult: 1
  }
  convolution_param {
    num_output: 64
    bias_term: true
    pad: 1
    kernel_size: 3
    stride: 1
    weight_filler {
      type: "xavier"
    }
  }
}
layer {
  name: "bn4_1"
  type: "BatchNorm"
  bottom: "conv4_1"
  top: "bn4_1"
  param {
    lr_mult: 0
    decay_mult: 0
  }
  param {
    lr_mult: 0
    decay_mult: 0
  }
  param {
    lr_mult: 0
    decay_mult: 0
  }
  include {
    phase: TRAIN
  }
  batch_norm_param {
    use_global_stats: false
    moving_average_fraction: 0.95
  }
}
layer {
  name: "scale4_1"
  type: "Scale"
  bottom: "bn4_1"
  top: "scale4_1"
  scale_param {
    bias_term: true
  }
}
layer {
  name: "relu4_1"
  type: "ReLU"
  bottom: "scale4_1"
  top: "relu4_1"
}
layer {
  name: "conv4_2"
  type: "Convolution"
  bottom: "relu4_1"
  top: "conv4_2"
  param {
    lr_mult: 1
  }
  convolution_param {
    num_output: 64
    bias_term: true
    pad: 1
    kernel_size: 3
    stride: 1
    weight_filler {
      type: "xavier"
    }
  }
}
layer {
  name: "bn4_2"
  type: "BatchNorm"
  bottom: "conv4_2"
  top: "bn4_2"
  param {
    lr_mult: 0
    decay_mult: 0
  }
  param {
    lr_mult: 0
    decay_mult: 0
  }
  param {
    lr_mult: 0
    decay_mult: 0
  }
  include {
    phase: TRAIN
  }
  batch_norm_param {
    use_global_stats: false
    moving_average_fraction: 0.95
  }
}
layer {
  name: "scale4_2"
  type: "Scale"
  bottom: "bn4_2"
  top: "scale4_2"
  scale_param {
    bias_term: true
  }
}
layer {
  name: "relu4_2"
  type: "ReLU"
  bottom: "scale4_2"
  top: "relu4_2"
}
layer {
  name: "pool4_2"
  type: "Pooling"
  bottom: "relu4_2"
  top: "pool4_2"
  pooling_param {
    pool: MAX
    kernel_size: 2
    stride: 2
  }
}
layer {
  name: "conv4_0"
  type: "Convolution"
  bottom: "pool4_2"
  top: "conv4_0"
  param {
    lr_mult: 1
  }
  convolution_param {
    num_output: 96
    bias_term: true
    pad: 1
    kernel_size: 3
    stride: 1
    weight_filler {
      type: "xavier"
    }
  }
}
layer {
  name: "bn4_0"
  type: "BatchNorm"
  bottom: "conv4_0"
  top: "bn4_0"
  param {
    lr_mult: 0
    decay_mult: 0
  }
  param {
    lr_mult: 0
    decay_mult: 0
  }
  param {
    lr_mult: 0
    decay_mult: 0
  }
  include {
    phase: TRAIN
  }
  batch_norm_param {
    use_global_stats: false
    moving_average_fraction: 0.95
  }
}
layer {
  name: "scale4_0"
  type: "Scale"
  bottom: "bn4_0"
  top: "scale4_0"
  scale_param {
    bias_term: true
  }
}
layer {
  name: "relu4_0"
  type: "ReLU"
  bottom: "scale4_0"
  top: "relu4_0"
}
layer {
  name: "cccp4"
  type: "Convolution"
  bottom: "relu4_0"
  top: "cccp4"
  param {
    lr_mult: 1
    decay_mult: 1
  }
  param {
    lr_mult: 2
    decay_mult: 0
  }
  convolution_param {
    num_output: 96
    pad: 1
    kernel_size: 3
    weight_filler {
      type: "xavier"
    }
    bias_filler {
      type: "constant"
      value: 0
    }
  }
}
layer {
  name: "relu_cccp4"
  type: "ReLU"
  bottom: "cccp4"
  top: "cccp4"
}
layer {
  name: "cccp5"
  type: "Convolution"
  bottom: "cccp4"
  top: "cccp5"
  param {
    lr_mult: 1
    decay_mult: 1
  }
  param {
    lr_mult: 2
    decay_mult: 0
  }
  convolution_param {
    num_output: 96
    pad: 1
    kernel_size: 3
    weight_filler {
      type: "xavier"
    }
    bias_filler {
      type: "constant"
      value: 0
    }
  }
}
layer {
  name: "relu_cccp5"
  type: "ReLU"
  bottom: "cccp5"
  top: "cccp5"
}
layer {
  name: "poolcp5"
  type: "Pooling"
  bottom: "cccp5"
  top: "poolcp5"
  pooling_param {
    pool: MAX
    kernel_size: 2
    stride: 2
  }
}
layer {
  name: "cccp6"
  type: "Convolution"
  bottom: "poolcp5"
  top: "cccp6"
  param {
    lr_mult: 1
    decay_mult: 1
  }
  param {
    lr_mult: 2
    decay_mult: 0
  }
  convolution_param {
    num_output: 100
    kernel_size: 1
    group: 1
    weight_filler {
      type: "xavier"
    }
    bias_filler {
      type: "constant"
      value: 0
    }
  }
}
layer {
  name: "relu_cccp6"
  type: "ReLU"
  bottom: "cccp6"
  top: "cccp6"
}
layer {
  name: "poolcp6"
  type: "Pooling"
  bottom: "cccp6"
  top: "poolcp6"
  pooling_param {
    pool: MAX
    kernel_size: 2
    stride: 2
  }
}
layer {
  name: "ip1"
  type: "InnerProduct"
  bottom: "poolcp6"
  top: "ip1"
  param {
    lr_mult: 1
    decay_mult: 0
  }
  param {
    lr_mult: 2
    decay_mult: 0
  }
  inner_product_param {
    num_output: 10
    weight_filler {
      type: "xavier"
    }
    bias_filler {
      type: "constant"
    }
  }
}
layer {
  name: "accuracy_training"
  type: "Accuracy"
  bottom: "ip1"
  bottom: "label"
  top: "accuracy_training"
  include {
    phase: TRAIN
  }
}
layer {
  name: "loss"
  type: "SoftmaxWithLoss"
  bottom: "ip1"
  bottom: "label"
  top: "loss"
}
I0506 19:37:40.674860  5896 layer_factory.cpp:58] Creating layer cifar
I0506 19:37:40.677865  5896 db_leveldb.cpp:18] Opened leveldb examples/cifar10/cifar10_train_leveldb_padding
I0506 19:37:40.677865  5896 net.cpp:84] Creating Layer cifar
I0506 19:37:40.677865  5896 net.cpp:380] cifar -> data
I0506 19:37:40.677865  5896 net.cpp:380] cifar -> label
I0506 19:37:40.677865  5896 common.cpp:36] System entropy source not available, using fallback algorithm to generate seed instead.
I0506 19:37:40.678865  5896 data_layer.cpp:45] output data size: 100,3,32,32
I0506 19:37:40.683869  5896 net.cpp:122] Setting up cifar
I0506 19:37:40.683869  5896 net.cpp:129] Top shape: 100 3 32 32 (307200)
I0506 19:37:40.683869  5896 net.cpp:129] Top shape: 100 (100)
I0506 19:37:40.683869  5896 net.cpp:137] Memory required for data: 1229200
I0506 19:37:40.683869  5896 layer_factory.cpp:58] Creating layer label_cifar_1_split
I0506 19:37:40.683869  5896 net.cpp:84] Creating Layer label_cifar_1_split
I0506 19:37:40.683869  5896 net.cpp:406] label_cifar_1_split <- label
I0506 19:37:40.683869  5896 net.cpp:380] label_cifar_1_split -> label_cifar_1_split_0
I0506 19:37:40.683869  5896 net.cpp:380] label_cifar_1_split -> label_cifar_1_split_1
I0506 19:37:40.683869  5896 net.cpp:122] Setting up label_cifar_1_split
I0506 19:37:40.683869  5896 net.cpp:129] Top shape: 100 (100)
I0506 19:37:40.683869  5896 net.cpp:129] Top shape: 100 (100)
I0506 19:37:40.683869  5896 net.cpp:137] Memory required for data: 1230000
I0506 19:37:40.683869  5896 layer_factory.cpp:58] Creating layer conv1
I0506 19:37:40.683869  5896 net.cpp:84] Creating Layer conv1
I0506 19:37:40.683869  5896 net.cpp:406] conv1 <- data
I0506 19:37:40.683869  5896 net.cpp:380] conv1 -> conv1
I0506 19:37:40.684870  5820 common.cpp:36] System entropy source not available, using fallback algorithm to generate seed instead.
I0506 19:37:40.921037  5896 net.cpp:122] Setting up conv1
I0506 19:37:40.921037  5896 net.cpp:129] Top shape: 100 32 32 32 (3276800)
I0506 19:37:40.921037  5896 net.cpp:137] Memory required for data: 14337200
I0506 19:37:40.921037  5896 layer_factory.cpp:58] Creating layer bn1
I0506 19:37:40.921037  5896 net.cpp:84] Creating Layer bn1
I0506 19:37:40.921037  5896 net.cpp:406] bn1 <- conv1
I0506 19:37:40.921037  5896 net.cpp:380] bn1 -> bn1
I0506 19:37:40.921037  5896 net.cpp:122] Setting up bn1
I0506 19:37:40.921037  5896 net.cpp:129] Top shape: 100 32 32 32 (3276800)
I0506 19:37:40.921037  5896 net.cpp:137] Memory required for data: 27444400
I0506 19:37:40.921037  5896 layer_factory.cpp:58] Creating layer scale1
I0506 19:37:40.921037  5896 net.cpp:84] Creating Layer scale1
I0506 19:37:40.921037  5896 net.cpp:406] scale1 <- bn1
I0506 19:37:40.921037  5896 net.cpp:380] scale1 -> scale1
I0506 19:37:40.921037  5896 layer_factory.cpp:58] Creating layer scale1
I0506 19:37:40.921037  5896 net.cpp:122] Setting up scale1
I0506 19:37:40.921037  5896 net.cpp:129] Top shape: 100 32 32 32 (3276800)
I0506 19:37:40.921037  5896 net.cpp:137] Memory required for data: 40551600
I0506 19:37:40.921037  5896 layer_factory.cpp:58] Creating layer relu1
I0506 19:37:40.921037  5896 net.cpp:84] Creating Layer relu1
I0506 19:37:40.921037  5896 net.cpp:406] relu1 <- scale1
I0506 19:37:40.921037  5896 net.cpp:380] relu1 -> relu1
I0506 19:37:40.922039  5896 net.cpp:122] Setting up relu1
I0506 19:37:40.922039  5896 net.cpp:129] Top shape: 100 32 32 32 (3276800)
I0506 19:37:40.922039  5896 net.cpp:137] Memory required for data: 53658800
I0506 19:37:40.922039  5896 layer_factory.cpp:58] Creating layer conv1_0
I0506 19:37:40.922039  5896 net.cpp:84] Creating Layer conv1_0
I0506 19:37:40.922039  5896 net.cpp:406] conv1_0 <- relu1
I0506 19:37:40.922039  5896 net.cpp:380] conv1_0 -> conv1_0
I0506 19:37:40.923038  5896 net.cpp:122] Setting up conv1_0
I0506 19:37:40.923038  5896 net.cpp:129] Top shape: 100 32 32 32 (3276800)
I0506 19:37:40.923038  5896 net.cpp:137] Memory required for data: 66766000
I0506 19:37:40.923038  5896 layer_factory.cpp:58] Creating layer bn1_0
I0506 19:37:40.923038  5896 net.cpp:84] Creating Layer bn1_0
I0506 19:37:40.923038  5896 net.cpp:406] bn1_0 <- conv1_0
I0506 19:37:40.923038  5896 net.cpp:380] bn1_0 -> bn1_0
I0506 19:37:40.923038  5896 net.cpp:122] Setting up bn1_0
I0506 19:37:40.923038  5896 net.cpp:129] Top shape: 100 32 32 32 (3276800)
I0506 19:37:40.923038  5896 net.cpp:137] Memory required for data: 79873200
I0506 19:37:40.923038  5896 layer_factory.cpp:58] Creating layer scale1_0
I0506 19:37:40.923038  5896 net.cpp:84] Creating Layer scale1_0
I0506 19:37:40.923038  5896 net.cpp:406] scale1_0 <- bn1_0
I0506 19:37:40.923038  5896 net.cpp:380] scale1_0 -> scale1_0
I0506 19:37:40.924039  5896 layer_factory.cpp:58] Creating layer scale1_0
I0506 19:37:40.924039  5896 net.cpp:122] Setting up scale1_0
I0506 19:37:40.924039  5896 net.cpp:129] Top shape: 100 32 32 32 (3276800)
I0506 19:37:40.924039  5896 net.cpp:137] Memory required for data: 92980400
I0506 19:37:40.924039  5896 layer_factory.cpp:58] Creating layer relu1_0
I0506 19:37:40.924039  5896 net.cpp:84] Creating Layer relu1_0
I0506 19:37:40.924039  5896 net.cpp:406] relu1_0 <- scale1_0
I0506 19:37:40.924039  5896 net.cpp:380] relu1_0 -> relu1_0
I0506 19:37:40.924039  5896 net.cpp:122] Setting up relu1_0
I0506 19:37:40.924039  5896 net.cpp:129] Top shape: 100 32 32 32 (3276800)
I0506 19:37:40.924039  5896 net.cpp:137] Memory required for data: 106087600
I0506 19:37:40.924039  5896 layer_factory.cpp:58] Creating layer conv2
I0506 19:37:40.924039  5896 net.cpp:84] Creating Layer conv2
I0506 19:37:40.924039  5896 net.cpp:406] conv2 <- relu1_0
I0506 19:37:40.924039  5896 net.cpp:380] conv2 -> conv2
I0506 19:37:40.925040  5896 net.cpp:122] Setting up conv2
I0506 19:37:40.925040  5896 net.cpp:129] Top shape: 100 32 32 32 (3276800)
I0506 19:37:40.925040  5896 net.cpp:137] Memory required for data: 119194800
I0506 19:37:40.925040  5896 layer_factory.cpp:58] Creating layer bn2
I0506 19:37:40.925040  5896 net.cpp:84] Creating Layer bn2
I0506 19:37:40.925040  5896 net.cpp:406] bn2 <- conv2
I0506 19:37:40.925040  5896 net.cpp:380] bn2 -> bn2
I0506 19:37:40.925040  5896 net.cpp:122] Setting up bn2
I0506 19:37:40.925040  5896 net.cpp:129] Top shape: 100 32 32 32 (3276800)
I0506 19:37:40.925040  5896 net.cpp:137] Memory required for data: 132302000
I0506 19:37:40.925040  5896 layer_factory.cpp:58] Creating layer scale2
I0506 19:37:40.925040  5896 net.cpp:84] Creating Layer scale2
I0506 19:37:40.925040  5896 net.cpp:406] scale2 <- bn2
I0506 19:37:40.925040  5896 net.cpp:380] scale2 -> scale2
I0506 19:37:40.925040  5896 layer_factory.cpp:58] Creating layer scale2
I0506 19:37:40.925040  5896 net.cpp:122] Setting up scale2
I0506 19:37:40.925040  5896 net.cpp:129] Top shape: 100 32 32 32 (3276800)
I0506 19:37:40.925040  5896 net.cpp:137] Memory required for data: 145409200
I0506 19:37:40.925040  5896 layer_factory.cpp:58] Creating layer relu2
I0506 19:37:40.925040  5896 net.cpp:84] Creating Layer relu2
I0506 19:37:40.925040  5896 net.cpp:406] relu2 <- scale2
I0506 19:37:40.925040  5896 net.cpp:380] relu2 -> relu2
I0506 19:37:40.926039  5896 net.cpp:122] Setting up relu2
I0506 19:37:40.926039  5896 net.cpp:129] Top shape: 100 32 32 32 (3276800)
I0506 19:37:40.926039  5896 net.cpp:137] Memory required for data: 158516400
I0506 19:37:40.926039  5896 layer_factory.cpp:58] Creating layer conv2_1
I0506 19:37:40.926039  5896 net.cpp:84] Creating Layer conv2_1
I0506 19:37:40.926039  5896 net.cpp:406] conv2_1 <- relu2
I0506 19:37:40.926039  5896 net.cpp:380] conv2_1 -> conv2_1
I0506 19:37:40.928041  5896 net.cpp:122] Setting up conv2_1
I0506 19:37:40.928041  5896 net.cpp:129] Top shape: 100 64 32 32 (6553600)
I0506 19:37:40.928041  5896 net.cpp:137] Memory required for data: 184730800
I0506 19:37:40.928041  5896 layer_factory.cpp:58] Creating layer bn2_1
I0506 19:37:40.928041  5896 net.cpp:84] Creating Layer bn2_1
I0506 19:37:40.928041  5896 net.cpp:406] bn2_1 <- conv2_1
I0506 19:37:40.928041  5896 net.cpp:380] bn2_1 -> bn2_1
I0506 19:37:40.928041  5896 net.cpp:122] Setting up bn2_1
I0506 19:37:40.928041  5896 net.cpp:129] Top shape: 100 64 32 32 (6553600)
I0506 19:37:40.928041  5896 net.cpp:137] Memory required for data: 210945200
I0506 19:37:40.928041  5896 layer_factory.cpp:58] Creating layer scale2_1
I0506 19:37:40.928041  5896 net.cpp:84] Creating Layer scale2_1
I0506 19:37:40.928041  5896 net.cpp:406] scale2_1 <- bn2_1
I0506 19:37:40.928041  5896 net.cpp:380] scale2_1 -> scale2_1
I0506 19:37:40.928041  5896 layer_factory.cpp:58] Creating layer scale2_1
I0506 19:37:40.928041  5896 net.cpp:122] Setting up scale2_1
I0506 19:37:40.928041  5896 net.cpp:129] Top shape: 100 64 32 32 (6553600)
I0506 19:37:40.928041  5896 net.cpp:137] Memory required for data: 237159600
I0506 19:37:40.928041  5896 layer_factory.cpp:58] Creating layer relu2_1
I0506 19:37:40.928041  5896 net.cpp:84] Creating Layer relu2_1
I0506 19:37:40.928041  5896 net.cpp:406] relu2_1 <- scale2_1
I0506 19:37:40.928041  5896 net.cpp:380] relu2_1 -> relu2_1
I0506 19:37:40.929044  5896 net.cpp:122] Setting up relu2_1
I0506 19:37:40.929044  5896 net.cpp:129] Top shape: 100 64 32 32 (6553600)
I0506 19:37:40.929044  5896 net.cpp:137] Memory required for data: 263374000
I0506 19:37:40.929044  5896 layer_factory.cpp:58] Creating layer pool2_1
I0506 19:37:40.929044  5896 net.cpp:84] Creating Layer pool2_1
I0506 19:37:40.929044  5896 net.cpp:406] pool2_1 <- relu2_1
I0506 19:37:40.929044  5896 net.cpp:380] pool2_1 -> pool2_1
I0506 19:37:40.929044  5896 net.cpp:122] Setting up pool2_1
I0506 19:37:40.929044  5896 net.cpp:129] Top shape: 100 64 16 16 (1638400)
I0506 19:37:40.929044  5896 net.cpp:137] Memory required for data: 269927600
I0506 19:37:40.929044  5896 layer_factory.cpp:58] Creating layer conv2_2
I0506 19:37:40.929044  5896 net.cpp:84] Creating Layer conv2_2
I0506 19:37:40.929044  5896 net.cpp:406] conv2_2 <- pool2_1
I0506 19:37:40.929044  5896 net.cpp:380] conv2_2 -> conv2_2
I0506 19:37:40.930228  5896 net.cpp:122] Setting up conv2_2
I0506 19:37:40.930228  5896 net.cpp:129] Top shape: 100 64 16 16 (1638400)
I0506 19:37:40.930228  5896 net.cpp:137] Memory required for data: 276481200
I0506 19:37:40.930228  5896 layer_factory.cpp:58] Creating layer bn2_2
I0506 19:37:40.930228  5896 net.cpp:84] Creating Layer bn2_2
I0506 19:37:40.930228  5896 net.cpp:406] bn2_2 <- conv2_2
I0506 19:37:40.930228  5896 net.cpp:380] bn2_2 -> bn2_2
I0506 19:37:40.930228  5896 net.cpp:122] Setting up bn2_2
I0506 19:37:40.930228  5896 net.cpp:129] Top shape: 100 64 16 16 (1638400)
I0506 19:37:40.930228  5896 net.cpp:137] Memory required for data: 283034800
I0506 19:37:40.930228  5896 layer_factory.cpp:58] Creating layer scale2_2
I0506 19:37:40.930228  5896 net.cpp:84] Creating Layer scale2_2
I0506 19:37:40.930228  5896 net.cpp:406] scale2_2 <- bn2_2
I0506 19:37:40.930228  5896 net.cpp:380] scale2_2 -> scale2_2
I0506 19:37:40.930228  5896 layer_factory.cpp:58] Creating layer scale2_2
I0506 19:37:40.930228  5896 net.cpp:122] Setting up scale2_2
I0506 19:37:40.930228  5896 net.cpp:129] Top shape: 100 64 16 16 (1638400)
I0506 19:37:40.930228  5896 net.cpp:137] Memory required for data: 289588400
I0506 19:37:40.930228  5896 layer_factory.cpp:58] Creating layer relu2_2
I0506 19:37:40.930228  5896 net.cpp:84] Creating Layer relu2_2
I0506 19:37:40.930228  5896 net.cpp:406] relu2_2 <- scale2_2
I0506 19:37:40.930228  5896 net.cpp:380] relu2_2 -> relu2_2
I0506 19:37:40.930228  5896 net.cpp:122] Setting up relu2_2
I0506 19:37:40.930228  5896 net.cpp:129] Top shape: 100 64 16 16 (1638400)
I0506 19:37:40.930228  5896 net.cpp:137] Memory required for data: 296142000
I0506 19:37:40.930228  5896 layer_factory.cpp:58] Creating layer conv3
I0506 19:37:40.930228  5896 net.cpp:84] Creating Layer conv3
I0506 19:37:40.930228  5896 net.cpp:406] conv3 <- relu2_2
I0506 19:37:40.930228  5896 net.cpp:380] conv3 -> conv3
I0506 19:37:40.932231  5896 net.cpp:122] Setting up conv3
I0506 19:37:40.932231  5896 net.cpp:129] Top shape: 100 64 16 16 (1638400)
I0506 19:37:40.932231  5896 net.cpp:137] Memory required for data: 302695600
I0506 19:37:40.932231  5896 layer_factory.cpp:58] Creating layer bn3
I0506 19:37:40.932231  5896 net.cpp:84] Creating Layer bn3
I0506 19:37:40.932231  5896 net.cpp:406] bn3 <- conv3
I0506 19:37:40.932231  5896 net.cpp:380] bn3 -> bn3
I0506 19:37:40.932231  5896 net.cpp:122] Setting up bn3
I0506 19:37:40.932231  5896 net.cpp:129] Top shape: 100 64 16 16 (1638400)
I0506 19:37:40.932231  5896 net.cpp:137] Memory required for data: 309249200
I0506 19:37:40.932231  5896 layer_factory.cpp:58] Creating layer scale3
I0506 19:37:40.932231  5896 net.cpp:84] Creating Layer scale3
I0506 19:37:40.932231  5896 net.cpp:406] scale3 <- bn3
I0506 19:37:40.932231  5896 net.cpp:380] scale3 -> scale3
I0506 19:37:40.932231  5896 layer_factory.cpp:58] Creating layer scale3
I0506 19:37:40.932231  5896 net.cpp:122] Setting up scale3
I0506 19:37:40.932231  5896 net.cpp:129] Top shape: 100 64 16 16 (1638400)
I0506 19:37:40.932231  5896 net.cpp:137] Memory required for data: 315802800
I0506 19:37:40.932231  5896 layer_factory.cpp:58] Creating layer relu3
I0506 19:37:40.932231  5896 net.cpp:84] Creating Layer relu3
I0506 19:37:40.932231  5896 net.cpp:406] relu3 <- scale3
I0506 19:37:40.932231  5896 net.cpp:380] relu3 -> relu3
I0506 19:37:40.932231  5896 net.cpp:122] Setting up relu3
I0506 19:37:40.932231  5896 net.cpp:129] Top shape: 100 64 16 16 (1638400)
I0506 19:37:40.932231  5896 net.cpp:137] Memory required for data: 322356400
I0506 19:37:40.932231  5896 layer_factory.cpp:58] Creating layer conv4
I0506 19:37:40.932231  5896 net.cpp:84] Creating Layer conv4
I0506 19:37:40.932231  5896 net.cpp:406] conv4 <- relu3
I0506 19:37:40.932231  5896 net.cpp:380] conv4 -> conv4
I0506 19:37:40.933615  5896 net.cpp:122] Setting up conv4
I0506 19:37:40.933615  5896 net.cpp:129] Top shape: 100 64 16 16 (1638400)
I0506 19:37:40.933615  5896 net.cpp:137] Memory required for data: 328910000
I0506 19:37:40.933615  5896 layer_factory.cpp:58] Creating layer pool4
I0506 19:37:40.933615  5896 net.cpp:84] Creating Layer pool4
I0506 19:37:40.933615  5896 net.cpp:406] pool4 <- conv4
I0506 19:37:40.933615  5896 net.cpp:380] pool4 -> pool4
I0506 19:37:40.933615  5896 net.cpp:122] Setting up pool4
I0506 19:37:40.933615  5896 net.cpp:129] Top shape: 100 64 8 8 (409600)
I0506 19:37:40.933615  5896 net.cpp:137] Memory required for data: 330548400
I0506 19:37:40.933615  5896 layer_factory.cpp:58] Creating layer bn4
I0506 19:37:40.933615  5896 net.cpp:84] Creating Layer bn4
I0506 19:37:40.933615  5896 net.cpp:406] bn4 <- pool4
I0506 19:37:40.933615  5896 net.cpp:380] bn4 -> bn4
I0506 19:37:40.933615  5896 net.cpp:122] Setting up bn4
I0506 19:37:40.933615  5896 net.cpp:129] Top shape: 100 64 8 8 (409600)
I0506 19:37:40.933615  5896 net.cpp:137] Memory required for data: 332186800
I0506 19:37:40.933615  5896 layer_factory.cpp:58] Creating layer scale4
I0506 19:37:40.933615  5896 net.cpp:84] Creating Layer scale4
I0506 19:37:40.933615  5896 net.cpp:406] scale4 <- bn4
I0506 19:37:40.933615  5896 net.cpp:380] scale4 -> scale4
I0506 19:37:40.933615  5896 layer_factory.cpp:58] Creating layer scale4
I0506 19:37:40.933615  5896 net.cpp:122] Setting up scale4
I0506 19:37:40.933615  5896 net.cpp:129] Top shape: 100 64 8 8 (409600)
I0506 19:37:40.933615  5896 net.cpp:137] Memory required for data: 333825200
I0506 19:37:40.933615  5896 layer_factory.cpp:58] Creating layer relu4
I0506 19:37:40.933615  5896 net.cpp:84] Creating Layer relu4
I0506 19:37:40.933615  5896 net.cpp:406] relu4 <- scale4
I0506 19:37:40.933615  5896 net.cpp:380] relu4 -> relu4
I0506 19:37:40.934618  5896 net.cpp:122] Setting up relu4
I0506 19:37:40.934618  5896 net.cpp:129] Top shape: 100 64 8 8 (409600)
I0506 19:37:40.934618  5896 net.cpp:137] Memory required for data: 335463600
I0506 19:37:40.934618  5896 layer_factory.cpp:58] Creating layer conv4_1
I0506 19:37:40.934618  5896 net.cpp:84] Creating Layer conv4_1
I0506 19:37:40.934618  5896 net.cpp:406] conv4_1 <- relu4
I0506 19:37:40.934618  5896 net.cpp:380] conv4_1 -> conv4_1
I0506 19:37:40.935619  5896 net.cpp:122] Setting up conv4_1
I0506 19:37:40.935619  5896 net.cpp:129] Top shape: 100 64 8 8 (409600)
I0506 19:37:40.935619  5896 net.cpp:137] Memory required for data: 337102000
I0506 19:37:40.935619  5896 layer_factory.cpp:58] Creating layer bn4_1
I0506 19:37:40.935619  5896 net.cpp:84] Creating Layer bn4_1
I0506 19:37:40.935619  5896 net.cpp:406] bn4_1 <- conv4_1
I0506 19:37:40.935619  5896 net.cpp:380] bn4_1 -> bn4_1
I0506 19:37:40.935619  5896 net.cpp:122] Setting up bn4_1
I0506 19:37:40.935619  5896 net.cpp:129] Top shape: 100 64 8 8 (409600)
I0506 19:37:40.935619  5896 net.cpp:137] Memory required for data: 338740400
I0506 19:37:40.935619  5896 layer_factory.cpp:58] Creating layer scale4_1
I0506 19:37:40.935619  5896 net.cpp:84] Creating Layer scale4_1
I0506 19:37:40.935619  5896 net.cpp:406] scale4_1 <- bn4_1
I0506 19:37:40.935619  5896 net.cpp:380] scale4_1 -> scale4_1
I0506 19:37:40.935619  5896 layer_factory.cpp:58] Creating layer scale4_1
I0506 19:37:40.935619  5896 net.cpp:122] Setting up scale4_1
I0506 19:37:40.935619  5896 net.cpp:129] Top shape: 100 64 8 8 (409600)
I0506 19:37:40.935619  5896 net.cpp:137] Memory required for data: 340378800
I0506 19:37:40.935619  5896 layer_factory.cpp:58] Creating layer relu4_1
I0506 19:37:40.935619  5896 net.cpp:84] Creating Layer relu4_1
I0506 19:37:40.935619  5896 net.cpp:406] relu4_1 <- scale4_1
I0506 19:37:40.935619  5896 net.cpp:380] relu4_1 -> relu4_1
I0506 19:37:40.936619  5896 net.cpp:122] Setting up relu4_1
I0506 19:37:40.936619  5896 net.cpp:129] Top shape: 100 64 8 8 (409600)
I0506 19:37:40.936619  5896 net.cpp:137] Memory required for data: 342017200
I0506 19:37:40.936619  5896 layer_factory.cpp:58] Creating layer conv4_2
I0506 19:37:40.936619  5896 net.cpp:84] Creating Layer conv4_2
I0506 19:37:40.936619  5896 net.cpp:406] conv4_2 <- relu4_1
I0506 19:37:40.936619  5896 net.cpp:380] conv4_2 -> conv4_2
I0506 19:37:40.937620  5896 net.cpp:122] Setting up conv4_2
I0506 19:37:40.937620  5896 net.cpp:129] Top shape: 100 64 8 8 (409600)
I0506 19:37:40.937620  5896 net.cpp:137] Memory required for data: 343655600
I0506 19:37:40.937620  5896 layer_factory.cpp:58] Creating layer bn4_2
I0506 19:37:40.937620  5896 net.cpp:84] Creating Layer bn4_2
I0506 19:37:40.937620  5896 net.cpp:406] bn4_2 <- conv4_2
I0506 19:37:40.937620  5896 net.cpp:380] bn4_2 -> bn4_2
I0506 19:37:40.937620  5896 net.cpp:122] Setting up bn4_2
I0506 19:37:40.937620  5896 net.cpp:129] Top shape: 100 64 8 8 (409600)
I0506 19:37:40.937620  5896 net.cpp:137] Memory required for data: 345294000
I0506 19:37:40.937620  5896 layer_factory.cpp:58] Creating layer scale4_2
I0506 19:37:40.937620  5896 net.cpp:84] Creating Layer scale4_2
I0506 19:37:40.937620  5896 net.cpp:406] scale4_2 <- bn4_2
I0506 19:37:40.937620  5896 net.cpp:380] scale4_2 -> scale4_2
I0506 19:37:40.937620  5896 layer_factory.cpp:58] Creating layer scale4_2
I0506 19:37:40.937620  5896 net.cpp:122] Setting up scale4_2
I0506 19:37:40.937620  5896 net.cpp:129] Top shape: 100 64 8 8 (409600)
I0506 19:37:40.937620  5896 net.cpp:137] Memory required for data: 346932400
I0506 19:37:40.937620  5896 layer_factory.cpp:58] Creating layer relu4_2
I0506 19:37:40.937620  5896 net.cpp:84] Creating Layer relu4_2
I0506 19:37:40.937620  5896 net.cpp:406] relu4_2 <- scale4_2
I0506 19:37:40.937620  5896 net.cpp:380] relu4_2 -> relu4_2
I0506 19:37:40.938621  5896 net.cpp:122] Setting up relu4_2
I0506 19:37:40.938621  5896 net.cpp:129] Top shape: 100 64 8 8 (409600)
I0506 19:37:40.938621  5896 net.cpp:137] Memory required for data: 348570800
I0506 19:37:40.938621  5896 layer_factory.cpp:58] Creating layer pool4_2
I0506 19:37:40.938621  5896 net.cpp:84] Creating Layer pool4_2
I0506 19:37:40.938621  5896 net.cpp:406] pool4_2 <- relu4_2
I0506 19:37:40.938621  5896 net.cpp:380] pool4_2 -> pool4_2
I0506 19:37:40.938621  5896 net.cpp:122] Setting up pool4_2
I0506 19:37:40.938621  5896 net.cpp:129] Top shape: 100 64 4 4 (102400)
I0506 19:37:40.938621  5896 net.cpp:137] Memory required for data: 348980400
I0506 19:37:40.938621  5896 layer_factory.cpp:58] Creating layer conv4_0
I0506 19:37:40.938621  5896 net.cpp:84] Creating Layer conv4_0
I0506 19:37:40.938621  5896 net.cpp:406] conv4_0 <- pool4_2
I0506 19:37:40.938621  5896 net.cpp:380] conv4_0 -> conv4_0
I0506 19:37:40.940372  5896 net.cpp:122] Setting up conv4_0
I0506 19:37:40.940372  5896 net.cpp:129] Top shape: 100 96 4 4 (153600)
I0506 19:37:40.940372  5896 net.cpp:137] Memory required for data: 349594800
I0506 19:37:40.940372  5896 layer_factory.cpp:58] Creating layer bn4_0
I0506 19:37:40.940372  5896 net.cpp:84] Creating Layer bn4_0
I0506 19:37:40.940372  5896 net.cpp:406] bn4_0 <- conv4_0
I0506 19:37:40.940372  5896 net.cpp:380] bn4_0 -> bn4_0
I0506 19:37:40.940372  5896 net.cpp:122] Setting up bn4_0
I0506 19:37:40.940372  5896 net.cpp:129] Top shape: 100 96 4 4 (153600)
I0506 19:37:40.940372  5896 net.cpp:137] Memory required for data: 350209200
I0506 19:37:40.940372  5896 layer_factory.cpp:58] Creating layer scale4_0
I0506 19:37:40.940372  5896 net.cpp:84] Creating Layer scale4_0
I0506 19:37:40.940372  5896 net.cpp:406] scale4_0 <- bn4_0
I0506 19:37:40.940372  5896 net.cpp:380] scale4_0 -> scale4_0
I0506 19:37:40.940372  5896 layer_factory.cpp:58] Creating layer scale4_0
I0506 19:37:40.940372  5896 net.cpp:122] Setting up scale4_0
I0506 19:37:40.940372  5896 net.cpp:129] Top shape: 100 96 4 4 (153600)
I0506 19:37:40.940372  5896 net.cpp:137] Memory required for data: 350823600
I0506 19:37:40.940372  5896 layer_factory.cpp:58] Creating layer relu4_0
I0506 19:37:40.940372  5896 net.cpp:84] Creating Layer relu4_0
I0506 19:37:40.940372  5896 net.cpp:406] relu4_0 <- scale4_0
I0506 19:37:40.940372  5896 net.cpp:380] relu4_0 -> relu4_0
I0506 19:37:40.940372  5896 net.cpp:122] Setting up relu4_0
I0506 19:37:40.940372  5896 net.cpp:129] Top shape: 100 96 4 4 (153600)
I0506 19:37:40.940372  5896 net.cpp:137] Memory required for data: 351438000
I0506 19:37:40.940372  5896 layer_factory.cpp:58] Creating layer cccp4
I0506 19:37:40.940372  5896 net.cpp:84] Creating Layer cccp4
I0506 19:37:40.940372  5896 net.cpp:406] cccp4 <- relu4_0
I0506 19:37:40.940372  5896 net.cpp:380] cccp4 -> cccp4
I0506 19:37:40.942376  5896 net.cpp:122] Setting up cccp4
I0506 19:37:40.942376  5896 net.cpp:129] Top shape: 100 96 4 4 (153600)
I0506 19:37:40.942376  5896 net.cpp:137] Memory required for data: 352052400
I0506 19:37:40.942376  5896 layer_factory.cpp:58] Creating layer relu_cccp4
I0506 19:37:40.942376  5896 net.cpp:84] Creating Layer relu_cccp4
I0506 19:37:40.942376  5896 net.cpp:406] relu_cccp4 <- cccp4
I0506 19:37:40.942376  5896 net.cpp:367] relu_cccp4 -> cccp4 (in-place)
I0506 19:37:40.942376  5896 net.cpp:122] Setting up relu_cccp4
I0506 19:37:40.942376  5896 net.cpp:129] Top shape: 100 96 4 4 (153600)
I0506 19:37:40.942376  5896 net.cpp:137] Memory required for data: 352666800
I0506 19:37:40.942376  5896 layer_factory.cpp:58] Creating layer cccp5
I0506 19:37:40.942376  5896 net.cpp:84] Creating Layer cccp5
I0506 19:37:40.942376  5896 net.cpp:406] cccp5 <- cccp4
I0506 19:37:40.942376  5896 net.cpp:380] cccp5 -> cccp5
I0506 19:37:40.944377  5896 net.cpp:122] Setting up cccp5
I0506 19:37:40.944377  5896 net.cpp:129] Top shape: 100 96 4 4 (153600)
I0506 19:37:40.944377  5896 net.cpp:137] Memory required for data: 353281200
I0506 19:37:40.944377  5896 layer_factory.cpp:58] Creating layer relu_cccp5
I0506 19:37:40.944377  5896 net.cpp:84] Creating Layer relu_cccp5
I0506 19:37:40.944377  5896 net.cpp:406] relu_cccp5 <- cccp5
I0506 19:37:40.944377  5896 net.cpp:367] relu_cccp5 -> cccp5 (in-place)
I0506 19:37:40.944377  5896 net.cpp:122] Setting up relu_cccp5
I0506 19:37:40.944377  5896 net.cpp:129] Top shape: 100 96 4 4 (153600)
I0506 19:37:40.944377  5896 net.cpp:137] Memory required for data: 353895600
I0506 19:37:40.944377  5896 layer_factory.cpp:58] Creating layer poolcp5
I0506 19:37:40.944377  5896 net.cpp:84] Creating Layer poolcp5
I0506 19:37:40.944377  5896 net.cpp:406] poolcp5 <- cccp5
I0506 19:37:40.944377  5896 net.cpp:380] poolcp5 -> poolcp5
I0506 19:37:40.944377  5896 net.cpp:122] Setting up poolcp5
I0506 19:37:40.944377  5896 net.cpp:129] Top shape: 100 96 2 2 (38400)
I0506 19:37:40.944377  5896 net.cpp:137] Memory required for data: 354049200
I0506 19:37:40.944377  5896 layer_factory.cpp:58] Creating layer cccp6
I0506 19:37:40.944377  5896 net.cpp:84] Creating Layer cccp6
I0506 19:37:40.944377  5896 net.cpp:406] cccp6 <- poolcp5
I0506 19:37:40.944377  5896 net.cpp:380] cccp6 -> cccp6
I0506 19:37:40.945379  5896 net.cpp:122] Setting up cccp6
I0506 19:37:40.945379  5896 net.cpp:129] Top shape: 100 100 2 2 (40000)
I0506 19:37:40.945379  5896 net.cpp:137] Memory required for data: 354209200
I0506 19:37:40.945379  5896 layer_factory.cpp:58] Creating layer relu_cccp6
I0506 19:37:40.945379  5896 net.cpp:84] Creating Layer relu_cccp6
I0506 19:37:40.945379  5896 net.cpp:406] relu_cccp6 <- cccp6
I0506 19:37:40.945379  5896 net.cpp:367] relu_cccp6 -> cccp6 (in-place)
I0506 19:37:40.946378  5896 net.cpp:122] Setting up relu_cccp6
I0506 19:37:40.946378  5896 net.cpp:129] Top shape: 100 100 2 2 (40000)
I0506 19:37:40.946378  5896 net.cpp:137] Memory required for data: 354369200
I0506 19:37:40.946378  5896 layer_factory.cpp:58] Creating layer poolcp6
I0506 19:37:40.946378  5896 net.cpp:84] Creating Layer poolcp6
I0506 19:37:40.946378  5896 net.cpp:406] poolcp6 <- cccp6
I0506 19:37:40.946378  5896 net.cpp:380] poolcp6 -> poolcp6
I0506 19:37:40.946378  5896 net.cpp:122] Setting up poolcp6
I0506 19:37:40.946378  5896 net.cpp:129] Top shape: 100 100 1 1 (10000)
I0506 19:37:40.946378  5896 net.cpp:137] Memory required for data: 354409200
I0506 19:37:40.946378  5896 layer_factory.cpp:58] Creating layer ip1
I0506 19:37:40.946378  5896 net.cpp:84] Creating Layer ip1
I0506 19:37:40.946378  5896 net.cpp:406] ip1 <- poolcp6
I0506 19:37:40.946378  5896 net.cpp:380] ip1 -> ip1
I0506 19:37:40.946378  5896 net.cpp:122] Setting up ip1
I0506 19:37:40.946378  5896 net.cpp:129] Top shape: 100 10 (1000)
I0506 19:37:40.946378  5896 net.cpp:137] Memory required for data: 354413200
I0506 19:37:40.946378  5896 layer_factory.cpp:58] Creating layer ip1_ip1_0_split
I0506 19:37:40.946378  5896 net.cpp:84] Creating Layer ip1_ip1_0_split
I0506 19:37:40.946378  5896 net.cpp:406] ip1_ip1_0_split <- ip1
I0506 19:37:40.946378  5896 net.cpp:380] ip1_ip1_0_split -> ip1_ip1_0_split_0
I0506 19:37:40.946378  5896 net.cpp:380] ip1_ip1_0_split -> ip1_ip1_0_split_1
I0506 19:37:40.946378  5896 net.cpp:122] Setting up ip1_ip1_0_split
I0506 19:37:40.946378  5896 net.cpp:129] Top shape: 100 10 (1000)
I0506 19:37:40.946378  5896 net.cpp:129] Top shape: 100 10 (1000)
I0506 19:37:40.946378  5896 net.cpp:137] Memory required for data: 354421200
I0506 19:37:40.946378  5896 layer_factory.cpp:58] Creating layer accuracy_training
I0506 19:37:40.946378  5896 net.cpp:84] Creating Layer accuracy_training
I0506 19:37:40.946378  5896 net.cpp:406] accuracy_training <- ip1_ip1_0_split_0
I0506 19:37:40.946378  5896 net.cpp:406] accuracy_training <- label_cifar_1_split_0
…
