…
I0318 08:38:06.346583 17004 net.cpp:322] The NetState phase (0) differed from the phase (1) specified by a rule in layer accuracy
I0318 08:38:06.346583 17004 net.cpp:58] Initializing net from parameters: 
name: "CIFAR10_full"
state {
  phase: TRAIN
  level: 0
  stage: ""
}
layer {
  name: "cifar"
  type: "Data"
  top: "data"
  top: "label"
  include {
    phase: TRAIN
  }
  transform_param {
    mirror: true
    mean_file: "examples/cifar10/mean.binaryproto"
  }
  data_param {
    source: "examples/cifar10/cifar10_train_lmdb"
    batch_size: 100
    backend: LMDB
  }
}
layer {
  name: "conv1"
  type: "Convolution"
  bottom: "data"
  top: "conv1"
  param {
    lr_mult: 1
  }
  convolution_param {
    num_output: 32
    bias_term: true
    pad: 1
    kernel_size: 3
    stride: 1
    weight_filler {
      type: "xavier"
    }
  }
}
layer {
  name: "bn1"
  type: "BatchNorm"
  bottom: "conv1"
  top: "bn1"
  include {
    phase: TRAIN
  }
  batch_norm_param {
    use_global_stats: false
    moving_average_fraction: 0.95
  }
}
layer {
  name: "scale1"
  type: "Scale"
  bottom: "bn1"
  top: "scale1"
  scale_param {
    bias_term: true
  }
}
layer {
  name: "relu1"
  type: "ReLU"
  bottom: "scale1"
  top: "scale1"
}
layer {
  name: "drop1"
  type: "Dropout"
  bottom: "scale1"
  top: "scale1"
  dropout_param {
    dropout_ratio: 0.2
  }
}
layer {
  name: "conv2"
  type: "Convolution"
  bottom: "scale1"
  top: "conv2"
  param {
    lr_mult: 1
  }
  convolution_param {
    num_output: 32
    bias_term: true
    pad: 1
    kernel_size: 3
    stride: 1
    weight_filler {
      type: "xavier"
    }
  }
}
layer {
  name: "bn2"
  type: "BatchNorm"
  bottom: "conv2"
  top: "bn2"
  include {
    phase: TRAIN
  }
  batch_norm_param {
    use_global_stats: false
    moving_average_fraction: 0.95
  }
}
layer {
  name: "scale2"
  type: "Scale"
  bottom: "bn2"
  top: "scale2"
  scale_param {
    bias_term: true
  }
}
layer {
  name: "relu2"
  type: "ReLU"
  bottom: "scale2"
  top: "scale2"
}
layer {
  name: "drop2"
  type: "Dropout"
  bottom: "scale2"
  top: "scale2"
  dropout_param {
    dropout_ratio: 0.2
  }
}
layer {
  name: "conv3"
  type: "Convolution"
  bottom: "scale2"
  top: "conv3"
  param {
    lr_mult: 1
  }
  convolution_param {
    num_output: 48
    bias_term: true
    pad: 1
    kernel_size: 3
    stride: 1
    weight_filler {
      type: "gaussian"
      std: 0.01
    }
  }
}
layer {
  name: "bn3"
  type: "BatchNorm"
  bottom: "conv3"
  top: "bn3"
  include {
    phase: TRAIN
  }
  batch_norm_param {
    use_global_stats: false
    moving_average_fraction: 0.95
  }
}
layer {
  name: "scale3"
  type: "Scale"
  bottom: "bn3"
  top: "scale3"
  scale_param {
    bias_term: true
  }
}
layer {
  name: "relu3"
  type: "ReLU"
  bottom: "scale3"
  top: "scale3"
}
layer {
  name: "drop3"
  type: "Dropout"
  bottom: "scale3"
  top: "scale3"
  dropout_param {
    dropout_ratio: 0.2
  }
}
layer {
  name: "conv4"
  type: "Convolution"
  bottom: "scale3"
  top: "conv4"
  param {
    lr_mult: 1
  }
  convolution_param {
    num_output: 64
    bias_term: true
    pad: 1
    kernel_size: 3
    stride: 1
    weight_filler {
      type: "gaussian"
      std: 0.01
    }
  }
}
layer {
  name: "bn4"
  type: "BatchNorm"
  bottom: "conv4"
  top: "bn4"
  include {
    phase: TRAIN
  }
  batch_norm_param {
    use_global_stats: false
    moving_average_fraction: 0.95
  }
}
layer {
  name: "scale4"
  type: "Scale"
  bottom: "bn4"
  top: "scale4"
  scale_param {
    bias_term: true
  }
}
layer {
  name: "relu4"
  type: "ReLU"
  bottom: "scale4"
  top: "scale4"
}
layer {
  name: "pool4"
  type: "Pooling"
  bottom: "scale4"
  top: "pool4"
  pooling_param {
    pool: MAX
    kernel_size: 2
    stride: 2
  }
}
layer {
  name: "drop4"
  type: "Dropout"
  bottom: "pool4"
  top: "pool4"
  dropout_param {
    dropout_ratio: 0.2
  }
}
layer {
  name: "conv5"
  type: "Convolution"
  bottom: "pool4"
  top: "conv5"
  param {
    lr_mult: 1
  }
  convolution_param {
    num_output: 64
    bias_term: true
    pad: 1
    kernel_size: 3
    stride: 1
    weight_filler {
      type: "gaussian"
      std: 0.01
    }
  }
}
layer {
  name: "bn5"
  type: "BatchNorm"
  bottom: "conv5"
  top: "bn5"
  include {
    phase: TRAIN
  }
  batch_norm_param {
    use_global_stats: false
    moving_average_fraction: 0.95
  }
}
layer {
  name: "scale5"
  type: "Scale"
  bottom: "bn5"
  top: "scale5"
  scale_param {
    bias_term: true
  }
}
layer {
  name: "relu5"
  type: "ReLU"
  bottom: "scale5"
  top: "scale5"
}
layer {
  name: "drop5"
  type: "Dropout"
  bottom: "scale5"
  top: "scale5"
  dropout_param {
    dropout_ratio: 0.2
  }
}
layer {
  name: "conv6"
  type: "Convolution"
  bottom: "scale5"
  top: "conv6"
  param {
    lr_mult: 1
  }
  convolution_param {
    num_output: 64
    bias_term: true
    pad: 1
    kernel_size: 3
    stride: 1
    weight_filler {
      type: "xavier"
    }
  }
}
layer {
  name: "bn6"
  type: "BatchNorm"
  bottom: "conv6"
  top: "bn6"
  include {
    phase: TRAIN
  }
  batch_norm_param {
    use_global_stats: false
    moving_average_fraction: 0.95
  }
}
layer {
  name: "scale6"
  type: "Scale"
  bottom: "bn6"
  top: "scale6"
  scale_param {
    bias_term: true
  }
}
layer {
  name: "relu6"
  type: "ReLU"
  bottom: "scale6"
  top: "scale6"
}
layer {
  name: "drop6"
  type: "Dropout"
  bottom: "scale6"
  top: "scale6"
  dropout_param {
    dropout_ratio: 0.2
  }
}
layer {
  name: "conv7"
  type: "Convolution"
  bottom: "scale6"
  top: "conv7"
  param {
    lr_mult: 1
  }
  convolution_param {
    num_output: 64
    bias_term: true
    pad: 1
    kernel_size: 3
    stride: 1
    weight_filler {
      type: "xavier"
    }
  }
}
layer {
  name: "pool7"
  type: "Pooling"
  bottom: "conv7"
  top: "pool7"
  pooling_param {
    pool: MAX
    kernel_size: 2
    stride: 2
  }
}
layer {
  name: "bn7"
  type: "BatchNorm"
  bottom: "pool7"
  top: "bn7"
  include {
    phase: TRAIN
  }
  batch_norm_param {
    use_global_stats: false
    moving_average_fraction: 0.95
  }
}
layer {
  name: "scale7"
  type: "Scale"
  bottom: "bn7"
  top: "scale7"
  scale_param {
    bias_term: true
  }
}
layer {
  name: "relu7"
  type: "ReLU"
  bottom: "scale7"
  top: "scale7"
}
layer {
  name: "drop7"
  type: "Dropout"
  bottom: "scale7"
  top: "scale7"
  dropout_param {
    dropout_ratio: 0.2
  }
}
layer {
  name: "conv8"
  type: "Convolution"
  bottom: "scale7"
  top: "conv8"
  param {
    lr_mult: 1
  }
  convolution_param {
    num_output: 64
    bias_term: true
    pad: 1
    kernel_size: 3
    stride: 1
    weight_filler {
      type: "xavier"
    }
  }
}
layer {
  name: "bn8"
  type: "BatchNorm"
  bottom: "conv8"
  top: "bn8"
  include {
    phase: TRAIN
  }
  batch_norm_param {
    use_global_stats: false
    moving_average_fraction: 0.95
  }
}
layer {
  name: "scale8"
  type: "Scale"
  bottom: "bn8"
  top: "scale8"
  scale_param {
    bias_term: true
  }
}
layer {
  name: "relu8"
  type: "PReLU"
  bottom: "scale8"
  top: "scale8"
}
layer {
  name: "drop8"
  type: "Dropout"
  bottom: "scale8"
  top: "scale8"
  dropout_param {
    dropout_ratio: 0.2
  }
}
layer {
  name: "conv9"
  type: "Convolution"
  bottom: "scale8"
  top: "conv9"
  param {
    lr_mult: 1
  }
  convolution_param {
    num_output: 128
    bias_term: true
    pad: 1
    kernel_size: 3
    stride: 1
    weight_filler {
      type: "xavier"
    }
  }
}
layer {
  name: "bn9"
  type: "BatchNorm"
  bottom: "conv9"
  top: "bn9"
  include {
    phase: TRAIN
  }
  batch_norm_param {
    use_global_stats: false
    moving_average_fraction: 0.95
  }
}
layer {
  name: "scale9"
  type: "Scale"
  bottom: "bn9"
  top: "scale9"
  scale_param {
    bias_term: true
  }
}
layer {
  name: "relu9"
  type: "PReLU"
  bottom: "scale9"
  top: "scale9"
}
layer {
  name: "drop9"
  type: "Dropout"
  bottom: "scale9"
  top: "scale9"
  dropout_param {
    dropout_ratio: 0.2
  }
}
layer {
  name: "pool9"
  type: "Pooling"
  bottom: "scale9"
  top: "pool9"
  pooling_param {
    pool: MAX
    kernel_size: 2
    stride: 2
  }
}
layer {
  name: "conv10"
  type: "Convolution"
  bottom: "pool9"
  top: "conv10"
  param {
    lr_mult: 1
  }
  convolution_param {
    num_output: 128
    bias_term: true
    pad: 1
    kernel_size: 3
    stride: 1
    weight_filler {
      type: "xavier"
    }
  }
}
layer {
  name: "bn10"
  type: "BatchNorm"
  bottom: "conv10"
  top: "bn10"
  include {
    phase: TRAIN
  }
  batch_norm_param {
    use_global_stats: false
    moving_average_fraction: 0.95
  }
}
layer {
  name: "scale10"
  type: "Scale"
  bottom: "bn10"
  top: "scale10"
  scale_param {
    bias_term: true
  }
}
layer {
  name: "relu10"
  type: "PReLU"
  bottom: "scale10"
  top: "scale10"
}
layer {
  name: "drop10"
  type: "Dropout"
  bottom: "scale10"
  top: "scale10"
  dropout_param {
    dropout_ratio: 0.2
  }
}
layer {
  name: "cccp4"
  type: "Convolution"
  bottom: "scale10"
  top: "cccp4"
  param {
    lr_mult: 1
    decay_mult: 1
  }
  param {
    lr_mult: 2
    decay_mult: 0
  }
  convolution_param {
    num_output: 128
    kernel_size: 3
    group: 1
    weight_filler {
      type: "xavier"
    }
    bias_filler {
      type: "constant"
      value: 0
    }
  }
}
layer {
  name: "relu_cccp4"
  type: "PReLU"
  bottom: "cccp4"
  top: "cccp4"
}
layer {
  name: "drop11"
  type: "Dropout"
  bottom: "cccp4"
  top: "cccp4"
  dropout_param {
    dropout_ratio: 0.2
  }
}
layer {
  name: "cccp5"
  type: "Convolution"
  bottom: "cccp4"
  top: "cccp5"
  param {
    lr_mult: 1
    decay_mult: 1
  }
  param {
    lr_mult: 2
    decay_mult: 0
  }
  convolution_param {
    num_output: 128
    pad: 1
    kernel_size: 3
    weight_filler {
      type: "xavier"
    }
    bias_filler {
      type: "constant"
      value: 0
    }
  }
}
layer {
  name: "relu_cccp5"
  type: "PReLU"
  bottom: "cccp5"
  top: "cccp5"
}
layer {
  name: "drop12"
  type: "Dropout"
  bottom: "cccp5"
  top: "cccp5"
  dropout_param {
    dropout_ratio: 0.2
  }
}
layer {
  name: "poolcp5"
  type: "Pooling"
  bottom: "cccp5"
  top: "poolcp5"
  pooling_param {
    pool: MAX
    kernel_size: 2
    stride: 2
  }
}
layer {
  name: "cccp6"
  type: "Convolution"
  bottom: "poolcp5"
  top: "cccp6"
  param {
    lr_mult: 1
    decay_mult: 1
  }
  param {
    lr_mult: 2
    decay_mult: 0
  }
  convolution_param {
    num_output: 128
    pad: 1
    kernel_size: 3
    group: 1
    weight_filler {
      type: "xavier"
    }
    bias_filler {
      type: "constant"
      value: 0
    }
  }
}
layer {
  name: "relu_cccp6"
  type: "PReLU"
  bottom: "cccp6"
  top: "cccp6"
}
layer {
  name: "drop13"
  type: "Dropout"
  bottom: "cccp6"
  top: "cccp6"
  dropout_param {
    dropout_ratio: 0.2
  }
}
layer {
  name: "poolcp6"
  type: "Pooling"
  bottom: "cccp6"
  top: "poolcp6"
  pooling_param {
    pool: MAX
    kernel_size: 2
    stride: 2
  }
}
layer {
  name: "ip1"
  type: "InnerProduct"
  bottom: "poolcp6"
  top: "ip1"
  param {
    lr_mult: 1
    decay_mult: 0
  }
  param {
    lr_mult: 2
    decay_mult: 0
  }
  inner_product_param {
    num_output: 10
    weight_filler {
      type: "xavier"
    }
    bias_filler {
      type: "constant"
    }
  }
}
layer {
  name: "accuracy_training"
  type: "Accuracy"
  bottom: "ip1"
  bottom: "label"
  top: "accuracy_training"
  include {
    phase: TRAIN
  }
}
layer {
  name: "loss"
  type: "SoftmaxWithLoss"
  bottom: "ip1"
  bottom: "label"
  top: "loss"
}
I0318 08:38:06.346583 17004 layer_factory.cpp:58] Creating layer cifar
I0318 08:38:06.356569 17004 net.cpp:100] Creating Layer cifar
I0318 08:38:06.356569 17004 net.cpp:408] cifar -> data
I0318 08:38:06.356569 17004 net.cpp:408] cifar -> label
I0318 08:38:06.356569 17004 data_transformer.cpp:25] Loading mean file from: examples/cifar10/mean.binaryproto
I0318 08:38:06.361078 11820 common.cpp:36] System entropy source not available, using fallback algorithm to generate seed instead.
I0318 08:38:06.376351 11820 db_lmdb.cpp:40] Opened lmdb examples/cifar10/cifar10_train_lmdb
I0318 08:38:06.446370 17004 data_layer.cpp:41] output data size: 100,3,32,32
I0318 08:38:06.458379 17004 net.cpp:150] Setting up cifar
I0318 08:38:06.458379 17004 net.cpp:157] Top shape: 100 3 32 32 (307200)
I0318 08:38:06.458379 17004 net.cpp:157] Top shape: 100 (100)
I0318 08:38:06.458379 17004 net.cpp:165] Memory required for data: 1229200
I0318 08:38:06.458379 17004 layer_factory.cpp:58] Creating layer label_cifar_1_split
I0318 08:38:06.458379 17004 net.cpp:100] Creating Layer label_cifar_1_split
I0318 08:38:06.458379 17004 net.cpp:434] label_cifar_1_split <- label
I0318 08:38:06.458379 17004 net.cpp:408] label_cifar_1_split -> label_cifar_1_split_0
I0318 08:38:06.458379 17004 net.cpp:408] label_cifar_1_split -> label_cifar_1_split_1
I0318 08:38:06.458379 17004 net.cpp:150] Setting up label_cifar_1_split
I0318 08:38:06.458379 17004 net.cpp:157] Top shape: 100 (100)
I0318 08:38:06.458379 17004 net.cpp:157] Top shape: 100 (100)
I0318 08:38:06.458379 17004 net.cpp:165] Memory required for data: 1230000
I0318 08:38:06.458379 17004 layer_factory.cpp:58] Creating layer conv1
I0318 08:38:06.458379 17004 net.cpp:100] Creating Layer conv1
I0318 08:38:06.458379 17004 net.cpp:434] conv1 <- data
I0318 08:38:06.458379 17004 net.cpp:408] conv1 -> conv1
I0318 08:38:06.459360 11132 common.cpp:36] System entropy source not available, using fallback algorithm to generate seed instead.
I0318 08:38:07.196348 17004 net.cpp:150] Setting up conv1
I0318 08:38:07.196348 17004 net.cpp:157] Top shape: 100 32 32 32 (3276800)
I0318 08:38:07.196348 17004 net.cpp:165] Memory required for data: 14337200
I0318 08:38:07.196348 17004 layer_factory.cpp:58] Creating layer bn1
I0318 08:38:07.196348 17004 net.cpp:100] Creating Layer bn1
I0318 08:38:07.196348 17004 net.cpp:434] bn1 <- conv1
I0318 08:38:07.196348 17004 net.cpp:408] bn1 -> bn1
I0318 08:38:07.196847 17004 net.cpp:150] Setting up bn1
I0318 08:38:07.196847 17004 net.cpp:157] Top shape: 100 32 32 32 (3276800)
I0318 08:38:07.196847 17004 net.cpp:165] Memory required for data: 27444400
I0318 08:38:07.196847 17004 layer_factory.cpp:58] Creating layer scale1
I0318 08:38:07.196847 17004 net.cpp:100] Creating Layer scale1
I0318 08:38:07.196847 17004 net.cpp:434] scale1 <- bn1
I0318 08:38:07.196847 17004 net.cpp:408] scale1 -> scale1
I0318 08:38:07.196847 17004 layer_factory.cpp:58] Creating layer scale1
I0318 08:38:07.196847 17004 net.cpp:150] Setting up scale1
I0318 08:38:07.196847 17004 net.cpp:157] Top shape: 100 32 32 32 (3276800)
I0318 08:38:07.196847 17004 net.cpp:165] Memory required for data: 40551600
I0318 08:38:07.196847 17004 layer_factory.cpp:58] Creating layer relu1
I0318 08:38:07.196847 17004 net.cpp:100] Creating Layer relu1
I0318 08:38:07.196847 17004 net.cpp:434] relu1 <- scale1
I0318 08:38:07.196847 17004 net.cpp:395] relu1 -> scale1 (in-place)
I0318 08:38:07.199347 17004 net.cpp:150] Setting up relu1
I0318 08:38:07.199347 17004 net.cpp:157] Top shape: 100 32 32 32 (3276800)
I0318 08:38:07.199347 17004 net.cpp:165] Memory required for data: 53658800
I0318 08:38:07.199347 17004 layer_factory.cpp:58] Creating layer drop1
I0318 08:38:07.199849 17004 net.cpp:100] Creating Layer drop1
I0318 08:38:07.199849 17004 net.cpp:434] drop1 <- scale1
I0318 08:38:07.199849 17004 net.cpp:395] drop1 -> scale1 (in-place)
I0318 08:38:07.199849 17004 net.cpp:150] Setting up drop1
I0318 08:38:07.199849 17004 net.cpp:157] Top shape: 100 32 32 32 (3276800)
I0318 08:38:07.199849 17004 net.cpp:165] Memory required for data: 66766000
I0318 08:38:07.199849 17004 layer_factory.cpp:58] Creating layer conv2
I0318 08:38:07.199849 17004 net.cpp:100] Creating Layer conv2
I0318 08:38:07.199849 17004 net.cpp:434] conv2 <- scale1
I0318 08:38:07.199849 17004 net.cpp:408] conv2 -> conv2
I0318 08:38:07.207847 17004 net.cpp:150] Setting up conv2
I0318 08:38:07.207847 17004 net.cpp:157] Top shape: 100 32 32 32 (3276800)
I0318 08:38:07.207847 17004 net.cpp:165] Memory required for data: 79873200
I0318 08:38:07.207847 17004 layer_factory.cpp:58] Creating layer bn2
I0318 08:38:07.207847 17004 net.cpp:100] Creating Layer bn2
I0318 08:38:07.207847 17004 net.cpp:434] bn2 <- conv2
I0318 08:38:07.207847 17004 net.cpp:408] bn2 -> bn2
I0318 08:38:07.207847 17004 net.cpp:150] Setting up bn2
I0318 08:38:07.207847 17004 net.cpp:157] Top shape: 100 32 32 32 (3276800)
I0318 08:38:07.207847 17004 net.cpp:165] Memory required for data: 92980400
I0318 08:38:07.207847 17004 layer_factory.cpp:58] Creating layer scale2
I0318 08:38:07.207847 17004 net.cpp:100] Creating Layer scale2
I0318 08:38:07.207847 17004 net.cpp:434] scale2 <- bn2
I0318 08:38:07.207847 17004 net.cpp:408] scale2 -> scale2
I0318 08:38:07.207847 17004 layer_factory.cpp:58] Creating layer scale2
I0318 08:38:07.207847 17004 net.cpp:150] Setting up scale2
I0318 08:38:07.208348 17004 net.cpp:157] Top shape: 100 32 32 32 (3276800)
I0318 08:38:07.208348 17004 net.cpp:165] Memory required for data: 106087600
I0318 08:38:07.208348 17004 layer_factory.cpp:58] Creating layer relu2
I0318 08:38:07.208348 17004 net.cpp:100] Creating Layer relu2
I0318 08:38:07.208348 17004 net.cpp:434] relu2 <- scale2
I0318 08:38:07.208348 17004 net.cpp:395] relu2 -> scale2 (in-place)
I0318 08:38:07.208847 17004 net.cpp:150] Setting up relu2
I0318 08:38:07.208847 17004 net.cpp:157] Top shape: 100 32 32 32 (3276800)
I0318 08:38:07.208847 17004 net.cpp:165] Memory required for data: 119194800
I0318 08:38:07.208847 17004 layer_factory.cpp:58] Creating layer drop2
I0318 08:38:07.208847 17004 net.cpp:100] Creating Layer drop2
I0318 08:38:07.208847 17004 net.cpp:434] drop2 <- scale2
I0318 08:38:07.208847 17004 net.cpp:395] drop2 -> scale2 (in-place)
I0318 08:38:07.208847 17004 net.cpp:150] Setting up drop2
I0318 08:38:07.208847 17004 net.cpp:157] Top shape: 100 32 32 32 (3276800)
I0318 08:38:07.208847 17004 net.cpp:165] Memory required for data: 132302000
I0318 08:38:07.208847 17004 layer_factory.cpp:58] Creating layer conv3
I0318 08:38:07.208847 17004 net.cpp:100] Creating Layer conv3
I0318 08:38:07.208847 17004 net.cpp:434] conv3 <- scale2
I0318 08:38:07.208847 17004 net.cpp:408] conv3 -> conv3
I0318 08:38:07.220849 17004 net.cpp:150] Setting up conv3
I0318 08:38:07.220849 17004 net.cpp:157] Top shape: 100 48 32 32 (4915200)
I0318 08:38:07.220849 17004 net.cpp:165] Memory required for data: 151962800
I0318 08:38:07.220849 17004 layer_factory.cpp:58] Creating layer bn3
I0318 08:38:07.220849 17004 net.cpp:100] Creating Layer bn3
I0318 08:38:07.220849 17004 net.cpp:434] bn3 <- conv3
I0318 08:38:07.220849 17004 net.cpp:408] bn3 -> bn3
I0318 08:38:07.220849 17004 net.cpp:150] Setting up bn3
I0318 08:38:07.220849 17004 net.cpp:157] Top shape: 100 48 32 32 (4915200)
I0318 08:38:07.220849 17004 net.cpp:165] Memory required for data: 171623600
I0318 08:38:07.220849 17004 layer_factory.cpp:58] Creating layer scale3
I0318 08:38:07.220849 17004 net.cpp:100] Creating Layer scale3
I0318 08:38:07.220849 17004 net.cpp:434] scale3 <- bn3
I0318 08:38:07.220849 17004 net.cpp:408] scale3 -> scale3
I0318 08:38:07.220849 17004 layer_factory.cpp:58] Creating layer scale3
I0318 08:38:07.221348 17004 net.cpp:150] Setting up scale3
I0318 08:38:07.221348 17004 net.cpp:157] Top shape: 100 48 32 32 (4915200)
I0318 08:38:07.221348 17004 net.cpp:165] Memory required for data: 191284400
I0318 08:38:07.221348 17004 layer_factory.cpp:58] Creating layer relu3
I0318 08:38:07.221348 17004 net.cpp:100] Creating Layer relu3
I0318 08:38:07.221348 17004 net.cpp:434] relu3 <- scale3
I0318 08:38:07.221348 17004 net.cpp:395] relu3 -> scale3 (in-place)
I0318 08:38:07.224848 17004 net.cpp:150] Setting up relu3
I0318 08:38:07.224848 17004 net.cpp:157] Top shape: 100 48 32 32 (4915200)
I0318 08:38:07.224848 17004 net.cpp:165] Memory required for data: 210945200
I0318 08:38:07.224848 17004 layer_factory.cpp:58] Creating layer drop3
I0318 08:38:07.224848 17004 net.cpp:100] Creating Layer drop3
I0318 08:38:07.224848 17004 net.cpp:434] drop3 <- scale3
I0318 08:38:07.224848 17004 net.cpp:395] drop3 -> scale3 (in-place)
I0318 08:38:07.224848 17004 net.cpp:150] Setting up drop3
I0318 08:38:07.224848 17004 net.cpp:157] Top shape: 100 48 32 32 (4915200)
I0318 08:38:07.224848 17004 net.cpp:165] Memory required for data: 230606000
I0318 08:38:07.224848 17004 layer_factory.cpp:58] Creating layer conv4
I0318 08:38:07.224848 17004 net.cpp:100] Creating Layer conv4
I0318 08:38:07.224848 17004 net.cpp:434] conv4 <- scale3
I0318 08:38:07.224848 17004 net.cpp:408] conv4 -> conv4
I0318 08:38:07.235350 17004 net.cpp:150] Setting up conv4
I0318 08:38:07.235350 17004 net.cpp:157] Top shape: 100 64 32 32 (6553600)
I0318 08:38:07.235350 17004 net.cpp:165] Memory required for data: 256820400
I0318 08:38:07.235350 17004 layer_factory.cpp:58] Creating layer bn4
I0318 08:38:07.235350 17004 net.cpp:100] Creating Layer bn4
I0318 08:38:07.235350 17004 net.cpp:434] bn4 <- conv4
I0318 08:38:07.235350 17004 net.cpp:408] bn4 -> bn4
I0318 08:38:07.235350 17004 net.cpp:150] Setting up bn4
I0318 08:38:07.235350 17004 net.cpp:157] Top shape: 100 64 32 32 (6553600)
I0318 08:38:07.235350 17004 net.cpp:165] Memory required for data: 283034800
I0318 08:38:07.235350 17004 layer_factory.cpp:58] Creating layer scale4
I0318 08:38:07.235350 17004 net.cpp:100] Creating Layer scale4
I0318 08:38:07.235350 17004 net.cpp:434] scale4 <- bn4
I0318 08:38:07.235350 17004 net.cpp:408] scale4 -> scale4
I0318 08:38:07.235350 17004 layer_factory.cpp:58] Creating layer scale4
I0318 08:38:07.235849 17004 net.cpp:150] Setting up scale4
I0318 08:38:07.235849 17004 net.cpp:157] Top shape: 100 64 32 32 (6553600)
I0318 08:38:07.235849 17004 net.cpp:165] Memory required for data: 309249200
I0318 08:38:07.235849 17004 layer_factory.cpp:58] Creating layer relu4
I0318 08:38:07.235849 17004 net.cpp:100] Creating Layer relu4
I0318 08:38:07.235849 17004 net.cpp:434] relu4 <- scale4
I0318 08:38:07.235849 17004 net.cpp:395] relu4 -> scale4 (in-place)
I0318 08:38:07.236349 17004 net.cpp:150] Setting up relu4
I0318 08:38:07.236349 17004 net.cpp:157] Top shape: 100 64 32 32 (6553600)
I0318 08:38:07.236349 17004 net.cpp:165] Memory required for data: 335463600
I0318 08:38:07.236349 17004 layer_factory.cpp:58] Creating layer pool4
I0318 08:38:07.236349 17004 net.cpp:100] Creating Layer pool4
I0318 08:38:07.236349 17004 net.cpp:434] pool4 <- scale4
I0318 08:38:07.236349 17004 net.cpp:408] pool4 -> pool4
I0318 08:38:07.236349 17004 net.cpp:150] Setting up pool4
I0318 08:38:07.236349 17004 net.cpp:157] Top shape: 100 64 16 16 (1638400)
I0318 08:38:07.236349 17004 net.cpp:165] Memory required for data: 342017200
I0318 08:38:07.236349 17004 layer_factory.cpp:58] Creating layer drop4
I0318 08:38:07.236349 17004 net.cpp:100] Creating Layer drop4
I0318 08:38:07.236349 17004 net.cpp:434] drop4 <- pool4
I0318 08:38:07.236349 17004 net.cpp:395] drop4 -> pool4 (in-place)
I0318 08:38:07.236349 17004 net.cpp:150] Setting up drop4
I0318 08:38:07.236349 17004 net.cpp:157] Top shape: 100 64 16 16 (1638400)
I0318 08:38:07.236349 17004 net.cpp:165] Memory required for data: 348570800
I0318 08:38:07.236349 17004 layer_factory.cpp:58] Creating layer conv5
I0318 08:38:07.236349 17004 net.cpp:100] Creating Layer conv5
I0318 08:38:07.236349 17004 net.cpp:434] conv5 <- pool4
I0318 08:38:07.236349 17004 net.cpp:408] conv5 -> conv5
I0318 08:38:07.238850 17004 net.cpp:150] Setting up conv5
I0318 08:38:07.238850 17004 net.cpp:157] Top shape: 100 64 16 16 (1638400)
I0318 08:38:07.238850 17004 net.cpp:165] Memory required for data: 355124400
I0318 08:38:07.238850 17004 layer_factory.cpp:58] Creating layer bn5
I0318 08:38:07.238850 17004 net.cpp:100] Creating Layer bn5
I0318 08:38:07.238850 17004 net.cpp:434] bn5 <- conv5
I0318 08:38:07.238850 17004 net.cpp:408] bn5 -> bn5
I0318 08:38:07.238850 17004 net.cpp:150] Setting up bn5
I0318 08:38:07.238850 17004 net.cpp:157] Top shape: 100 64 16 16 (1638400)
I0318 08:38:07.238850 17004 net.cpp:165] Memory required for data: 361678000
I0318 08:38:07.238850 17004 layer_factory.cpp:58] Creating layer scale5
I0318 08:38:07.239348 17004 net.cpp:100] Creating Layer scale5
I0318 08:38:07.239348 17004 net.cpp:434] scale5 <- bn5
I0318 08:38:07.239348 17004 net.cpp:408] scale5 -> scale5
I0318 08:38:07.239348 17004 layer_factory.cpp:58] Creating layer scale5
I0318 08:38:07.239348 17004 net.cpp:150] Setting up scale5
I0318 08:38:07.239348 17004 net.cpp:157] Top shape: 100 64 16 16 (1638400)
I0318 08:38:07.239348 17004 net.cpp:165] Memory required for data: 368231600
I0318 08:38:07.239348 17004 layer_factory.cpp:58] Creating layer relu5
I0318 08:38:07.239348 17004 net.cpp:100] Creating Layer relu5
I0318 08:38:07.239348 17004 net.cpp:434] relu5 <- scale5
I0318 08:38:07.239348 17004 net.cpp:395] relu5 -> scale5 (in-place)
I0318 08:38:07.239848 17004 net.cpp:150] Setting up relu5
I0318 08:38:07.239848 17004 net.cpp:157] Top shape: 100 64 16 16 (1638400)
I0318 08:38:07.239848 17004 net.cpp:165] Memory required for data: 374785200
I0318 08:38:07.239848 17004 layer_factory.cpp:58] Creating layer drop5
I0318 08:38:07.239848 17004 net.cpp:100] Creating Layer drop5
I0318 08:38:07.239848 17004 net.cpp:434] drop5 <- scale5
I0318 08:38:07.239848 17004 net.cpp:395] drop5 -> scale5 (in-place)
I0318 08:38:07.239848 17004 net.cpp:150] Setting up drop5
I0318 08:38:07.239848 17004 net.cpp:157] Top shape: 100 64 16 16 (1638400)
I0318 08:38:07.239848 17004 net.cpp:165] Memory required for data: 381338800
I0318 08:38:07.239848 17004 layer_factory.cpp:58] Creating layer conv6
I0318 08:38:07.239848 17004 net.cpp:100] Creating Layer conv6
I0318 08:38:07.239848 17004 net.cpp:434] conv6 <- scale5
I0318 08:38:07.239848 17004 net.cpp:408] conv6 -> conv6
I0318 08:38:07.251848 17004 net.cpp:150] Setting up conv6
I0318 08:38:07.251848 17004 net.cpp:157] Top shape: 100 64 16 16 (1638400)
I0318 08:38:07.251848 17004 net.cpp:165] Memory required for data: 387892400
I0318 08:38:07.251848 17004 layer_factory.cpp:58] Creating layer bn6
I0318 08:38:07.251848 17004 net.cpp:100] Creating Layer bn6
I0318 08:38:07.251848 17004 net.cpp:434] bn6 <- conv6
I0318 08:38:07.251848 17004 net.cpp:408] bn6 -> bn6
I0318 08:38:07.252348 17004 net.cpp:150] Setting up bn6
I0318 08:38:07.252348 17004 net.cpp:157] Top shape: 100 64 16 16 (1638400)
I0318 08:38:07.252348 17004 net.cpp:165] Memory required for data: 394446000
I0318 08:38:07.252348 17004 layer_factory.cpp:58] Creating layer scale6
I0318 08:38:07.252348 17004 net.cpp:100] Creating Layer scale6
I0318 08:38:07.252348 17004 net.cpp:434] scale6 <- bn6
I0318 08:38:07.252348 17004 net.cpp:408] scale6 -> scale6
I0318 08:38:07.252348 17004 layer_factory.cpp:58] Creating layer scale6
I0318 08:38:07.252348 17004 net.cpp:150] Setting up scale6
I0318 08:38:07.252348 17004 net.cpp:157] Top shape: 100 64 16 16 (1638400)
I0318 08:38:07.252348 17004 net.cpp:165] Memory required for data: 400999600
I0318 08:38:07.252348 17004 layer_factory.cpp:58] Creating layer relu6
I0318 08:38:07.252348 17004 net.cpp:100] Creating Layer relu6
I0318 08:38:07.252348 17004 net.cpp:434] relu6 <- scale6
I0318 08:38:07.252348 17004 net.cpp:395] relu6 -> scale6 (in-place)
I0318 08:38:07.254348 17004 net.cpp:150] Setting up relu6
I0318 08:38:07.254348 17004 net.cpp:157] Top shape: 100 64 16 16 (1638400)
I0318 08:38:07.254348 17004 net.cpp:165] Memory required for data: 407553200
I0318 08:38:07.254348 17004 layer_factory.cpp:58] Creating layer drop6
I0318 08:38:07.254348 17004 net.cpp:100] Creating Layer drop6
I0318 08:38:07.254348 17004 net.cpp:434] drop6 <- scale6
I0318 08:38:07.254348 17004 net.cpp:395] drop6 -> scale6 (in-place)
I0318 08:38:07.254348 17004 net.cpp:150] Setting up drop6
I0318 08:38:07.254348 17004 net.cpp:157] Top shape: 100 64 16 16 (1638400)
I0318 08:38:07.254348 17004 net.cpp:165] Memory required for data: 414106800
I0318 08:38:07.254348 17004 layer_factory.cpp:58] Creating layer conv7
I0318 08:38:07.254348 17004 net.cpp:100] Creating Layer conv7
I0318 08:38:07.254348 17004 net.cpp:434] conv7 <- scale6
I0318 08:38:07.254348 17004 net.cpp:408] conv7 -> conv7
I0318 08:38:07.258851 17004 net.cpp:150] Setting up conv7
I0318 08:38:07.258851 17004 net.cpp:157] Top shape: 100 64 16 16 (1638400)
I0318 08:38:07.258851 17004 net.cpp:165] Memory required for data: 420660400
I0318 08:38:07.258851 17004 layer_factory.cpp:58] Creating layer pool7
I0318 08:38:07.258851 17004 net.cpp:100] Creating Layer pool7
I0318 08:38:07.258851 17004 net.cpp:434] pool7 <- conv7
I0318 08:38:07.258851 17004 net.cpp:408] pool7 -> pool7
I0318 08:38:07.258851 17004 net.cpp:150] Setting up pool7
I0318 08:38:07.258851 17004 net.cpp:157] Top shape: 100 64 8 8 (409600)
I0318 08:38:07.258851 17004 net.cpp:165] Memory required for data: 422298800
I0318 08:38:07.258851 17004 layer_factory.cpp:58] Creating layer bn7
I0318 08:38:07.258851 17004 net.cpp:100] Creating Layer bn7
I0318 08:38:07.258851 17004 net.cpp:434] bn7 <- pool7
I0318 08:38:07.258851 17004 net.cpp:408] bn7 -> bn7
I0318 08:38:07.258851 17004 net.cpp:150] Setting up bn7
I0318 08:38:07.258851 17004 net.cpp:157] Top shape: 100 64 8 8 (409600)
I0318 08:38:07.258851 17004 net.cpp:165] Memory required for data: 423937200
I0318 08:38:07.258851 17004 layer_factory.cpp:58] Creating layer scale7
I0318 08:38:07.259348 17004 net.cpp:100] Creating Layer scale7
I0318 08:38:07.259348 17004 net.cpp:434] scale7 <- bn7
I0318 08:38:07.259348 17004 net.cpp:408] scale7 -> scale7
I0318 08:38:07.259348 17004 layer_factory.cpp:58] Creating layer scale7
I0318 08:38:07.259348 17004 net.cpp:150] Setting up scale7
I0318 08:38:07.259348 17004 net.cpp:157] Top shape: 100 64 8 8 (409600)
I0318 08:38:07.259348 17004 net.cpp:165] Memory required for data: 425575600
I0318 08:38:07.259348 17004 layer_factory.cpp:58] Creating layer relu7
I0318 08:38:07.259348 17004 net.cpp:100] Creating Layer relu7
I0318 08:38:07.259348 17004 net.cpp:434] relu7 <- scale7
I0318 08:38:07.259348 17004 net.cpp:395] relu7 -> scale7 (in-place)
I0318 08:38:07.260347 17004 net.cpp:150] Setting up relu7
I0318 08:38:07.260347 17004 net.cpp:157] Top shape: 100 64 8 8 (409600)
I0318 08:38:07.260347 17004 net.cpp:165] Memory required for data: 427214000
I0318 08:38:07.260347 17004 layer_factory.cpp:58] Creating layer drop7
I0318 08:38:07.260849 17004 net.cpp:100] Creating Layer drop7
I0318 08:38:07.260849 17004 net.cpp:434] drop7 <- scale7
I0318 08:38:07.260849 17004 net.cpp:395] drop7 -> scale7 (in-place)
I0318 08:38:07.260849 17004 net.cpp:150] Setting up drop7
I0318 08:38:07.260849 17004 net.cpp:157] Top shape: 100 64 8 8 (409600)
I0318 08:38:07.260849 17004 net.cpp:165] Memory required for data: 428852400
I0318 08:38:07.260849 17004 layer_factory.cpp:58] Creating layer conv8
I0318 08:38:07.260849 17004 net.cpp:100] Creating Layer conv8
I0318 08:38:07.260849 17004 net.cpp:434] conv8 <- scale7
I0318 08:38:07.260849 17004 net.cpp:408] conv8 -> conv8
I0318 08:38:07.269857 17004 net.cpp:150] Setting up conv8
I0318 08:38:07.269857 17004 net.cpp:157] Top shape: 100 64 8 8 (409600)
I0318 08:38:07.269857 17004 net.cpp:165] Memory required for data: 430490800
I0318 08:38:07.269857 17004 layer_factory.cpp:58] Creating layer bn8
I0318 08:38:07.269857 17004 net.cpp:100] Creating Layer bn8
I0318 08:38:07.269857 17004 net.cpp:434] bn8 <- conv8
I0318 08:38:07.269857 17004 net.cpp:408] bn8 -> bn8
I0318 08:38:07.270349 17004 net.cpp:150] Setting up bn8
I0318 08:38:07.270349 17004 net.cpp:157] Top shape: 100 64 8 8 (409600)
I0318 08:38:07.270349 17004 net.cpp:165] Memory required for data: 432129200
I0318 08:38:07.270349 17004 layer_factory.cpp:58] Creating layer scale8
I0318 08:38:07.270349 17004 net.cpp:100] Creating Layer scale8
I0318 08:38:07.270349 17004 net.cpp:434] scale8 <- bn8
I0318 08:38:07.270349 17004 net.cpp:408] scale8 -> scale8
I0318 08:38:07.270349 17004 layer_factory.cpp:58] Creating layer scale8
I0318 08:38:07.270349 17004 net.cpp:150] Setting up scale8
I0318 08:38:07.270349 17004 net.cpp:157] Top shape: 100 64 8 8 (409600)
I0318 08:38:07.270349 17004 net.cpp:165] Memory required for data: 433767600
I0318 08:38:07.270349 17004 layer_factory.cpp:58] Creating layer relu8
I0318 08:38:07.270349 17004 net.cpp:100] Creating Layer relu8
I0318 08:38:07.270349 17004 net.cpp:434] relu8 <- scale8
I0318 08:38:07.270349 17004 net.cpp:395] relu8 -> scale8 (in-place)
I0318 08:38:07.270349 17004 net.cpp:150] Setting up relu8
I0318 08:38:07.270349 17004 net.cpp:157] Top shape: 100 64 8 8 (409600)
I0318 08:38:07.270349 17004 net.cpp:165] Memory required for data: 435406000
I0318 08:38:07.270349 17004 layer_factory.cpp:58] Creating layer drop8
I0318 08:38:07.270349 17004 net.cpp:100] Creating Layer drop8
I0318 08:38:07.270349 17004 net.cpp:434] drop8 <- scale8
I0318 08:38:07.270349 17004 net.cpp:395] drop8 -> scale8 (in-place)
I0318 08:38:07.270349 17004 net.cpp:150] Setting up drop8
I0318 08:38:07.270848 17004 net.cpp:157] Top shape: 100 64 8 8 (409600)
I0318 08:38:07.270848 17004 net.cpp:165] Memory required for data: 437044400
I0318 08:38:07.270848 17004 layer_factory.cpp:58] Creating layer conv9
I0318 08:38:07.270848 17004 net.cpp:100] Creating Layer conv9
I0318 08:38:07.270848 17004 net.cpp:434] conv9 <- scale8
I0318 08:38:07.270848 17004 net.cpp:408] conv9 -> conv9
I0318 08:38:07.275848 17004 net.cpp:150] Setting up conv9
I0318 08:38:07.275848 17004 net.cpp:157] Top shape: 100 128 8 8 (819200)
I0318 08:38:07.275848 17004 net.cpp:165] Memory required for data: 440321200
I0318 08:38:07.275848 17004 layer_factory.cpp:58] Creating layer bn9
I0318 08:38:07.275848 17004 net.cpp:100] Creating Layer bn9
I0318 08:38:07.275848 17004 net.cpp:434] bn9 <- conv9
I0318 08:38:07.275848 17004 net.cpp:408] bn9 -> bn9
I0318 08:38:07.275848 17004 net.cpp:150] Setting up bn9
I0318 08:38:07.275848 17004 net.cpp:157] Top shape: 100 128 8 8 (819200)
I0318 08:38:07.275848 17004 net.cpp:165] Memory required for data: 443598000
I0318 08:38:07.275848 17004 layer_factory.cpp:58] Creating layer scale9
I0318 08:38:07.276348 17004 net.cpp:100] Creating Layer scale9
I0318 08:38:07.276348 17004 net.cpp:434] scale9 <- bn9
I0318 08:38:07.276348 17004 net.cpp:408] scale9 -> scale9
I0318 08:38:07.276348 17004 layer_factory.cpp:58] Creating layer scale9
I0318 08:38:07.276348 17004 net.cpp:150] Setting up scale9
I0318 08:38:07.276348 17004 net.cpp:157] Top shape: 100 128 8 8 (819200)
I0318 08:38:07.276348 17004 net.cpp:165] Memory required for data: 446874800
I0318 08:38:07.276348 17004 layer_factory.cpp:58] Creating layer relu9
I0318 08:38:07.276348 17004 net.cpp:100] Creating Layer relu9
I0318 08:38:07.276348 17004 net.cpp:434] relu9 <- scale9
I0318 08:38:07.276348 17004 net.cpp:395] relu9 -> scale9 (in-place)
I0318 08:38:07.276348 17004 net.cpp:150] Setting up relu9
I0318 08:38:07.276348 17004 net.cpp:157] Top shape: 100 128 8 8 (819200)
I0318 08:38:07.276348 17004 net.cpp:165] Memory required for data: 450151600
I0318 08:38:07.276348 17004 layer_factory.cpp:58] Creating layer drop9
I0318 08:38:07.276348 17004 net.cpp:100] Creating Layer drop9
I0318 08:38:07.276348 17004 net.cpp:434] drop9 <- scale9
I0318 08:38:07.276348 17004 net.cpp:395] drop9 -> scale9 (in-place)
I0318 08:38:07.276849 17004 net.cpp:150] Setting up drop9
I0318 08:38:07.276849 17004 net.cpp:157] Top shape: 100 128 8 8 (819200)
I0318 08:38:07.276849 17004 net.cpp:165] Memory required for data: 453428400
I0318 08:38:07.276849 17004 layer_factory.cpp:58] Creating layer pool9
I0318 08:38:07.276849 17004 net.cpp:100] Creating Layer pool9
I0318 08:38:07.276849 17004 net.cpp:434] pool9 <- scale9
I0318 08:38:07.276849 17004 net.cpp:408] pool9 -> pool9
I0318 08:38:07.276849 17004 net.cpp:150] Setting up pool9
I0318 08:38:07.276849 17004 net.cpp:157] Top shape: 100 128 4 4 (204800)
I0318 08:38:07.276849 17004 net.cpp:165] Memory required for data: 454247600
I0318 08:38:07.276849 17004 layer_factory.cpp:58] Creating layer conv10
I0318 08:38:07.276849 17004 net.cpp:100] Creating Layer conv10
I0318 08:38:07.276849 17004 net.cpp:434] conv10 <- pool9
I0318 08:38:07.276849 17004 net.cpp:408] conv10 -> conv10
I0318 08:38:07.289847 17004 net.cpp:150] Setting up conv10
I0318 08:38:07.290347 17004 net.cpp:157] Top shape: 100 128 4 4 (204800)
I0318 08:38:07.290347 17004 net.cpp:165] Memory required for data: 455066800
I0318 08:38:07.290347 17004 layer_factory.cpp:58] Creating layer bn10
I0318 08:38:07.290347 17004 net.cpp:100] Creating Layer bn10
I0318 08:38:07.290347 17004 net.cpp:434] bn10 <- conv10
I0318 08:38:07.290347 17004 net.cpp:408] bn10 -> bn10
I0318 08:38:07.290347 17004 net.cpp:150] Setting up bn10
I0318 08:38:07.290347 17004 net.cpp:157] Top shape: 100 128 4 4 (204800)
I0318 08:38:07.290347 17004 net.cpp:165] Memory required for data: 455886000
I0318 08:38:07.290347 17004 layer_factory.cpp:58] Creating layer scale10
I0318 08:38:07.290347 17004 net.cpp:100] Creating Layer scale10
I0318 08:38:07.290347 17004 net.cpp:434] scale10 <- bn10
I0318 08:38:07.290347 17004 net.cpp:408] scale10 -> scale10
I0318 08:38:07.290347 17004 layer_factory.cpp:58] Creating layer scale10
I0318 08:38:07.290347 17004 net.cpp:150] Setting up scale10
I0318 08:38:07.290347 17004 net.cpp:157] Top shape: 100 128 4 4 (204800)
I0318 08:38:07.290347 17004 net.cpp:165] Memory required for data: 456705200
I0318 08:38:07.290347 17004 layer_factory.cpp:58] Creating layer relu10
I0318 08:38:07.290848 17004 net.cpp:100] Creating Layer relu10
I0318 08:38:07.290848 17004 net.cpp:434] relu10 <- scale10
I0318 08:38:07.290848 17004 net.cpp:395] relu10 -> scale10 (in-place)
I0318 08:38:07.290848 17004 net.cpp:150] Setting up relu10
I0318 08:38:07.290848 17004 net.cpp:157] Top shape: 100 128 4 4 (204800)
I0318 08:38:07.290848 17004 net.cpp:165] Memory required for data: 457524400
I0318 08:38:07.290848 17004 layer_factory.cpp:58] Creating layer drop10
I0318 08:38:07.290848 17004 net.cpp:100] Creating Layer drop10
I0318 08:38:07.290848 17004 net.cpp:434] drop10 <- scale10
I0318 08:38:07.290848 17004 net.cpp:395] drop10 -> scale10 (in-place)
I0318 08:38:07.290848 17004 net.cpp:150] Setting up drop10
I0318 08:38:07.290848 17004 net.cpp:157] Top shape: 100 128 4 4 (204800)
I0318 08:38:07.290848 17004 net.cpp:165] Memory required for data: 458343600
I0318 08:38:07.290848 17004 layer_factory.cpp:58] Creating layer cccp4
I0318 08:38:07.290848 17004 net.cpp:100] Creating Layer cccp4
I0318 08:38:07.290848 17004 net.cpp:434] cccp4 <- scale10
I0318 08:38:07.290848 17004 net.cpp:408] cccp4 -> cccp4
I0318 08:38:07.300848 17004 net.cpp:150] Setting up cccp4
I0318 08:38:07.300848 17004 net.cpp:157] Top shape: 100 128 2 2 (51200)
I0318 08:38:07.300848 17004 net.cpp:165] Memory required for data: 458548400
I0318 08:38:07.300848 17004 layer_factory.cpp:58] Creating layer relu_cccp4
I0318 08:38:07.300848 17004 net.cpp:100] Creating Layer relu_cccp4
I0318 08:38:07.300848 17004 net.cpp:434] relu_cccp4 <- cccp4
I0318 08:38:07.300848 17004 net.cpp:395] relu_cccp4 -> cccp4 (in-place)
I0318 08:38:07.301347 17004 net.cpp:150] Setting up relu_cccp4
I0318 08:38:07.301347 17004 net.cpp:157] Top shape: 100 128 2 2 (51200)
I0318 08:38:07.301347 17004 net.cpp:165] Memory required for data: 458753200
I0318 08:38:07.301347 17004 layer_factory.cpp:58] Creating layer drop11
I0318 08:38:07.301347 17004 net.cpp:100] Creating Layer drop11
I0318 08:38:07.301347 17004 net.cpp:434] drop11 <- cccp4
I0318 08:38:07.301347 17004 net.cpp:395] drop11 -> cccp4 (in-place)
I0318 08:38:07.301347 17004 net.cpp:150] Setting up drop11
I0318 08:38:07.301347 17004 net.cpp:157] Top shape: 100 128 2 2 (51200)
I0318 08:38:07.301347 17004 net.cpp:165] Memory required for data: 458958000
I0318 08:38:07.301347 17004 layer_factory.cpp:58] Creating layer cccp5
I0318 08:38:07.301347 17004 net.cpp:100] Creating Layer cccp5
I0318 08:38:07.301347 17004 net.cpp:434] cccp5 <- cccp4
I0318 08:38:07.301347 17004 net.cpp:408] cccp5 -> cccp5
I0318 08:38:07.307848 17004 net.cpp:150] Setting up cccp5
I0318 08:38:07.307848 17004 net.cpp:157] Top shape: 100 128 2 2 (51200)
I0318 08:38:07.307848 17004 net.cpp:165] Memory required for data: 459162800
I0318 08:38:07.307848 17004 layer_factory.cpp:58] Creating layer relu_cccp5
I0318 08:38:07.307848 17004 net.cpp:100] Creating Layer relu_cccp5
I0318 08:38:07.307848 17004 net.cpp:434] relu_cccp5 <- cccp5
I0318 08:38:07.307848 17004 net.cpp:395] relu_cccp5 -> cccp5 (in-place)
I0318 08:38:07.307848 17004 net.cpp:150] Setting up relu_cccp5
I0318 08:38:07.307848 17004 net.cpp:157] Top shape: 100 128 2 2 (51200)
I0318 08:38:07.307848 17004 net.cpp:165] Memory required for data: 459367600
I0318 08:38:07.307848 17004 layer_factory.cpp:58] Creating layer drop12
I0318 08:38:07.307848 17004 net.cpp:100] Creating Layer drop12
I0318 08:38:07.307848 17004 net.cpp:434] drop12 <- cccp5
I0318 08:38:07.307848 17004 net.cpp:395] drop12 -> cccp5 (in-place)
I0318 08:38:07.308348 17004 net.cpp:150] Setting up drop12
I0318 08:38:07.308348 17004 net.cpp:157] Top shape: 100 128 2 2 (51200)
I0318 08:38:07.308348 17004 net.cpp:165] Memory required for data: 459572400
I0318 08:38:07.308348 17004 layer_factory.cpp:58] Creating layer poolcp5
I0318 08:38:07.308348 17004 net.cpp:100] Creating Layer poolcp5
I0318 08:38:07.308348 17004 net.cpp:434] poolcp5 <- cccp5
I0318 08:38:07.308348 17004 net.cpp:408] poolcp5 -> poolcp5
I0318 08:38:07.308348 17004 net.cpp:150] Setting up poolcp5
I0318 08:38:07.308348 17004 net.cpp:157] Top shape: 100 128 1 1 (12800)
I0318 08:38:07.308348 17004 net.cpp:165] Memory required for data: 459623600
I0318 08:38:07.308348 17004 layer_factory.cpp:58] Creating layer cccp6
I0318 08:38:07.308348 17004 net.cpp:100] Creating Layer cccp6
I0318 08:38:07.308348 17004 net.cpp:434] cccp6 <- poolcp5
I0318 08:38:07.308348 17004 net.cpp:408] cccp6 -> cccp6
I0318 08:38:07.312849 17004 net.cpp:150] Setting up cccp6
I0318 08:38:07.312849 17004 net.cpp:157] Top shape: 100 128 1 1 (12800)
I0318 08:38:07.312849 17004 net.cpp:165] Memory required for data: 459674800
I0318 08:38:07.312849 17004 layer_factory.cpp:58] Creating layer relu_cccp6
I0318 08:38:07.312849 17004 net.cpp:100] Creating Layer relu_cccp6
I0318 08:38:07.312849 17004 net.cpp:434] relu_cccp6 <- cccp6
I0318 08:38:07.312849 17004 net.cpp:395] relu_cccp6 -> cccp6 (in-place)
I0318 08:38:07.312849 17004 net.cpp:150] Setting up relu_cccp6
I0318 08:38:07.312849 17004 net.cpp:157] Top shape: 100 128 1 1 (12800)
I0318 08:38:07.312849 17004 net.cpp:165] Memory required for data: 459726000
I0318 08:38:07.312849 17004 layer_factory.cpp:58] Creating layer drop13
I0318 08:38:07.312849 17004 net.cpp:100] Creating Layer drop13
I0318 08:38:07.312849 17004 net.cpp:434] drop13 <- cccp6
I0318 08:38:07.312849 17004 net.cpp:395] drop13 -> cccp6 (in-place)
I0318 08:38:07.312849 17004 net.cpp:150] Setting up drop13
I0318 08:38:07.313347 17004 net.cpp:157] Top shape: 100 128 1 1 (12800)
I0318 08:38:07.313347 17004 net.cpp:165] Memory required for data: 459777200
I0318 08:38:07.313347 17004 layer_factory.cpp:58] Creating layer poolcp6
I0318 08:38:07.313347 17004 net.cpp:100] Creating Layer poolcp6
I0318 08:38:07.313347 17004 net.cpp:434] poolcp6 <- cccp6
I0318 08:38:07.313347 17004 net.cpp:408] poolcp6 -> poolcp6
I0318 08:38:07.313347 17004 net.cpp:150] Setting up poolcp6
I0318 08:38:07.313347 17004 net.cpp:157] Top shape: 100 128 1 1 (12800)
I0318 08:38:07.313347 17004 net.cpp:165] Memory required for data: 459828400
I0318 08:38:07.313347 17004 layer_factory.cpp:58] Creating layer ip1
I0318 08:38:07.313347 17004 net.cpp:100] Creating Layer ip1
I0318 08:38:07.313347 17004 net.cpp:434] ip1 <- poolcp6
I0318 08:38:07.313347 17004 net.cpp:408] ip1 -> ip1
I0318 08:38:07.313347 17004 net.cpp:150] Setting up ip1
I0318 08:38:07.313347 17004 net.cpp:157] Top shape: 100 10 (1000)
I0318 08:38:07.313347 17004 net.cpp:165] Memory required for data: 459832400
I0318 08:38:07.313347 17004 layer_factory.cpp:58] Creating layer ip1_ip1_0_split
I0318 08:38:07.313347 17004 net.cpp:100] Creating Layer ip1_ip1_0_split
I0318 08:38:07.313347 17004 net.cpp:434] ip1_ip1_0_split <- ip1
I0318 08:38:07.313347 17004 net.cpp:408] ip1_ip1_0_split -> ip1_ip1_0_split_0
I0318 08:38:07.313347 17004 net.cpp:408] ip1_ip1_0_split -> ip1_ip1_0_split_1
I0318 08:38:07.313347 17004 net.cpp:150] Setting up ip1_ip1_0_split
I0318 08:38:07.313347 17004 net.cpp:157] Top shape: 100 10 (1000)
I0318 08:38:07.313347 17004 net.cpp:157] Top shape: 100 10 (1000)
I0318 08:38:07.313347 17004 net.cpp:165] Memory required for data: 459840400
I0318 08:38:07.313347 17004 layer_factory.cpp:58] Creating layer accuracy_training
I0318 08:38:07.313347 17004 net.cpp:100] Creating Layer accuracy_training
I0318 08:38:07.313347 17004 net.cpp:434] accuracy_training <- ip1_ip1_0_split_0
I0318 08:38:07.313347 17004 net.cpp:434] accuracy_training <- label_cifar_1_split_0
…
