…
I0401 22:41:18.400369  9576 net.cpp:322] The NetState phase (0) differed from the phase (1) specified by a rule in layer bn4_0
I0401 22:41:18.400369  9576 net.cpp:322] The NetState phase (0) differed from the phase (1) specified by a rule in layer accuracy
I0401 22:41:18.400369  9576 net.cpp:58] Initializing net from parameters: 
name: "SlimNet_FX_310"
state {
  phase: TRAIN
  level: 0
  stage: ""
}
layer {
  name: "mnist"
  type: "Data"
  top: "data"
  top: "label"
  include {
    phase: TRAIN
  }
  data_param {
    source: "examples/mnist/mnist_train_lmdb_norm2"
    batch_size: 100
    backend: LMDB
  }
}
layer {
  name: "conv1"
  type: "Convolution"
  bottom: "data"
  top: "conv1"
  param {
    lr_mult: 1
  }
  convolution_param {
    num_output: 32
    bias_term: true
    pad: 1
    kernel_size: 3
    stride: 1
    weight_filler {
      type: "xavier"
    }
  }
}
layer {
  name: "bn1"
  type: "BatchNorm"
  bottom: "conv1"
  top: "bn1"
  include {
    phase: TRAIN
  }
  batch_norm_param {
    use_global_stats: false
    moving_average_fraction: 0.95
  }
}
layer {
  name: "scale1"
  type: "Scale"
  bottom: "bn1"
  top: "scale1"
  scale_param {
    bias_term: true
  }
}
layer {
  name: "relu1"
  type: "ReLU"
  bottom: "scale1"
  top: "relu1"
}
layer {
  name: "conv1_0"
  type: "Convolution"
  bottom: "relu1"
  top: "conv1_0"
  param {
    lr_mult: 1
  }
  convolution_param {
    num_output: 32
    bias_term: true
    pad: 1
    kernel_size: 3
    stride: 1
    weight_filler {
      type: "xavier"
    }
  }
}
layer {
  name: "bn1_0"
  type: "BatchNorm"
  bottom: "conv1_0"
  top: "bn1_0"
  include {
    phase: TRAIN
  }
  batch_norm_param {
    use_global_stats: false
    moving_average_fraction: 0.95
  }
}
layer {
  name: "scale1_0"
  type: "Scale"
  bottom: "bn1_0"
  top: "scale1_0"
  scale_param {
    bias_term: true
  }
}
layer {
  name: "relu1_0"
  type: "ReLU"
  bottom: "scale1_0"
  top: "relu1_0"
}
layer {
  name: "conv2"
  type: "Convolution"
  bottom: "relu1_0"
  top: "conv2"
  param {
    lr_mult: 1
  }
  convolution_param {
    num_output: 32
    bias_term: true
    pad: 1
    kernel_size: 3
    stride: 1
    weight_filler {
      type: "gaussian"
      std: 0.01
    }
  }
}
layer {
  name: "bn2"
  type: "BatchNorm"
  bottom: "conv2"
  top: "bn2"
  include {
    phase: TRAIN
  }
  batch_norm_param {
    use_global_stats: false
    moving_average_fraction: 0.95
  }
}
layer {
  name: "scale2"
  type: "Scale"
  bottom: "bn2"
  top: "scale2"
  scale_param {
    bias_term: true
  }
}
layer {
  name: "relu2"
  type: "ReLU"
  bottom: "scale2"
  top: "relu2"
}
layer {
  name: "conv2_1"
  type: "Convolution"
  bottom: "relu2"
  top: "conv2_1"
  param {
    lr_mult: 1
  }
  convolution_param {
    num_output: 32
    bias_term: true
    pad: 1
    kernel_size: 3
    stride: 1
    weight_filler {
      type: "gaussian"
      std: 0.01
    }
  }
}
layer {
  name: "bn2_1"
  type: "BatchNorm"
  bottom: "conv2_1"
  top: "bn2_1"
  include {
    phase: TRAIN
  }
  batch_norm_param {
    use_global_stats: false
    moving_average_fraction: 0.95
  }
}
layer {
  name: "scale2_1"
  type: "Scale"
  bottom: "bn2_1"
  top: "scale2_1"
  scale_param {
    bias_term: true
  }
}
layer {
  name: "relu2_1"
  type: "ReLU"
  bottom: "scale2_1"
  top: "relu2_1"
}
layer {
  name: "pool2_1"
  type: "Pooling"
  bottom: "relu2_1"
  top: "pool2_1"
  pooling_param {
    pool: MAX
    kernel_size: 2
    stride: 2
  }
}
layer {
  name: "conv2_2"
  type: "Convolution"
  bottom: "pool2_1"
  top: "conv2_2"
  param {
    lr_mult: 1
  }
  convolution_param {
    num_output: 50
    bias_term: true
    pad: 1
    kernel_size: 3
    stride: 1
    weight_filler {
      type: "gaussian"
      std: 0.01
    }
  }
}
layer {
  name: "bn2_2"
  type: "BatchNorm"
  bottom: "conv2_2"
  top: "bn2_2"
  include {
    phase: TRAIN
  }
  batch_norm_param {
    use_global_stats: false
    moving_average_fraction: 0.95
  }
}
layer {
  name: "scale2_2"
  type: "Scale"
  bottom: "bn2_2"
  top: "scale2_2"
  scale_param {
    bias_term: true
  }
}
layer {
  name: "relu2_2"
  type: "ReLU"
  bottom: "scale2_2"
  top: "relu2_2"
}
layer {
  name: "conv3"
  type: "Convolution"
  bottom: "relu2_2"
  top: "conv3"
  param {
    lr_mult: 1
  }
  convolution_param {
    num_output: 64
    bias_term: true
    pad: 1
    kernel_size: 3
    stride: 1
    weight_filler {
      type: "xavier"
    }
  }
}
layer {
  name: "bn3"
  type: "BatchNorm"
  bottom: "conv3"
  top: "bn3"
  include {
    phase: TRAIN
  }
  batch_norm_param {
    use_global_stats: false
    moving_average_fraction: 0.95
  }
}
layer {
  name: "scale3"
  type: "Scale"
  bottom: "bn3"
  top: "scale3"
  scale_param {
    bias_term: true
  }
}
layer {
  name: "relu3"
  type: "ReLU"
  bottom: "scale3"
  top: "relu3"
}
layer {
  name: "conv4"
  type: "Convolution"
  bottom: "relu3"
  top: "conv4"
  param {
    lr_mult: 1
  }
  convolution_param {
    num_output: 64
    bias_term: true
    pad: 1
    kernel_size: 3
    stride: 1
    weight_filler {
      type: "xavier"
    }
  }
}
layer {
  name: "pool4"
  type: "Pooling"
  bottom: "conv4"
  top: "pool4"
  pooling_param {
    pool: MAX
    kernel_size: 2
    stride: 2
  }
}
layer {
  name: "bn4"
  type: "BatchNorm"
  bottom: "pool4"
  top: "bn4"
  include {
    phase: TRAIN
  }
  batch_norm_param {
    use_global_stats: false
    moving_average_fraction: 0.95
  }
}
layer {
  name: "scale4"
  type: "Scale"
  bottom: "bn4"
  top: "scale4"
  scale_param {
    bias_term: true
  }
}
layer {
  name: "relu4"
  type: "ReLU"
  bottom: "scale4"
  top: "relu4"
}
layer {
  name: "conv4_1"
  type: "Convolution"
  bottom: "relu4"
  top: "conv4_1"
  param {
    lr_mult: 1
  }
  convolution_param {
    num_output: 64
    bias_term: true
    pad: 1
    kernel_size: 3
    stride: 1
    weight_filler {
      type: "xavier"
    }
  }
}
layer {
  name: "bn4_1"
  type: "BatchNorm"
  bottom: "conv4_1"
  top: "bn4_1"
  include {
    phase: TRAIN
  }
  batch_norm_param {
    use_global_stats: false
    moving_average_fraction: 0.95
  }
}
layer {
  name: "scale4_1"
  type: "Scale"
  bottom: "bn4_1"
  top: "scale4_1"
  scale_param {
    bias_term: true
  }
}
layer {
  name: "relu4_1"
  type: "ReLU"
  bottom: "scale4_1"
  top: "relu4_1"
}
layer {
  name: "conv4_2"
  type: "Convolution"
  bottom: "relu4_1"
  top: "conv4_2"
  param {
    lr_mult: 1
  }
  convolution_param {
    num_output: 64
    bias_term: true
    pad: 1
    kernel_size: 3
    stride: 1
    weight_filler {
      type: "xavier"
    }
  }
}
layer {
  name: "bn4_2"
  type: "BatchNorm"
  bottom: "conv4_2"
  top: "bn4_2"
  include {
    phase: TRAIN
  }
  batch_norm_param {
    use_global_stats: false
    moving_average_fraction: 0.95
  }
}
layer {
  name: "scale4_2"
  type: "Scale"
  bottom: "bn4_2"
  top: "scale4_2"
  scale_param {
    bias_term: true
  }
}
layer {
  name: "relu4_2"
  type: "ReLU"
  bottom: "scale4_2"
  top: "relu4_2"
}
layer {
  name: "pool4_2"
  type: "Pooling"
  bottom: "relu4_2"
  top: "pool4_2"
  pooling_param {
    pool: MAX
    kernel_size: 2
    stride: 2
  }
}
layer {
  name: "conv4_0"
  type: "Convolution"
  bottom: "pool4_2"
  top: "conv4_0"
  param {
    lr_mult: 1
  }
  convolution_param {
    num_output: 64
    bias_term: true
    pad: 1
    kernel_size: 3
    stride: 1
    weight_filler {
      type: "xavier"
    }
  }
}
layer {
  name: "bn4_0"
  type: "BatchNorm"
  bottom: "conv4_0"
  top: "bn4_0"
  include {
    phase: TRAIN
  }
  batch_norm_param {
    use_global_stats: false
    moving_average_fraction: 0.95
  }
}
layer {
  name: "scale4_0"
  type: "Scale"
  bottom: "bn4_0"
  top: "scale4_0"
  scale_param {
    bias_term: true
  }
}
layer {
  name: "relu4_0"
  type: "ReLU"
  bottom: "scale4_0"
  top: "relu4_0"
}
layer {
  name: "cccp4"
  type: "Convolution"
  bottom: "relu4_0"
  top: "cccp4"
  param {
    lr_mult: 1
    decay_mult: 1
  }
  param {
    lr_mult: 2
    decay_mult: 0
  }
  convolution_param {
    num_output: 64
    pad: 1
    kernel_size: 3
    weight_filler {
      type: "xavier"
    }
    bias_filler {
      type: "constant"
      value: 0
    }
  }
}
layer {
  name: "relu_cccp4"
  type: "ReLU"
  bottom: "cccp4"
  top: "cccp4"
}
layer {
  name: "cccp5"
  type: "Convolution"
  bottom: "cccp4"
  top: "cccp5"
  param {
    lr_mult: 1
    decay_mult: 1
  }
  param {
    lr_mult: 2
    decay_mult: 0
  }
  convolution_param {
    num_output: 64
    pad: 1
    kernel_size: 3
    weight_filler {
      type: "xavier"
    }
    bias_filler {
      type: "constant"
      value: 0
    }
  }
}
layer {
  name: "relu_cccp5"
  type: "ReLU"
  bottom: "cccp5"
  top: "cccp5"
}
layer {
  name: "poolcp5"
  type: "Pooling"
  bottom: "cccp5"
  top: "poolcp5"
  pooling_param {
    pool: MAX
    kernel_size: 2
    stride: 2
  }
}
layer {
  name: "cccp6"
  type: "Convolution"
  bottom: "poolcp5"
  top: "cccp6"
  param {
    lr_mult: 1
    decay_mult: 1
  }
  param {
    lr_mult: 2
    decay_mult: 0
  }
  convolution_param {
    num_output: 100
    kernel_size: 1
    group: 1
    weight_filler {
      type: "xavier"
    }
    bias_filler {
      type: "constant"
      value: 0
    }
  }
}
layer {
  name: "relu_cccp6"
  type: "ReLU"
  bottom: "cccp6"
  top: "cccp6"
}
layer {
  name: "poolcp6"
  type: "Pooling"
  bottom: "cccp6"
  top: "poolcp6"
  pooling_param {
    pool: MAX
    kernel_size: 2
    stride: 2
  }
}
layer {
  name: "ip1"
  type: "InnerProduct"
  bottom: "poolcp6"
  top: "ip1"
  param {
    lr_mult: 1
    decay_mult: 0
  }
  param {
    lr_mult: 2
    decay_mult: 0
  }
  inner_product_param {
    num_output: 10
    weight_filler {
      type: "xavier"
    }
    bias_filler {
      type: "constant"
    }
  }
}
layer {
  name: "accuracy_training"
  type: "Accuracy"
  bottom: "ip1"
  bottom: "label"
  top: "accuracy_training"
  include {
    phase: TRAIN
  }
}
layer {
  name: "loss"
  type: "SoftmaxWithLoss"
  bottom: "ip1"
  bottom: "label"
  top: "loss"
}
I0401 22:41:18.401368  9576 layer_factory.cpp:58] Creating layer mnist
I0401 22:41:18.401368  9576 common.cpp:36] System entropy source not available, using fallback algorithm to generate seed instead.
I0401 22:41:18.402369  9576 net.cpp:100] Creating Layer mnist
I0401 22:41:18.403369  9576 net.cpp:408] mnist -> data
I0401 22:41:18.403369  9576 net.cpp:408] mnist -> label
I0401 22:41:18.404369 13628 common.cpp:36] System entropy source not available, using fallback algorithm to generate seed instead.
I0401 22:41:18.411370 13628 db_lmdb.cpp:40] Opened lmdb examples/mnist/mnist_train_lmdb_norm2
I0401 22:41:18.435369  9576 data_layer.cpp:41] output data size: 100,1,28,28
I0401 22:41:18.437369  9576 net.cpp:150] Setting up mnist
I0401 22:41:18.437369  9576 net.cpp:157] Top shape: 100 1 28 28 (78400)
I0401 22:41:18.437369  9576 net.cpp:157] Top shape: 100 (100)
I0401 22:41:18.437369  9576 net.cpp:165] Memory required for data: 314000
I0401 22:41:18.437369  9576 layer_factory.cpp:58] Creating layer label_mnist_1_split
I0401 22:41:18.437369  9576 net.cpp:100] Creating Layer label_mnist_1_split
I0401 22:41:18.437369  9576 net.cpp:434] label_mnist_1_split <- label
I0401 22:41:18.437369  9576 net.cpp:408] label_mnist_1_split -> label_mnist_1_split_0
I0401 22:41:18.437369  9576 net.cpp:408] label_mnist_1_split -> label_mnist_1_split_1
I0401 22:41:18.437369  9576 net.cpp:150] Setting up label_mnist_1_split
I0401 22:41:18.437369  9576 net.cpp:157] Top shape: 100 (100)
I0401 22:41:18.437369  9576 net.cpp:157] Top shape: 100 (100)
I0401 22:41:18.437369  9576 net.cpp:165] Memory required for data: 314800
I0401 22:41:18.437369  9576 layer_factory.cpp:58] Creating layer conv1
I0401 22:41:18.437369  9576 net.cpp:100] Creating Layer conv1
I0401 22:41:18.438369  9576 net.cpp:434] conv1 <- data
I0401 22:41:18.438369  9576 net.cpp:408] conv1 -> conv1
I0401 22:41:18.438369  9352 common.cpp:36] System entropy source not available, using fallback algorithm to generate seed instead.
I0401 22:41:18.732619  9576 net.cpp:150] Setting up conv1
I0401 22:41:18.732619  9576 net.cpp:157] Top shape: 100 32 28 28 (2508800)
I0401 22:41:18.732619  9576 net.cpp:165] Memory required for data: 10350000
I0401 22:41:18.732619  9576 layer_factory.cpp:58] Creating layer bn1
I0401 22:41:18.732619  9576 net.cpp:100] Creating Layer bn1
I0401 22:41:18.732619  9576 net.cpp:434] bn1 <- conv1
I0401 22:41:18.732619  9576 net.cpp:408] bn1 -> bn1
I0401 22:41:18.732619  9576 net.cpp:150] Setting up bn1
I0401 22:41:18.732619  9576 net.cpp:157] Top shape: 100 32 28 28 (2508800)
I0401 22:41:18.732619  9576 net.cpp:165] Memory required for data: 20385200
I0401 22:41:18.732619  9576 layer_factory.cpp:58] Creating layer scale1
I0401 22:41:18.732619  9576 net.cpp:100] Creating Layer scale1
I0401 22:41:18.732619  9576 net.cpp:434] scale1 <- bn1
I0401 22:41:18.732619  9576 net.cpp:408] scale1 -> scale1
I0401 22:41:18.733629  9576 layer_factory.cpp:58] Creating layer scale1
I0401 22:41:18.733629  9576 net.cpp:150] Setting up scale1
I0401 22:41:18.733629  9576 net.cpp:157] Top shape: 100 32 28 28 (2508800)
I0401 22:41:18.733629  9576 net.cpp:165] Memory required for data: 30420400
I0401 22:41:18.733629  9576 layer_factory.cpp:58] Creating layer relu1
I0401 22:41:18.733629  9576 net.cpp:100] Creating Layer relu1
I0401 22:41:18.733629  9576 net.cpp:434] relu1 <- scale1
I0401 22:41:18.733629  9576 net.cpp:408] relu1 -> relu1
I0401 22:41:18.733629  9576 net.cpp:150] Setting up relu1
I0401 22:41:18.733629  9576 net.cpp:157] Top shape: 100 32 28 28 (2508800)
I0401 22:41:18.733629  9576 net.cpp:165] Memory required for data: 40455600
I0401 22:41:18.733629  9576 layer_factory.cpp:58] Creating layer conv1_0
I0401 22:41:18.733629  9576 net.cpp:100] Creating Layer conv1_0
I0401 22:41:18.733629  9576 net.cpp:434] conv1_0 <- relu1
I0401 22:41:18.733629  9576 net.cpp:408] conv1_0 -> conv1_0
I0401 22:41:18.735626  9576 net.cpp:150] Setting up conv1_0
I0401 22:41:18.735626  9576 net.cpp:157] Top shape: 100 32 28 28 (2508800)
I0401 22:41:18.735626  9576 net.cpp:165] Memory required for data: 50490800
I0401 22:41:18.735626  9576 layer_factory.cpp:58] Creating layer bn1_0
I0401 22:41:18.735626  9576 net.cpp:100] Creating Layer bn1_0
I0401 22:41:18.736625  9576 net.cpp:434] bn1_0 <- conv1_0
I0401 22:41:18.736625  9576 net.cpp:408] bn1_0 -> bn1_0
I0401 22:41:18.736625  9576 net.cpp:150] Setting up bn1_0
I0401 22:41:18.736625  9576 net.cpp:157] Top shape: 100 32 28 28 (2508800)
I0401 22:41:18.736625  9576 net.cpp:165] Memory required for data: 60526000
I0401 22:41:18.736625  9576 layer_factory.cpp:58] Creating layer scale1_0
I0401 22:41:18.736625  9576 net.cpp:100] Creating Layer scale1_0
I0401 22:41:18.736625  9576 net.cpp:434] scale1_0 <- bn1_0
I0401 22:41:18.736625  9576 net.cpp:408] scale1_0 -> scale1_0
I0401 22:41:18.736625  9576 layer_factory.cpp:58] Creating layer scale1_0
I0401 22:41:18.736625  9576 net.cpp:150] Setting up scale1_0
I0401 22:41:18.736625  9576 net.cpp:157] Top shape: 100 32 28 28 (2508800)
I0401 22:41:18.736625  9576 net.cpp:165] Memory required for data: 70561200
I0401 22:41:18.736625  9576 layer_factory.cpp:58] Creating layer relu1_0
I0401 22:41:18.736625  9576 net.cpp:100] Creating Layer relu1_0
I0401 22:41:18.736625  9576 net.cpp:434] relu1_0 <- scale1_0
I0401 22:41:18.736625  9576 net.cpp:408] relu1_0 -> relu1_0
I0401 22:41:18.736625  9576 net.cpp:150] Setting up relu1_0
I0401 22:41:18.736625  9576 net.cpp:157] Top shape: 100 32 28 28 (2508800)
I0401 22:41:18.736625  9576 net.cpp:165] Memory required for data: 80596400
I0401 22:41:18.736625  9576 layer_factory.cpp:58] Creating layer conv2
I0401 22:41:18.736625  9576 net.cpp:100] Creating Layer conv2
I0401 22:41:18.736625  9576 net.cpp:434] conv2 <- relu1_0
I0401 22:41:18.736625  9576 net.cpp:408] conv2 -> conv2
I0401 22:41:18.738626  9576 net.cpp:150] Setting up conv2
I0401 22:41:18.738626  9576 net.cpp:157] Top shape: 100 32 28 28 (2508800)
I0401 22:41:18.738626  9576 net.cpp:165] Memory required for data: 90631600
I0401 22:41:18.738626  9576 layer_factory.cpp:58] Creating layer bn2
I0401 22:41:18.738626  9576 net.cpp:100] Creating Layer bn2
I0401 22:41:18.738626  9576 net.cpp:434] bn2 <- conv2
I0401 22:41:18.738626  9576 net.cpp:408] bn2 -> bn2
I0401 22:41:18.738626  9576 net.cpp:150] Setting up bn2
I0401 22:41:18.738626  9576 net.cpp:157] Top shape: 100 32 28 28 (2508800)
I0401 22:41:18.738626  9576 net.cpp:165] Memory required for data: 100666800
I0401 22:41:18.738626  9576 layer_factory.cpp:58] Creating layer scale2
I0401 22:41:18.738626  9576 net.cpp:100] Creating Layer scale2
I0401 22:41:18.738626  9576 net.cpp:434] scale2 <- bn2
I0401 22:41:18.738626  9576 net.cpp:408] scale2 -> scale2
I0401 22:41:18.738626  9576 layer_factory.cpp:58] Creating layer scale2
I0401 22:41:18.739625  9576 net.cpp:150] Setting up scale2
I0401 22:41:18.739625  9576 net.cpp:157] Top shape: 100 32 28 28 (2508800)
I0401 22:41:18.739625  9576 net.cpp:165] Memory required for data: 110702000
I0401 22:41:18.739625  9576 layer_factory.cpp:58] Creating layer relu2
I0401 22:41:18.739625  9576 net.cpp:100] Creating Layer relu2
I0401 22:41:18.739625  9576 net.cpp:434] relu2 <- scale2
I0401 22:41:18.739625  9576 net.cpp:408] relu2 -> relu2
I0401 22:41:18.739625  9576 net.cpp:150] Setting up relu2
I0401 22:41:18.739625  9576 net.cpp:157] Top shape: 100 32 28 28 (2508800)
I0401 22:41:18.739625  9576 net.cpp:165] Memory required for data: 120737200
I0401 22:41:18.739625  9576 layer_factory.cpp:58] Creating layer conv2_1
I0401 22:41:18.739625  9576 net.cpp:100] Creating Layer conv2_1
I0401 22:41:18.739625  9576 net.cpp:434] conv2_1 <- relu2
I0401 22:41:18.739625  9576 net.cpp:408] conv2_1 -> conv2_1
I0401 22:41:18.741622  9576 net.cpp:150] Setting up conv2_1
I0401 22:41:18.741622  9576 net.cpp:157] Top shape: 100 32 28 28 (2508800)
I0401 22:41:18.741622  9576 net.cpp:165] Memory required for data: 130772400
I0401 22:41:18.741622  9576 layer_factory.cpp:58] Creating layer bn2_1
I0401 22:41:18.741622  9576 net.cpp:100] Creating Layer bn2_1
I0401 22:41:18.741622  9576 net.cpp:434] bn2_1 <- conv2_1
I0401 22:41:18.741622  9576 net.cpp:408] bn2_1 -> bn2_1
I0401 22:41:18.741622  9576 net.cpp:150] Setting up bn2_1
I0401 22:41:18.741622  9576 net.cpp:157] Top shape: 100 32 28 28 (2508800)
I0401 22:41:18.741622  9576 net.cpp:165] Memory required for data: 140807600
I0401 22:41:18.741622  9576 layer_factory.cpp:58] Creating layer scale2_1
I0401 22:41:18.741622  9576 net.cpp:100] Creating Layer scale2_1
I0401 22:41:18.741622  9576 net.cpp:434] scale2_1 <- bn2_1
I0401 22:41:18.741622  9576 net.cpp:408] scale2_1 -> scale2_1
I0401 22:41:18.741622  9576 layer_factory.cpp:58] Creating layer scale2_1
I0401 22:41:18.741622  9576 net.cpp:150] Setting up scale2_1
I0401 22:41:18.741622  9576 net.cpp:157] Top shape: 100 32 28 28 (2508800)
I0401 22:41:18.741622  9576 net.cpp:165] Memory required for data: 150842800
I0401 22:41:18.741622  9576 layer_factory.cpp:58] Creating layer relu2_1
I0401 22:41:18.741622  9576 net.cpp:100] Creating Layer relu2_1
I0401 22:41:18.741622  9576 net.cpp:434] relu2_1 <- scale2_1
I0401 22:41:18.741622  9576 net.cpp:408] relu2_1 -> relu2_1
I0401 22:41:18.742626  9576 net.cpp:150] Setting up relu2_1
I0401 22:41:18.742626  9576 net.cpp:157] Top shape: 100 32 28 28 (2508800)
I0401 22:41:18.742626  9576 net.cpp:165] Memory required for data: 160878000
I0401 22:41:18.742626  9576 layer_factory.cpp:58] Creating layer pool2_1
I0401 22:41:18.742626  9576 net.cpp:100] Creating Layer pool2_1
I0401 22:41:18.742626  9576 net.cpp:434] pool2_1 <- relu2_1
I0401 22:41:18.742626  9576 net.cpp:408] pool2_1 -> pool2_1
I0401 22:41:18.742626  9576 net.cpp:150] Setting up pool2_1
I0401 22:41:18.742626  9576 net.cpp:157] Top shape: 100 32 14 14 (627200)
I0401 22:41:18.742626  9576 net.cpp:165] Memory required for data: 163386800
I0401 22:41:18.742626  9576 layer_factory.cpp:58] Creating layer conv2_2
I0401 22:41:18.742626  9576 net.cpp:100] Creating Layer conv2_2
I0401 22:41:18.742626  9576 net.cpp:434] conv2_2 <- pool2_1
I0401 22:41:18.742626  9576 net.cpp:408] conv2_2 -> conv2_2
I0401 22:41:18.745618  9576 net.cpp:150] Setting up conv2_2
I0401 22:41:18.745618  9576 net.cpp:157] Top shape: 100 50 14 14 (980000)
I0401 22:41:18.745618  9576 net.cpp:165] Memory required for data: 167306800
I0401 22:41:18.745618  9576 layer_factory.cpp:58] Creating layer bn2_2
I0401 22:41:18.745618  9576 net.cpp:100] Creating Layer bn2_2
I0401 22:41:18.745618  9576 net.cpp:434] bn2_2 <- conv2_2
I0401 22:41:18.745618  9576 net.cpp:408] bn2_2 -> bn2_2
I0401 22:41:18.745618  9576 net.cpp:150] Setting up bn2_2
I0401 22:41:18.745618  9576 net.cpp:157] Top shape: 100 50 14 14 (980000)
I0401 22:41:18.745618  9576 net.cpp:165] Memory required for data: 171226800
I0401 22:41:18.745618  9576 layer_factory.cpp:58] Creating layer scale2_2
I0401 22:41:18.745618  9576 net.cpp:100] Creating Layer scale2_2
I0401 22:41:18.745618  9576 net.cpp:434] scale2_2 <- bn2_2
I0401 22:41:18.745618  9576 net.cpp:408] scale2_2 -> scale2_2
I0401 22:41:18.745618  9576 layer_factory.cpp:58] Creating layer scale2_2
I0401 22:41:18.745618  9576 net.cpp:150] Setting up scale2_2
I0401 22:41:18.745618  9576 net.cpp:157] Top shape: 100 50 14 14 (980000)
I0401 22:41:18.745618  9576 net.cpp:165] Memory required for data: 175146800
I0401 22:41:18.745618  9576 layer_factory.cpp:58] Creating layer relu2_2
I0401 22:41:18.745618  9576 net.cpp:100] Creating Layer relu2_2
I0401 22:41:18.745618  9576 net.cpp:434] relu2_2 <- scale2_2
I0401 22:41:18.745618  9576 net.cpp:408] relu2_2 -> relu2_2
I0401 22:41:18.746615  9576 net.cpp:150] Setting up relu2_2
I0401 22:41:18.746615  9576 net.cpp:157] Top shape: 100 50 14 14 (980000)
I0401 22:41:18.746615  9576 net.cpp:165] Memory required for data: 179066800
I0401 22:41:18.746615  9576 layer_factory.cpp:58] Creating layer conv3
I0401 22:41:18.746615  9576 net.cpp:100] Creating Layer conv3
I0401 22:41:18.746615  9576 net.cpp:434] conv3 <- relu2_2
I0401 22:41:18.746615  9576 net.cpp:408] conv3 -> conv3
I0401 22:41:18.749614  9576 net.cpp:150] Setting up conv3
I0401 22:41:18.749614  9576 net.cpp:157] Top shape: 100 64 14 14 (1254400)
I0401 22:41:18.749614  9576 net.cpp:165] Memory required for data: 184084400
I0401 22:41:18.749614  9576 layer_factory.cpp:58] Creating layer bn3
I0401 22:41:18.749614  9576 net.cpp:100] Creating Layer bn3
I0401 22:41:18.749614  9576 net.cpp:434] bn3 <- conv3
I0401 22:41:18.749614  9576 net.cpp:408] bn3 -> bn3
I0401 22:41:18.749614  9576 net.cpp:150] Setting up bn3
I0401 22:41:18.749614  9576 net.cpp:157] Top shape: 100 64 14 14 (1254400)
I0401 22:41:18.749614  9576 net.cpp:165] Memory required for data: 189102000
I0401 22:41:18.749614  9576 layer_factory.cpp:58] Creating layer scale3
I0401 22:41:18.749614  9576 net.cpp:100] Creating Layer scale3
I0401 22:41:18.749614  9576 net.cpp:434] scale3 <- bn3
I0401 22:41:18.749614  9576 net.cpp:408] scale3 -> scale3
I0401 22:41:18.749614  9576 layer_factory.cpp:58] Creating layer scale3
I0401 22:41:18.749614  9576 net.cpp:150] Setting up scale3
I0401 22:41:18.749614  9576 net.cpp:157] Top shape: 100 64 14 14 (1254400)
I0401 22:41:18.749614  9576 net.cpp:165] Memory required for data: 194119600
I0401 22:41:18.749614  9576 layer_factory.cpp:58] Creating layer relu3
I0401 22:41:18.749614  9576 net.cpp:100] Creating Layer relu3
I0401 22:41:18.749614  9576 net.cpp:434] relu3 <- scale3
I0401 22:41:18.749614  9576 net.cpp:408] relu3 -> relu3
I0401 22:41:18.750614  9576 net.cpp:150] Setting up relu3
I0401 22:41:18.750614  9576 net.cpp:157] Top shape: 100 64 14 14 (1254400)
I0401 22:41:18.750614  9576 net.cpp:165] Memory required for data: 199137200
I0401 22:41:18.750614  9576 layer_factory.cpp:58] Creating layer conv4
I0401 22:41:18.750614  9576 net.cpp:100] Creating Layer conv4
I0401 22:41:18.750614  9576 net.cpp:434] conv4 <- relu3
I0401 22:41:18.750614  9576 net.cpp:408] conv4 -> conv4
I0401 22:41:18.752614  9576 net.cpp:150] Setting up conv4
I0401 22:41:18.752614  9576 net.cpp:157] Top shape: 100 64 14 14 (1254400)
I0401 22:41:18.752614  9576 net.cpp:165] Memory required for data: 204154800
I0401 22:41:18.752614  9576 layer_factory.cpp:58] Creating layer pool4
I0401 22:41:18.752614  9576 net.cpp:100] Creating Layer pool4
I0401 22:41:18.752614  9576 net.cpp:434] pool4 <- conv4
I0401 22:41:18.752614  9576 net.cpp:408] pool4 -> pool4
I0401 22:41:18.752614  9576 net.cpp:150] Setting up pool4
I0401 22:41:18.752614  9576 net.cpp:157] Top shape: 100 64 7 7 (313600)
I0401 22:41:18.752614  9576 net.cpp:165] Memory required for data: 205409200
I0401 22:41:18.752614  9576 layer_factory.cpp:58] Creating layer bn4
I0401 22:41:18.752614  9576 net.cpp:100] Creating Layer bn4
I0401 22:41:18.752614  9576 net.cpp:434] bn4 <- pool4
I0401 22:41:18.752614  9576 net.cpp:408] bn4 -> bn4
I0401 22:41:18.752614  9576 net.cpp:150] Setting up bn4
I0401 22:41:18.752614  9576 net.cpp:157] Top shape: 100 64 7 7 (313600)
I0401 22:41:18.752614  9576 net.cpp:165] Memory required for data: 206663600
I0401 22:41:18.752614  9576 layer_factory.cpp:58] Creating layer scale4
I0401 22:41:18.752614  9576 net.cpp:100] Creating Layer scale4
I0401 22:41:18.752614  9576 net.cpp:434] scale4 <- bn4
I0401 22:41:18.752614  9576 net.cpp:408] scale4 -> scale4
I0401 22:41:18.752614  9576 layer_factory.cpp:58] Creating layer scale4
I0401 22:41:18.752614  9576 net.cpp:150] Setting up scale4
I0401 22:41:18.752614  9576 net.cpp:157] Top shape: 100 64 7 7 (313600)
I0401 22:41:18.752614  9576 net.cpp:165] Memory required for data: 207918000
I0401 22:41:18.752614  9576 layer_factory.cpp:58] Creating layer relu4
I0401 22:41:18.752614  9576 net.cpp:100] Creating Layer relu4
I0401 22:41:18.752614  9576 net.cpp:434] relu4 <- scale4
I0401 22:41:18.752614  9576 net.cpp:408] relu4 -> relu4
I0401 22:41:18.753614  9576 net.cpp:150] Setting up relu4
I0401 22:41:18.753614  9576 net.cpp:157] Top shape: 100 64 7 7 (313600)
I0401 22:41:18.753614  9576 net.cpp:165] Memory required for data: 209172400
I0401 22:41:18.753614  9576 layer_factory.cpp:58] Creating layer conv4_1
I0401 22:41:18.753614  9576 net.cpp:100] Creating Layer conv4_1
I0401 22:41:18.753614  9576 net.cpp:434] conv4_1 <- relu4
I0401 22:41:18.753614  9576 net.cpp:408] conv4_1 -> conv4_1
I0401 22:41:18.755614  9576 net.cpp:150] Setting up conv4_1
I0401 22:41:18.755614  9576 net.cpp:157] Top shape: 100 64 7 7 (313600)
I0401 22:41:18.755614  9576 net.cpp:165] Memory required for data: 210426800
I0401 22:41:18.755614  9576 layer_factory.cpp:58] Creating layer bn4_1
I0401 22:41:18.755614  9576 net.cpp:100] Creating Layer bn4_1
I0401 22:41:18.755614  9576 net.cpp:434] bn4_1 <- conv4_1
I0401 22:41:18.755614  9576 net.cpp:408] bn4_1 -> bn4_1
I0401 22:41:18.755614  9576 net.cpp:150] Setting up bn4_1
I0401 22:41:18.755614  9576 net.cpp:157] Top shape: 100 64 7 7 (313600)
I0401 22:41:18.755614  9576 net.cpp:165] Memory required for data: 211681200
I0401 22:41:18.755614  9576 layer_factory.cpp:58] Creating layer scale4_1
I0401 22:41:18.755614  9576 net.cpp:100] Creating Layer scale4_1
I0401 22:41:18.755614  9576 net.cpp:434] scale4_1 <- bn4_1
I0401 22:41:18.755614  9576 net.cpp:408] scale4_1 -> scale4_1
I0401 22:41:18.755614  9576 layer_factory.cpp:58] Creating layer scale4_1
I0401 22:41:18.756614  9576 net.cpp:150] Setting up scale4_1
I0401 22:41:18.756614  9576 net.cpp:157] Top shape: 100 64 7 7 (313600)
I0401 22:41:18.756614  9576 net.cpp:165] Memory required for data: 212935600
I0401 22:41:18.756614  9576 layer_factory.cpp:58] Creating layer relu4_1
I0401 22:41:18.756614  9576 net.cpp:100] Creating Layer relu4_1
I0401 22:41:18.756614  9576 net.cpp:434] relu4_1 <- scale4_1
I0401 22:41:18.756614  9576 net.cpp:408] relu4_1 -> relu4_1
I0401 22:41:18.756614  9576 net.cpp:150] Setting up relu4_1
I0401 22:41:18.756614  9576 net.cpp:157] Top shape: 100 64 7 7 (313600)
I0401 22:41:18.756614  9576 net.cpp:165] Memory required for data: 214190000
I0401 22:41:18.756614  9576 layer_factory.cpp:58] Creating layer conv4_2
I0401 22:41:18.756614  9576 net.cpp:100] Creating Layer conv4_2
I0401 22:41:18.756614  9576 net.cpp:434] conv4_2 <- relu4_1
I0401 22:41:18.756614  9576 net.cpp:408] conv4_2 -> conv4_2
I0401 22:41:18.758615  9576 net.cpp:150] Setting up conv4_2
I0401 22:41:18.758615  9576 net.cpp:157] Top shape: 100 64 7 7 (313600)
I0401 22:41:18.758615  9576 net.cpp:165] Memory required for data: 215444400
I0401 22:41:18.758615  9576 layer_factory.cpp:58] Creating layer bn4_2
I0401 22:41:18.758615  9576 net.cpp:100] Creating Layer bn4_2
I0401 22:41:18.758615  9576 net.cpp:434] bn4_2 <- conv4_2
I0401 22:41:18.758615  9576 net.cpp:408] bn4_2 -> bn4_2
I0401 22:41:18.758615  9576 net.cpp:150] Setting up bn4_2
I0401 22:41:18.758615  9576 net.cpp:157] Top shape: 100 64 7 7 (313600)
I0401 22:41:18.758615  9576 net.cpp:165] Memory required for data: 216698800
I0401 22:41:18.758615  9576 layer_factory.cpp:58] Creating layer scale4_2
I0401 22:41:18.758615  9576 net.cpp:100] Creating Layer scale4_2
I0401 22:41:18.758615  9576 net.cpp:434] scale4_2 <- bn4_2
I0401 22:41:18.758615  9576 net.cpp:408] scale4_2 -> scale4_2
I0401 22:41:18.758615  9576 layer_factory.cpp:58] Creating layer scale4_2
I0401 22:41:18.758615  9576 net.cpp:150] Setting up scale4_2
I0401 22:41:18.758615  9576 net.cpp:157] Top shape: 100 64 7 7 (313600)
I0401 22:41:18.758615  9576 net.cpp:165] Memory required for data: 217953200
I0401 22:41:18.758615  9576 layer_factory.cpp:58] Creating layer relu4_2
I0401 22:41:18.758615  9576 net.cpp:100] Creating Layer relu4_2
I0401 22:41:18.758615  9576 net.cpp:434] relu4_2 <- scale4_2
I0401 22:41:18.758615  9576 net.cpp:408] relu4_2 -> relu4_2
I0401 22:41:18.758615  9576 net.cpp:150] Setting up relu4_2
I0401 22:41:18.759614  9576 net.cpp:157] Top shape: 100 64 7 7 (313600)
I0401 22:41:18.759614  9576 net.cpp:165] Memory required for data: 219207600
I0401 22:41:18.759614  9576 layer_factory.cpp:58] Creating layer pool4_2
I0401 22:41:18.759614  9576 net.cpp:100] Creating Layer pool4_2
I0401 22:41:18.759614  9576 net.cpp:434] pool4_2 <- relu4_2
I0401 22:41:18.759614  9576 net.cpp:408] pool4_2 -> pool4_2
I0401 22:41:18.759614  9576 net.cpp:150] Setting up pool4_2
I0401 22:41:18.759614  9576 net.cpp:157] Top shape: 100 64 4 4 (102400)
I0401 22:41:18.759614  9576 net.cpp:165] Memory required for data: 219617200
I0401 22:41:18.759614  9576 layer_factory.cpp:58] Creating layer conv4_0
I0401 22:41:18.759614  9576 net.cpp:100] Creating Layer conv4_0
I0401 22:41:18.759614  9576 net.cpp:434] conv4_0 <- pool4_2
I0401 22:41:18.759614  9576 net.cpp:408] conv4_0 -> conv4_0
I0401 22:41:18.761615  9576 net.cpp:150] Setting up conv4_0
I0401 22:41:18.761615  9576 net.cpp:157] Top shape: 100 64 4 4 (102400)
I0401 22:41:18.761615  9576 net.cpp:165] Memory required for data: 220026800
I0401 22:41:18.761615  9576 layer_factory.cpp:58] Creating layer bn4_0
I0401 22:41:18.761615  9576 net.cpp:100] Creating Layer bn4_0
I0401 22:41:18.761615  9576 net.cpp:434] bn4_0 <- conv4_0
I0401 22:41:18.761615  9576 net.cpp:408] bn4_0 -> bn4_0
I0401 22:41:18.761615  9576 net.cpp:150] Setting up bn4_0
I0401 22:41:18.761615  9576 net.cpp:157] Top shape: 100 64 4 4 (102400)
I0401 22:41:18.761615  9576 net.cpp:165] Memory required for data: 220436400
I0401 22:41:18.762615  9576 layer_factory.cpp:58] Creating layer scale4_0
I0401 22:41:18.762615  9576 net.cpp:100] Creating Layer scale4_0
I0401 22:41:18.762615  9576 net.cpp:434] scale4_0 <- bn4_0
I0401 22:41:18.762615  9576 net.cpp:408] scale4_0 -> scale4_0
I0401 22:41:18.762615  9576 layer_factory.cpp:58] Creating layer scale4_0
I0401 22:41:18.762615  9576 net.cpp:150] Setting up scale4_0
I0401 22:41:18.762615  9576 net.cpp:157] Top shape: 100 64 4 4 (102400)
I0401 22:41:18.762615  9576 net.cpp:165] Memory required for data: 220846000
I0401 22:41:18.762615  9576 layer_factory.cpp:58] Creating layer relu4_0
I0401 22:41:18.762615  9576 net.cpp:100] Creating Layer relu4_0
I0401 22:41:18.762615  9576 net.cpp:434] relu4_0 <- scale4_0
I0401 22:41:18.762615  9576 net.cpp:408] relu4_0 -> relu4_0
I0401 22:41:18.762615  9576 net.cpp:150] Setting up relu4_0
I0401 22:41:18.762615  9576 net.cpp:157] Top shape: 100 64 4 4 (102400)
I0401 22:41:18.762615  9576 net.cpp:165] Memory required for data: 221255600
I0401 22:41:18.762615  9576 layer_factory.cpp:58] Creating layer cccp4
I0401 22:41:18.762615  9576 net.cpp:100] Creating Layer cccp4
I0401 22:41:18.762615  9576 net.cpp:434] cccp4 <- relu4_0
I0401 22:41:18.762615  9576 net.cpp:408] cccp4 -> cccp4
I0401 22:41:18.765118  9576 net.cpp:150] Setting up cccp4
I0401 22:41:18.765118  9576 net.cpp:157] Top shape: 100 64 4 4 (102400)
I0401 22:41:18.765118  9576 net.cpp:165] Memory required for data: 221665200
I0401 22:41:18.765619  9576 layer_factory.cpp:58] Creating layer relu_cccp4
I0401 22:41:18.765619  9576 net.cpp:100] Creating Layer relu_cccp4
I0401 22:41:18.765619  9576 net.cpp:434] relu_cccp4 <- cccp4
I0401 22:41:18.765619  9576 net.cpp:395] relu_cccp4 -> cccp4 (in-place)
I0401 22:41:18.765619  9576 net.cpp:150] Setting up relu_cccp4
I0401 22:41:18.765619  9576 net.cpp:157] Top shape: 100 64 4 4 (102400)
I0401 22:41:18.765619  9576 net.cpp:165] Memory required for data: 222074800
I0401 22:41:18.765619  9576 layer_factory.cpp:58] Creating layer cccp5
I0401 22:41:18.765619  9576 net.cpp:100] Creating Layer cccp5
I0401 22:41:18.765619  9576 net.cpp:434] cccp5 <- cccp4
I0401 22:41:18.765619  9576 net.cpp:408] cccp5 -> cccp5
I0401 22:41:18.767618  9576 net.cpp:150] Setting up cccp5
I0401 22:41:18.767618  9576 net.cpp:157] Top shape: 100 64 4 4 (102400)
I0401 22:41:18.767618  9576 net.cpp:165] Memory required for data: 222484400
I0401 22:41:18.767618  9576 layer_factory.cpp:58] Creating layer relu_cccp5
I0401 22:41:18.767618  9576 net.cpp:100] Creating Layer relu_cccp5
I0401 22:41:18.767618  9576 net.cpp:434] relu_cccp5 <- cccp5
I0401 22:41:18.767618  9576 net.cpp:395] relu_cccp5 -> cccp5 (in-place)
I0401 22:41:18.767618  9576 net.cpp:150] Setting up relu_cccp5
I0401 22:41:18.767618  9576 net.cpp:157] Top shape: 100 64 4 4 (102400)
I0401 22:41:18.767618  9576 net.cpp:165] Memory required for data: 222894000
I0401 22:41:18.767618  9576 layer_factory.cpp:58] Creating layer poolcp5
I0401 22:41:18.767618  9576 net.cpp:100] Creating Layer poolcp5
I0401 22:41:18.767618  9576 net.cpp:434] poolcp5 <- cccp5
I0401 22:41:18.767618  9576 net.cpp:408] poolcp5 -> poolcp5
I0401 22:41:18.767618  9576 net.cpp:150] Setting up poolcp5
I0401 22:41:18.767618  9576 net.cpp:157] Top shape: 100 64 2 2 (25600)
I0401 22:41:18.768118  9576 net.cpp:165] Memory required for data: 222996400
I0401 22:41:18.768118  9576 layer_factory.cpp:58] Creating layer cccp6
I0401 22:41:18.768118  9576 net.cpp:100] Creating Layer cccp6
I0401 22:41:18.768118  9576 net.cpp:434] cccp6 <- poolcp5
I0401 22:41:18.768118  9576 net.cpp:408] cccp6 -> cccp6
I0401 22:41:18.769619  9576 net.cpp:150] Setting up cccp6
I0401 22:41:18.769619  9576 net.cpp:157] Top shape: 100 100 2 2 (40000)
I0401 22:41:18.769619  9576 net.cpp:165] Memory required for data: 223156400
I0401 22:41:18.769619  9576 layer_factory.cpp:58] Creating layer relu_cccp6
I0401 22:41:18.769619  9576 net.cpp:100] Creating Layer relu_cccp6
I0401 22:41:18.769619  9576 net.cpp:434] relu_cccp6 <- cccp6
I0401 22:41:18.769619  9576 net.cpp:395] relu_cccp6 -> cccp6 (in-place)
I0401 22:41:18.770119  9576 net.cpp:150] Setting up relu_cccp6
I0401 22:41:18.770119  9576 net.cpp:157] Top shape: 100 100 2 2 (40000)
I0401 22:41:18.770119  9576 net.cpp:165] Memory required for data: 223316400
I0401 22:41:18.770119  9576 layer_factory.cpp:58] Creating layer poolcp6
I0401 22:41:18.770119  9576 net.cpp:100] Creating Layer poolcp6
I0401 22:41:18.770119  9576 net.cpp:434] poolcp6 <- cccp6
I0401 22:41:18.770119  9576 net.cpp:408] poolcp6 -> poolcp6
I0401 22:41:18.770619  9576 net.cpp:150] Setting up poolcp6
I0401 22:41:18.770619  9576 net.cpp:157] Top shape: 100 100 1 1 (10000)
I0401 22:41:18.770619  9576 net.cpp:165] Memory required for data: 223356400
I0401 22:41:18.770619  9576 layer_factory.cpp:58] Creating layer ip1
I0401 22:41:18.770619  9576 net.cpp:100] Creating Layer ip1
I0401 22:41:18.770619  9576 net.cpp:434] ip1 <- poolcp6
I0401 22:41:18.770619  9576 net.cpp:408] ip1 -> ip1
I0401 22:41:18.770619  9576 net.cpp:150] Setting up ip1
I0401 22:41:18.770619  9576 net.cpp:157] Top shape: 100 10 (1000)
I0401 22:41:18.770619  9576 net.cpp:165] Memory required for data: 223360400
I0401 22:41:18.770619  9576 layer_factory.cpp:58] Creating layer ip1_ip1_0_split
I0401 22:41:18.770619  9576 net.cpp:100] Creating Layer ip1_ip1_0_split
I0401 22:41:18.770619  9576 net.cpp:434] ip1_ip1_0_split <- ip1
I0401 22:41:18.770619  9576 net.cpp:408] ip1_ip1_0_split -> ip1_ip1_0_split_0
I0401 22:41:18.770619  9576 net.cpp:408] ip1_ip1_0_split -> ip1_ip1_0_split_1
I0401 22:41:18.770619  9576 net.cpp:150] Setting up ip1_ip1_0_split
I0401 22:41:18.770619  9576 net.cpp:157] Top shape: 100 10 (1000)
I0401 22:41:18.770619  9576 net.cpp:157] Top shape: 100 10 (1000)
I0401 22:41:18.770619  9576 net.cpp:165] Memory required for data: 223368400
I0401 22:41:18.770619  9576 layer_factory.cpp:58] Creating layer accuracy_training
I0401 22:41:18.770619  9576 net.cpp:100] Creating Layer accuracy_training
I0401 22:41:18.770619  9576 net.cpp:434] accuracy_training <- ip1_ip1_0_split_0
I0401 22:41:18.770619  9576 net.cpp:434] accuracy_training <- label_mnist_1_split_0
…
