…
I0414 05:17:59.501013 17564 net.cpp:294] The NetState phase (0) differed from the phase (1) specified by a rule in layer bn4_0
I0414 05:17:59.501013 17564 net.cpp:294] The NetState phase (0) differed from the phase (1) specified by a rule in layer accuracy
I0414 05:17:59.501013 17564 net.cpp:51] Initializing net from parameters: 
name: "SlimNet_FX2_5M"
state {
  phase: TRAIN
  level: 0
  stage: ""
}
layer {
  name: "mnist"
  type: "Data"
  top: "data"
  top: "label"
  include {
    phase: TRAIN
  }
  data_param {
    source: "examples/mnist/mnist_train_lmdb_norm2"
    batch_size: 100
    backend: LMDB
  }
}
layer {
  name: "conv1"
  type: "Convolution"
  bottom: "data"
  top: "conv1"
  param {
    lr_mult: 1
  }
  convolution_param {
    num_output: 64
    bias_term: true
    pad: 1
    kernel_size: 3
    stride: 1
    weight_filler {
      type: "xavier"
    }
  }
}
layer {
  name: "bn1"
  type: "BatchNorm"
  bottom: "conv1"
  top: "bn1"
  param {
    lr_mult: 0
    decay_mult: 0
  }
  param {
    lr_mult: 0
    decay_mult: 0
  }
  param {
    lr_mult: 0
    decay_mult: 0
  }
  include {
    phase: TRAIN
  }
  batch_norm_param {
    use_global_stats: false
    moving_average_fraction: 0.95
  }
}
layer {
  name: "scale1"
  type: "Scale"
  bottom: "bn1"
  top: "scale1"
  scale_param {
    bias_term: true
  }
}
layer {
  name: "relu1"
  type: "ReLU"
  bottom: "scale1"
  top: "scale1"
}
layer {
  name: "drop2_1"
  type: "Dropout"
  bottom: "scale1"
  top: "scale1"
  dropout_param {
    dropout_ratio: 0.2
  }
}
layer {
  name: "conv1_0"
  type: "Convolution"
  bottom: "scale1"
  top: "conv1_0"
  param {
    lr_mult: 1
  }
  convolution_param {
    num_output: 128
    bias_term: true
    pad: 1
    kernel_size: 3
    stride: 1
    weight_filler {
      type: "xavier"
    }
  }
}
layer {
  name: "bn1_0"
  type: "BatchNorm"
  bottom: "conv1_0"
  top: "bn1_0"
  param {
    lr_mult: 0
    decay_mult: 0
  }
  param {
    lr_mult: 0
    decay_mult: 0
  }
  param {
    lr_mult: 0
    decay_mult: 0
  }
  include {
    phase: TRAIN
  }
  batch_norm_param {
    use_global_stats: false
    moving_average_fraction: 0.95
  }
}
layer {
  name: "scale1_0"
  type: "Scale"
  bottom: "bn1_0"
  top: "scale1_0"
  scale_param {
    bias_term: true
  }
}
layer {
  name: "relu1_0"
  type: "ReLU"
  bottom: "scale1_0"
  top: "scale1_0"
}
layer {
  name: "drop1_0"
  type: "Dropout"
  bottom: "scale1_0"
  top: "scale1_0"
  dropout_param {
    dropout_ratio: 0.2
  }
}
layer {
  name: "conv2"
  type: "Convolution"
  bottom: "scale1_0"
  top: "conv2"
  param {
    lr_mult: 1
  }
  convolution_param {
    num_output: 128
    bias_term: true
    pad: 1
    kernel_size: 3
    stride: 1
    weight_filler {
      type: "gaussian"
      std: 0.01
    }
  }
}
layer {
  name: "bn2"
  type: "BatchNorm"
  bottom: "conv2"
  top: "bn2"
  param {
    lr_mult: 0
    decay_mult: 0
  }
  param {
    lr_mult: 0
    decay_mult: 0
  }
  param {
    lr_mult: 0
    decay_mult: 0
  }
  include {
    phase: TRAIN
  }
  batch_norm_param {
    use_global_stats: false
    moving_average_fraction: 0.95
  }
}
layer {
  name: "scale2"
  type: "Scale"
  bottom: "bn2"
  top: "scale2"
  scale_param {
    bias_term: true
  }
}
layer {
  name: "relu2"
  type: "ReLU"
  bottom: "scale2"
  top: "scale2"
}
layer {
  name: "drop2_0"
  type: "Dropout"
  bottom: "scale2"
  top: "scale2"
  dropout_param {
    dropout_ratio: 0.2
  }
}
layer {
  name: "conv2_1"
  type: "Convolution"
  bottom: "scale2"
  top: "conv2_1"
  param {
    lr_mult: 1
  }
  convolution_param {
    num_output: 128
    bias_term: true
    pad: 1
    kernel_size: 3
    stride: 1
    weight_filler {
      type: "gaussian"
      std: 0.01
    }
  }
}
layer {
  name: "bn2_1"
  type: "BatchNorm"
  bottom: "conv2_1"
  top: "bn2_1"
  param {
    lr_mult: 0
    decay_mult: 0
  }
  param {
    lr_mult: 0
    decay_mult: 0
  }
  param {
    lr_mult: 0
    decay_mult: 0
  }
  include {
    phase: TRAIN
  }
  batch_norm_param {
    use_global_stats: false
    moving_average_fraction: 0.95
  }
}
layer {
  name: "scale2_1"
  type: "Scale"
  bottom: "bn2_1"
  top: "scale2_1"
  scale_param {
    bias_term: true
  }
}
layer {
  name: "relu2_1"
  type: "ReLU"
  bottom: "scale2_1"
  top: "scale2_1"
}
layer {
  name: "pool2_1"
  type: "Pooling"
  bottom: "scale2_1"
  top: "pool2_1"
  pooling_param {
    pool: MAX
    kernel_size: 2
    stride: 2
  }
}
layer {
  name: "drop2_1"
  type: "Dropout"
  bottom: "pool2_1"
  top: "pool2_1"
  dropout_param {
    dropout_ratio: 0.2
  }
}
layer {
  name: "conv2_2"
  type: "Convolution"
  bottom: "pool2_1"
  top: "conv2_2"
  param {
    lr_mult: 1
  }
  convolution_param {
    num_output: 128
    bias_term: true
    pad: 1
    kernel_size: 3
    stride: 1
    weight_filler {
      type: "gaussian"
      std: 0.01
    }
  }
}
layer {
  name: "bn2_2"
  type: "BatchNorm"
  bottom: "conv2_2"
  top: "bn2_2"
  param {
    lr_mult: 0
    decay_mult: 0
  }
  param {
    lr_mult: 0
    decay_mult: 0
  }
  param {
    lr_mult: 0
    decay_mult: 0
  }
  include {
    phase: TRAIN
  }
  batch_norm_param {
    use_global_stats: false
    moving_average_fraction: 0.95
  }
}
layer {
  name: "scale2_2"
  type: "Scale"
  bottom: "bn2_2"
  top: "scale2_2"
  scale_param {
    bias_term: true
  }
}
layer {
  name: "relu2_2"
  type: "ReLU"
  bottom: "scale2_2"
  top: "scale2_2"
}
layer {
  name: "drop2_2"
  type: "Dropout"
  bottom: "scale2_2"
  top: "scale2_2"
  dropout_param {
    dropout_ratio: 0.2
  }
}
layer {
  name: "conv3"
  type: "Convolution"
  bottom: "scale2_2"
  top: "conv3"
  param {
    lr_mult: 1
  }
  convolution_param {
    num_output: 128
    bias_term: true
    pad: 1
    kernel_size: 3
    stride: 1
    weight_filler {
      type: "xavier"
    }
  }
}
layer {
  name: "bn3"
  type: "BatchNorm"
  bottom: "conv3"
  top: "bn3"
  param {
    lr_mult: 0
    decay_mult: 0
  }
  param {
    lr_mult: 0
    decay_mult: 0
  }
  param {
    lr_mult: 0
    decay_mult: 0
  }
  include {
    phase: TRAIN
  }
  batch_norm_param {
    use_global_stats: false
    moving_average_fraction: 0.95
  }
}
layer {
  name: "scale3"
  type: "Scale"
  bottom: "bn3"
  top: "scale3"
  scale_param {
    bias_term: true
  }
}
layer {
  name: "relu3"
  type: "ReLU"
  bottom: "scale3"
  top: "scale3"
}
layer {
  name: "drop3"
  type: "Dropout"
  bottom: "scale3"
  top: "scale3"
  dropout_param {
    dropout_ratio: 0.2
  }
}
layer {
  name: "conv4"
  type: "Convolution"
  bottom: "scale3"
  top: "conv4"
  param {
    lr_mult: 1
  }
  convolution_param {
    num_output: 256
    bias_term: true
    pad: 1
    kernel_size: 3
    stride: 1
    weight_filler {
      type: "xavier"
    }
  }
}
layer {
  name: "pool4"
  type: "Pooling"
  bottom: "conv4"
  top: "pool4"
  pooling_param {
    pool: MAX
    kernel_size: 2
    stride: 2
  }
}
layer {
  name: "bn4"
  type: "BatchNorm"
  bottom: "pool4"
  top: "bn4"
  param {
    lr_mult: 0
    decay_mult: 0
  }
  param {
    lr_mult: 0
    decay_mult: 0
  }
  param {
    lr_mult: 0
    decay_mult: 0
  }
  include {
    phase: TRAIN
  }
  batch_norm_param {
    use_global_stats: false
    moving_average_fraction: 0.95
  }
}
layer {
  name: "scale4"
  type: "Scale"
  bottom: "bn4"
  top: "scale4"
  scale_param {
    bias_term: true
  }
}
layer {
  name: "relu4"
  type: "ReLU"
  bottom: "scale4"
  top: "scale4"
}
layer {
  name: "drop4"
  type: "Dropout"
  bottom: "scale4"
  top: "scale4"
  dropout_param {
    dropout_ratio: 0.2
  }
}
layer {
  name: "conv4_1"
  type: "Convolution"
  bottom: "scale4"
  top: "conv4_1"
  param {
    lr_mult: 1
  }
  convolution_param {
    num_output: 256
    bias_term: true
    pad: 1
    kernel_size: 3
    stride: 1
    weight_filler {
      type: "xavier"
    }
  }
}
layer {
  name: "bn4_1"
  type: "BatchNorm"
  bottom: "conv4_1"
  top: "bn4_1"
  param {
    lr_mult: 0
    decay_mult: 0
  }
  param {
    lr_mult: 0
    decay_mult: 0
  }
  param {
    lr_mult: 0
    decay_mult: 0
  }
  include {
    phase: TRAIN
  }
  batch_norm_param {
    use_global_stats: false
    moving_average_fraction: 0.95
  }
}
layer {
  name: "scale4_1"
  type: "Scale"
  bottom: "bn4_1"
  top: "scale4_1"
  scale_param {
    bias_term: true
  }
}
layer {
  name: "relu4_1"
  type: "ReLU"
  bottom: "scale4_1"
  top: "scale4_1"
}
layer {
  name: "drop4_1"
  type: "Dropout"
  bottom: "scale4_1"
  top: "scale4_1"
  dropout_param {
    dropout_ratio: 0.2
  }
}
layer {
  name: "conv4_2"
  type: "Convolution"
  bottom: "scale4_1"
  top: "conv4_2"
  param {
    lr_mult: 1
  }
  convolution_param {
    num_output: 256
    bias_term: true
    pad: 1
    kernel_size: 3
    stride: 1
    weight_filler {
      type: "xavier"
    }
  }
}
layer {
  name: "bn4_2"
  type: "BatchNorm"
  bottom: "conv4_2"
  top: "bn4_2"
  param {
    lr_mult: 0
    decay_mult: 0
  }
  param {
    lr_mult: 0
    decay_mult: 0
  }
  param {
    lr_mult: 0
    decay_mult: 0
  }
  include {
    phase: TRAIN
  }
  batch_norm_param {
    use_global_stats: false
    moving_average_fraction: 0.95
  }
}
layer {
  name: "scale4_2"
  type: "Scale"
  bottom: "bn4_2"
  top: "scale4_2"
  scale_param {
    bias_term: true
  }
}
layer {
  name: "relu4_2"
  type: "ReLU"
  bottom: "scale4_2"
  top: "scale4_2"
}
layer {
  name: "drop4_2"
  type: "Dropout"
  bottom: "scale4_2"
  top: "scale4_2"
  dropout_param {
    dropout_ratio: 0.2
  }
}
layer {
  name: "pool4_2"
  type: "Pooling"
  bottom: "scale4_2"
  top: "pool4_2"
  pooling_param {
    pool: MAX
    kernel_size: 2
    stride: 2
  }
}
layer {
  name: "conv4_0"
  type: "Convolution"
  bottom: "pool4_2"
  top: "conv4_0"
  param {
    lr_mult: 1
  }
  convolution_param {
    num_output: 512
    bias_term: true
    pad: 1
    kernel_size: 3
    stride: 1
    weight_filler {
      type: "xavier"
    }
  }
}
layer {
  name: "bn4_0"
  type: "BatchNorm"
  bottom: "conv4_0"
  top: "bn4_0"
  param {
    lr_mult: 0
    decay_mult: 0
  }
  param {
    lr_mult: 0
    decay_mult: 0
  }
  param {
    lr_mult: 0
    decay_mult: 0
  }
  include {
    phase: TRAIN
  }
  batch_norm_param {
    use_global_stats: false
    moving_average_fraction: 0.95
  }
}
layer {
  name: "scale4_0"
  type: "Scale"
  bottom: "bn4_0"
  top: "scale4_0"
  scale_param {
    bias_term: true
  }
}
layer {
  name: "relu4_0"
  type: "ReLU"
  bottom: "scale4_0"
  top: "scale4_0"
}
layer {
  name: "drop4_0"
  type: "Dropout"
  bottom: "scale4_0"
  top: "scale4_0"
  dropout_param {
    dropout_ratio: 0.2
  }
}
layer {
  name: "cccp4"
  type: "Convolution"
  bottom: "scale4_0"
  top: "cccp4"
  param {
    lr_mult: 1
    decay_mult: 1
  }
  param {
    lr_mult: 2
    decay_mult: 0
  }
  convolution_param {
    num_output: 512
    kernel_size: 2
    group: 1
    weight_filler {
      type: "xavier"
    }
    bias_filler {
      type: "constant"
      value: 0
    }
  }
}
layer {
  name: "relu_cccp4"
  type: "ReLU"
  bottom: "cccp4"
  top: "cccp4"
}
layer {
  name: "drop4_3"
  type: "Dropout"
  bottom: "cccp4"
  top: "cccp4"
  dropout_param {
    dropout_ratio: 0.2
  }
}
layer {
  name: "cccp5"
  type: "Convolution"
  bottom: "cccp4"
  top: "cccp5"
  param {
    lr_mult: 1
    decay_mult: 1
  }
  param {
    lr_mult: 2
    decay_mult: 0
  }
  convolution_param {
    num_output: 256
    kernel_size: 2
    group: 1
    weight_filler {
      type: "xavier"
    }
    bias_filler {
      type: "constant"
      value: 0
    }
  }
}
layer {
  name: "relu_cccp5"
  type: "ReLU"
  bottom: "cccp5"
  top: "cccp5"
}
layer {
  name: "poolcp5"
  type: "Pooling"
  bottom: "cccp5"
  top: "poolcp5"
  pooling_param {
    pool: MAX
    kernel_size: 2
    stride: 2
  }
}
layer {
  name: "drop4_5"
  type: "Dropout"
  bottom: "poolcp5"
  top: "poolcp5"
  dropout_param {
    dropout_ratio: 0.2
  }
}
layer {
  name: "cccp6"
  type: "Convolution"
  bottom: "poolcp5"
  top: "cccp6"
  param {
    lr_mult: 1
    decay_mult: 1
  }
  param {
    lr_mult: 2
    decay_mult: 0
  }
  convolution_param {
    num_output: 256
    pad: 1
    kernel_size: 3
    group: 1
    weight_filler {
      type: "xavier"
    }
    bias_filler {
      type: "constant"
      value: 0
    }
  }
}
layer {
  name: "relu_cccp6"
  type: "ReLU"
  bottom: "cccp6"
  top: "cccp6"
}
layer {
  name: "poolcp6"
  type: "Pooling"
  bottom: "cccp6"
  top: "poolcp6"
  pooling_param {
    pool: MAX
    kernel_size: 2
    stride: 2
  }
}
layer {
  name: "ip1"
  type: "InnerProduct"
  bottom: "poolcp6"
  top: "ip1"
  param {
    lr_mult: 1
    decay_mult: 0
  }
  param {
    lr_mult: 2
    decay_mult: 0
  }
  inner_product_param {
    num_output: 10
    weight_filler {
      type: "xavier"
    }
    bias_filler {
      type: "constant"
    }
  }
}
layer {
  name: "accuracy_training"
  type: "Accuracy"
  bottom: "ip1"
  bottom: "label"
  top: "accuracy_training"
  include {
    phase: TRAIN
  }
}
layer {
  name: "loss"
  type: "SoftmaxWithLoss"
  bottom: "ip1"
  bottom: "label"
  top: "loss"
}
I0414 05:17:59.502014 17564 layer_factory.cpp:58] Creating layer mnist
I0414 05:17:59.507016 17564 db_lmdb.cpp:40] Opened lmdb examples/mnist/mnist_train_lmdb_norm2
I0414 05:17:59.507016 17564 net.cpp:84] Creating Layer mnist
I0414 05:17:59.507016 17564 net.cpp:380] mnist -> data
I0414 05:17:59.507016 17564 net.cpp:380] mnist -> label
I0414 05:17:59.507016 17564 data_layer.cpp:45] output data size: 100,1,28,28
I0414 05:17:59.510013 17564 common.cpp:36] System entropy source not available, using fallback algorithm to generate seed instead.
I0414 05:17:59.510013 17564 net.cpp:122] Setting up mnist
I0414 05:17:59.510013 17564 net.cpp:129] Top shape: 100 1 28 28 (78400)
I0414 05:17:59.510013 17564 net.cpp:129] Top shape: 100 (100)
I0414 05:17:59.510013 17564 net.cpp:137] Memory required for data: 314000
I0414 05:17:59.510013 17564 layer_factory.cpp:58] Creating layer label_mnist_1_split
I0414 05:17:59.510013 17564 net.cpp:84] Creating Layer label_mnist_1_split
I0414 05:17:59.510013 17564 net.cpp:406] label_mnist_1_split <- label
I0414 05:17:59.510013 17564 net.cpp:380] label_mnist_1_split -> label_mnist_1_split_0
I0414 05:17:59.511014 17564 net.cpp:380] label_mnist_1_split -> label_mnist_1_split_1
I0414 05:17:59.511014 17564 net.cpp:122] Setting up label_mnist_1_split
I0414 05:17:59.511014 17564 net.cpp:129] Top shape: 100 (100)
I0414 05:17:59.511014 17564 net.cpp:129] Top shape: 100 (100)
I0414 05:17:59.511014 17564 net.cpp:137] Memory required for data: 314800
I0414 05:17:59.511014 17564 layer_factory.cpp:58] Creating layer conv1
I0414 05:17:59.511014 17564 net.cpp:84] Creating Layer conv1
I0414 05:17:59.511014 17564 net.cpp:406] conv1 <- data
I0414 05:17:59.511014 17564 net.cpp:380] conv1 -> conv1
I0414 05:17:59.512015 15984 common.cpp:36] System entropy source not available, using fallback algorithm to generate seed instead.
I0414 05:17:59.944028 17564 net.cpp:122] Setting up conv1
I0414 05:17:59.944028 17564 net.cpp:129] Top shape: 100 64 28 28 (5017600)
I0414 05:17:59.944028 17564 net.cpp:137] Memory required for data: 20385200
I0414 05:17:59.944028 17564 layer_factory.cpp:58] Creating layer bn1
I0414 05:17:59.944028 17564 net.cpp:84] Creating Layer bn1
I0414 05:17:59.944028 17564 net.cpp:406] bn1 <- conv1
I0414 05:17:59.944028 17564 net.cpp:380] bn1 -> bn1
I0414 05:17:59.944028 17564 net.cpp:122] Setting up bn1
I0414 05:17:59.944028 17564 net.cpp:129] Top shape: 100 64 28 28 (5017600)
I0414 05:17:59.944028 17564 net.cpp:137] Memory required for data: 40455600
I0414 05:17:59.944028 17564 layer_factory.cpp:58] Creating layer scale1
I0414 05:17:59.944028 17564 net.cpp:84] Creating Layer scale1
I0414 05:17:59.944028 17564 net.cpp:406] scale1 <- bn1
I0414 05:17:59.944028 17564 net.cpp:380] scale1 -> scale1
I0414 05:17:59.944028 17564 layer_factory.cpp:58] Creating layer scale1
I0414 05:17:59.944028 17564 net.cpp:122] Setting up scale1
I0414 05:17:59.944028 17564 net.cpp:129] Top shape: 100 64 28 28 (5017600)
I0414 05:17:59.944028 17564 net.cpp:137] Memory required for data: 60526000
I0414 05:17:59.944028 17564 layer_factory.cpp:58] Creating layer relu1
I0414 05:17:59.944028 17564 net.cpp:84] Creating Layer relu1
I0414 05:17:59.944028 17564 net.cpp:406] relu1 <- scale1
I0414 05:17:59.944028 17564 net.cpp:367] relu1 -> scale1 (in-place)
I0414 05:17:59.944028 17564 net.cpp:122] Setting up relu1
I0414 05:17:59.944028 17564 net.cpp:129] Top shape: 100 64 28 28 (5017600)
I0414 05:17:59.944028 17564 net.cpp:137] Memory required for data: 80596400
I0414 05:17:59.945014 17564 layer_factory.cpp:58] Creating layer drop2_1
I0414 05:17:59.945014 17564 net.cpp:84] Creating Layer drop2_1
I0414 05:17:59.945014 17564 net.cpp:406] drop2_1 <- scale1
I0414 05:17:59.945014 17564 net.cpp:367] drop2_1 -> scale1 (in-place)
I0414 05:17:59.945014 17564 net.cpp:122] Setting up drop2_1
I0414 05:17:59.945014 17564 net.cpp:129] Top shape: 100 64 28 28 (5017600)
I0414 05:17:59.945014 17564 net.cpp:137] Memory required for data: 100666800
I0414 05:17:59.945014 17564 layer_factory.cpp:58] Creating layer conv1_0
I0414 05:17:59.945014 17564 net.cpp:84] Creating Layer conv1_0
I0414 05:17:59.945014 17564 net.cpp:406] conv1_0 <- scale1
I0414 05:17:59.945014 17564 net.cpp:380] conv1_0 -> conv1_0
I0414 05:17:59.946013 17564 net.cpp:122] Setting up conv1_0
I0414 05:17:59.946013 17564 net.cpp:129] Top shape: 100 128 28 28 (10035200)
I0414 05:17:59.946013 17564 net.cpp:137] Memory required for data: 140807600
I0414 05:17:59.946013 17564 layer_factory.cpp:58] Creating layer bn1_0
I0414 05:17:59.946013 17564 net.cpp:84] Creating Layer bn1_0
I0414 05:17:59.946013 17564 net.cpp:406] bn1_0 <- conv1_0
I0414 05:17:59.947013 17564 net.cpp:380] bn1_0 -> bn1_0
I0414 05:17:59.947013 17564 net.cpp:122] Setting up bn1_0
I0414 05:17:59.947013 17564 net.cpp:129] Top shape: 100 128 28 28 (10035200)
I0414 05:17:59.947013 17564 net.cpp:137] Memory required for data: 180948400
I0414 05:17:59.947013 17564 layer_factory.cpp:58] Creating layer scale1_0
I0414 05:17:59.947013 17564 net.cpp:84] Creating Layer scale1_0
I0414 05:17:59.947013 17564 net.cpp:406] scale1_0 <- bn1_0
I0414 05:17:59.947013 17564 net.cpp:380] scale1_0 -> scale1_0
I0414 05:17:59.947013 17564 layer_factory.cpp:58] Creating layer scale1_0
I0414 05:17:59.947013 17564 net.cpp:122] Setting up scale1_0
I0414 05:17:59.947013 17564 net.cpp:129] Top shape: 100 128 28 28 (10035200)
I0414 05:17:59.947013 17564 net.cpp:137] Memory required for data: 221089200
I0414 05:17:59.947013 17564 layer_factory.cpp:58] Creating layer relu1_0
I0414 05:17:59.947013 17564 net.cpp:84] Creating Layer relu1_0
I0414 05:17:59.947013 17564 net.cpp:406] relu1_0 <- scale1_0
I0414 05:17:59.947013 17564 net.cpp:367] relu1_0 -> scale1_0 (in-place)
I0414 05:17:59.947013 17564 net.cpp:122] Setting up relu1_0
I0414 05:17:59.947013 17564 net.cpp:129] Top shape: 100 128 28 28 (10035200)
I0414 05:17:59.947013 17564 net.cpp:137] Memory required for data: 261230000
I0414 05:17:59.947013 17564 layer_factory.cpp:58] Creating layer drop1_0
I0414 05:17:59.947013 17564 net.cpp:84] Creating Layer drop1_0
I0414 05:17:59.947013 17564 net.cpp:406] drop1_0 <- scale1_0
I0414 05:17:59.947013 17564 net.cpp:367] drop1_0 -> scale1_0 (in-place)
I0414 05:17:59.947013 17564 net.cpp:122] Setting up drop1_0
I0414 05:17:59.947013 17564 net.cpp:129] Top shape: 100 128 28 28 (10035200)
I0414 05:17:59.947013 17564 net.cpp:137] Memory required for data: 301370800
I0414 05:17:59.948014 17564 layer_factory.cpp:58] Creating layer conv2
I0414 05:17:59.948014 17564 net.cpp:84] Creating Layer conv2
I0414 05:17:59.948014 17564 net.cpp:406] conv2 <- scale1_0
I0414 05:17:59.948014 17564 net.cpp:380] conv2 -> conv2
I0414 05:17:59.951014 17564 net.cpp:122] Setting up conv2
I0414 05:17:59.951014 17564 net.cpp:129] Top shape: 100 128 28 28 (10035200)
I0414 05:17:59.951014 17564 net.cpp:137] Memory required for data: 341511600
I0414 05:17:59.951014 17564 layer_factory.cpp:58] Creating layer bn2
I0414 05:17:59.951014 17564 net.cpp:84] Creating Layer bn2
I0414 05:17:59.951014 17564 net.cpp:406] bn2 <- conv2
I0414 05:17:59.951014 17564 net.cpp:380] bn2 -> bn2
I0414 05:17:59.951014 17564 net.cpp:122] Setting up bn2
I0414 05:17:59.951014 17564 net.cpp:129] Top shape: 100 128 28 28 (10035200)
I0414 05:17:59.951014 17564 net.cpp:137] Memory required for data: 381652400
I0414 05:17:59.951014 17564 layer_factory.cpp:58] Creating layer scale2
I0414 05:17:59.951014 17564 net.cpp:84] Creating Layer scale2
I0414 05:17:59.951014 17564 net.cpp:406] scale2 <- bn2
I0414 05:17:59.951014 17564 net.cpp:380] scale2 -> scale2
I0414 05:17:59.951014 17564 layer_factory.cpp:58] Creating layer scale2
I0414 05:17:59.951014 17564 net.cpp:122] Setting up scale2
I0414 05:17:59.951014 17564 net.cpp:129] Top shape: 100 128 28 28 (10035200)
I0414 05:17:59.951014 17564 net.cpp:137] Memory required for data: 421793200
I0414 05:17:59.951014 17564 layer_factory.cpp:58] Creating layer relu2
I0414 05:17:59.951014 17564 net.cpp:84] Creating Layer relu2
I0414 05:17:59.951014 17564 net.cpp:406] relu2 <- scale2
I0414 05:17:59.951014 17564 net.cpp:367] relu2 -> scale2 (in-place)
I0414 05:17:59.952013 17564 net.cpp:122] Setting up relu2
I0414 05:17:59.952013 17564 net.cpp:129] Top shape: 100 128 28 28 (10035200)
I0414 05:17:59.952013 17564 net.cpp:137] Memory required for data: 461934000
I0414 05:17:59.952013 17564 layer_factory.cpp:58] Creating layer drop2_0
I0414 05:17:59.952013 17564 net.cpp:84] Creating Layer drop2_0
I0414 05:17:59.952013 17564 net.cpp:406] drop2_0 <- scale2
I0414 05:17:59.952013 17564 net.cpp:367] drop2_0 -> scale2 (in-place)
I0414 05:17:59.952013 17564 net.cpp:122] Setting up drop2_0
I0414 05:17:59.952013 17564 net.cpp:129] Top shape: 100 128 28 28 (10035200)
I0414 05:17:59.952013 17564 net.cpp:137] Memory required for data: 502074800
I0414 05:17:59.952013 17564 layer_factory.cpp:58] Creating layer conv2_1
I0414 05:17:59.952013 17564 net.cpp:84] Creating Layer conv2_1
I0414 05:17:59.952013 17564 net.cpp:406] conv2_1 <- scale2
I0414 05:17:59.952013 17564 net.cpp:380] conv2_1 -> conv2_1
I0414 05:17:59.955014 17564 net.cpp:122] Setting up conv2_1
I0414 05:17:59.955014 17564 net.cpp:129] Top shape: 100 128 28 28 (10035200)
I0414 05:17:59.955014 17564 net.cpp:137] Memory required for data: 542215600
I0414 05:17:59.955014 17564 layer_factory.cpp:58] Creating layer bn2_1
I0414 05:17:59.955014 17564 net.cpp:84] Creating Layer bn2_1
I0414 05:17:59.955014 17564 net.cpp:406] bn2_1 <- conv2_1
I0414 05:17:59.955014 17564 net.cpp:380] bn2_1 -> bn2_1
I0414 05:17:59.955014 17564 net.cpp:122] Setting up bn2_1
I0414 05:17:59.955014 17564 net.cpp:129] Top shape: 100 128 28 28 (10035200)
I0414 05:17:59.955014 17564 net.cpp:137] Memory required for data: 582356400
I0414 05:17:59.955014 17564 layer_factory.cpp:58] Creating layer scale2_1
I0414 05:17:59.955014 17564 net.cpp:84] Creating Layer scale2_1
I0414 05:17:59.955014 17564 net.cpp:406] scale2_1 <- bn2_1
I0414 05:17:59.955014 17564 net.cpp:380] scale2_1 -> scale2_1
I0414 05:17:59.955014 17564 layer_factory.cpp:58] Creating layer scale2_1
I0414 05:17:59.956013 17564 net.cpp:122] Setting up scale2_1
I0414 05:17:59.956013 17564 net.cpp:129] Top shape: 100 128 28 28 (10035200)
I0414 05:17:59.956013 17564 net.cpp:137] Memory required for data: 622497200
I0414 05:17:59.956013 17564 layer_factory.cpp:58] Creating layer relu2_1
I0414 05:17:59.956013 17564 net.cpp:84] Creating Layer relu2_1
I0414 05:17:59.956013 17564 net.cpp:406] relu2_1 <- scale2_1
I0414 05:17:59.956013 17564 net.cpp:367] relu2_1 -> scale2_1 (in-place)
I0414 05:17:59.956013 17564 net.cpp:122] Setting up relu2_1
I0414 05:17:59.956013 17564 net.cpp:129] Top shape: 100 128 28 28 (10035200)
I0414 05:17:59.956013 17564 net.cpp:137] Memory required for data: 662638000
I0414 05:17:59.956013 17564 layer_factory.cpp:58] Creating layer pool2_1
I0414 05:17:59.956013 17564 net.cpp:84] Creating Layer pool2_1
I0414 05:17:59.956013 17564 net.cpp:406] pool2_1 <- scale2_1
I0414 05:17:59.956013 17564 net.cpp:380] pool2_1 -> pool2_1
I0414 05:17:59.956013 17564 net.cpp:122] Setting up pool2_1
I0414 05:17:59.956013 17564 net.cpp:129] Top shape: 100 128 14 14 (2508800)
I0414 05:17:59.956013 17564 net.cpp:137] Memory required for data: 672673200
I0414 05:17:59.956013 17564 layer_factory.cpp:58] Creating layer drop2_1
I0414 05:17:59.956013 17564 net.cpp:84] Creating Layer drop2_1
I0414 05:17:59.956013 17564 net.cpp:406] drop2_1 <- pool2_1
I0414 05:17:59.956013 17564 net.cpp:367] drop2_1 -> pool2_1 (in-place)
I0414 05:17:59.956013 17564 net.cpp:122] Setting up drop2_1
I0414 05:17:59.956013 17564 net.cpp:129] Top shape: 100 128 14 14 (2508800)
I0414 05:17:59.956013 17564 net.cpp:137] Memory required for data: 682708400
I0414 05:17:59.956013 17564 layer_factory.cpp:58] Creating layer conv2_2
I0414 05:17:59.956013 17564 net.cpp:84] Creating Layer conv2_2
I0414 05:17:59.956013 17564 net.cpp:406] conv2_2 <- pool2_1
I0414 05:17:59.956013 17564 net.cpp:380] conv2_2 -> conv2_2
I0414 05:17:59.960037 17564 net.cpp:122] Setting up conv2_2
I0414 05:17:59.960037 17564 net.cpp:129] Top shape: 100 128 14 14 (2508800)
I0414 05:17:59.960037 17564 net.cpp:137] Memory required for data: 692743600
I0414 05:17:59.960037 17564 layer_factory.cpp:58] Creating layer bn2_2
I0414 05:17:59.960037 17564 net.cpp:84] Creating Layer bn2_2
I0414 05:17:59.960037 17564 net.cpp:406] bn2_2 <- conv2_2
I0414 05:17:59.960037 17564 net.cpp:380] bn2_2 -> bn2_2
I0414 05:17:59.960037 17564 net.cpp:122] Setting up bn2_2
I0414 05:17:59.960037 17564 net.cpp:129] Top shape: 100 128 14 14 (2508800)
I0414 05:17:59.960037 17564 net.cpp:137] Memory required for data: 702778800
I0414 05:17:59.960037 17564 layer_factory.cpp:58] Creating layer scale2_2
I0414 05:17:59.960037 17564 net.cpp:84] Creating Layer scale2_2
I0414 05:17:59.960037 17564 net.cpp:406] scale2_2 <- bn2_2
I0414 05:17:59.960037 17564 net.cpp:380] scale2_2 -> scale2_2
I0414 05:17:59.960037 17564 layer_factory.cpp:58] Creating layer scale2_2
I0414 05:17:59.960037 17564 net.cpp:122] Setting up scale2_2
I0414 05:17:59.960037 17564 net.cpp:129] Top shape: 100 128 14 14 (2508800)
I0414 05:17:59.960037 17564 net.cpp:137] Memory required for data: 712814000
I0414 05:17:59.960037 17564 layer_factory.cpp:58] Creating layer relu2_2
I0414 05:17:59.960037 17564 net.cpp:84] Creating Layer relu2_2
I0414 05:17:59.960037 17564 net.cpp:406] relu2_2 <- scale2_2
I0414 05:17:59.960037 17564 net.cpp:367] relu2_2 -> scale2_2 (in-place)
I0414 05:17:59.961032 17564 net.cpp:122] Setting up relu2_2
I0414 05:17:59.961032 17564 net.cpp:129] Top shape: 100 128 14 14 (2508800)
I0414 05:17:59.961032 17564 net.cpp:137] Memory required for data: 722849200
I0414 05:17:59.961032 17564 layer_factory.cpp:58] Creating layer drop2_2
I0414 05:17:59.961032 17564 net.cpp:84] Creating Layer drop2_2
I0414 05:17:59.961032 17564 net.cpp:406] drop2_2 <- scale2_2
I0414 05:17:59.961032 17564 net.cpp:367] drop2_2 -> scale2_2 (in-place)
I0414 05:17:59.961032 17564 net.cpp:122] Setting up drop2_2
I0414 05:17:59.961032 17564 net.cpp:129] Top shape: 100 128 14 14 (2508800)
I0414 05:17:59.961032 17564 net.cpp:137] Memory required for data: 732884400
I0414 05:17:59.961032 17564 layer_factory.cpp:58] Creating layer conv3
I0414 05:17:59.961032 17564 net.cpp:84] Creating Layer conv3
I0414 05:17:59.961032 17564 net.cpp:406] conv3 <- scale2_2
I0414 05:17:59.961032 17564 net.cpp:380] conv3 -> conv3
I0414 05:17:59.964027 17564 net.cpp:122] Setting up conv3
I0414 05:17:59.964027 17564 net.cpp:129] Top shape: 100 128 14 14 (2508800)
I0414 05:17:59.964027 17564 net.cpp:137] Memory required for data: 742919600
I0414 05:17:59.964027 17564 layer_factory.cpp:58] Creating layer bn3
I0414 05:17:59.964027 17564 net.cpp:84] Creating Layer bn3
I0414 05:17:59.964027 17564 net.cpp:406] bn3 <- conv3
I0414 05:17:59.964027 17564 net.cpp:380] bn3 -> bn3
I0414 05:17:59.964027 17564 net.cpp:122] Setting up bn3
I0414 05:17:59.964027 17564 net.cpp:129] Top shape: 100 128 14 14 (2508800)
I0414 05:17:59.964027 17564 net.cpp:137] Memory required for data: 752954800
I0414 05:17:59.964027 17564 layer_factory.cpp:58] Creating layer scale3
I0414 05:17:59.964027 17564 net.cpp:84] Creating Layer scale3
I0414 05:17:59.964027 17564 net.cpp:406] scale3 <- bn3
I0414 05:17:59.964027 17564 net.cpp:380] scale3 -> scale3
I0414 05:17:59.964027 17564 layer_factory.cpp:58] Creating layer scale3
I0414 05:17:59.964027 17564 net.cpp:122] Setting up scale3
I0414 05:17:59.964027 17564 net.cpp:129] Top shape: 100 128 14 14 (2508800)
I0414 05:17:59.964027 17564 net.cpp:137] Memory required for data: 762990000
I0414 05:17:59.964027 17564 layer_factory.cpp:58] Creating layer relu3
I0414 05:17:59.964027 17564 net.cpp:84] Creating Layer relu3
I0414 05:17:59.964027 17564 net.cpp:406] relu3 <- scale3
I0414 05:17:59.964027 17564 net.cpp:367] relu3 -> scale3 (in-place)
I0414 05:17:59.965028 17564 net.cpp:122] Setting up relu3
I0414 05:17:59.965028 17564 net.cpp:129] Top shape: 100 128 14 14 (2508800)
I0414 05:17:59.965028 17564 net.cpp:137] Memory required for data: 773025200
I0414 05:17:59.965028 17564 layer_factory.cpp:58] Creating layer drop3
I0414 05:17:59.965028 17564 net.cpp:84] Creating Layer drop3
I0414 05:17:59.965028 17564 net.cpp:406] drop3 <- scale3
I0414 05:17:59.965028 17564 net.cpp:367] drop3 -> scale3 (in-place)
I0414 05:17:59.965028 17564 net.cpp:122] Setting up drop3
I0414 05:17:59.965028 17564 net.cpp:129] Top shape: 100 128 14 14 (2508800)
I0414 05:17:59.965028 17564 net.cpp:137] Memory required for data: 783060400
I0414 05:17:59.965028 17564 layer_factory.cpp:58] Creating layer conv4
I0414 05:17:59.965028 17564 net.cpp:84] Creating Layer conv4
I0414 05:17:59.965028 17564 net.cpp:406] conv4 <- scale3
I0414 05:17:59.965028 17564 net.cpp:380] conv4 -> conv4
I0414 05:17:59.969023 17564 net.cpp:122] Setting up conv4
I0414 05:17:59.969023 17564 net.cpp:129] Top shape: 100 256 14 14 (5017600)
I0414 05:17:59.969023 17564 net.cpp:137] Memory required for data: 803130800
I0414 05:17:59.969023 17564 layer_factory.cpp:58] Creating layer pool4
I0414 05:17:59.969023 17564 net.cpp:84] Creating Layer pool4
I0414 05:17:59.969023 17564 net.cpp:406] pool4 <- conv4
I0414 05:17:59.969023 17564 net.cpp:380] pool4 -> pool4
I0414 05:17:59.969023 17564 net.cpp:122] Setting up pool4
I0414 05:17:59.969023 17564 net.cpp:129] Top shape: 100 256 7 7 (1254400)
I0414 05:17:59.969023 17564 net.cpp:137] Memory required for data: 808148400
I0414 05:17:59.969023 17564 layer_factory.cpp:58] Creating layer bn4
I0414 05:17:59.969023 17564 net.cpp:84] Creating Layer bn4
I0414 05:17:59.969023 17564 net.cpp:406] bn4 <- pool4
I0414 05:17:59.969023 17564 net.cpp:380] bn4 -> bn4
I0414 05:17:59.969023 17564 net.cpp:122] Setting up bn4
I0414 05:17:59.969023 17564 net.cpp:129] Top shape: 100 256 7 7 (1254400)
I0414 05:17:59.969023 17564 net.cpp:137] Memory required for data: 813166000
I0414 05:17:59.969023 17564 layer_factory.cpp:58] Creating layer scale4
I0414 05:17:59.969023 17564 net.cpp:84] Creating Layer scale4
I0414 05:17:59.969023 17564 net.cpp:406] scale4 <- bn4
I0414 05:17:59.969023 17564 net.cpp:380] scale4 -> scale4
I0414 05:17:59.969023 17564 layer_factory.cpp:58] Creating layer scale4
I0414 05:17:59.969023 17564 net.cpp:122] Setting up scale4
I0414 05:17:59.969023 17564 net.cpp:129] Top shape: 100 256 7 7 (1254400)
I0414 05:17:59.969023 17564 net.cpp:137] Memory required for data: 818183600
I0414 05:17:59.969023 17564 layer_factory.cpp:58] Creating layer relu4
I0414 05:17:59.969023 17564 net.cpp:84] Creating Layer relu4
I0414 05:17:59.969023 17564 net.cpp:406] relu4 <- scale4
I0414 05:17:59.970023 17564 net.cpp:367] relu4 -> scale4 (in-place)
I0414 05:17:59.970023 17564 net.cpp:122] Setting up relu4
I0414 05:17:59.970023 17564 net.cpp:129] Top shape: 100 256 7 7 (1254400)
I0414 05:17:59.970023 17564 net.cpp:137] Memory required for data: 823201200
I0414 05:17:59.970023 17564 layer_factory.cpp:58] Creating layer drop4
I0414 05:17:59.970023 17564 net.cpp:84] Creating Layer drop4
I0414 05:17:59.970023 17564 net.cpp:406] drop4 <- scale4
I0414 05:17:59.970023 17564 net.cpp:367] drop4 -> scale4 (in-place)
I0414 05:17:59.970023 17564 net.cpp:122] Setting up drop4
I0414 05:17:59.970023 17564 net.cpp:129] Top shape: 100 256 7 7 (1254400)
I0414 05:17:59.970023 17564 net.cpp:137] Memory required for data: 828218800
I0414 05:17:59.970023 17564 layer_factory.cpp:58] Creating layer conv4_1
I0414 05:17:59.970023 17564 net.cpp:84] Creating Layer conv4_1
I0414 05:17:59.970023 17564 net.cpp:406] conv4_1 <- scale4
I0414 05:17:59.970023 17564 net.cpp:380] conv4_1 -> conv4_1
I0414 05:17:59.977028 17564 net.cpp:122] Setting up conv4_1
I0414 05:17:59.978014 17564 net.cpp:129] Top shape: 100 256 7 7 (1254400)
I0414 05:17:59.978014 17564 net.cpp:137] Memory required for data: 833236400
I0414 05:17:59.978014 17564 layer_factory.cpp:58] Creating layer bn4_1
I0414 05:17:59.978014 17564 net.cpp:84] Creating Layer bn4_1
I0414 05:17:59.978014 17564 net.cpp:406] bn4_1 <- conv4_1
I0414 05:17:59.978014 17564 net.cpp:380] bn4_1 -> bn4_1
I0414 05:17:59.978014 17564 net.cpp:122] Setting up bn4_1
I0414 05:17:59.978014 17564 net.cpp:129] Top shape: 100 256 7 7 (1254400)
I0414 05:17:59.978014 17564 net.cpp:137] Memory required for data: 838254000
I0414 05:17:59.978014 17564 layer_factory.cpp:58] Creating layer scale4_1
I0414 05:17:59.978014 17564 net.cpp:84] Creating Layer scale4_1
I0414 05:17:59.978014 17564 net.cpp:406] scale4_1 <- bn4_1
I0414 05:17:59.978014 17564 net.cpp:380] scale4_1 -> scale4_1
I0414 05:17:59.978014 17564 layer_factory.cpp:58] Creating layer scale4_1
I0414 05:17:59.978014 17564 net.cpp:122] Setting up scale4_1
I0414 05:17:59.978014 17564 net.cpp:129] Top shape: 100 256 7 7 (1254400)
I0414 05:17:59.978014 17564 net.cpp:137] Memory required for data: 843271600
I0414 05:17:59.978014 17564 layer_factory.cpp:58] Creating layer relu4_1
I0414 05:17:59.978014 17564 net.cpp:84] Creating Layer relu4_1
I0414 05:17:59.978014 17564 net.cpp:406] relu4_1 <- scale4_1
I0414 05:17:59.978014 17564 net.cpp:367] relu4_1 -> scale4_1 (in-place)
I0414 05:17:59.978014 17564 net.cpp:122] Setting up relu4_1
I0414 05:17:59.978014 17564 net.cpp:129] Top shape: 100 256 7 7 (1254400)
I0414 05:17:59.978014 17564 net.cpp:137] Memory required for data: 848289200
I0414 05:17:59.978014 17564 layer_factory.cpp:58] Creating layer drop4_1
I0414 05:17:59.978014 17564 net.cpp:84] Creating Layer drop4_1
I0414 05:17:59.978014 17564 net.cpp:406] drop4_1 <- scale4_1
I0414 05:17:59.978014 17564 net.cpp:367] drop4_1 -> scale4_1 (in-place)
I0414 05:17:59.979023 17564 net.cpp:122] Setting up drop4_1
I0414 05:17:59.979023 17564 net.cpp:129] Top shape: 100 256 7 7 (1254400)
I0414 05:17:59.979023 17564 net.cpp:137] Memory required for data: 853306800
I0414 05:17:59.979023 17564 layer_factory.cpp:58] Creating layer conv4_2
I0414 05:17:59.979023 17564 net.cpp:84] Creating Layer conv4_2
I0414 05:17:59.979023 17564 net.cpp:406] conv4_2 <- scale4_1
I0414 05:17:59.979023 17564 net.cpp:380] conv4_2 -> conv4_2
I0414 05:17:59.985029 17564 net.cpp:122] Setting up conv4_2
I0414 05:17:59.985029 17564 net.cpp:129] Top shape: 100 256 7 7 (1254400)
I0414 05:17:59.985029 17564 net.cpp:137] Memory required for data: 858324400
I0414 05:17:59.985029 17564 layer_factory.cpp:58] Creating layer bn4_2
I0414 05:17:59.985029 17564 net.cpp:84] Creating Layer bn4_2
I0414 05:17:59.985029 17564 net.cpp:406] bn4_2 <- conv4_2
I0414 05:17:59.985029 17564 net.cpp:380] bn4_2 -> bn4_2
I0414 05:17:59.986023 17564 net.cpp:122] Setting up bn4_2
I0414 05:17:59.986023 17564 net.cpp:129] Top shape: 100 256 7 7 (1254400)
I0414 05:17:59.986023 17564 net.cpp:137] Memory required for data: 863342000
I0414 05:17:59.986023 17564 layer_factory.cpp:58] Creating layer scale4_2
I0414 05:17:59.986023 17564 net.cpp:84] Creating Layer scale4_2
I0414 05:17:59.986023 17564 net.cpp:406] scale4_2 <- bn4_2
I0414 05:17:59.986023 17564 net.cpp:380] scale4_2 -> scale4_2
I0414 05:17:59.986023 17564 layer_factory.cpp:58] Creating layer scale4_2
I0414 05:17:59.986023 17564 net.cpp:122] Setting up scale4_2
I0414 05:17:59.986023 17564 net.cpp:129] Top shape: 100 256 7 7 (1254400)
I0414 05:17:59.986023 17564 net.cpp:137] Memory required for data: 868359600
I0414 05:17:59.986023 17564 layer_factory.cpp:58] Creating layer relu4_2
I0414 05:17:59.986023 17564 net.cpp:84] Creating Layer relu4_2
I0414 05:17:59.986023 17564 net.cpp:406] relu4_2 <- scale4_2
I0414 05:17:59.986023 17564 net.cpp:367] relu4_2 -> scale4_2 (in-place)
I0414 05:17:59.986023 17564 net.cpp:122] Setting up relu4_2
I0414 05:17:59.986023 17564 net.cpp:129] Top shape: 100 256 7 7 (1254400)
I0414 05:17:59.986023 17564 net.cpp:137] Memory required for data: 873377200
I0414 05:17:59.986023 17564 layer_factory.cpp:58] Creating layer drop4_2
I0414 05:17:59.986023 17564 net.cpp:84] Creating Layer drop4_2
I0414 05:17:59.986023 17564 net.cpp:406] drop4_2 <- scale4_2
I0414 05:17:59.986023 17564 net.cpp:367] drop4_2 -> scale4_2 (in-place)
I0414 05:17:59.986023 17564 net.cpp:122] Setting up drop4_2
I0414 05:17:59.986023 17564 net.cpp:129] Top shape: 100 256 7 7 (1254400)
I0414 05:17:59.986023 17564 net.cpp:137] Memory required for data: 878394800
I0414 05:17:59.986023 17564 layer_factory.cpp:58] Creating layer pool4_2
I0414 05:17:59.986023 17564 net.cpp:84] Creating Layer pool4_2
I0414 05:17:59.986023 17564 net.cpp:406] pool4_2 <- scale4_2
I0414 05:17:59.986023 17564 net.cpp:380] pool4_2 -> pool4_2
I0414 05:17:59.986023 17564 net.cpp:122] Setting up pool4_2
I0414 05:17:59.986023 17564 net.cpp:129] Top shape: 100 256 4 4 (409600)
I0414 05:17:59.986023 17564 net.cpp:137] Memory required for data: 880033200
I0414 05:17:59.986023 17564 layer_factory.cpp:58] Creating layer conv4_0
I0414 05:17:59.986023 17564 net.cpp:84] Creating Layer conv4_0
I0414 05:17:59.986023 17564 net.cpp:406] conv4_0 <- pool4_2
I0414 05:17:59.986023 17564 net.cpp:380] conv4_0 -> conv4_0
I0414 05:17:59.997012 17564 net.cpp:122] Setting up conv4_0
I0414 05:17:59.997012 17564 net.cpp:129] Top shape: 100 512 4 4 (819200)
I0414 05:17:59.997012 17564 net.cpp:137] Memory required for data: 883310000
I0414 05:17:59.997012 17564 layer_factory.cpp:58] Creating layer bn4_0
I0414 05:17:59.997012 17564 net.cpp:84] Creating Layer bn4_0
I0414 05:17:59.997012 17564 net.cpp:406] bn4_0 <- conv4_0
I0414 05:17:59.997012 17564 net.cpp:380] bn4_0 -> bn4_0
I0414 05:17:59.997012 17564 net.cpp:122] Setting up bn4_0
I0414 05:17:59.997012 17564 net.cpp:129] Top shape: 100 512 4 4 (819200)
I0414 05:17:59.997012 17564 net.cpp:137] Memory required for data: 886586800
I0414 05:17:59.997012 17564 layer_factory.cpp:58] Creating layer scale4_0
I0414 05:17:59.997012 17564 net.cpp:84] Creating Layer scale4_0
I0414 05:17:59.997012 17564 net.cpp:406] scale4_0 <- bn4_0
I0414 05:17:59.997012 17564 net.cpp:380] scale4_0 -> scale4_0
I0414 05:17:59.997012 17564 layer_factory.cpp:58] Creating layer scale4_0
I0414 05:17:59.997012 17564 net.cpp:122] Setting up scale4_0
I0414 05:17:59.997012 17564 net.cpp:129] Top shape: 100 512 4 4 (819200)
I0414 05:17:59.997012 17564 net.cpp:137] Memory required for data: 889863600
I0414 05:17:59.997012 17564 layer_factory.cpp:58] Creating layer relu4_0
I0414 05:17:59.997012 17564 net.cpp:84] Creating Layer relu4_0
I0414 05:17:59.997012 17564 net.cpp:406] relu4_0 <- scale4_0
I0414 05:17:59.997012 17564 net.cpp:367] relu4_0 -> scale4_0 (in-place)
I0414 05:17:59.998013 17564 net.cpp:122] Setting up relu4_0
I0414 05:17:59.998013 17564 net.cpp:129] Top shape: 100 512 4 4 (819200)
I0414 05:17:59.998013 17564 net.cpp:137] Memory required for data: 893140400
I0414 05:17:59.998013 17564 layer_factory.cpp:58] Creating layer drop4_0
I0414 05:17:59.998013 17564 net.cpp:84] Creating Layer drop4_0
I0414 05:17:59.998013 17564 net.cpp:406] drop4_0 <- scale4_0
I0414 05:17:59.998013 17564 net.cpp:367] drop4_0 -> scale4_0 (in-place)
I0414 05:17:59.998013 17564 net.cpp:122] Setting up drop4_0
I0414 05:17:59.998013 17564 net.cpp:129] Top shape: 100 512 4 4 (819200)
I0414 05:17:59.998013 17564 net.cpp:137] Memory required for data: 896417200
I0414 05:17:59.998013 17564 layer_factory.cpp:58] Creating layer cccp4
I0414 05:17:59.998013 17564 net.cpp:84] Creating Layer cccp4
I0414 05:17:59.998013 17564 net.cpp:406] cccp4 <- scale4_0
I0414 05:17:59.998013 17564 net.cpp:380] cccp4 -> cccp4
I0414 05:18:00.008013 17564 net.cpp:122] Setting up cccp4
I0414 05:18:00.008013 17564 net.cpp:129] Top shape: 100 512 3 3 (460800)
I0414 05:18:00.008013 17564 net.cpp:137] Memory required for data: 898260400
I0414 05:18:00.008013 17564 layer_factory.cpp:58] Creating layer relu_cccp4
I0414 05:18:00.008013 17564 net.cpp:84] Creating Layer relu_cccp4
I0414 05:18:00.008013 17564 net.cpp:406] relu_cccp4 <- cccp4
I0414 05:18:00.008013 17564 net.cpp:367] relu_cccp4 -> cccp4 (in-place)
I0414 05:18:00.008013 17564 net.cpp:122] Setting up relu_cccp4
I0414 05:18:00.008013 17564 net.cpp:129] Top shape: 100 512 3 3 (460800)
I0414 05:18:00.008013 17564 net.cpp:137] Memory required for data: 900103600
I0414 05:18:00.008013 17564 layer_factory.cpp:58] Creating layer drop4_3
I0414 05:18:00.008013 17564 net.cpp:84] Creating Layer drop4_3
I0414 05:18:00.008013 17564 net.cpp:406] drop4_3 <- cccp4
I0414 05:18:00.008013 17564 net.cpp:367] drop4_3 -> cccp4 (in-place)
I0414 05:18:00.008013 17564 net.cpp:122] Setting up drop4_3
I0414 05:18:00.008013 17564 net.cpp:129] Top shape: 100 512 3 3 (460800)
I0414 05:18:00.008013 17564 net.cpp:137] Memory required for data: 901946800
I0414 05:18:00.008013 17564 layer_factory.cpp:58] Creating layer cccp5
I0414 05:18:00.008013 17564 net.cpp:84] Creating Layer cccp5
I0414 05:18:00.008013 17564 net.cpp:406] cccp5 <- cccp4
I0414 05:18:00.008013 17564 net.cpp:380] cccp5 -> cccp5
I0414 05:18:00.014012 17564 net.cpp:122] Setting up cccp5
I0414 05:18:00.014012 17564 net.cpp:129] Top shape: 100 256 2 2 (102400)
I0414 05:18:00.014012 17564 net.cpp:137] Memory required for data: 902356400
I0414 05:18:00.014012 17564 layer_factory.cpp:58] Creating layer relu_cccp5
I0414 05:18:00.014012 17564 net.cpp:84] Creating Layer relu_cccp5
I0414 05:18:00.014012 17564 net.cpp:406] relu_cccp5 <- cccp5
I0414 05:18:00.014012 17564 net.cpp:367] relu_cccp5 -> cccp5 (in-place)
I0414 05:18:00.014012 17564 net.cpp:122] Setting up relu_cccp5
I0414 05:18:00.014012 17564 net.cpp:129] Top shape: 100 256 2 2 (102400)
I0414 05:18:00.015012 17564 net.cpp:137] Memory required for data: 902766000
I0414 05:18:00.015012 17564 layer_factory.cpp:58] Creating layer poolcp5
I0414 05:18:00.015012 17564 net.cpp:84] Creating Layer poolcp5
I0414 05:18:00.015012 17564 net.cpp:406] poolcp5 <- cccp5
I0414 05:18:00.015012 17564 net.cpp:380] poolcp5 -> poolcp5
I0414 05:18:00.015012 17564 net.cpp:122] Setting up poolcp5
I0414 05:18:00.015012 17564 net.cpp:129] Top shape: 100 256 1 1 (25600)
I0414 05:18:00.015012 17564 net.cpp:137] Memory required for data: 902868400
I0414 05:18:00.015012 17564 layer_factory.cpp:58] Creating layer drop4_5
I0414 05:18:00.015012 17564 net.cpp:84] Creating Layer drop4_5
I0414 05:18:00.015012 17564 net.cpp:406] drop4_5 <- poolcp5
I0414 05:18:00.015012 17564 net.cpp:367] drop4_5 -> poolcp5 (in-place)
I0414 05:18:00.015012 17564 net.cpp:122] Setting up drop4_5
I0414 05:18:00.015012 17564 net.cpp:129] Top shape: 100 256 1 1 (25600)
I0414 05:18:00.015012 17564 net.cpp:137] Memory required for data: 902970800
I0414 05:18:00.015012 17564 layer_factory.cpp:58] Creating layer cccp6
I0414 05:18:00.015012 17564 net.cpp:84] Creating Layer cccp6
I0414 05:18:00.015012 17564 net.cpp:406] cccp6 <- poolcp5
I0414 05:18:00.015012 17564 net.cpp:380] cccp6 -> cccp6
I0414 05:18:00.022012 17564 net.cpp:122] Setting up cccp6
I0414 05:18:00.022012 17564 net.cpp:129] Top shape: 100 256 1 1 (25600)
I0414 05:18:00.022012 17564 net.cpp:137] Memory required for data: 903073200
I0414 05:18:00.022012 17564 layer_factory.cpp:58] Creating layer relu_cccp6
I0414 05:18:00.022012 17564 net.cpp:84] Creating Layer relu_cccp6
I0414 05:18:00.022012 17564 net.cpp:406] relu_cccp6 <- cccp6
I0414 05:18:00.022012 17564 net.cpp:367] relu_cccp6 -> cccp6 (in-place)
I0414 05:18:00.023012 17564 net.cpp:122] Setting up relu_cccp6
I0414 05:18:00.023012 17564 net.cpp:129] Top shape: 100 256 1 1 (25600)
I0414 05:18:00.023012 17564 net.cpp:137] Memory required for data: 903175600
I0414 05:18:00.023012 17564 layer_factory.cpp:58] Creating layer poolcp6
I0414 05:18:00.023012 17564 net.cpp:84] Creating Layer poolcp6
I0414 05:18:00.023012 17564 net.cpp:406] poolcp6 <- cccp6
I0414 05:18:00.023012 17564 net.cpp:380] poolcp6 -> poolcp6
I0414 05:18:00.023012 17564 net.cpp:122] Setting up poolcp6
I0414 05:18:00.023012 17564 net.cpp:129] Top shape: 100 256 1 1 (25600)
I0414 05:18:00.023012 17564 net.cpp:137] Memory required for data: 903278000
I0414 05:18:00.023012 17564 layer_factory.cpp:58] Creating layer ip1
I0414 05:18:00.023012 17564 net.cpp:84] Creating Layer ip1
I0414 05:18:00.023012 17564 net.cpp:406] ip1 <- poolcp6
I0414 05:18:00.023012 17564 net.cpp:380] ip1 -> ip1
I0414 05:18:00.023012 17564 net.cpp:122] Setting up ip1
I0414 05:18:00.023012 17564 net.cpp:129] Top shape: 100 10 (1000)
I0414 05:18:00.023012 17564 net.cpp:137] Memory required for data: 903282000
I0414 05:18:00.023012 17564 layer_factory.cpp:58] Creating layer ip1_ip1_0_split
I0414 05:18:00.023012 17564 net.cpp:84] Creating Layer ip1_ip1_0_split
I0414 05:18:00.024013 17564 net.cpp:406] ip1_ip1_0_split <- ip1
I0414 05:18:00.024013 17564 net.cpp:380] ip1_ip1_0_split -> ip1_ip1_0_split_0
I0414 05:18:00.024013 17564 net.cpp:380] ip1_ip1_0_split -> ip1_ip1_0_split_1
I0414 05:18:00.024013 17564 net.cpp:122] Setting up ip1_ip1_0_split
I0414 05:18:00.024013 17564 net.cpp:129] Top shape: 100 10 (1000)
I0414 05:18:00.024013 17564 net.cpp:129] Top shape: 100 10 (1000)
I0414 05:18:00.024013 17564 net.cpp:137] Memory required for data: 903290000
I0414 05:18:00.024013 17564 layer_factory.cpp:58] Creating layer accuracy_training
I0414 05:18:00.024013 17564 net.cpp:84] Creating Layer accuracy_training
I0414 05:18:00.024013 17564 net.cpp:406] accuracy_training <- ip1_ip1_0_split_0
I0414 05:18:00.024013 17564 net.cpp:406] accuracy_training <- label_mnist_1_split_0
…
