…
I0312 11:29:37.283273 12204 net.cpp:322] The NetState phase (0) differed from the phase (1) specified by a rule in layer bn4_0
I0312 11:29:37.283273 12204 net.cpp:322] The NetState phase (0) differed from the phase (1) specified by a rule in layer accuracy
I0312 11:29:37.283273 12204 net.cpp:58] Initializing net from parameters: 
name: "SVHN_all_drpout"
state {
  phase: TRAIN
  level: 0
  stage: ""
}
layer {
  name: "SVHN"
  type: "Data"
  top: "data"
  top: "label"
  include {
    phase: TRAIN
  }
  transform_param {
    scale: 0.0039215684
  }
  data_param {
    source: "examples/svhn/svhn_train_leveldb"
    batch_size: 100
    backend: LEVELDB
  }
}
layer {
  name: "conv1"
  type: "Convolution"
  bottom: "data"
  top: "conv1"
  param {
    lr_mult: 1
  }
  convolution_param {
    num_output: 64
    bias_term: true
    pad: 1
    kernel_size: 3
    stride: 1
    weight_filler {
      type: "xavier"
    }
  }
}
layer {
  name: "bn1"
  type: "BatchNorm"
  bottom: "conv1"
  top: "bn1"
  include {
    phase: TRAIN
  }
  batch_norm_param {
    use_global_stats: false
    moving_average_fraction: 0.95
  }
}
layer {
  name: "scale1"
  type: "Scale"
  bottom: "bn1"
  top: "scale1"
  scale_param {
    bias_term: true
  }
}
layer {
  name: "relu1"
  type: "ReLU"
  bottom: "scale1"
  top: "relu1"
}
layer {
  name: "conv1_0"
  type: "Convolution"
  bottom: "relu1"
  top: "conv1_0"
  param {
    lr_mult: 1
  }
  convolution_param {
    num_output: 32
    bias_term: true
    pad: 1
    kernel_size: 3
    stride: 1
    weight_filler {
      type: "xavier"
    }
  }
}
layer {
  name: "bn1_0"
  type: "BatchNorm"
  bottom: "conv1_0"
  top: "bn1_0"
  include {
    phase: TRAIN
  }
  batch_norm_param {
    use_global_stats: false
    moving_average_fraction: 0.95
  }
}
layer {
  name: "scale1_0"
  type: "Scale"
  bottom: "bn1_0"
  top: "scale1_0"
  scale_param {
    bias_term: true
  }
}
layer {
  name: "relu1_0"
  type: "ReLU"
  bottom: "scale1_0"
  top: "relu1_0"
}
layer {
  name: "conv2"
  type: "Convolution"
  bottom: "relu1_0"
  top: "conv2"
  param {
    lr_mult: 1
  }
  convolution_param {
    num_output: 32
    bias_term: true
    pad: 1
    kernel_size: 3
    stride: 1
    weight_filler {
      type: "gaussian"
      std: 0.01
    }
  }
}
layer {
  name: "bn2"
  type: "BatchNorm"
  bottom: "conv2"
  top: "bn2"
  include {
    phase: TRAIN
  }
  batch_norm_param {
    use_global_stats: false
    moving_average_fraction: 0.95
  }
}
layer {
  name: "scale2"
  type: "Scale"
  bottom: "bn2"
  top: "scale2"
  scale_param {
    bias_term: true
  }
}
layer {
  name: "relu2"
  type: "ReLU"
  bottom: "scale2"
  top: "relu2"
}
layer {
  name: "conv2_1"
  type: "Convolution"
  bottom: "relu2"
  top: "conv2_1"
  param {
    lr_mult: 1
  }
  convolution_param {
    num_output: 32
    bias_term: true
    pad: 1
    kernel_size: 3
    stride: 1
    weight_filler {
      type: "gaussian"
      std: 0.01
    }
  }
}
layer {
  name: "bn2_1"
  type: "BatchNorm"
  bottom: "conv2_1"
  top: "bn2_1"
  include {
    phase: TRAIN
  }
  batch_norm_param {
    use_global_stats: false
    moving_average_fraction: 0.95
  }
}
layer {
  name: "scale2_1"
  type: "Scale"
  bottom: "bn2_1"
  top: "scale2_1"
  scale_param {
    bias_term: true
  }
}
layer {
  name: "relu2_1"
  type: "ReLU"
  bottom: "scale2_1"
  top: "relu2_1"
}
layer {
  name: "pool2_1"
  type: "Pooling"
  bottom: "relu2_1"
  top: "pool2_1"
  pooling_param {
    pool: MAX
    kernel_size: 2
    stride: 2
  }
}
layer {
  name: "conv2_2"
  type: "Convolution"
  bottom: "pool2_1"
  top: "conv2_2"
  param {
    lr_mult: 1
  }
  convolution_param {
    num_output: 32
    bias_term: true
    pad: 1
    kernel_size: 3
    stride: 1
    weight_filler {
      type: "gaussian"
      std: 0.01
    }
  }
}
layer {
  name: "bn2_2"
  type: "BatchNorm"
  bottom: "conv2_2"
  top: "bn2_2"
  include {
    phase: TRAIN
  }
  batch_norm_param {
    use_global_stats: false
    moving_average_fraction: 0.95
  }
}
layer {
  name: "scale2_2"
  type: "Scale"
  bottom: "bn2_2"
  top: "scale2_2"
  scale_param {
    bias_term: true
  }
}
layer {
  name: "relu2_2"
  type: "ReLU"
  bottom: "scale2_2"
  top: "relu2_2"
}
layer {
  name: "conv3"
  type: "Convolution"
  bottom: "relu2_2"
  top: "conv3"
  param {
    lr_mult: 1
  }
  convolution_param {
    num_output: 32
    bias_term: true
    pad: 1
    kernel_size: 3
    stride: 1
    weight_filler {
      type: "xavier"
    }
  }
}
layer {
  name: "bn3"
  type: "BatchNorm"
  bottom: "conv3"
  top: "bn3"
  include {
    phase: TRAIN
  }
  batch_norm_param {
    use_global_stats: false
    moving_average_fraction: 0.95
  }
}
layer {
  name: "scale3"
  type: "Scale"
  bottom: "bn3"
  top: "scale3"
  scale_param {
    bias_term: true
  }
}
layer {
  name: "relu3"
  type: "ReLU"
  bottom: "scale3"
  top: "relu3"
}
layer {
  name: "conv4"
  type: "Convolution"
  bottom: "relu3"
  top: "conv4"
  param {
    lr_mult: 1
  }
  convolution_param {
    num_output: 64
    bias_term: true
    pad: 1
    kernel_size: 3
    stride: 1
    weight_filler {
      type: "xavier"
    }
  }
}
layer {
  name: "pool4"
  type: "Pooling"
  bottom: "conv4"
  top: "pool4"
  pooling_param {
    pool: MAX
    kernel_size: 2
    stride: 2
  }
}
layer {
  name: "bn4"
  type: "BatchNorm"
  bottom: "pool4"
  top: "bn4"
  include {
    phase: TRAIN
  }
  batch_norm_param {
    use_global_stats: false
    moving_average_fraction: 0.95
  }
}
layer {
  name: "scale4"
  type: "Scale"
  bottom: "bn4"
  top: "scale4"
  scale_param {
    bias_term: true
  }
}
layer {
  name: "relu4"
  type: "ReLU"
  bottom: "scale4"
  top: "relu4"
}
layer {
  name: "conv4_1"
  type: "Convolution"
  bottom: "relu4"
  top: "conv4_1"
  param {
    lr_mult: 1
  }
  convolution_param {
    num_output: 64
    bias_term: true
    pad: 1
    kernel_size: 3
    stride: 1
    weight_filler {
      type: "xavier"
    }
  }
}
layer {
  name: "bn4_1"
  type: "BatchNorm"
  bottom: "conv4_1"
  top: "bn4_1"
  include {
    phase: TRAIN
  }
  batch_norm_param {
    use_global_stats: false
    moving_average_fraction: 0.95
  }
}
layer {
  name: "scale4_1"
  type: "Scale"
  bottom: "bn4_1"
  top: "scale4_1"
  scale_param {
    bias_term: true
  }
}
layer {
  name: "relu4_1"
  type: "ReLU"
  bottom: "scale4_1"
  top: "relu4_1"
}
layer {
  name: "conv4_2"
  type: "Convolution"
  bottom: "relu4_1"
  top: "conv4_2"
  param {
    lr_mult: 1
  }
  convolution_param {
    num_output: 64
    bias_term: true
    pad: 1
    kernel_size: 3
    stride: 1
    weight_filler {
      type: "xavier"
    }
  }
}
layer {
  name: "bn4_2"
  type: "BatchNorm"
  bottom: "conv4_2"
  top: "bn4_2"
  include {
    phase: TRAIN
  }
  batch_norm_param {
    use_global_stats: false
    moving_average_fraction: 0.95
  }
}
layer {
  name: "scale4_2"
  type: "Scale"
  bottom: "bn4_2"
  top: "scale4_2"
  scale_param {
    bias_term: true
  }
}
layer {
  name: "relu4_2"
  type: "ReLU"
  bottom: "scale4_2"
  top: "relu4_2"
}
layer {
  name: "pool4_2"
  type: "Pooling"
  bottom: "relu4_2"
  top: "pool4_2"
  pooling_param {
    pool: MAX
    kernel_size: 2
    stride: 2
  }
}
layer {
  name: "conv4_0"
  type: "Convolution"
  bottom: "pool4_2"
  top: "conv4_0"
  param {
    lr_mult: 1
  }
  convolution_param {
    num_output: 128
    bias_term: true
    pad: 1
    kernel_size: 3
    stride: 1
    weight_filler {
      type: "xavier"
    }
  }
}
layer {
  name: "bn4_0"
  type: "BatchNorm"
  bottom: "conv4_0"
  top: "bn4_0"
  include {
    phase: TRAIN
  }
  batch_norm_param {
    use_global_stats: false
    moving_average_fraction: 0.95
  }
}
layer {
  name: "scale4_0"
  type: "Scale"
  bottom: "bn4_0"
  top: "scale4_0"
  scale_param {
    bias_term: true
  }
}
layer {
  name: "relu4_0"
  type: "ReLU"
  bottom: "scale4_0"
  top: "relu4_0"
}
layer {
  name: "cccp4"
  type: "Convolution"
  bottom: "relu4_0"
  top: "cccp4"
  param {
    lr_mult: 1
    decay_mult: 1
  }
  param {
    lr_mult: 2
    decay_mult: 0
  }
  convolution_param {
    num_output: 256
    kernel_size: 1
    group: 1
    weight_filler {
      type: "xavier"
    }
    bias_filler {
      type: "constant"
      value: 0
    }
  }
}
layer {
  name: "relu_cccp4"
  type: "ReLU"
  bottom: "cccp4"
  top: "cccp4"
}
layer {
  name: "cccp5"
  type: "Convolution"
  bottom: "cccp4"
  top: "cccp5"
  param {
    lr_mult: 1
    decay_mult: 1
  }
  param {
    lr_mult: 2
    decay_mult: 0
  }
  convolution_param {
    num_output: 64
    kernel_size: 1
    group: 1
    weight_filler {
      type: "xavier"
    }
    bias_filler {
      type: "constant"
      value: 0
    }
  }
}
layer {
  name: "relu_cccp5"
  type: "ReLU"
  bottom: "cccp5"
  top: "cccp5"
}
layer {
  name: "poolcp5"
  type: "Pooling"
  bottom: "cccp5"
  top: "poolcp5"
  pooling_param {
    pool: MAX
    kernel_size: 2
    stride: 2
  }
}
layer {
  name: "cccp6"
  type: "Convolution"
  bottom: "poolcp5"
  top: "cccp6"
  param {
    lr_mult: 1
    decay_mult: 1
  }
  param {
    lr_mult: 2
    decay_mult: 0
  }
  convolution_param {
    num_output: 64
    pad: 1
    kernel_size: 3
    group: 1
    weight_filler {
      type: "xavier"
    }
    bias_filler {
      type: "constant"
      value: 0
    }
  }
}
layer {
  name: "relu_cccp6"
  type: "ReLU"
  bottom: "cccp6"
  top: "cccp6"
}
layer {
  name: "poolcp6"
  type: "Pooling"
  bottom: "cccp6"
  top: "poolcp6"
  pooling_param {
    pool: MAX
    kernel_size: 2
    stride: 2
  }
}
layer {
  name: "ip1"
  type: "InnerProduct"
  bottom: "poolcp6"
  top: "ip1"
  param {
    lr_mult: 1
    decay_mult: 0
  }
  param {
    lr_mult: 2
    decay_mult: 0
  }
  inner_product_param {
    num_output: 10
    weight_filler {
      type: "xavier"
    }
    bias_filler {
      type: "constant"
    }
  }
}
layer {
  name: "accuracy_training"
  type: "Accuracy"
  bottom: "ip1"
  bottom: "label"
  top: "accuracy_training"
  include {
    phase: TRAIN
  }
}
layer {
  name: "loss"
  type: "SoftmaxWithLoss"
  bottom: "ip1"
  bottom: "label"
  top: "loss"
}
I0312 11:29:37.283273 12204 layer_factory.cpp:58] Creating layer SVHN
I0312 11:29:37.283273 12204 net.cpp:100] Creating Layer SVHN
I0312 11:29:37.283273 12204 net.cpp:408] SVHN -> data
I0312 11:29:37.283273 12204 net.cpp:408] SVHN -> label
I0312 11:29:37.283273 12220 common.cpp:36] System entropy source not available, using fallback algorithm to generate seed instead.
I0312 11:29:37.283273 12220 db_leveldb.cpp:18] Opened leveldb examples/svhn/svhn_train_leveldb
I0312 11:29:37.367908 12204 data_layer.cpp:41] output data size: 100,3,32,32
I0312 11:29:37.367908 12204 net.cpp:150] Setting up SVHN
I0312 11:29:37.367908 12204 net.cpp:157] Top shape: 100 3 32 32 (307200)
I0312 11:29:37.367908 12204 net.cpp:157] Top shape: 100 (100)
I0312 11:29:37.367908 12204 net.cpp:165] Memory required for data: 1229200
I0312 11:29:37.367908 12204 layer_factory.cpp:58] Creating layer label_SVHN_1_split
I0312 11:29:37.367908 12204 net.cpp:100] Creating Layer label_SVHN_1_split
I0312 11:29:37.367908 12204 net.cpp:434] label_SVHN_1_split <- label
I0312 11:29:37.367908 12204 net.cpp:408] label_SVHN_1_split -> label_SVHN_1_split_0
I0312 11:29:37.367908 12204 net.cpp:408] label_SVHN_1_split -> label_SVHN_1_split_1
I0312 11:29:37.367908 12204 net.cpp:150] Setting up label_SVHN_1_split
I0312 11:29:37.367908 12204 net.cpp:157] Top shape: 100 (100)
I0312 11:29:37.367908 12204 net.cpp:157] Top shape: 100 (100)
I0312 11:29:37.367908 12204 net.cpp:165] Memory required for data: 1230000
I0312 11:29:37.367908 12204 layer_factory.cpp:58] Creating layer conv1
I0312 11:29:37.367908 12204 net.cpp:100] Creating Layer conv1
I0312 11:29:37.367908 12204 net.cpp:434] conv1 <- data
I0312 11:29:37.367908 12204 net.cpp:408] conv1 -> conv1
I0312 11:29:37.383539 11604 common.cpp:36] System entropy source not available, using fallback algorithm to generate seed instead.
I0312 11:29:38.000087 12204 net.cpp:150] Setting up conv1
I0312 11:29:38.000087 12204 net.cpp:157] Top shape: 100 64 32 32 (6553600)
I0312 11:29:38.000087 12204 net.cpp:165] Memory required for data: 27444400
I0312 11:29:38.000087 12204 layer_factory.cpp:58] Creating layer bn1
I0312 11:29:38.000087 12204 net.cpp:100] Creating Layer bn1
I0312 11:29:38.000087 12204 net.cpp:434] bn1 <- conv1
I0312 11:29:38.000087 12204 net.cpp:408] bn1 -> bn1
I0312 11:29:38.000087 12204 net.cpp:150] Setting up bn1
I0312 11:29:38.000087 12204 net.cpp:157] Top shape: 100 64 32 32 (6553600)
I0312 11:29:38.000087 12204 net.cpp:165] Memory required for data: 53658800
I0312 11:29:38.000087 12204 layer_factory.cpp:58] Creating layer scale1
I0312 11:29:38.000087 12204 net.cpp:100] Creating Layer scale1
I0312 11:29:38.000087 12204 net.cpp:434] scale1 <- bn1
I0312 11:29:38.000087 12204 net.cpp:408] scale1 -> scale1
I0312 11:29:38.000087 12204 layer_factory.cpp:58] Creating layer scale1
I0312 11:29:38.000087 12204 net.cpp:150] Setting up scale1
I0312 11:29:38.000087 12204 net.cpp:157] Top shape: 100 64 32 32 (6553600)
I0312 11:29:38.000087 12204 net.cpp:165] Memory required for data: 79873200
I0312 11:29:38.000087 12204 layer_factory.cpp:58] Creating layer relu1
I0312 11:29:38.000087 12204 net.cpp:100] Creating Layer relu1
I0312 11:29:38.000087 12204 net.cpp:434] relu1 <- scale1
I0312 11:29:38.000087 12204 net.cpp:408] relu1 -> relu1
I0312 11:29:38.000087 12204 net.cpp:150] Setting up relu1
I0312 11:29:38.000087 12204 net.cpp:157] Top shape: 100 64 32 32 (6553600)
I0312 11:29:38.000087 12204 net.cpp:165] Memory required for data: 106087600
I0312 11:29:38.000087 12204 layer_factory.cpp:58] Creating layer conv1_0
I0312 11:29:38.000087 12204 net.cpp:100] Creating Layer conv1_0
I0312 11:29:38.000087 12204 net.cpp:434] conv1_0 <- relu1
I0312 11:29:38.000087 12204 net.cpp:408] conv1_0 -> conv1_0
I0312 11:29:38.015710 12204 net.cpp:150] Setting up conv1_0
I0312 11:29:38.015710 12204 net.cpp:157] Top shape: 100 32 32 32 (3276800)
I0312 11:29:38.015710 12204 net.cpp:165] Memory required for data: 119194800
I0312 11:29:38.015710 12204 layer_factory.cpp:58] Creating layer bn1_0
I0312 11:29:38.015710 12204 net.cpp:100] Creating Layer bn1_0
I0312 11:29:38.015710 12204 net.cpp:434] bn1_0 <- conv1_0
I0312 11:29:38.015710 12204 net.cpp:408] bn1_0 -> bn1_0
I0312 11:29:38.015710 12204 net.cpp:150] Setting up bn1_0
I0312 11:29:38.015710 12204 net.cpp:157] Top shape: 100 32 32 32 (3276800)
I0312 11:29:38.015710 12204 net.cpp:165] Memory required for data: 132302000
I0312 11:29:38.015710 12204 layer_factory.cpp:58] Creating layer scale1_0
I0312 11:29:38.015710 12204 net.cpp:100] Creating Layer scale1_0
I0312 11:29:38.015710 12204 net.cpp:434] scale1_0 <- bn1_0
I0312 11:29:38.015710 12204 net.cpp:408] scale1_0 -> scale1_0
I0312 11:29:38.015710 12204 layer_factory.cpp:58] Creating layer scale1_0
I0312 11:29:38.015710 12204 net.cpp:150] Setting up scale1_0
I0312 11:29:38.015710 12204 net.cpp:157] Top shape: 100 32 32 32 (3276800)
I0312 11:29:38.015710 12204 net.cpp:165] Memory required for data: 145409200
I0312 11:29:38.015710 12204 layer_factory.cpp:58] Creating layer relu1_0
I0312 11:29:38.015710 12204 net.cpp:100] Creating Layer relu1_0
I0312 11:29:38.015710 12204 net.cpp:434] relu1_0 <- scale1_0
I0312 11:29:38.015710 12204 net.cpp:408] relu1_0 -> relu1_0
I0312 11:29:38.015710 12204 net.cpp:150] Setting up relu1_0
I0312 11:29:38.015710 12204 net.cpp:157] Top shape: 100 32 32 32 (3276800)
I0312 11:29:38.015710 12204 net.cpp:165] Memory required for data: 158516400
I0312 11:29:38.015710 12204 layer_factory.cpp:58] Creating layer conv2
I0312 11:29:38.015710 12204 net.cpp:100] Creating Layer conv2
I0312 11:29:38.015710 12204 net.cpp:434] conv2 <- relu1_0
I0312 11:29:38.015710 12204 net.cpp:408] conv2 -> conv2
I0312 11:29:38.015710 12204 net.cpp:150] Setting up conv2
I0312 11:29:38.015710 12204 net.cpp:157] Top shape: 100 32 32 32 (3276800)
I0312 11:29:38.015710 12204 net.cpp:165] Memory required for data: 171623600
I0312 11:29:38.015710 12204 layer_factory.cpp:58] Creating layer bn2
I0312 11:29:38.015710 12204 net.cpp:100] Creating Layer bn2
I0312 11:29:38.015710 12204 net.cpp:434] bn2 <- conv2
I0312 11:29:38.015710 12204 net.cpp:408] bn2 -> bn2
I0312 11:29:38.015710 12204 net.cpp:150] Setting up bn2
I0312 11:29:38.015710 12204 net.cpp:157] Top shape: 100 32 32 32 (3276800)
I0312 11:29:38.015710 12204 net.cpp:165] Memory required for data: 184730800
I0312 11:29:38.015710 12204 layer_factory.cpp:58] Creating layer scale2
I0312 11:29:38.015710 12204 net.cpp:100] Creating Layer scale2
I0312 11:29:38.015710 12204 net.cpp:434] scale2 <- bn2
I0312 11:29:38.015710 12204 net.cpp:408] scale2 -> scale2
I0312 11:29:38.015710 12204 layer_factory.cpp:58] Creating layer scale2
I0312 11:29:38.015710 12204 net.cpp:150] Setting up scale2
I0312 11:29:38.015710 12204 net.cpp:157] Top shape: 100 32 32 32 (3276800)
I0312 11:29:38.015710 12204 net.cpp:165] Memory required for data: 197838000
I0312 11:29:38.015710 12204 layer_factory.cpp:58] Creating layer relu2
I0312 11:29:38.015710 12204 net.cpp:100] Creating Layer relu2
I0312 11:29:38.015710 12204 net.cpp:434] relu2 <- scale2
I0312 11:29:38.015710 12204 net.cpp:408] relu2 -> relu2
I0312 11:29:38.015710 12204 net.cpp:150] Setting up relu2
I0312 11:29:38.015710 12204 net.cpp:157] Top shape: 100 32 32 32 (3276800)
I0312 11:29:38.015710 12204 net.cpp:165] Memory required for data: 210945200
I0312 11:29:38.015710 12204 layer_factory.cpp:58] Creating layer conv2_1
I0312 11:29:38.015710 12204 net.cpp:100] Creating Layer conv2_1
I0312 11:29:38.015710 12204 net.cpp:434] conv2_1 <- relu2
I0312 11:29:38.015710 12204 net.cpp:408] conv2_1 -> conv2_1
I0312 11:29:38.031334 12204 net.cpp:150] Setting up conv2_1
I0312 11:29:38.031334 12204 net.cpp:157] Top shape: 100 32 32 32 (3276800)
I0312 11:29:38.031334 12204 net.cpp:165] Memory required for data: 224052400
I0312 11:29:38.031334 12204 layer_factory.cpp:58] Creating layer bn2_1
I0312 11:29:38.031334 12204 net.cpp:100] Creating Layer bn2_1
I0312 11:29:38.031334 12204 net.cpp:434] bn2_1 <- conv2_1
I0312 11:29:38.031334 12204 net.cpp:408] bn2_1 -> bn2_1
I0312 11:29:38.031334 12204 net.cpp:150] Setting up bn2_1
I0312 11:29:38.031334 12204 net.cpp:157] Top shape: 100 32 32 32 (3276800)
I0312 11:29:38.031334 12204 net.cpp:165] Memory required for data: 237159600
I0312 11:29:38.031334 12204 layer_factory.cpp:58] Creating layer scale2_1
I0312 11:29:38.031334 12204 net.cpp:100] Creating Layer scale2_1
I0312 11:29:38.031334 12204 net.cpp:434] scale2_1 <- bn2_1
I0312 11:29:38.031334 12204 net.cpp:408] scale2_1 -> scale2_1
I0312 11:29:38.031334 12204 layer_factory.cpp:58] Creating layer scale2_1
I0312 11:29:38.031334 12204 net.cpp:150] Setting up scale2_1
I0312 11:29:38.031334 12204 net.cpp:157] Top shape: 100 32 32 32 (3276800)
I0312 11:29:38.031334 12204 net.cpp:165] Memory required for data: 250266800
I0312 11:29:38.031334 12204 layer_factory.cpp:58] Creating layer relu2_1
I0312 11:29:38.031334 12204 net.cpp:100] Creating Layer relu2_1
I0312 11:29:38.031334 12204 net.cpp:434] relu2_1 <- scale2_1
I0312 11:29:38.031334 12204 net.cpp:408] relu2_1 -> relu2_1
I0312 11:29:38.031334 12204 net.cpp:150] Setting up relu2_1
I0312 11:29:38.031334 12204 net.cpp:157] Top shape: 100 32 32 32 (3276800)
I0312 11:29:38.031334 12204 net.cpp:165] Memory required for data: 263374000
I0312 11:29:38.031334 12204 layer_factory.cpp:58] Creating layer pool2_1
I0312 11:29:38.031334 12204 net.cpp:100] Creating Layer pool2_1
I0312 11:29:38.031334 12204 net.cpp:434] pool2_1 <- relu2_1
I0312 11:29:38.031334 12204 net.cpp:408] pool2_1 -> pool2_1
I0312 11:29:38.031334 12204 net.cpp:150] Setting up pool2_1
I0312 11:29:38.031334 12204 net.cpp:157] Top shape: 100 32 16 16 (819200)
I0312 11:29:38.031334 12204 net.cpp:165] Memory required for data: 266650800
I0312 11:29:38.031334 12204 layer_factory.cpp:58] Creating layer conv2_2
I0312 11:29:38.031334 12204 net.cpp:100] Creating Layer conv2_2
I0312 11:29:38.031334 12204 net.cpp:434] conv2_2 <- pool2_1
I0312 11:29:38.031334 12204 net.cpp:408] conv2_2 -> conv2_2
I0312 11:29:38.031334 12204 net.cpp:150] Setting up conv2_2
I0312 11:29:38.031334 12204 net.cpp:157] Top shape: 100 32 16 16 (819200)
I0312 11:29:38.031334 12204 net.cpp:165] Memory required for data: 269927600
I0312 11:29:38.031334 12204 layer_factory.cpp:58] Creating layer bn2_2
I0312 11:29:38.031334 12204 net.cpp:100] Creating Layer bn2_2
I0312 11:29:38.031334 12204 net.cpp:434] bn2_2 <- conv2_2
I0312 11:29:38.031334 12204 net.cpp:408] bn2_2 -> bn2_2
I0312 11:29:38.031334 12204 net.cpp:150] Setting up bn2_2
I0312 11:29:38.031334 12204 net.cpp:157] Top shape: 100 32 16 16 (819200)
I0312 11:29:38.031334 12204 net.cpp:165] Memory required for data: 273204400
I0312 11:29:38.031334 12204 layer_factory.cpp:58] Creating layer scale2_2
I0312 11:29:38.031334 12204 net.cpp:100] Creating Layer scale2_2
I0312 11:29:38.031334 12204 net.cpp:434] scale2_2 <- bn2_2
I0312 11:29:38.031334 12204 net.cpp:408] scale2_2 -> scale2_2
I0312 11:29:38.031334 12204 layer_factory.cpp:58] Creating layer scale2_2
I0312 11:29:38.031334 12204 net.cpp:150] Setting up scale2_2
I0312 11:29:38.031334 12204 net.cpp:157] Top shape: 100 32 16 16 (819200)
I0312 11:29:38.031334 12204 net.cpp:165] Memory required for data: 276481200
I0312 11:29:38.031334 12204 layer_factory.cpp:58] Creating layer relu2_2
I0312 11:29:38.031334 12204 net.cpp:100] Creating Layer relu2_2
I0312 11:29:38.031334 12204 net.cpp:434] relu2_2 <- scale2_2
I0312 11:29:38.031334 12204 net.cpp:408] relu2_2 -> relu2_2
I0312 11:29:38.031334 12204 net.cpp:150] Setting up relu2_2
I0312 11:29:38.031334 12204 net.cpp:157] Top shape: 100 32 16 16 (819200)
I0312 11:29:38.031334 12204 net.cpp:165] Memory required for data: 279758000
I0312 11:29:38.031334 12204 layer_factory.cpp:58] Creating layer conv3
I0312 11:29:38.031334 12204 net.cpp:100] Creating Layer conv3
I0312 11:29:38.031334 12204 net.cpp:434] conv3 <- relu2_2
I0312 11:29:38.031334 12204 net.cpp:408] conv3 -> conv3
I0312 11:29:38.046960 12204 net.cpp:150] Setting up conv3
I0312 11:29:38.046960 12204 net.cpp:157] Top shape: 100 32 16 16 (819200)
I0312 11:29:38.046960 12204 net.cpp:165] Memory required for data: 283034800
I0312 11:29:38.046960 12204 layer_factory.cpp:58] Creating layer bn3
I0312 11:29:38.046960 12204 net.cpp:100] Creating Layer bn3
I0312 11:29:38.046960 12204 net.cpp:434] bn3 <- conv3
I0312 11:29:38.046960 12204 net.cpp:408] bn3 -> bn3
I0312 11:29:38.046960 12204 net.cpp:150] Setting up bn3
I0312 11:29:38.046960 12204 net.cpp:157] Top shape: 100 32 16 16 (819200)
I0312 11:29:38.046960 12204 net.cpp:165] Memory required for data: 286311600
I0312 11:29:38.046960 12204 layer_factory.cpp:58] Creating layer scale3
I0312 11:29:38.046960 12204 net.cpp:100] Creating Layer scale3
I0312 11:29:38.046960 12204 net.cpp:434] scale3 <- bn3
I0312 11:29:38.046960 12204 net.cpp:408] scale3 -> scale3
I0312 11:29:38.046960 12204 layer_factory.cpp:58] Creating layer scale3
I0312 11:29:38.046960 12204 net.cpp:150] Setting up scale3
I0312 11:29:38.046960 12204 net.cpp:157] Top shape: 100 32 16 16 (819200)
I0312 11:29:38.046960 12204 net.cpp:165] Memory required for data: 289588400
I0312 11:29:38.046960 12204 layer_factory.cpp:58] Creating layer relu3
I0312 11:29:38.046960 12204 net.cpp:100] Creating Layer relu3
I0312 11:29:38.046960 12204 net.cpp:434] relu3 <- scale3
I0312 11:29:38.046960 12204 net.cpp:408] relu3 -> relu3
I0312 11:29:38.046960 12204 net.cpp:150] Setting up relu3
I0312 11:29:38.046960 12204 net.cpp:157] Top shape: 100 32 16 16 (819200)
I0312 11:29:38.046960 12204 net.cpp:165] Memory required for data: 292865200
I0312 11:29:38.046960 12204 layer_factory.cpp:58] Creating layer conv4
I0312 11:29:38.046960 12204 net.cpp:100] Creating Layer conv4
I0312 11:29:38.046960 12204 net.cpp:434] conv4 <- relu3
I0312 11:29:38.046960 12204 net.cpp:408] conv4 -> conv4
I0312 11:29:38.046960 12204 net.cpp:150] Setting up conv4
I0312 11:29:38.046960 12204 net.cpp:157] Top shape: 100 64 16 16 (1638400)
I0312 11:29:38.046960 12204 net.cpp:165] Memory required for data: 299418800
I0312 11:29:38.046960 12204 layer_factory.cpp:58] Creating layer pool4
I0312 11:29:38.046960 12204 net.cpp:100] Creating Layer pool4
I0312 11:29:38.046960 12204 net.cpp:434] pool4 <- conv4
I0312 11:29:38.046960 12204 net.cpp:408] pool4 -> pool4
I0312 11:29:38.046960 12204 net.cpp:150] Setting up pool4
I0312 11:29:38.046960 12204 net.cpp:157] Top shape: 100 64 8 8 (409600)
I0312 11:29:38.046960 12204 net.cpp:165] Memory required for data: 301057200
I0312 11:29:38.046960 12204 layer_factory.cpp:58] Creating layer bn4
I0312 11:29:38.046960 12204 net.cpp:100] Creating Layer bn4
I0312 11:29:38.046960 12204 net.cpp:434] bn4 <- pool4
I0312 11:29:38.046960 12204 net.cpp:408] bn4 -> bn4
I0312 11:29:38.046960 12204 net.cpp:150] Setting up bn4
I0312 11:29:38.046960 12204 net.cpp:157] Top shape: 100 64 8 8 (409600)
I0312 11:29:38.046960 12204 net.cpp:165] Memory required for data: 302695600
I0312 11:29:38.046960 12204 layer_factory.cpp:58] Creating layer scale4
I0312 11:29:38.046960 12204 net.cpp:100] Creating Layer scale4
I0312 11:29:38.046960 12204 net.cpp:434] scale4 <- bn4
I0312 11:29:38.046960 12204 net.cpp:408] scale4 -> scale4
I0312 11:29:38.046960 12204 layer_factory.cpp:58] Creating layer scale4
I0312 11:29:38.046960 12204 net.cpp:150] Setting up scale4
I0312 11:29:38.046960 12204 net.cpp:157] Top shape: 100 64 8 8 (409600)
I0312 11:29:38.046960 12204 net.cpp:165] Memory required for data: 304334000
I0312 11:29:38.046960 12204 layer_factory.cpp:58] Creating layer relu4
I0312 11:29:38.046960 12204 net.cpp:100] Creating Layer relu4
I0312 11:29:38.046960 12204 net.cpp:434] relu4 <- scale4
I0312 11:29:38.046960 12204 net.cpp:408] relu4 -> relu4
I0312 11:29:38.046960 12204 net.cpp:150] Setting up relu4
I0312 11:29:38.046960 12204 net.cpp:157] Top shape: 100 64 8 8 (409600)
I0312 11:29:38.046960 12204 net.cpp:165] Memory required for data: 305972400
I0312 11:29:38.046960 12204 layer_factory.cpp:58] Creating layer conv4_1
I0312 11:29:38.046960 12204 net.cpp:100] Creating Layer conv4_1
I0312 11:29:38.046960 12204 net.cpp:434] conv4_1 <- relu4
I0312 11:29:38.046960 12204 net.cpp:408] conv4_1 -> conv4_1
I0312 11:29:38.046960 12204 net.cpp:150] Setting up conv4_1
I0312 11:29:38.046960 12204 net.cpp:157] Top shape: 100 64 8 8 (409600)
I0312 11:29:38.046960 12204 net.cpp:165] Memory required for data: 307610800
I0312 11:29:38.046960 12204 layer_factory.cpp:58] Creating layer bn4_1
I0312 11:29:38.046960 12204 net.cpp:100] Creating Layer bn4_1
I0312 11:29:38.046960 12204 net.cpp:434] bn4_1 <- conv4_1
I0312 11:29:38.046960 12204 net.cpp:408] bn4_1 -> bn4_1
I0312 11:29:38.046960 12204 net.cpp:150] Setting up bn4_1
I0312 11:29:38.046960 12204 net.cpp:157] Top shape: 100 64 8 8 (409600)
I0312 11:29:38.046960 12204 net.cpp:165] Memory required for data: 309249200
I0312 11:29:38.046960 12204 layer_factory.cpp:58] Creating layer scale4_1
I0312 11:29:38.046960 12204 net.cpp:100] Creating Layer scale4_1
I0312 11:29:38.046960 12204 net.cpp:434] scale4_1 <- bn4_1
I0312 11:29:38.046960 12204 net.cpp:408] scale4_1 -> scale4_1
I0312 11:29:38.046960 12204 layer_factory.cpp:58] Creating layer scale4_1
I0312 11:29:38.046960 12204 net.cpp:150] Setting up scale4_1
I0312 11:29:38.046960 12204 net.cpp:157] Top shape: 100 64 8 8 (409600)
I0312 11:29:38.046960 12204 net.cpp:165] Memory required for data: 310887600
I0312 11:29:38.046960 12204 layer_factory.cpp:58] Creating layer relu4_1
I0312 11:29:38.046960 12204 net.cpp:100] Creating Layer relu4_1
I0312 11:29:38.046960 12204 net.cpp:434] relu4_1 <- scale4_1
I0312 11:29:38.046960 12204 net.cpp:408] relu4_1 -> relu4_1
I0312 11:29:38.046960 12204 net.cpp:150] Setting up relu4_1
I0312 11:29:38.046960 12204 net.cpp:157] Top shape: 100 64 8 8 (409600)
I0312 11:29:38.046960 12204 net.cpp:165] Memory required for data: 312526000
I0312 11:29:38.046960 12204 layer_factory.cpp:58] Creating layer conv4_2
I0312 11:29:38.046960 12204 net.cpp:100] Creating Layer conv4_2
I0312 11:29:38.062585 12204 net.cpp:434] conv4_2 <- relu4_1
I0312 11:29:38.062585 12204 net.cpp:408] conv4_2 -> conv4_2
I0312 11:29:38.065090 12204 net.cpp:150] Setting up conv4_2
I0312 11:29:38.065090 12204 net.cpp:157] Top shape: 100 64 8 8 (409600)
I0312 11:29:38.065090 12204 net.cpp:165] Memory required for data: 314164400
I0312 11:29:38.065090 12204 layer_factory.cpp:58] Creating layer bn4_2
I0312 11:29:38.065090 12204 net.cpp:100] Creating Layer bn4_2
I0312 11:29:38.065090 12204 net.cpp:434] bn4_2 <- conv4_2
I0312 11:29:38.065090 12204 net.cpp:408] bn4_2 -> bn4_2
I0312 11:29:38.065590 12204 net.cpp:150] Setting up bn4_2
I0312 11:29:38.065590 12204 net.cpp:157] Top shape: 100 64 8 8 (409600)
I0312 11:29:38.065590 12204 net.cpp:165] Memory required for data: 315802800
I0312 11:29:38.065590 12204 layer_factory.cpp:58] Creating layer scale4_2
I0312 11:29:38.065590 12204 net.cpp:100] Creating Layer scale4_2
I0312 11:29:38.065590 12204 net.cpp:434] scale4_2 <- bn4_2
I0312 11:29:38.065590 12204 net.cpp:408] scale4_2 -> scale4_2
I0312 11:29:38.065590 12204 layer_factory.cpp:58] Creating layer scale4_2
I0312 11:29:38.065590 12204 net.cpp:150] Setting up scale4_2
I0312 11:29:38.065590 12204 net.cpp:157] Top shape: 100 64 8 8 (409600)
I0312 11:29:38.065590 12204 net.cpp:165] Memory required for data: 317441200
I0312 11:29:38.065590 12204 layer_factory.cpp:58] Creating layer relu4_2
I0312 11:29:38.066090 12204 net.cpp:100] Creating Layer relu4_2
I0312 11:29:38.066090 12204 net.cpp:434] relu4_2 <- scale4_2
I0312 11:29:38.066090 12204 net.cpp:408] relu4_2 -> relu4_2
I0312 11:29:38.066591 12204 net.cpp:150] Setting up relu4_2
I0312 11:29:38.066591 12204 net.cpp:157] Top shape: 100 64 8 8 (409600)
I0312 11:29:38.066591 12204 net.cpp:165] Memory required for data: 319079600
I0312 11:29:38.066591 12204 layer_factory.cpp:58] Creating layer pool4_2
I0312 11:29:38.066591 12204 net.cpp:100] Creating Layer pool4_2
I0312 11:29:38.066591 12204 net.cpp:434] pool4_2 <- relu4_2
I0312 11:29:38.066591 12204 net.cpp:408] pool4_2 -> pool4_2
I0312 11:29:38.066591 12204 net.cpp:150] Setting up pool4_2
I0312 11:29:38.066591 12204 net.cpp:157] Top shape: 100 64 4 4 (102400)
I0312 11:29:38.066591 12204 net.cpp:165] Memory required for data: 319489200
I0312 11:29:38.066591 12204 layer_factory.cpp:58] Creating layer conv4_0
I0312 11:29:38.066591 12204 net.cpp:100] Creating Layer conv4_0
I0312 11:29:38.066591 12204 net.cpp:434] conv4_0 <- pool4_2
I0312 11:29:38.066591 12204 net.cpp:408] conv4_0 -> conv4_0
I0312 11:29:38.069089 12204 net.cpp:150] Setting up conv4_0
I0312 11:29:38.069089 12204 net.cpp:157] Top shape: 100 128 4 4 (204800)
I0312 11:29:38.069089 12204 net.cpp:165] Memory required for data: 320308400
I0312 11:29:38.069089 12204 layer_factory.cpp:58] Creating layer bn4_0
I0312 11:29:38.069089 12204 net.cpp:100] Creating Layer bn4_0
I0312 11:29:38.069089 12204 net.cpp:434] bn4_0 <- conv4_0
I0312 11:29:38.069089 12204 net.cpp:408] bn4_0 -> bn4_0
I0312 11:29:38.069089 12204 net.cpp:150] Setting up bn4_0
I0312 11:29:38.069089 12204 net.cpp:157] Top shape: 100 128 4 4 (204800)
I0312 11:29:38.069089 12204 net.cpp:165] Memory required for data: 321127600
I0312 11:29:38.069089 12204 layer_factory.cpp:58] Creating layer scale4_0
I0312 11:29:38.069089 12204 net.cpp:100] Creating Layer scale4_0
I0312 11:29:38.069089 12204 net.cpp:434] scale4_0 <- bn4_0
I0312 11:29:38.069089 12204 net.cpp:408] scale4_0 -> scale4_0
I0312 11:29:38.069089 12204 layer_factory.cpp:58] Creating layer scale4_0
I0312 11:29:38.069089 12204 net.cpp:150] Setting up scale4_0
I0312 11:29:38.069089 12204 net.cpp:157] Top shape: 100 128 4 4 (204800)
I0312 11:29:38.069089 12204 net.cpp:165] Memory required for data: 321946800
I0312 11:29:38.069089 12204 layer_factory.cpp:58] Creating layer relu4_0
I0312 11:29:38.069089 12204 net.cpp:100] Creating Layer relu4_0
I0312 11:29:38.069089 12204 net.cpp:434] relu4_0 <- scale4_0
I0312 11:29:38.069089 12204 net.cpp:408] relu4_0 -> relu4_0
I0312 11:29:38.069089 12204 net.cpp:150] Setting up relu4_0
I0312 11:29:38.069089 12204 net.cpp:157] Top shape: 100 128 4 4 (204800)
I0312 11:29:38.069089 12204 net.cpp:165] Memory required for data: 322766000
I0312 11:29:38.069089 12204 layer_factory.cpp:58] Creating layer cccp4
I0312 11:29:38.069089 12204 net.cpp:100] Creating Layer cccp4
I0312 11:29:38.069089 12204 net.cpp:434] cccp4 <- relu4_0
I0312 11:29:38.069089 12204 net.cpp:408] cccp4 -> cccp4
I0312 11:29:38.069089 12204 net.cpp:150] Setting up cccp4
I0312 11:29:38.069089 12204 net.cpp:157] Top shape: 100 256 4 4 (409600)
I0312 11:29:38.069089 12204 net.cpp:165] Memory required for data: 324404400
I0312 11:29:38.069089 12204 layer_factory.cpp:58] Creating layer relu_cccp4
I0312 11:29:38.069089 12204 net.cpp:100] Creating Layer relu_cccp4
I0312 11:29:38.069089 12204 net.cpp:434] relu_cccp4 <- cccp4
I0312 11:29:38.069089 12204 net.cpp:395] relu_cccp4 -> cccp4 (in-place)
I0312 11:29:38.084717 12204 net.cpp:150] Setting up relu_cccp4
I0312 11:29:38.084717 12204 net.cpp:157] Top shape: 100 256 4 4 (409600)
I0312 11:29:38.084717 12204 net.cpp:165] Memory required for data: 326042800
I0312 11:29:38.084717 12204 layer_factory.cpp:58] Creating layer cccp5
I0312 11:29:38.084717 12204 net.cpp:100] Creating Layer cccp5
I0312 11:29:38.084717 12204 net.cpp:434] cccp5 <- cccp4
I0312 11:29:38.084717 12204 net.cpp:408] cccp5 -> cccp5
I0312 11:29:38.084717 12204 net.cpp:150] Setting up cccp5
I0312 11:29:38.084717 12204 net.cpp:157] Top shape: 100 64 4 4 (102400)
I0312 11:29:38.084717 12204 net.cpp:165] Memory required for data: 326452400
I0312 11:29:38.084717 12204 layer_factory.cpp:58] Creating layer relu_cccp5
I0312 11:29:38.084717 12204 net.cpp:100] Creating Layer relu_cccp5
I0312 11:29:38.084717 12204 net.cpp:434] relu_cccp5 <- cccp5
I0312 11:29:38.084717 12204 net.cpp:395] relu_cccp5 -> cccp5 (in-place)
I0312 11:29:38.084717 12204 net.cpp:150] Setting up relu_cccp5
I0312 11:29:38.084717 12204 net.cpp:157] Top shape: 100 64 4 4 (102400)
I0312 11:29:38.084717 12204 net.cpp:165] Memory required for data: 326862000
I0312 11:29:38.084717 12204 layer_factory.cpp:58] Creating layer poolcp5
I0312 11:29:38.084717 12204 net.cpp:100] Creating Layer poolcp5
I0312 11:29:38.084717 12204 net.cpp:434] poolcp5 <- cccp5
I0312 11:29:38.084717 12204 net.cpp:408] poolcp5 -> poolcp5
I0312 11:29:38.084717 12204 net.cpp:150] Setting up poolcp5
I0312 11:29:38.084717 12204 net.cpp:157] Top shape: 100 64 2 2 (25600)
I0312 11:29:38.084717 12204 net.cpp:165] Memory required for data: 326964400
I0312 11:29:38.084717 12204 layer_factory.cpp:58] Creating layer cccp6
I0312 11:29:38.084717 12204 net.cpp:100] Creating Layer cccp6
I0312 11:29:38.084717 12204 net.cpp:434] cccp6 <- poolcp5
I0312 11:29:38.084717 12204 net.cpp:408] cccp6 -> cccp6
I0312 11:29:38.084717 12204 net.cpp:150] Setting up cccp6
I0312 11:29:38.084717 12204 net.cpp:157] Top shape: 100 64 2 2 (25600)
I0312 11:29:38.084717 12204 net.cpp:165] Memory required for data: 327066800
I0312 11:29:38.084717 12204 layer_factory.cpp:58] Creating layer relu_cccp6
I0312 11:29:38.084717 12204 net.cpp:100] Creating Layer relu_cccp6
I0312 11:29:38.084717 12204 net.cpp:434] relu_cccp6 <- cccp6
I0312 11:29:38.084717 12204 net.cpp:395] relu_cccp6 -> cccp6 (in-place)
I0312 11:29:38.084717 12204 net.cpp:150] Setting up relu_cccp6
I0312 11:29:38.084717 12204 net.cpp:157] Top shape: 100 64 2 2 (25600)
I0312 11:29:38.084717 12204 net.cpp:165] Memory required for data: 327169200
I0312 11:29:38.084717 12204 layer_factory.cpp:58] Creating layer poolcp6
I0312 11:29:38.084717 12204 net.cpp:100] Creating Layer poolcp6
I0312 11:29:38.084717 12204 net.cpp:434] poolcp6 <- cccp6
I0312 11:29:38.084717 12204 net.cpp:408] poolcp6 -> poolcp6
I0312 11:29:38.084717 12204 net.cpp:150] Setting up poolcp6
I0312 11:29:38.084717 12204 net.cpp:157] Top shape: 100 64 1 1 (6400)
I0312 11:29:38.084717 12204 net.cpp:165] Memory required for data: 327194800
I0312 11:29:38.084717 12204 layer_factory.cpp:58] Creating layer ip1
I0312 11:29:38.084717 12204 net.cpp:100] Creating Layer ip1
I0312 11:29:38.084717 12204 net.cpp:434] ip1 <- poolcp6
I0312 11:29:38.084717 12204 net.cpp:408] ip1 -> ip1
I0312 11:29:38.084717 12204 net.cpp:150] Setting up ip1
I0312 11:29:38.084717 12204 net.cpp:157] Top shape: 100 10 (1000)
I0312 11:29:38.084717 12204 net.cpp:165] Memory required for data: 327198800
I0312 11:29:38.084717 12204 layer_factory.cpp:58] Creating layer ip1_ip1_0_split
I0312 11:29:38.084717 12204 net.cpp:100] Creating Layer ip1_ip1_0_split
I0312 11:29:38.084717 12204 net.cpp:434] ip1_ip1_0_split <- ip1
I0312 11:29:38.084717 12204 net.cpp:408] ip1_ip1_0_split -> ip1_ip1_0_split_0
I0312 11:29:38.084717 12204 net.cpp:408] ip1_ip1_0_split -> ip1_ip1_0_split_1
I0312 11:29:38.084717 12204 net.cpp:150] Setting up ip1_ip1_0_split
I0312 11:29:38.084717 12204 net.cpp:157] Top shape: 100 10 (1000)
I0312 11:29:38.084717 12204 net.cpp:157] Top shape: 100 10 (1000)
I0312 11:29:38.084717 12204 net.cpp:165] Memory required for data: 327206800
I0312 11:29:38.084717 12204 layer_factory.cpp:58] Creating layer accuracy_training
I0312 11:29:38.084717 12204 net.cpp:100] Creating Layer accuracy_training
I0312 11:29:38.084717 12204 net.cpp:434] accuracy_training <- ip1_ip1_0_split_0
I0312 11:29:38.084717 12204 net.cpp:434] accuracy_training <- label_SVHN_1_split_0
…
I0312 11:29:38.100345 12204 net.cpp:322] The NetState phase (1) differed from the phase (0) specified by a rule in layer bn4_0
I0312 11:29:38.100345 12204 net.cpp:322] The NetState phase (1) differed from the phase (0) specified by a rule in layer accuracy_training
I0312 11:29:38.100345 12204 net.cpp:58] Initializing net from parameters: 
name: "SVHN_all_drpout"
state {
  phase: TEST
}
layer {
  name: "SVHN"
  type: "Data"
  top: "data"
  top: "label"
  include {
    phase: TEST
  }
  transform_param {
    scale: 0.0039215684
  }
  data_param {
    source: "examples/svhn/svhn_test_leveldb"
    batch_size: 16
    backend: LEVELDB
  }
}
layer {
  name: "conv1"
  type: "Convolution"
  bottom: "data"
  top: "conv1"
  param {
    lr_mult: 1
  }
  convolution_param {
    num_output: 64
    bias_term: true
    pad: 1
    kernel_size: 3
    stride: 1
    weight_filler {
      type: "xavier"
    }
  }
}
layer {
  name: "bn1"
  type: "BatchNorm"
  bottom: "conv1"
  top: "bn1"
  include {
    phase: TEST
  }
  batch_norm_param {
    use_global_stats: true
    moving_average_fraction: 0.95
  }
}
layer {
  name: "scale1"
  type: "Scale"
  bottom: "bn1"
  top: "scale1"
  scale_param {
    bias_term: true
  }
}
layer {
  name: "relu1"
  type: "ReLU"
  bottom: "scale1"
  top: "relu1"
}
layer {
  name: "conv1_0"
  type: "Convolution"
  bottom: "relu1"
  top: "conv1_0"
  param {
    lr_mult: 1
  }
  convolution_param {
    num_output: 32
    bias_term: true
    pad: 1
    kernel_size: 3
    stride: 1
    weight_filler {
      type: "xavier"
    }
  }
}
layer {
  name: "bn1_0"
  type: "BatchNorm"
  bottom: "conv1_0"
  top: "bn1_0"
  include {
    phase: TEST
  }
  batch_norm_param {
    use_global_stats: true
    moving_average_fraction: 0.95
  }
}
layer {
  name: "scale1_0"
  type: "Scale"
  bottom: "bn1_0"
  top: "scale1_0"
  scale_param {
    bias_term: true
  }
}
layer {
  name: "relu1_0"
  type: "ReLU"
  bottom: "scale1_0"
  top: "relu1_0"
}
layer {
  name: "conv2"
  type: "Convolution"
  bottom: "relu1_0"
  top: "conv2"
  param {
    lr_mult: 1
  }
  convolution_param {
    num_output: 32
    bias_term: true
    pad: 1
    kernel_size: 3
    stride: 1
    weight_filler {
      type: "gaussian"
      std: 0.01
    }
  }
}
layer {
  name: "bn2"
  type: "BatchNorm"
  bottom: "conv2"
  top: "bn2"
  include {
    phase: TEST
  }
  batch_norm_param {
    use_global_stats: true
    moving_average_fraction: 0.95
  }
}
layer {
  name: "scale2"
  type: "Scale"
  bottom: "bn2"
  top: "scale2"
  scale_param {
    bias_term: true
  }
}
layer {
  name: "relu2"
  type: "ReLU"
  bottom: "scale2"
  top: "relu2"
}
layer {
  name: "conv2_1"
  type: "Convolution"
  bottom: "relu2"
  top: "conv2_1"
  param {
    lr_mult: 1
  }
  convolution_param {
    num_output: 32
    bias_term: true
    pad: 1
    kernel_size: 3
    stride: 1
    weight_filler {
      type: "gaussian"
      std: 0.01
    }
  }
}
layer {
  name: "bn2_1"
  type: "BatchNorm"
  bottom: "conv2_1"
  top: "bn2_1"
  include {
    phase: TEST
  }
  batch_norm_param {
    use_global_stats: true
    moving_average_fraction: 0.95
  }
}
layer {
  name: "scale2_1"
  type: "Scale"
  bottom: "bn2_1"
  top: "scale2_1"
  scale_param {
    bias_term: true
  }
}
layer {
  name: "relu2_1"
  type: "ReLU"
  bottom: "scale2_1"
  top: "relu2_1"
}
layer {
  name: "pool2_1"
  type: "Pooling"
  bottom: "relu2_1"
  top: "pool2_1"
  pooling_param {
    pool: MAX
    kernel_size: 2
    stride: 2
  }
}
layer {
  name: "conv2_2"
  type: "Convolution"
  bottom: "pool2_1"
  top: "conv2_2"
  param {
    lr_mult: 1
  }
  convolution_param {
    num_output: 32
    bias_term: true
    pad: 1
    kernel_size: 3
    stride: 1
    weight_filler {
      type: "gaussian"
      std: 0.01
    }
  }
}
layer {
  name: "bn2_2"
  type: "BatchNorm"
  bottom: "conv2_2"
  top: "bn2_2"
  include {
    phase: TEST
  }
  batch_norm_param {
    use_global_stats: true
    moving_average_fraction: 0.95
  }
}
layer {
  name: "scale2_2"
  type: "Scale"
  bottom: "bn2_2"
  top: "scale2_2"
  scale_param {
    bias_term: true
  }
}
layer {
  name: "relu2_2"
  type: "ReLU"
  bottom: "scale2_2"
  top: "relu2_2"
}
layer {
  name: "conv3"
  type: "Convolution"
  bottom: "relu2_2"
  top: "conv3"
  param {
    lr_mult: 1
  }
  convolution_param {
    num_output: 32
    bias_term: true
    pad: 1
    kernel_size: 3
    stride: 1
    weight_filler {
      type: "xavier"
    }
  }
}
layer {
  name: "bn3"
  type: "BatchNorm"
  bottom: "conv3"
  top: "bn3"
  include {
    phase: TEST
  }
  batch_norm_param {
    use_global_stats: true
    moving_average_fraction: 0.95
  }
}
layer {
  name: "scale3"
  type: "Scale"
  bottom: "bn3"
  top: "scale3"
  scale_param {
    bias_term: true
  }
}
layer {
  name: "relu3"
  type: "ReLU"
  bottom: "scale3"
  top: "relu3"
}
layer {
  name: "conv4"
  type: "Convolution"
  bottom: "relu3"
  top: "conv4"
  param {
    lr_mult: 1
  }
  convolution_param {
    num_output: 64
    bias_term: true
    pad: 1
    kernel_size: 3
    stride: 1
    weight_filler {
      type: "xavier"
    }
  }
}
layer {
  name: "pool4"
  type: "Pooling"
  bottom: "conv4"
  top: "pool4"
  pooling_param {
    pool: MAX
    kernel_size: 2
    stride: 2
  }
}
layer {
  name: "bn4"
  type: "BatchNorm"
  bottom: "pool4"
  top: "bn4"
  include {
    phase: TEST
  }
  batch_norm_param {
    use_global_stats: true
    moving_average_fraction: 0.95
  }
}
layer {
  name: "scale4"
  type: "Scale"
  bottom: "bn4"
  top: "scale4"
  scale_param {
    bias_term: true
  }
}
layer {
  name: "relu4"
  type: "ReLU"
  bottom: "scale4"
  top: "relu4"
}
layer {
  name: "conv4_1"
  type: "Convolution"
  bottom: "relu4"
  top: "conv4_1"
  param {
    lr_mult: 1
  }
  convolution_param {
    num_output: 64
    bias_term: true
    pad: 1
    kernel_size: 3
    stride: 1
    weight_filler {
      type: "xavier"
    }
  }
}
layer {
  name: "bn4_1"
  type: "BatchNorm"
  bottom: "conv4_1"
  top: "bn4_1"
  include {
    phase: TEST
  }
  batch_norm_param {
    use_global_stats: true
    moving_average_fraction: 0.95
  }
}
layer {
  name: "scale4_1"
  type: "Scale"
  bottom: "bn4_1"
  top: "scale4_1"
  scale_param {
    bias_term: true
  }
}
layer {
  name: "relu4_1"
  type: "ReLU"
  bottom: "scale4_1"
  top: "relu4_1"
}
layer {
  name: "conv4_2"
  type: "Convolution"
  bottom: "relu4_1"
  top: "conv4_2"
  param {
    lr_mult: 1
  }
  convolution_param {
    num_output: 64
    bias_term: true
    pad: 1
    kernel_size: 3
    stride: 1
    weight_filler {
      type: "xavier"
    }
  }
}
layer {
  name: "bn4_2"
  type: "BatchNorm"
  bottom: "conv4_2"
  top: "bn4_2"
  include {
    phase: TEST
  }
  batch_norm_param {
    use_global_stats: true
    moving_average_fraction: 0.95
  }
}
layer {
  name: "scale4_2"
  type: "Scale"
  bottom: "bn4_2"
  top: "scale4_2"
  scale_param {
    bias_term: true
  }
}
layer {
  name: "relu4_2"
  type: "ReLU"
  bottom: "scale4_2"
  top: "relu4_2"
}
layer {
  name: "pool4_2"
  type: "Pooling"
  bottom: "relu4_2"
  top: "pool4_2"
  pooling_param {
    pool: MAX
    kernel_size: 2
    stride: 2
  }
}
layer {
  name: "conv4_0"
  type: "Convolution"
  bottom: "pool4_2"
  top: "conv4_0"
  param {
    lr_mult: 1
  }
  convolution_param {
    num_output: 128
    bias_term: true
    pad: 1
    kernel_size: 3
    stride: 1
    weight_filler {
      type: "xavier"
    }
  }
}
layer {
  name: "bn4_0"
  type: "BatchNorm"
  bottom: "conv4_0"
  top: "bn4_0"
  include {
    phase: TEST
  }
  batch_norm_param {
    use_global_stats: true
    moving_average_fraction: 0.95
  }
}
layer {
  name: "scale4_0"
  type: "Scale"
  bottom: "bn4_0"
  top: "scale4_0"
  scale_param {
    bias_term: true
  }
}
layer {
  name: "relu4_0"
  type: "ReLU"
  bottom: "scale4_0"
  top: "relu4_0"
}
layer {
  name: "cccp4"
  type: "Convolution"
  bottom: "relu4_0"
  top: "cccp4"
  param {
    lr_mult: 1
    decay_mult: 1
  }
  param {
    lr_mult: 2
    decay_mult: 0
  }
  convolution_param {
    num_output: 256
    kernel_size: 1
    group: 1
    weight_filler {
      type: "xavier"
    }
    bias_filler {
      type: "constant"
      value: 0
    }
  }
}
layer {
  name: "relu_cccp4"
  type: "ReLU"
  bottom: "cccp4"
  top: "cccp4"
}
layer {
  name: "cccp5"
  type: "Convolution"
  bottom: "cccp4"
  top: "cccp5"
  param {
    lr_mult: 1
    decay_mult: 1
  }
  param {
    lr_mult: 2
    decay_mult: 0
  }
  convolution_param {
    num_output: 64
    kernel_size: 1
    group: 1
    weight_filler {
      type: "xavier"
    }
    bias_filler {
      type: "constant"
      value: 0
    }
  }
}
layer {
  name: "relu_cccp5"
  type: "ReLU"
  bottom: "cccp5"
  top: "cccp5"
}
layer {
  name: "poolcp5"
  type: "Pooling"
  bottom: "cccp5"
  top: "poolcp5"
  pooling_param {
    pool: MAX
    kernel_size: 2
    stride: 2
  }
}
layer {
  name: "cccp6"
  type: "Convolution"
  bottom: "poolcp5"
  top: "cccp6"
  param {
    lr_mult: 1
    decay_mult: 1
  }
  param {
    lr_mult: 2
    decay_mult: 0
  }
  convolution_param {
    num_output: 64
    pad: 1
    kernel_size: 3
    group: 1
    weight_filler {
      type: "xavier"
    }
    bias_filler {
      type: "constant"
      value: 0
    }
  }
}
layer {
  name: "relu_cccp6"
  type: "ReLU"
  bottom: "cccp6"
  top: "cccp6"
}
layer {
  name: "poolcp6"
  type: "Pooling"
  bottom: "cccp6"
  top: "poolcp6"
  pooling_param {
    pool: MAX
    kernel_size: 2
    stride: 2
  }
}
layer {
  name: "ip1"
  type: "InnerProduct"
  bottom: "poolcp6"
  top: "ip1"
  param {
    lr_mult: 1
    decay_mult: 0
  }
  param {
    lr_mult: 2
    decay_mult: 0
  }
  inner_product_param {
    num_output: 10
    weight_filler {
      type: "xavier"
    }
    bias_filler {
      type: "constant"
    }
  }
}
layer {
  name: "accuracy"
  type: "Accuracy"
  bottom: "ip1"
  bottom: "label"
  top: "accuracy"
  include {
    phase: TEST
  }
}
layer {
  name: "loss"
  type: "SoftmaxWithLoss"
  bottom: "ip1"
  bottom: "label"
  top: "loss"
}
I0312 11:29:38.100345 12204 layer_factory.cpp:58] Creating layer SVHN
I0312 11:29:38.100345 12204 net.cpp:100] Creating Layer SVHN
I0312 11:29:38.100345 12204 net.cpp:408] SVHN -> data
I0312 11:29:38.100345 12204 net.cpp:408] SVHN -> label
I0312 11:29:38.100345  8036 common.cpp:36] System entropy source not available, using fallback algorithm to generate seed instead.
I0312 11:29:38.100345  8036 db_leveldb.cpp:18] Opened leveldb examples/svhn/svhn_test_leveldb
I0312 11:29:38.100345 12204 data_layer.cpp:41] output data size: 16,3,32,32
I0312 11:29:38.115972 12204 net.cpp:150] Setting up SVHN
I0312 11:29:38.115972 12204 net.cpp:157] Top shape: 16 3 32 32 (49152)
I0312 11:29:38.115972 12204 net.cpp:157] Top shape: 16 (16)
I0312 11:29:38.115972 12204 net.cpp:165] Memory required for data: 196672
I0312 11:29:38.115972 12204 layer_factory.cpp:58] Creating layer label_SVHN_1_split
I0312 11:29:38.115972 12204 net.cpp:100] Creating Layer label_SVHN_1_split
I0312 11:29:38.115972 12204 net.cpp:434] label_SVHN_1_split <- label
I0312 11:29:38.115972 12204 net.cpp:408] label_SVHN_1_split -> label_SVHN_1_split_0
I0312 11:29:38.115972 12204 net.cpp:408] label_SVHN_1_split -> label_SVHN_1_split_1
I0312 11:29:38.115972 12204 net.cpp:150] Setting up label_SVHN_1_split
I0312 11:29:38.115972 12204 net.cpp:157] Top shape: 16 (16)
I0312 11:29:38.115972 12204 net.cpp:157] Top shape: 16 (16)
I0312 11:29:38.115972 12204 net.cpp:165] Memory required for data: 196800
I0312 11:29:38.115972 12204 layer_factory.cpp:58] Creating layer conv1
I0312 11:29:38.115972 12204 net.cpp:100] Creating Layer conv1
I0312 11:29:38.115972 12204 net.cpp:434] conv1 <- data
I0312 11:29:38.115972 12204 net.cpp:408] conv1 -> conv1
I0312 11:29:38.115972 11372 common.cpp:36] System entropy source not available, using fallback algorithm to generate seed instead.
I0312 11:29:38.131595 12204 net.cpp:150] Setting up conv1
I0312 11:29:38.131595 12204 net.cpp:157] Top shape: 16 64 32 32 (1048576)
I0312 11:29:38.131595 12204 net.cpp:165] Memory required for data: 4391104
I0312 11:29:38.131595 12204 layer_factory.cpp:58] Creating layer bn1
I0312 11:29:38.131595 12204 net.cpp:100] Creating Layer bn1
I0312 11:29:38.131595 12204 net.cpp:434] bn1 <- conv1
I0312 11:29:38.131595 12204 net.cpp:408] bn1 -> bn1
I0312 11:29:38.131595 12204 net.cpp:150] Setting up bn1
I0312 11:29:38.131595 12204 net.cpp:157] Top shape: 16 64 32 32 (1048576)
I0312 11:29:38.131595 12204 net.cpp:165] Memory required for data: 8585408
I0312 11:29:38.131595 12204 layer_factory.cpp:58] Creating layer scale1
I0312 11:29:38.131595 12204 net.cpp:100] Creating Layer scale1
I0312 11:29:38.131595 12204 net.cpp:434] scale1 <- bn1
I0312 11:29:38.131595 12204 net.cpp:408] scale1 -> scale1
I0312 11:29:38.131595 12204 layer_factory.cpp:58] Creating layer scale1
I0312 11:29:38.131595 12204 net.cpp:150] Setting up scale1
I0312 11:29:38.131595 12204 net.cpp:157] Top shape: 16 64 32 32 (1048576)
I0312 11:29:38.131595 12204 net.cpp:165] Memory required for data: 12779712
I0312 11:29:38.131595 12204 layer_factory.cpp:58] Creating layer relu1
I0312 11:29:38.131595 12204 net.cpp:100] Creating Layer relu1
I0312 11:29:38.131595 12204 net.cpp:434] relu1 <- scale1
I0312 11:29:38.131595 12204 net.cpp:408] relu1 -> relu1
I0312 11:29:38.131595 12204 net.cpp:150] Setting up relu1
I0312 11:29:38.131595 12204 net.cpp:157] Top shape: 16 64 32 32 (1048576)
I0312 11:29:38.131595 12204 net.cpp:165] Memory required for data: 16974016
I0312 11:29:38.131595 12204 layer_factory.cpp:58] Creating layer conv1_0
I0312 11:29:38.131595 12204 net.cpp:100] Creating Layer conv1_0
I0312 11:29:38.131595 12204 net.cpp:434] conv1_0 <- relu1
I0312 11:29:38.131595 12204 net.cpp:408] conv1_0 -> conv1_0
I0312 11:29:38.131595 12204 net.cpp:150] Setting up conv1_0
I0312 11:29:38.131595 12204 net.cpp:157] Top shape: 16 32 32 32 (524288)
I0312 11:29:38.131595 12204 net.cpp:165] Memory required for data: 19071168
I0312 11:29:38.131595 12204 layer_factory.cpp:58] Creating layer bn1_0
I0312 11:29:38.131595 12204 net.cpp:100] Creating Layer bn1_0
I0312 11:29:38.131595 12204 net.cpp:434] bn1_0 <- conv1_0
I0312 11:29:38.131595 12204 net.cpp:408] bn1_0 -> bn1_0
I0312 11:29:38.131595 12204 net.cpp:150] Setting up bn1_0
I0312 11:29:38.131595 12204 net.cpp:157] Top shape: 16 32 32 32 (524288)
I0312 11:29:38.131595 12204 net.cpp:165] Memory required for data: 21168320
I0312 11:29:38.131595 12204 layer_factory.cpp:58] Creating layer scale1_0
I0312 11:29:38.131595 12204 net.cpp:100] Creating Layer scale1_0
I0312 11:29:38.131595 12204 net.cpp:434] scale1_0 <- bn1_0
I0312 11:29:38.131595 12204 net.cpp:408] scale1_0 -> scale1_0
I0312 11:29:38.131595 12204 layer_factory.cpp:58] Creating layer scale1_0
I0312 11:29:38.131595 12204 net.cpp:150] Setting up scale1_0
I0312 11:29:38.131595 12204 net.cpp:157] Top shape: 16 32 32 32 (524288)
I0312 11:29:38.131595 12204 net.cpp:165] Memory required for data: 23265472
I0312 11:29:38.131595 12204 layer_factory.cpp:58] Creating layer relu1_0
I0312 11:29:38.131595 12204 net.cpp:100] Creating Layer relu1_0
I0312 11:29:38.131595 12204 net.cpp:434] relu1_0 <- scale1_0
I0312 11:29:38.131595 12204 net.cpp:408] relu1_0 -> relu1_0
I0312 11:29:38.131595 12204 net.cpp:150] Setting up relu1_0
I0312 11:29:38.131595 12204 net.cpp:157] Top shape: 16 32 32 32 (524288)
I0312 11:29:38.131595 12204 net.cpp:165] Memory required for data: 25362624
I0312 11:29:38.131595 12204 layer_factory.cpp:58] Creating layer conv2
I0312 11:29:38.131595 12204 net.cpp:100] Creating Layer conv2
I0312 11:29:38.131595 12204 net.cpp:434] conv2 <- relu1_0
I0312 11:29:38.131595 12204 net.cpp:408] conv2 -> conv2
I0312 11:29:38.147223 12204 net.cpp:150] Setting up conv2
I0312 11:29:38.147223 12204 net.cpp:157] Top shape: 16 32 32 32 (524288)
I0312 11:29:38.147223 12204 net.cpp:165] Memory required for data: 27459776
I0312 11:29:38.147223 12204 layer_factory.cpp:58] Creating layer bn2
I0312 11:29:38.147223 12204 net.cpp:100] Creating Layer bn2
I0312 11:29:38.147223 12204 net.cpp:434] bn2 <- conv2
I0312 11:29:38.147223 12204 net.cpp:408] bn2 -> bn2
I0312 11:29:38.147223 12204 net.cpp:150] Setting up bn2
I0312 11:29:38.147223 12204 net.cpp:157] Top shape: 16 32 32 32 (524288)
I0312 11:29:38.147223 12204 net.cpp:165] Memory required for data: 29556928
I0312 11:29:38.147223 12204 layer_factory.cpp:58] Creating layer scale2
I0312 11:29:38.147223 12204 net.cpp:100] Creating Layer scale2
I0312 11:29:38.147223 12204 net.cpp:434] scale2 <- bn2
I0312 11:29:38.147223 12204 net.cpp:408] scale2 -> scale2
I0312 11:29:38.147223 12204 layer_factory.cpp:58] Creating layer scale2
I0312 11:29:38.147223 12204 net.cpp:150] Setting up scale2
I0312 11:29:38.147223 12204 net.cpp:157] Top shape: 16 32 32 32 (524288)
I0312 11:29:38.147223 12204 net.cpp:165] Memory required for data: 31654080
I0312 11:29:38.147223 12204 layer_factory.cpp:58] Creating layer relu2
I0312 11:29:38.147223 12204 net.cpp:100] Creating Layer relu2
I0312 11:29:38.147223 12204 net.cpp:434] relu2 <- scale2
I0312 11:29:38.147223 12204 net.cpp:408] relu2 -> relu2
I0312 11:29:38.147223 12204 net.cpp:150] Setting up relu2
I0312 11:29:38.147223 12204 net.cpp:157] Top shape: 16 32 32 32 (524288)
I0312 11:29:38.147223 12204 net.cpp:165] Memory required for data: 33751232
I0312 11:29:38.147223 12204 layer_factory.cpp:58] Creating layer conv2_1
I0312 11:29:38.147223 12204 net.cpp:100] Creating Layer conv2_1
I0312 11:29:38.147223 12204 net.cpp:434] conv2_1 <- relu2
I0312 11:29:38.147223 12204 net.cpp:408] conv2_1 -> conv2_1
I0312 11:29:38.147223 12204 net.cpp:150] Setting up conv2_1
I0312 11:29:38.147223 12204 net.cpp:157] Top shape: 16 32 32 32 (524288)
I0312 11:29:38.147223 12204 net.cpp:165] Memory required for data: 35848384
I0312 11:29:38.147223 12204 layer_factory.cpp:58] Creating layer bn2_1
I0312 11:29:38.147223 12204 net.cpp:100] Creating Layer bn2_1
I0312 11:29:38.147223 12204 net.cpp:434] bn2_1 <- conv2_1
I0312 11:29:38.147223 12204 net.cpp:408] bn2_1 -> bn2_1
I0312 11:29:38.147223 12204 net.cpp:150] Setting up bn2_1
I0312 11:29:38.147223 12204 net.cpp:157] Top shape: 16 32 32 32 (524288)
I0312 11:29:38.147223 12204 net.cpp:165] Memory required for data: 37945536
I0312 11:29:38.147223 12204 layer_factory.cpp:58] Creating layer scale2_1
I0312 11:29:38.147223 12204 net.cpp:100] Creating Layer scale2_1
I0312 11:29:38.147223 12204 net.cpp:434] scale2_1 <- bn2_1
I0312 11:29:38.147223 12204 net.cpp:408] scale2_1 -> scale2_1
I0312 11:29:38.147223 12204 layer_factory.cpp:58] Creating layer scale2_1
I0312 11:29:38.147223 12204 net.cpp:150] Setting up scale2_1
I0312 11:29:38.147223 12204 net.cpp:157] Top shape: 16 32 32 32 (524288)
I0312 11:29:38.147223 12204 net.cpp:165] Memory required for data: 40042688
I0312 11:29:38.147223 12204 layer_factory.cpp:58] Creating layer relu2_1
I0312 11:29:38.147223 12204 net.cpp:100] Creating Layer relu2_1
I0312 11:29:38.147223 12204 net.cpp:434] relu2_1 <- scale2_1
I0312 11:29:38.147223 12204 net.cpp:408] relu2_1 -> relu2_1
I0312 11:29:38.147223 12204 net.cpp:150] Setting up relu2_1
I0312 11:29:38.147223 12204 net.cpp:157] Top shape: 16 32 32 32 (524288)
I0312 11:29:38.147223 12204 net.cpp:165] Memory required for data: 42139840
I0312 11:29:38.147223 12204 layer_factory.cpp:58] Creating layer pool2_1
I0312 11:29:38.147223 12204 net.cpp:100] Creating Layer pool2_1
I0312 11:29:38.147223 12204 net.cpp:434] pool2_1 <- relu2_1
I0312 11:29:38.147223 12204 net.cpp:408] pool2_1 -> pool2_1
I0312 11:29:38.147223 12204 net.cpp:150] Setting up pool2_1
I0312 11:29:38.147223 12204 net.cpp:157] Top shape: 16 32 16 16 (131072)
I0312 11:29:38.147223 12204 net.cpp:165] Memory required for data: 42664128
I0312 11:29:38.147223 12204 layer_factory.cpp:58] Creating layer conv2_2
I0312 11:29:38.147223 12204 net.cpp:100] Creating Layer conv2_2
I0312 11:29:38.147223 12204 net.cpp:434] conv2_2 <- pool2_1
I0312 11:29:38.147223 12204 net.cpp:408] conv2_2 -> conv2_2
I0312 11:29:38.147223 12204 net.cpp:150] Setting up conv2_2
I0312 11:29:38.147223 12204 net.cpp:157] Top shape: 16 32 16 16 (131072)
I0312 11:29:38.147223 12204 net.cpp:165] Memory required for data: 43188416
I0312 11:29:38.147223 12204 layer_factory.cpp:58] Creating layer bn2_2
I0312 11:29:38.147223 12204 net.cpp:100] Creating Layer bn2_2
I0312 11:29:38.147223 12204 net.cpp:434] bn2_2 <- conv2_2
I0312 11:29:38.147223 12204 net.cpp:408] bn2_2 -> bn2_2
I0312 11:29:38.147223 12204 net.cpp:150] Setting up bn2_2
I0312 11:29:38.147223 12204 net.cpp:157] Top shape: 16 32 16 16 (131072)
I0312 11:29:38.147223 12204 net.cpp:165] Memory required for data: 43712704
I0312 11:29:38.147223 12204 layer_factory.cpp:58] Creating layer scale2_2
I0312 11:29:38.147223 12204 net.cpp:100] Creating Layer scale2_2
I0312 11:29:38.147223 12204 net.cpp:434] scale2_2 <- bn2_2
I0312 11:29:38.147223 12204 net.cpp:408] scale2_2 -> scale2_2
I0312 11:29:38.147223 12204 layer_factory.cpp:58] Creating layer scale2_2
I0312 11:29:38.162847 12204 net.cpp:150] Setting up scale2_2
I0312 11:29:38.162847 12204 net.cpp:157] Top shape: 16 32 16 16 (131072)
I0312 11:29:38.162847 12204 net.cpp:165] Memory required for data: 44236992
I0312 11:29:38.162847 12204 layer_factory.cpp:58] Creating layer relu2_2
I0312 11:29:38.162847 12204 net.cpp:100] Creating Layer relu2_2
I0312 11:29:38.162847 12204 net.cpp:434] relu2_2 <- scale2_2
I0312 11:29:38.162847 12204 net.cpp:408] relu2_2 -> relu2_2
I0312 11:29:38.164358 12204 net.cpp:150] Setting up relu2_2
I0312 11:29:38.164358 12204 net.cpp:157] Top shape: 16 32 16 16 (131072)
I0312 11:29:38.164358 12204 net.cpp:165] Memory required for data: 44761280
I0312 11:29:38.164358 12204 layer_factory.cpp:58] Creating layer conv3
I0312 11:29:38.164358 12204 net.cpp:100] Creating Layer conv3
I0312 11:29:38.164358 12204 net.cpp:434] conv3 <- relu2_2
I0312 11:29:38.164358 12204 net.cpp:408] conv3 -> conv3
I0312 11:29:38.167361 12204 net.cpp:150] Setting up conv3
I0312 11:29:38.167361 12204 net.cpp:157] Top shape: 16 32 16 16 (131072)
I0312 11:29:38.167361 12204 net.cpp:165] Memory required for data: 45285568
I0312 11:29:38.167361 12204 layer_factory.cpp:58] Creating layer bn3
I0312 11:29:38.167361 12204 net.cpp:100] Creating Layer bn3
I0312 11:29:38.167361 12204 net.cpp:434] bn3 <- conv3
I0312 11:29:38.167361 12204 net.cpp:408] bn3 -> bn3
I0312 11:29:38.167361 12204 net.cpp:150] Setting up bn3
I0312 11:29:38.167858 12204 net.cpp:157] Top shape: 16 32 16 16 (131072)
I0312 11:29:38.167858 12204 net.cpp:165] Memory required for data: 45809856
I0312 11:29:38.167858 12204 layer_factory.cpp:58] Creating layer scale3
I0312 11:29:38.167858 12204 net.cpp:100] Creating Layer scale3
I0312 11:29:38.167858 12204 net.cpp:434] scale3 <- bn3
I0312 11:29:38.167858 12204 net.cpp:408] scale3 -> scale3
I0312 11:29:38.167858 12204 layer_factory.cpp:58] Creating layer scale3
I0312 11:29:38.167858 12204 net.cpp:150] Setting up scale3
I0312 11:29:38.167858 12204 net.cpp:157] Top shape: 16 32 16 16 (131072)
I0312 11:29:38.167858 12204 net.cpp:165] Memory required for data: 46334144
I0312 11:29:38.167858 12204 layer_factory.cpp:58] Creating layer relu3
I0312 11:29:38.167858 12204 net.cpp:100] Creating Layer relu3
I0312 11:29:38.167858 12204 net.cpp:434] relu3 <- scale3
I0312 11:29:38.167858 12204 net.cpp:408] relu3 -> relu3
I0312 11:29:38.168359 12204 net.cpp:150] Setting up relu3
I0312 11:29:38.168359 12204 net.cpp:157] Top shape: 16 32 16 16 (131072)
I0312 11:29:38.168359 12204 net.cpp:165] Memory required for data: 46858432
I0312 11:29:38.168359 12204 layer_factory.cpp:58] Creating layer conv4
I0312 11:29:38.168858 12204 net.cpp:100] Creating Layer conv4
I0312 11:29:38.168858 12204 net.cpp:434] conv4 <- relu3
I0312 11:29:38.168858 12204 net.cpp:408] conv4 -> conv4
I0312 11:29:38.169369 12204 net.cpp:150] Setting up conv4
I0312 11:29:38.169369 12204 net.cpp:157] Top shape: 16 64 16 16 (262144)
I0312 11:29:38.169369 12204 net.cpp:165] Memory required for data: 47907008
I0312 11:29:38.169369 12204 layer_factory.cpp:58] Creating layer pool4
I0312 11:29:38.169369 12204 net.cpp:100] Creating Layer pool4
I0312 11:29:38.169369 12204 net.cpp:434] pool4 <- conv4
I0312 11:29:38.169369 12204 net.cpp:408] pool4 -> pool4
I0312 11:29:38.169369 12204 net.cpp:150] Setting up pool4
I0312 11:29:38.169369 12204 net.cpp:157] Top shape: 16 64 8 8 (65536)
I0312 11:29:38.169369 12204 net.cpp:165] Memory required for data: 48169152
I0312 11:29:38.169369 12204 layer_factory.cpp:58] Creating layer bn4
I0312 11:29:38.169369 12204 net.cpp:100] Creating Layer bn4
I0312 11:29:38.169369 12204 net.cpp:434] bn4 <- pool4
I0312 11:29:38.169369 12204 net.cpp:408] bn4 -> bn4
I0312 11:29:38.169369 12204 net.cpp:150] Setting up bn4
I0312 11:29:38.169369 12204 net.cpp:157] Top shape: 16 64 8 8 (65536)
I0312 11:29:38.169369 12204 net.cpp:165] Memory required for data: 48431296
I0312 11:29:38.169369 12204 layer_factory.cpp:58] Creating layer scale4
I0312 11:29:38.169369 12204 net.cpp:100] Creating Layer scale4
I0312 11:29:38.169369 12204 net.cpp:434] scale4 <- bn4
I0312 11:29:38.169369 12204 net.cpp:408] scale4 -> scale4
I0312 11:29:38.169369 12204 layer_factory.cpp:58] Creating layer scale4
I0312 11:29:38.169369 12204 net.cpp:150] Setting up scale4
I0312 11:29:38.169369 12204 net.cpp:157] Top shape: 16 64 8 8 (65536)
I0312 11:29:38.169369 12204 net.cpp:165] Memory required for data: 48693440
I0312 11:29:38.169369 12204 layer_factory.cpp:58] Creating layer relu4
I0312 11:29:38.169369 12204 net.cpp:100] Creating Layer relu4
I0312 11:29:38.169369 12204 net.cpp:434] relu4 <- scale4
I0312 11:29:38.169369 12204 net.cpp:408] relu4 -> relu4
I0312 11:29:38.169369 12204 net.cpp:150] Setting up relu4
I0312 11:29:38.169369 12204 net.cpp:157] Top shape: 16 64 8 8 (65536)
I0312 11:29:38.169369 12204 net.cpp:165] Memory required for data: 48955584
I0312 11:29:38.169369 12204 layer_factory.cpp:58] Creating layer conv4_1
I0312 11:29:38.169369 12204 net.cpp:100] Creating Layer conv4_1
I0312 11:29:38.169369 12204 net.cpp:434] conv4_1 <- relu4
I0312 11:29:38.169369 12204 net.cpp:408] conv4_1 -> conv4_1
I0312 11:29:38.169369 12204 net.cpp:150] Setting up conv4_1
I0312 11:29:38.169369 12204 net.cpp:157] Top shape: 16 64 8 8 (65536)
I0312 11:29:38.169369 12204 net.cpp:165] Memory required for data: 49217728
I0312 11:29:38.169369 12204 layer_factory.cpp:58] Creating layer bn4_1
I0312 11:29:38.169369 12204 net.cpp:100] Creating Layer bn4_1
I0312 11:29:38.169369 12204 net.cpp:434] bn4_1 <- conv4_1
I0312 11:29:38.169369 12204 net.cpp:408] bn4_1 -> bn4_1
I0312 11:29:38.169369 12204 net.cpp:150] Setting up bn4_1
I0312 11:29:38.169369 12204 net.cpp:157] Top shape: 16 64 8 8 (65536)
I0312 11:29:38.169369 12204 net.cpp:165] Memory required for data: 49479872
I0312 11:29:38.169369 12204 layer_factory.cpp:58] Creating layer scale4_1
I0312 11:29:38.169369 12204 net.cpp:100] Creating Layer scale4_1
I0312 11:29:38.169369 12204 net.cpp:434] scale4_1 <- bn4_1
I0312 11:29:38.169369 12204 net.cpp:408] scale4_1 -> scale4_1
I0312 11:29:38.169369 12204 layer_factory.cpp:58] Creating layer scale4_1
I0312 11:29:38.169369 12204 net.cpp:150] Setting up scale4_1
I0312 11:29:38.169369 12204 net.cpp:157] Top shape: 16 64 8 8 (65536)
I0312 11:29:38.169369 12204 net.cpp:165] Memory required for data: 49742016
I0312 11:29:38.169369 12204 layer_factory.cpp:58] Creating layer relu4_1
I0312 11:29:38.169369 12204 net.cpp:100] Creating Layer relu4_1
I0312 11:29:38.169369 12204 net.cpp:434] relu4_1 <- scale4_1
I0312 11:29:38.169369 12204 net.cpp:408] relu4_1 -> relu4_1
I0312 11:29:38.169369 12204 net.cpp:150] Setting up relu4_1
I0312 11:29:38.169369 12204 net.cpp:157] Top shape: 16 64 8 8 (65536)
I0312 11:29:38.169369 12204 net.cpp:165] Memory required for data: 50004160
I0312 11:29:38.169369 12204 layer_factory.cpp:58] Creating layer conv4_2
I0312 11:29:38.169369 12204 net.cpp:100] Creating Layer conv4_2
I0312 11:29:38.169369 12204 net.cpp:434] conv4_2 <- relu4_1
I0312 11:29:38.169369 12204 net.cpp:408] conv4_2 -> conv4_2
I0312 11:29:38.184996 12204 net.cpp:150] Setting up conv4_2
I0312 11:29:38.184996 12204 net.cpp:157] Top shape: 16 64 8 8 (65536)
I0312 11:29:38.184996 12204 net.cpp:165] Memory required for data: 50266304
I0312 11:29:38.184996 12204 layer_factory.cpp:58] Creating layer bn4_2
I0312 11:29:38.184996 12204 net.cpp:100] Creating Layer bn4_2
I0312 11:29:38.184996 12204 net.cpp:434] bn4_2 <- conv4_2
I0312 11:29:38.184996 12204 net.cpp:408] bn4_2 -> bn4_2
I0312 11:29:38.184996 12204 net.cpp:150] Setting up bn4_2
I0312 11:29:38.184996 12204 net.cpp:157] Top shape: 16 64 8 8 (65536)
I0312 11:29:38.184996 12204 net.cpp:165] Memory required for data: 50528448
I0312 11:29:38.184996 12204 layer_factory.cpp:58] Creating layer scale4_2
I0312 11:29:38.184996 12204 net.cpp:100] Creating Layer scale4_2
I0312 11:29:38.184996 12204 net.cpp:434] scale4_2 <- bn4_2
I0312 11:29:38.184996 12204 net.cpp:408] scale4_2 -> scale4_2
I0312 11:29:38.184996 12204 layer_factory.cpp:58] Creating layer scale4_2
I0312 11:29:38.184996 12204 net.cpp:150] Setting up scale4_2
I0312 11:29:38.184996 12204 net.cpp:157] Top shape: 16 64 8 8 (65536)
I0312 11:29:38.184996 12204 net.cpp:165] Memory required for data: 50790592
I0312 11:29:38.184996 12204 layer_factory.cpp:58] Creating layer relu4_2
I0312 11:29:38.184996 12204 net.cpp:100] Creating Layer relu4_2
I0312 11:29:38.184996 12204 net.cpp:434] relu4_2 <- scale4_2
I0312 11:29:38.184996 12204 net.cpp:408] relu4_2 -> relu4_2
I0312 11:29:38.184996 12204 net.cpp:150] Setting up relu4_2
I0312 11:29:38.184996 12204 net.cpp:157] Top shape: 16 64 8 8 (65536)
I0312 11:29:38.184996 12204 net.cpp:165] Memory required for data: 51052736
I0312 11:29:38.184996 12204 layer_factory.cpp:58] Creating layer pool4_2
I0312 11:29:38.184996 12204 net.cpp:100] Creating Layer pool4_2
I0312 11:29:38.184996 12204 net.cpp:434] pool4_2 <- relu4_2
I0312 11:29:38.184996 12204 net.cpp:408] pool4_2 -> pool4_2
I0312 11:29:38.184996 12204 net.cpp:150] Setting up pool4_2
I0312 11:29:38.184996 12204 net.cpp:157] Top shape: 16 64 4 4 (16384)
I0312 11:29:38.184996 12204 net.cpp:165] Memory required for data: 51118272
I0312 11:29:38.184996 12204 layer_factory.cpp:58] Creating layer conv4_0
I0312 11:29:38.184996 12204 net.cpp:100] Creating Layer conv4_0
I0312 11:29:38.184996 12204 net.cpp:434] conv4_0 <- pool4_2
I0312 11:29:38.184996 12204 net.cpp:408] conv4_0 -> conv4_0
I0312 11:29:38.184996 12204 net.cpp:150] Setting up conv4_0
I0312 11:29:38.184996 12204 net.cpp:157] Top shape: 16 128 4 4 (32768)
I0312 11:29:38.184996 12204 net.cpp:165] Memory required for data: 51249344
I0312 11:29:38.184996 12204 layer_factory.cpp:58] Creating layer bn4_0
I0312 11:29:38.184996 12204 net.cpp:100] Creating Layer bn4_0
I0312 11:29:38.184996 12204 net.cpp:434] bn4_0 <- conv4_0
I0312 11:29:38.184996 12204 net.cpp:408] bn4_0 -> bn4_0
I0312 11:29:38.184996 12204 net.cpp:150] Setting up bn4_0
I0312 11:29:38.184996 12204 net.cpp:157] Top shape: 16 128 4 4 (32768)
I0312 11:29:38.184996 12204 net.cpp:165] Memory required for data: 51380416
I0312 11:29:38.184996 12204 layer_factory.cpp:58] Creating layer scale4_0
I0312 11:29:38.184996 12204 net.cpp:100] Creating Layer scale4_0
I0312 11:29:38.184996 12204 net.cpp:434] scale4_0 <- bn4_0
I0312 11:29:38.184996 12204 net.cpp:408] scale4_0 -> scale4_0
I0312 11:29:38.184996 12204 layer_factory.cpp:58] Creating layer scale4_0
I0312 11:29:38.184996 12204 net.cpp:150] Setting up scale4_0
I0312 11:29:38.184996 12204 net.cpp:157] Top shape: 16 128 4 4 (32768)
I0312 11:29:38.184996 12204 net.cpp:165] Memory required for data: 51511488
I0312 11:29:38.184996 12204 layer_factory.cpp:58] Creating layer relu4_0
I0312 11:29:38.184996 12204 net.cpp:100] Creating Layer relu4_0
I0312 11:29:38.184996 12204 net.cpp:434] relu4_0 <- scale4_0
I0312 11:29:38.184996 12204 net.cpp:408] relu4_0 -> relu4_0
I0312 11:29:38.200623 12204 net.cpp:150] Setting up relu4_0
I0312 11:29:38.200623 12204 net.cpp:157] Top shape: 16 128 4 4 (32768)
I0312 11:29:38.200623 12204 net.cpp:165] Memory required for data: 51642560
I0312 11:29:38.200623 12204 layer_factory.cpp:58] Creating layer cccp4
I0312 11:29:38.200623 12204 net.cpp:100] Creating Layer cccp4
I0312 11:29:38.200623 12204 net.cpp:434] cccp4 <- relu4_0
I0312 11:29:38.200623 12204 net.cpp:408] cccp4 -> cccp4
I0312 11:29:38.200623 12204 net.cpp:150] Setting up cccp4
I0312 11:29:38.200623 12204 net.cpp:157] Top shape: 16 256 4 4 (65536)
I0312 11:29:38.200623 12204 net.cpp:165] Memory required for data: 51904704
I0312 11:29:38.200623 12204 layer_factory.cpp:58] Creating layer relu_cccp4
I0312 11:29:38.200623 12204 net.cpp:100] Creating Layer relu_cccp4
I0312 11:29:38.200623 12204 net.cpp:434] relu_cccp4 <- cccp4
I0312 11:29:38.200623 12204 net.cpp:395] relu_cccp4 -> cccp4 (in-place)
I0312 11:29:38.200623 12204 net.cpp:150] Setting up relu_cccp4
I0312 11:29:38.200623 12204 net.cpp:157] Top shape: 16 256 4 4 (65536)
I0312 11:29:38.200623 12204 net.cpp:165] Memory required for data: 52166848
I0312 11:29:38.200623 12204 layer_factory.cpp:58] Creating layer cccp5
I0312 11:29:38.200623 12204 net.cpp:100] Creating Layer cccp5
I0312 11:29:38.200623 12204 net.cpp:434] cccp5 <- cccp4
I0312 11:29:38.200623 12204 net.cpp:408] cccp5 -> cccp5
I0312 11:29:38.200623 12204 net.cpp:150] Setting up cccp5
I0312 11:29:38.200623 12204 net.cpp:157] Top shape: 16 64 4 4 (16384)
I0312 11:29:38.200623 12204 net.cpp:165] Memory required for data: 52232384
I0312 11:29:38.200623 12204 layer_factory.cpp:58] Creating layer relu_cccp5
I0312 11:29:38.200623 12204 net.cpp:100] Creating Layer relu_cccp5
I0312 11:29:38.200623 12204 net.cpp:434] relu_cccp5 <- cccp5
I0312 11:29:38.200623 12204 net.cpp:395] relu_cccp5 -> cccp5 (in-place)
I0312 11:29:38.200623 12204 net.cpp:150] Setting up relu_cccp5
I0312 11:29:38.200623 12204 net.cpp:157] Top shape: 16 64 4 4 (16384)
I0312 11:29:38.200623 12204 net.cpp:165] Memory required for data: 52297920
I0312 11:29:38.200623 12204 layer_factory.cpp:58] Creating layer poolcp5
I0312 11:29:38.200623 12204 net.cpp:100] Creating Layer poolcp5
I0312 11:29:38.200623 12204 net.cpp:434] poolcp5 <- cccp5
I0312 11:29:38.200623 12204 net.cpp:408] poolcp5 -> poolcp5
I0312 11:29:38.200623 12204 net.cpp:150] Setting up poolcp5
I0312 11:29:38.200623 12204 net.cpp:157] Top shape: 16 64 2 2 (4096)
I0312 11:29:38.200623 12204 net.cpp:165] Memory required for data: 52314304
I0312 11:29:38.200623 12204 layer_factory.cpp:58] Creating layer cccp6
I0312 11:29:38.200623 12204 net.cpp:100] Creating Layer cccp6
I0312 11:29:38.200623 12204 net.cpp:434] cccp6 <- poolcp5
I0312 11:29:38.200623 12204 net.cpp:408] cccp6 -> cccp6
I0312 11:29:38.216250 12204 net.cpp:150] Setting up cccp6
I0312 11:29:38.216250 12204 net.cpp:157] Top shape: 16 64 2 2 (4096)
I0312 11:29:38.216250 12204 net.cpp:165] Memory required for data: 52330688
I0312 11:29:38.216250 12204 layer_factory.cpp:58] Creating layer relu_cccp6
I0312 11:29:38.216250 12204 net.cpp:100] Creating Layer relu_cccp6
I0312 11:29:38.216250 12204 net.cpp:434] relu_cccp6 <- cccp6
I0312 11:29:38.216250 12204 net.cpp:395] relu_cccp6 -> cccp6 (in-place)
I0312 11:29:38.216250 12204 net.cpp:150] Setting up relu_cccp6
I0312 11:29:38.216250 12204 net.cpp:157] Top shape: 16 64 2 2 (4096)
I0312 11:29:38.216250 12204 net.cpp:165] Memory required for data: 52347072
I0312 11:29:38.216250 12204 layer_factory.cpp:58] Creating layer poolcp6
I0312 11:29:38.216250 12204 net.cpp:100] Creating Layer poolcp6
I0312 11:29:38.216250 12204 net.cpp:434] poolcp6 <- cccp6
I0312 11:29:38.216250 12204 net.cpp:408] poolcp6 -> poolcp6
I0312 11:29:38.216250 12204 net.cpp:150] Setting up poolcp6
I0312 11:29:38.216250 12204 net.cpp:157] Top shape: 16 64 1 1 (1024)
I0312 11:29:38.216250 12204 net.cpp:165] Memory required for data: 52351168
I0312 11:29:38.216250 12204 layer_factory.cpp:58] Creating layer ip1
I0312 11:29:38.216250 12204 net.cpp:100] Creating Layer ip1
I0312 11:29:38.216250 12204 net.cpp:434] ip1 <- poolcp6
I0312 11:29:38.216250 12204 net.cpp:408] ip1 -> ip1
I0312 11:29:38.216250 12204 net.cpp:150] Setting up ip1
I0312 11:29:38.216250 12204 net.cpp:157] Top shape: 16 10 (160)
I0312 11:29:38.216250 12204 net.cpp:165] Memory required for data: 52351808
I0312 11:29:38.216250 12204 layer_factory.cpp:58] Creating layer ip1_ip1_0_split
I0312 11:29:38.216250 12204 net.cpp:100] Creating Layer ip1_ip1_0_split
I0312 11:29:38.216250 12204 net.cpp:434] ip1_ip1_0_split <- ip1
I0312 11:29:38.216250 12204 net.cpp:408] ip1_ip1_0_split -> ip1_ip1_0_split_0
I0312 11:29:38.216250 12204 net.cpp:408] ip1_ip1_0_split -> ip1_ip1_0_split_1
I0312 11:29:38.216250 12204 net.cpp:150] Setting up ip1_ip1_0_split
I0312 11:29:38.216250 12204 net.cpp:157] Top shape: 16 10 (160)
I0312 11:29:38.216250 12204 net.cpp:157] Top shape: 16 10 (160)
I0312 11:29:38.216250 12204 net.cpp:165] Memory required for data: 52353088
I0312 11:29:38.216250 12204 layer_factory.cpp:58] Creating layer accuracy
I0312 11:29:38.216250 12204 net.cpp:100] Creating Layer accuracy
I0312 11:29:38.216250 12204 net.cpp:434] accuracy <- ip1_ip1_0_split_0
I0312 11:29:38.216250 12204 net.cpp:434] accuracy <- label_SVHN_1_split_0
I0312 11:29:38.216250 12204 net.cpp:408] accuracy -> accuracy
…
