…
I0217 18:43:09.672829  6824 net.cpp:322] The NetState phase (0) differed from the phase (1) specified by a rule in layer accuracy
I0217 18:43:09.673331  6824 net.cpp:58] Initializing net from parameters: 
name: "CIFAR10_full"
state {
  phase: TRAIN
  level: 0
  stage: ""
}
layer {
  name: "cifar"
  type: "Data"
  top: "data"
  top: "label"
  include {
    phase: TRAIN
  }
  transform_param {
    mirror: true
    crop_size: 32
  }
  data_param {
    source: "examples/cifar10/cifar10_train_leveldb_padding"
    batch_size: 100
    backend: LEVELDB
  }
}
layer {
  name: "conv1"
  type: "Convolution"
  bottom: "data"
  top: "conv1"
  param {
    lr_mult: 1
  }
  convolution_param {
    num_output: 64
    bias_term: true
    pad: 1
    kernel_size: 3
    stride: 1
    weight_filler {
      type: "xavier"
    }
  }
}
layer {
  name: "bn1"
  type: "BatchNorm"
  bottom: "conv1"
  top: "bn1"
  include {
    phase: TRAIN
  }
  batch_norm_param {
    use_global_stats: false
    moving_average_fraction: 0.95
  }
}
layer {
  name: "scale1"
  type: "Scale"
  bottom: "bn1"
  top: "scale1"
  scale_param {
    bias_term: true
  }
}
layer {
  name: "relu1"
  type: "ReLU"
  bottom: "scale1"
  top: "relu1"
}
layer {
  name: "drop2_1"
  type: "Dropout"
  bottom: "relu1"
  top: "relu1"
  dropout_param {
    dropout_ratio: 0.2
  }
}
layer {
  name: "conv1_0"
  type: "Convolution"
  bottom: "relu1"
  top: "conv1_0"
  param {
    lr_mult: 1
  }
  convolution_param {
    num_output: 128
    bias_term: true
    pad: 1
    kernel_size: 3
    stride: 1
    weight_filler {
      type: "xavier"
    }
  }
}
layer {
  name: "bn1_0"
  type: "BatchNorm"
  bottom: "conv1_0"
  top: "bn1_0"
  include {
    phase: TRAIN
  }
  batch_norm_param {
    use_global_stats: false
    moving_average_fraction: 0.95
  }
}
layer {
  name: "scale1_0"
  type: "Scale"
  bottom: "bn1_0"
  top: "scale1_0"
  scale_param {
    bias_term: true
  }
}
layer {
  name: "relu1_0"
  type: "ReLU"
  bottom: "scale1_0"
  top: "relu1_0"
}
layer {
  name: "drop1_0"
  type: "Dropout"
  bottom: "relu1_0"
  top: "relu1_0"
  dropout_param {
    dropout_ratio: 0.2
  }
}
layer {
  name: "conv2"
  type: "Convolution"
  bottom: "relu1_0"
  top: "conv2"
  param {
    lr_mult: 1
  }
  convolution_param {
    num_output: 128
    bias_term: true
    pad: 1
    kernel_size: 3
    stride: 1
    weight_filler {
      type: "gaussian"
      std: 0.01
    }
  }
}
layer {
  name: "bn2"
  type: "BatchNorm"
  bottom: "conv2"
  top: "bn2"
  include {
    phase: TRAIN
  }
  batch_norm_param {
    use_global_stats: false
    moving_average_fraction: 0.95
  }
}
layer {
  name: "scale2"
  type: "Scale"
  bottom: "bn2"
  top: "scale2"
  scale_param {
    bias_term: true
  }
}
layer {
  name: "relu2"
  type: "ReLU"
  bottom: "scale2"
  top: "relu2"
}
layer {
  name: "drop2_0"
  type: "Dropout"
  bottom: "relu2"
  top: "relu2"
  dropout_param {
    dropout_ratio: 0.2
  }
}
layer {
  name: "conv2_1"
  type: "Convolution"
  bottom: "relu2"
  top: "conv2_1"
  param {
    lr_mult: 1
  }
  convolution_param {
    num_output: 128
    bias_term: true
    pad: 1
    kernel_size: 3
    stride: 1
    weight_filler {
      type: "gaussian"
      std: 0.01
    }
  }
}
layer {
  name: "bn2_1"
  type: "BatchNorm"
  bottom: "conv2_1"
  top: "bn2_1"
  include {
    phase: TRAIN
  }
  batch_norm_param {
    use_global_stats: false
    moving_average_fraction: 0.95
  }
}
layer {
  name: "scale2_1"
  type: "Scale"
  bottom: "bn2_1"
  top: "scale2_1"
  scale_param {
    bias_term: true
  }
}
layer {
  name: "relu2_1"
  type: "ReLU"
  bottom: "scale2_1"
  top: "relu2_1"
}
layer {
  name: "pool2_1"
  type: "Pooling"
  bottom: "relu2_1"
  top: "pool2_1"
  pooling_param {
    pool: MAX
    kernel_size: 2
    stride: 2
  }
}
layer {
  name: "drop2_1"
  type: "Dropout"
  bottom: "pool2_1"
  top: "pool2_1"
  dropout_param {
    dropout_ratio: 0.2
  }
}
layer {
  name: "conv2_2"
  type: "Convolution"
  bottom: "pool2_1"
  top: "conv2_2"
  param {
    lr_mult: 1
  }
  convolution_param {
    num_output: 128
    bias_term: true
    pad: 1
    kernel_size: 3
    stride: 1
    weight_filler {
      type: "gaussian"
      std: 0.01
    }
  }
}
layer {
  name: "bn2_2"
  type: "BatchNorm"
  bottom: "conv2_2"
  top: "bn2_2"
  include {
    phase: TRAIN
  }
  batch_norm_param {
    use_global_stats: false
    moving_average_fraction: 0.95
  }
}
layer {
  name: "scale2_2"
  type: "Scale"
  bottom: "bn2_2"
  top: "scale2_2"
  scale_param {
    bias_term: true
  }
}
layer {
  name: "relu2_2"
  type: "ReLU"
  bottom: "scale2_2"
  top: "relu2_2"
}
layer {
  name: "drop2_2"
  type: "Dropout"
  bottom: "relu2_2"
  top: "relu2_2"
  dropout_param {
    dropout_ratio: 0.2
  }
}
layer {
  name: "conv3"
  type: "Convolution"
  bottom: "relu2_2"
  top: "conv3"
  param {
    lr_mult: 1
  }
  convolution_param {
    num_output: 128
    bias_term: true
    pad: 1
    kernel_size: 3
    stride: 1
    weight_filler {
      type: "xavier"
    }
  }
}
layer {
  name: "bn3"
  type: "BatchNorm"
  bottom: "conv3"
  top: "bn3"
  include {
    phase: TRAIN
  }
  batch_norm_param {
    use_global_stats: false
    moving_average_fraction: 0.95
  }
}
layer {
  name: "scale3"
  type: "Scale"
  bottom: "bn3"
  top: "scale3"
  scale_param {
    bias_term: true
  }
}
layer {
  name: "relu3"
  type: "ReLU"
  bottom: "scale3"
  top: "relu3"
}
layer {
  name: "drop3"
  type: "Dropout"
  bottom: "relu3"
  top: "relu3"
  dropout_param {
    dropout_ratio: 0.2
  }
}
layer {
  name: "conv4"
  type: "Convolution"
  bottom: "relu3"
  top: "conv4"
  param {
    lr_mult: 1
  }
  convolution_param {
    num_output: 256
    bias_term: true
    pad: 1
    kernel_size: 3
    stride: 1
    weight_filler {
      type: "xavier"
    }
  }
}
layer {
  name: "pool4"
  type: "Pooling"
  bottom: "conv4"
  top: "pool4"
  pooling_param {
    pool: MAX
    kernel_size: 2
    stride: 2
  }
}
layer {
  name: "bn4"
  type: "BatchNorm"
  bottom: "pool4"
  top: "bn4"
  include {
    phase: TRAIN
  }
  batch_norm_param {
    use_global_stats: false
    moving_average_fraction: 0.95
  }
}
layer {
  name: "scale4"
  type: "Scale"
  bottom: "bn4"
  top: "scale4"
  scale_param {
    bias_term: true
  }
}
layer {
  name: "relu4"
  type: "ReLU"
  bottom: "scale4"
  top: "relu4"
}
layer {
  name: "drop4"
  type: "Dropout"
  bottom: "relu4"
  top: "relu4"
  dropout_param {
    dropout_ratio: 0.2
  }
}
layer {
  name: "conv4_1"
  type: "Convolution"
  bottom: "relu4"
  top: "conv4_1"
  param {
    lr_mult: 1
  }
  convolution_param {
    num_output: 256
    bias_term: true
    pad: 1
    kernel_size: 3
    stride: 1
    weight_filler {
      type: "xavier"
    }
  }
}
layer {
  name: "bn4_1"
  type: "BatchNorm"
  bottom: "conv4_1"
  top: "bn4_1"
  include {
    phase: TRAIN
  }
  batch_norm_param {
    use_global_stats: false
    moving_average_fraction: 0.95
  }
}
layer {
  name: "scale4_1"
  type: "Scale"
  bottom: "bn4_1"
  top: "scale4_1"
  scale_param {
    bias_term: true
  }
}
layer {
  name: "relu4_1"
  type: "ReLU"
  bottom: "scale4_1"
  top: "relu4_1"
}
layer {
  name: "drop4_1"
  type: "Dropout"
  bottom: "relu4_1"
  top: "relu4_1"
  dropout_param {
    dropout_ratio: 0.2
  }
}
layer {
  name: "conv4_2"
  type: "Convolution"
  bottom: "relu4_1"
  top: "conv4_2"
  param {
    lr_mult: 1
  }
  convolution_param {
    num_output: 256
    bias_term: true
    pad: 1
    kernel_size: 3
    stride: 1
    weight_filler {
      type: "xavier"
    }
  }
}
layer {
  name: "bn4_2"
  type: "BatchNorm"
  bottom: "conv4_2"
  top: "bn4_2"
  include {
    phase: TRAIN
  }
  batch_norm_param {
    use_global_stats: false
    moving_average_fraction: 0.95
  }
}
layer {
  name: "scale4_2"
  type: "Scale"
  bottom: "bn4_2"
  top: "scale4_2"
  scale_param {
    bias_term: true
  }
}
layer {
  name: "relu4_2"
  type: "ReLU"
  bottom: "scale4_2"
  top: "relu4_2"
}
layer {
  name: "drop4_2"
  type: "Dropout"
  bottom: "relu4_2"
  top: "relu4_2"
  dropout_param {
    dropout_ratio: 0.2
  }
}
layer {
  name: "pool4_2"
  type: "Pooling"
  bottom: "relu4_2"
  top: "pool4_2"
  pooling_param {
    pool: MAX
    kernel_size: 2
    stride: 2
  }
}
layer {
  name: "conv4_0"
  type: "Convolution"
  bottom: "pool4_2"
  top: "conv4_0"
  param {
    lr_mult: 1
  }
  convolution_param {
    num_output: 512
    bias_term: true
    pad: 1
    kernel_size: 3
    stride: 1
    weight_filler {
      type: "xavier"
    }
  }
}
layer {
  name: "bn4_0"
  type: "BatchNorm"
  bottom: "conv4_0"
  top: "bn4_0"
  include {
    phase: TRAIN
  }
  batch_norm_param {
    use_global_stats: false
    moving_average_fraction: 0.95
  }
}
layer {
  name: "scale4_0"
  type: "Scale"
  bottom: "bn4_0"
  top: "scale4_0"
  scale_param {
    bias_term: true
  }
}
layer {
  name: "relu4_0"
  type: "ReLU"
  bottom: "scale4_0"
  top: "relu4_0"
}
layer {
  name: "drop4_0"
  type: "Dropout"
  bottom: "relu4_0"
  top: "relu4_0"
  dropout_param {
    dropout_ratio: 0.2
  }
}
layer {
  name: "cccp4"
  type: "Convolution"
  bottom: "relu4_0"
  top: "cccp4"
  param {
    lr_mult: 1
    decay_mult: 1
  }
  param {
    lr_mult: 2
    decay_mult: 0
  }
  convolution_param {
    num_output: 2048
    kernel_size: 1
    group: 1
    weight_filler {
      type: "xavier"
    }
    bias_filler {
      type: "constant"
      value: 0
    }
  }
}
layer {
  name: "relu_cccp4"
  type: "ReLU"
  bottom: "cccp4"
  top: "cccp4"
}
layer {
  name: "drop4_3"
  type: "Dropout"
  bottom: "cccp4"
  top: "cccp4"
  dropout_param {
    dropout_ratio: 0.2
  }
}
layer {
  name: "cccp5"
  type: "Convolution"
  bottom: "cccp4"
  top: "cccp5"
  param {
    lr_mult: 1
    decay_mult: 1
  }
  param {
    lr_mult: 2
    decay_mult: 0
  }
  convolution_param {
    num_output: 256
    kernel_size: 1
    group: 1
    weight_filler {
      type: "xavier"
    }
    bias_filler {
      type: "constant"
      value: 0
    }
  }
}
layer {
  name: "relu_cccp5"
  type: "ReLU"
  bottom: "cccp5"
  top: "cccp5"
}
layer {
  name: "poolcp5"
  type: "Pooling"
  bottom: "cccp5"
  top: "poolcp5"
  pooling_param {
    pool: MAX
    kernel_size: 2
    stride: 2
  }
}
layer {
  name: "drop4_5"
  type: "Dropout"
  bottom: "poolcp5"
  top: "poolcp5"
  dropout_param {
    dropout_ratio: 0.2
  }
}
layer {
  name: "cccp6"
  type: "Convolution"
  bottom: "poolcp5"
  top: "cccp6"
  param {
    lr_mult: 1
    decay_mult: 1
  }
  param {
    lr_mult: 2
    decay_mult: 0
  }
  convolution_param {
    num_output: 256
    pad: 1
    kernel_size: 3
    group: 1
    weight_filler {
      type: "xavier"
    }
    bias_filler {
      type: "constant"
      value: 0
    }
  }
}
layer {
  name: "relu_cccp6"
  type: "ReLU"
  bottom: "cccp6"
  top: "cccp6"
}
layer {
  name: "poolcp6"
  type: "Pooling"
  bottom: "cccp6"
  top: "poolcp6"
  pooling_param {
    pool: MAX
    kernel_size: 2
    stride: 2
  }
}
layer {
  name: "ip1"
  type: "InnerProduct"
  bottom: "poolcp6"
  top: "ip1"
  param {
    lr_mult: 1
    decay_mult: 0
  }
  param {
    lr_mult: 2
    decay_mult: 0
  }
  inner_product_param {
    num_output: 10
    weight_filler {
      type: "xavier"
    }
    bias_filler {
      type: "constant"
    }
  }
}
layer {
  name: "accuracy_training"
  type: "Accuracy"
  bottom: "ip1"
  bottom: "label"
  top: "accuracy_training"
  include {
    phase: TRAIN
  }
}
layer {
  name: "loss"
  type: "SoftmaxWithLoss"
  bottom: "ip1"
  bottom: "label"
  top: "loss"
}
I0217 18:43:09.673331  6824 layer_factory.cpp:58] Creating layer cifar
I0217 18:43:09.674330  6824 net.cpp:100] Creating Layer cifar
I0217 18:43:09.674330  6824 net.cpp:408] cifar -> data
I0217 18:43:09.674330  6824 net.cpp:408] cifar -> label
I0217 18:43:09.675330 10616 common.cpp:36] System entropy source not available, using fallback algorithm to generate seed instead.
I0217 18:43:09.679831 10616 db_leveldb.cpp:18] Opened leveldb examples/cifar10/cifar10_train_leveldb_padding
I0217 18:43:09.700331  6824 data_layer.cpp:41] output data size: 100,3,32,32
I0217 18:43:09.703831  6824 net.cpp:150] Setting up cifar
I0217 18:43:09.703831  6824 net.cpp:157] Top shape: 100 3 32 32 (307200)
I0217 18:43:09.703831  6824 net.cpp:157] Top shape: 100 (100)
I0217 18:43:09.703831  6824 net.cpp:165] Memory required for data: 1229200
I0217 18:43:09.703831  6824 layer_factory.cpp:58] Creating layer label_cifar_1_split
I0217 18:43:09.703831  6824 net.cpp:100] Creating Layer label_cifar_1_split
I0217 18:43:09.703831  6824 net.cpp:434] label_cifar_1_split <- label
I0217 18:43:09.703831  6824 net.cpp:408] label_cifar_1_split -> label_cifar_1_split_0
I0217 18:43:09.703831  6824 net.cpp:408] label_cifar_1_split -> label_cifar_1_split_1
I0217 18:43:09.703831  6824 net.cpp:150] Setting up label_cifar_1_split
I0217 18:43:09.703831  6824 net.cpp:157] Top shape: 100 (100)
I0217 18:43:09.703831  6824 net.cpp:157] Top shape: 100 (100)
I0217 18:43:09.703831  6824 net.cpp:165] Memory required for data: 1230000
I0217 18:43:09.703831  6824 layer_factory.cpp:58] Creating layer conv1
I0217 18:43:09.703831  6824 net.cpp:100] Creating Layer conv1
I0217 18:43:09.703831  6824 net.cpp:434] conv1 <- data
I0217 18:43:09.703831  6824 net.cpp:408] conv1 -> conv1
I0217 18:43:09.704331 12740 common.cpp:36] System entropy source not available, using fallback algorithm to generate seed instead.
I0217 18:43:09.937331  6824 net.cpp:150] Setting up conv1
I0217 18:43:09.937331  6824 net.cpp:157] Top shape: 100 64 32 32 (6553600)
I0217 18:43:09.937331  6824 net.cpp:165] Memory required for data: 27444400
I0217 18:43:09.937331  6824 layer_factory.cpp:58] Creating layer bn1
I0217 18:43:09.937331  6824 net.cpp:100] Creating Layer bn1
I0217 18:43:09.937331  6824 net.cpp:434] bn1 <- conv1
I0217 18:43:09.937331  6824 net.cpp:408] bn1 -> bn1
I0217 18:43:09.937331  6824 net.cpp:150] Setting up bn1
I0217 18:43:09.937830  6824 net.cpp:157] Top shape: 100 64 32 32 (6553600)
I0217 18:43:09.937830  6824 net.cpp:165] Memory required for data: 53658800
I0217 18:43:09.937830  6824 layer_factory.cpp:58] Creating layer scale1
I0217 18:43:09.937830  6824 net.cpp:100] Creating Layer scale1
I0217 18:43:09.937830  6824 net.cpp:434] scale1 <- bn1
I0217 18:43:09.937830  6824 net.cpp:408] scale1 -> scale1
I0217 18:43:09.937830  6824 layer_factory.cpp:58] Creating layer scale1
I0217 18:43:09.937830  6824 net.cpp:150] Setting up scale1
I0217 18:43:09.937830  6824 net.cpp:157] Top shape: 100 64 32 32 (6553600)
I0217 18:43:09.937830  6824 net.cpp:165] Memory required for data: 79873200
I0217 18:43:09.937830  6824 layer_factory.cpp:58] Creating layer relu1
I0217 18:43:09.937830  6824 net.cpp:100] Creating Layer relu1
I0217 18:43:09.937830  6824 net.cpp:434] relu1 <- scale1
I0217 18:43:09.937830  6824 net.cpp:408] relu1 -> relu1
I0217 18:43:09.938330  6824 net.cpp:150] Setting up relu1
I0217 18:43:09.938330  6824 net.cpp:157] Top shape: 100 64 32 32 (6553600)
I0217 18:43:09.938330  6824 net.cpp:165] Memory required for data: 106087600
I0217 18:43:09.938330  6824 layer_factory.cpp:58] Creating layer drop2_1
I0217 18:43:09.938330  6824 net.cpp:100] Creating Layer drop2_1
I0217 18:43:09.938330  6824 net.cpp:434] drop2_1 <- relu1
I0217 18:43:09.938330  6824 net.cpp:395] drop2_1 -> relu1 (in-place)
I0217 18:43:09.938330  6824 net.cpp:150] Setting up drop2_1
I0217 18:43:09.938330  6824 net.cpp:157] Top shape: 100 64 32 32 (6553600)
I0217 18:43:09.938330  6824 net.cpp:165] Memory required for data: 132302000
I0217 18:43:09.938330  6824 layer_factory.cpp:58] Creating layer conv1_0
I0217 18:43:09.938330  6824 net.cpp:100] Creating Layer conv1_0
I0217 18:43:09.938330  6824 net.cpp:434] conv1_0 <- relu1
I0217 18:43:09.938330  6824 net.cpp:408] conv1_0 -> conv1_0
I0217 18:43:09.940330  6824 net.cpp:150] Setting up conv1_0
I0217 18:43:09.940330  6824 net.cpp:157] Top shape: 100 128 32 32 (13107200)
I0217 18:43:09.940330  6824 net.cpp:165] Memory required for data: 184730800
I0217 18:43:09.940330  6824 layer_factory.cpp:58] Creating layer bn1_0
I0217 18:43:09.940330  6824 net.cpp:100] Creating Layer bn1_0
I0217 18:43:09.940830  6824 net.cpp:434] bn1_0 <- conv1_0
I0217 18:43:09.940830  6824 net.cpp:408] bn1_0 -> bn1_0
I0217 18:43:09.940830  6824 net.cpp:150] Setting up bn1_0
I0217 18:43:09.940830  6824 net.cpp:157] Top shape: 100 128 32 32 (13107200)
I0217 18:43:09.940830  6824 net.cpp:165] Memory required for data: 237159600
I0217 18:43:09.940830  6824 layer_factory.cpp:58] Creating layer scale1_0
I0217 18:43:09.940830  6824 net.cpp:100] Creating Layer scale1_0
I0217 18:43:09.940830  6824 net.cpp:434] scale1_0 <- bn1_0
I0217 18:43:09.940830  6824 net.cpp:408] scale1_0 -> scale1_0
I0217 18:43:09.940830  6824 layer_factory.cpp:58] Creating layer scale1_0
I0217 18:43:09.940830  6824 net.cpp:150] Setting up scale1_0
I0217 18:43:09.940830  6824 net.cpp:157] Top shape: 100 128 32 32 (13107200)
I0217 18:43:09.940830  6824 net.cpp:165] Memory required for data: 289588400
I0217 18:43:09.940830  6824 layer_factory.cpp:58] Creating layer relu1_0
I0217 18:43:09.940830  6824 net.cpp:100] Creating Layer relu1_0
I0217 18:43:09.940830  6824 net.cpp:434] relu1_0 <- scale1_0
I0217 18:43:09.940830  6824 net.cpp:408] relu1_0 -> relu1_0
I0217 18:43:09.941329  6824 net.cpp:150] Setting up relu1_0
I0217 18:43:09.941329  6824 net.cpp:157] Top shape: 100 128 32 32 (13107200)
I0217 18:43:09.941329  6824 net.cpp:165] Memory required for data: 342017200
I0217 18:43:09.941329  6824 layer_factory.cpp:58] Creating layer drop1_0
I0217 18:43:09.941329  6824 net.cpp:100] Creating Layer drop1_0
I0217 18:43:09.941329  6824 net.cpp:434] drop1_0 <- relu1_0
I0217 18:43:09.941329  6824 net.cpp:395] drop1_0 -> relu1_0 (in-place)
I0217 18:43:09.941329  6824 net.cpp:150] Setting up drop1_0
I0217 18:43:09.941329  6824 net.cpp:157] Top shape: 100 128 32 32 (13107200)
I0217 18:43:09.941329  6824 net.cpp:165] Memory required for data: 394446000
I0217 18:43:09.941329  6824 layer_factory.cpp:58] Creating layer conv2
I0217 18:43:09.941329  6824 net.cpp:100] Creating Layer conv2
I0217 18:43:09.941329  6824 net.cpp:434] conv2 <- relu1_0
I0217 18:43:09.941329  6824 net.cpp:408] conv2 -> conv2
I0217 18:43:09.943830  6824 net.cpp:150] Setting up conv2
I0217 18:43:09.943830  6824 net.cpp:157] Top shape: 100 128 32 32 (13107200)
I0217 18:43:09.943830  6824 net.cpp:165] Memory required for data: 446874800
I0217 18:43:09.943830  6824 layer_factory.cpp:58] Creating layer bn2
I0217 18:43:09.943830  6824 net.cpp:100] Creating Layer bn2
I0217 18:43:09.944330  6824 net.cpp:434] bn2 <- conv2
I0217 18:43:09.944330  6824 net.cpp:408] bn2 -> bn2
I0217 18:43:09.944330  6824 net.cpp:150] Setting up bn2
I0217 18:43:09.944330  6824 net.cpp:157] Top shape: 100 128 32 32 (13107200)
I0217 18:43:09.944330  6824 net.cpp:165] Memory required for data: 499303600
I0217 18:43:09.944330  6824 layer_factory.cpp:58] Creating layer scale2
I0217 18:43:09.944330  6824 net.cpp:100] Creating Layer scale2
I0217 18:43:09.944330  6824 net.cpp:434] scale2 <- bn2
I0217 18:43:09.944330  6824 net.cpp:408] scale2 -> scale2
I0217 18:43:09.944330  6824 layer_factory.cpp:58] Creating layer scale2
I0217 18:43:09.944330  6824 net.cpp:150] Setting up scale2
I0217 18:43:09.944330  6824 net.cpp:157] Top shape: 100 128 32 32 (13107200)
I0217 18:43:09.944330  6824 net.cpp:165] Memory required for data: 551732400
I0217 18:43:09.944330  6824 layer_factory.cpp:58] Creating layer relu2
I0217 18:43:09.944330  6824 net.cpp:100] Creating Layer relu2
I0217 18:43:09.944330  6824 net.cpp:434] relu2 <- scale2
I0217 18:43:09.944330  6824 net.cpp:408] relu2 -> relu2
I0217 18:43:09.944830  6824 net.cpp:150] Setting up relu2
I0217 18:43:09.944830  6824 net.cpp:157] Top shape: 100 128 32 32 (13107200)
I0217 18:43:09.944830  6824 net.cpp:165] Memory required for data: 604161200
I0217 18:43:09.944830  6824 layer_factory.cpp:58] Creating layer drop2_0
I0217 18:43:09.944830  6824 net.cpp:100] Creating Layer drop2_0
I0217 18:43:09.944830  6824 net.cpp:434] drop2_0 <- relu2
I0217 18:43:09.944830  6824 net.cpp:395] drop2_0 -> relu2 (in-place)
I0217 18:43:09.944830  6824 net.cpp:150] Setting up drop2_0
I0217 18:43:09.944830  6824 net.cpp:157] Top shape: 100 128 32 32 (13107200)
I0217 18:43:09.944830  6824 net.cpp:165] Memory required for data: 656590000
I0217 18:43:09.944830  6824 layer_factory.cpp:58] Creating layer conv2_1
I0217 18:43:09.944830  6824 net.cpp:100] Creating Layer conv2_1
I0217 18:43:09.944830  6824 net.cpp:434] conv2_1 <- relu2
I0217 18:43:09.944830  6824 net.cpp:408] conv2_1 -> conv2_1
I0217 18:43:09.948330  6824 net.cpp:150] Setting up conv2_1
I0217 18:43:09.948330  6824 net.cpp:157] Top shape: 100 128 32 32 (13107200)
I0217 18:43:09.948330  6824 net.cpp:165] Memory required for data: 709018800
I0217 18:43:09.948330  6824 layer_factory.cpp:58] Creating layer bn2_1
I0217 18:43:09.948330  6824 net.cpp:100] Creating Layer bn2_1
I0217 18:43:09.948330  6824 net.cpp:434] bn2_1 <- conv2_1
I0217 18:43:09.948330  6824 net.cpp:408] bn2_1 -> bn2_1
I0217 18:43:09.948330  6824 net.cpp:150] Setting up bn2_1
I0217 18:43:09.948330  6824 net.cpp:157] Top shape: 100 128 32 32 (13107200)
I0217 18:43:09.948330  6824 net.cpp:165] Memory required for data: 761447600
I0217 18:43:09.948330  6824 layer_factory.cpp:58] Creating layer scale2_1
I0217 18:43:09.948330  6824 net.cpp:100] Creating Layer scale2_1
I0217 18:43:09.948330  6824 net.cpp:434] scale2_1 <- bn2_1
I0217 18:43:09.948330  6824 net.cpp:408] scale2_1 -> scale2_1
I0217 18:43:09.948330  6824 layer_factory.cpp:58] Creating layer scale2_1
I0217 18:43:09.948830  6824 net.cpp:150] Setting up scale2_1
I0217 18:43:09.948830  6824 net.cpp:157] Top shape: 100 128 32 32 (13107200)
I0217 18:43:09.948830  6824 net.cpp:165] Memory required for data: 813876400
I0217 18:43:09.948830  6824 layer_factory.cpp:58] Creating layer relu2_1
I0217 18:43:09.948830  6824 net.cpp:100] Creating Layer relu2_1
I0217 18:43:09.948830  6824 net.cpp:434] relu2_1 <- scale2_1
I0217 18:43:09.948830  6824 net.cpp:408] relu2_1 -> relu2_1
I0217 18:43:09.949331  6824 net.cpp:150] Setting up relu2_1
I0217 18:43:09.949331  6824 net.cpp:157] Top shape: 100 128 32 32 (13107200)
I0217 18:43:09.949331  6824 net.cpp:165] Memory required for data: 866305200
I0217 18:43:09.949331  6824 layer_factory.cpp:58] Creating layer pool2_1
I0217 18:43:09.949331  6824 net.cpp:100] Creating Layer pool2_1
I0217 18:43:09.949331  6824 net.cpp:434] pool2_1 <- relu2_1
I0217 18:43:09.949331  6824 net.cpp:408] pool2_1 -> pool2_1
I0217 18:43:09.949331  6824 net.cpp:150] Setting up pool2_1
I0217 18:43:09.949331  6824 net.cpp:157] Top shape: 100 128 16 16 (3276800)
I0217 18:43:09.949331  6824 net.cpp:165] Memory required for data: 879412400
I0217 18:43:09.949331  6824 layer_factory.cpp:58] Creating layer drop2_1
I0217 18:43:09.949331  6824 net.cpp:100] Creating Layer drop2_1
I0217 18:43:09.949331  6824 net.cpp:434] drop2_1 <- pool2_1
I0217 18:43:09.949331  6824 net.cpp:395] drop2_1 -> pool2_1 (in-place)
I0217 18:43:09.949331  6824 net.cpp:150] Setting up drop2_1
I0217 18:43:09.949331  6824 net.cpp:157] Top shape: 100 128 16 16 (3276800)
I0217 18:43:09.949331  6824 net.cpp:165] Memory required for data: 892519600
I0217 18:43:09.949331  6824 layer_factory.cpp:58] Creating layer conv2_2
I0217 18:43:09.949331  6824 net.cpp:100] Creating Layer conv2_2
I0217 18:43:09.949331  6824 net.cpp:434] conv2_2 <- pool2_1
I0217 18:43:09.949331  6824 net.cpp:408] conv2_2 -> conv2_2
I0217 18:43:09.952330  6824 net.cpp:150] Setting up conv2_2
I0217 18:43:09.952330  6824 net.cpp:157] Top shape: 100 128 16 16 (3276800)
I0217 18:43:09.952330  6824 net.cpp:165] Memory required for data: 905626800
I0217 18:43:09.952330  6824 layer_factory.cpp:58] Creating layer bn2_2
I0217 18:43:09.952330  6824 net.cpp:100] Creating Layer bn2_2
I0217 18:43:09.952330  6824 net.cpp:434] bn2_2 <- conv2_2
I0217 18:43:09.952330  6824 net.cpp:408] bn2_2 -> bn2_2
I0217 18:43:09.952831  6824 net.cpp:150] Setting up bn2_2
I0217 18:43:09.952831  6824 net.cpp:157] Top shape: 100 128 16 16 (3276800)
I0217 18:43:09.952831  6824 net.cpp:165] Memory required for data: 918734000
I0217 18:43:09.952831  6824 layer_factory.cpp:58] Creating layer scale2_2
I0217 18:43:09.952831  6824 net.cpp:100] Creating Layer scale2_2
I0217 18:43:09.952831  6824 net.cpp:434] scale2_2 <- bn2_2
I0217 18:43:09.952831  6824 net.cpp:408] scale2_2 -> scale2_2
I0217 18:43:09.952831  6824 layer_factory.cpp:58] Creating layer scale2_2
I0217 18:43:09.952831  6824 net.cpp:150] Setting up scale2_2
I0217 18:43:09.952831  6824 net.cpp:157] Top shape: 100 128 16 16 (3276800)
I0217 18:43:09.952831  6824 net.cpp:165] Memory required for data: 931841200
I0217 18:43:09.952831  6824 layer_factory.cpp:58] Creating layer relu2_2
I0217 18:43:09.952831  6824 net.cpp:100] Creating Layer relu2_2
I0217 18:43:09.952831  6824 net.cpp:434] relu2_2 <- scale2_2
I0217 18:43:09.952831  6824 net.cpp:408] relu2_2 -> relu2_2
I0217 18:43:09.953330  6824 net.cpp:150] Setting up relu2_2
I0217 18:43:09.953330  6824 net.cpp:157] Top shape: 100 128 16 16 (3276800)
I0217 18:43:09.953330  6824 net.cpp:165] Memory required for data: 944948400
I0217 18:43:09.953330  6824 layer_factory.cpp:58] Creating layer drop2_2
I0217 18:43:09.953330  6824 net.cpp:100] Creating Layer drop2_2
I0217 18:43:09.953330  6824 net.cpp:434] drop2_2 <- relu2_2
I0217 18:43:09.953330  6824 net.cpp:395] drop2_2 -> relu2_2 (in-place)
I0217 18:43:09.953330  6824 net.cpp:150] Setting up drop2_2
I0217 18:43:09.953330  6824 net.cpp:157] Top shape: 100 128 16 16 (3276800)
I0217 18:43:09.953330  6824 net.cpp:165] Memory required for data: 958055600
I0217 18:43:09.953330  6824 layer_factory.cpp:58] Creating layer conv3
I0217 18:43:09.953330  6824 net.cpp:100] Creating Layer conv3
I0217 18:43:09.953330  6824 net.cpp:434] conv3 <- relu2_2
I0217 18:43:09.953330  6824 net.cpp:408] conv3 -> conv3
I0217 18:43:09.955832  6824 net.cpp:150] Setting up conv3
I0217 18:43:09.955832  6824 net.cpp:157] Top shape: 100 128 16 16 (3276800)
I0217 18:43:09.955832  6824 net.cpp:165] Memory required for data: 971162800
I0217 18:43:09.955832  6824 layer_factory.cpp:58] Creating layer bn3
I0217 18:43:09.955832  6824 net.cpp:100] Creating Layer bn3
I0217 18:43:09.955832  6824 net.cpp:434] bn3 <- conv3
I0217 18:43:09.955832  6824 net.cpp:408] bn3 -> bn3
I0217 18:43:09.955832  6824 net.cpp:150] Setting up bn3
I0217 18:43:09.955832  6824 net.cpp:157] Top shape: 100 128 16 16 (3276800)
I0217 18:43:09.955832  6824 net.cpp:165] Memory required for data: 984270000
I0217 18:43:09.955832  6824 layer_factory.cpp:58] Creating layer scale3
I0217 18:43:09.955832  6824 net.cpp:100] Creating Layer scale3
I0217 18:43:09.956331  6824 net.cpp:434] scale3 <- bn3
I0217 18:43:09.956331  6824 net.cpp:408] scale3 -> scale3
I0217 18:43:09.956331  6824 layer_factory.cpp:58] Creating layer scale3
I0217 18:43:09.956331  6824 net.cpp:150] Setting up scale3
I0217 18:43:09.956331  6824 net.cpp:157] Top shape: 100 128 16 16 (3276800)
I0217 18:43:09.956331  6824 net.cpp:165] Memory required for data: 997377200
I0217 18:43:09.956331  6824 layer_factory.cpp:58] Creating layer relu3
I0217 18:43:09.956331  6824 net.cpp:100] Creating Layer relu3
I0217 18:43:09.956331  6824 net.cpp:434] relu3 <- scale3
I0217 18:43:09.956331  6824 net.cpp:408] relu3 -> relu3
I0217 18:43:09.956331  6824 net.cpp:150] Setting up relu3
I0217 18:43:09.956331  6824 net.cpp:157] Top shape: 100 128 16 16 (3276800)
I0217 18:43:09.956331  6824 net.cpp:165] Memory required for data: 1010484400
I0217 18:43:09.956331  6824 layer_factory.cpp:58] Creating layer drop3
I0217 18:43:09.956331  6824 net.cpp:100] Creating Layer drop3
I0217 18:43:09.956331  6824 net.cpp:434] drop3 <- relu3
I0217 18:43:09.956331  6824 net.cpp:395] drop3 -> relu3 (in-place)
I0217 18:43:09.956331  6824 net.cpp:150] Setting up drop3
I0217 18:43:09.956331  6824 net.cpp:157] Top shape: 100 128 16 16 (3276800)
I0217 18:43:09.956331  6824 net.cpp:165] Memory required for data: 1023591600
I0217 18:43:09.956331  6824 layer_factory.cpp:58] Creating layer conv4
I0217 18:43:09.956331  6824 net.cpp:100] Creating Layer conv4
I0217 18:43:09.956331  6824 net.cpp:434] conv4 <- relu3
I0217 18:43:09.956830  6824 net.cpp:408] conv4 -> conv4
I0217 18:43:09.959830  6824 net.cpp:150] Setting up conv4
I0217 18:43:09.959830  6824 net.cpp:157] Top shape: 100 256 16 16 (6553600)
I0217 18:43:09.959830  6824 net.cpp:165] Memory required for data: 1049806000
I0217 18:43:09.960330  6824 layer_factory.cpp:58] Creating layer pool4
I0217 18:43:09.960330  6824 net.cpp:100] Creating Layer pool4
I0217 18:43:09.960330  6824 net.cpp:434] pool4 <- conv4
I0217 18:43:09.960330  6824 net.cpp:408] pool4 -> pool4
I0217 18:43:09.960330  6824 net.cpp:150] Setting up pool4
I0217 18:43:09.960330  6824 net.cpp:157] Top shape: 100 256 8 8 (1638400)
I0217 18:43:09.960330  6824 net.cpp:165] Memory required for data: 1056359600
I0217 18:43:09.960330  6824 layer_factory.cpp:58] Creating layer bn4
I0217 18:43:09.960330  6824 net.cpp:100] Creating Layer bn4
I0217 18:43:09.960330  6824 net.cpp:434] bn4 <- pool4
I0217 18:43:09.960330  6824 net.cpp:408] bn4 -> bn4
I0217 18:43:09.960330  6824 net.cpp:150] Setting up bn4
I0217 18:43:09.960330  6824 net.cpp:157] Top shape: 100 256 8 8 (1638400)
I0217 18:43:09.960330  6824 net.cpp:165] Memory required for data: 1062913200
I0217 18:43:09.960330  6824 layer_factory.cpp:58] Creating layer scale4
I0217 18:43:09.960330  6824 net.cpp:100] Creating Layer scale4
I0217 18:43:09.960330  6824 net.cpp:434] scale4 <- bn4
I0217 18:43:09.960330  6824 net.cpp:408] scale4 -> scale4
I0217 18:43:09.960330  6824 layer_factory.cpp:58] Creating layer scale4
I0217 18:43:09.960330  6824 net.cpp:150] Setting up scale4
I0217 18:43:09.960330  6824 net.cpp:157] Top shape: 100 256 8 8 (1638400)
I0217 18:43:09.960330  6824 net.cpp:165] Memory required for data: 1069466800
I0217 18:43:09.960330  6824 layer_factory.cpp:58] Creating layer relu4
I0217 18:43:09.960330  6824 net.cpp:100] Creating Layer relu4
I0217 18:43:09.960829  6824 net.cpp:434] relu4 <- scale4
I0217 18:43:09.960829  6824 net.cpp:408] relu4 -> relu4
I0217 18:43:09.960829  6824 net.cpp:150] Setting up relu4
I0217 18:43:09.960829  6824 net.cpp:157] Top shape: 100 256 8 8 (1638400)
I0217 18:43:09.961330  6824 net.cpp:165] Memory required for data: 1076020400
I0217 18:43:09.961330  6824 layer_factory.cpp:58] Creating layer drop4
I0217 18:43:09.961330  6824 net.cpp:100] Creating Layer drop4
I0217 18:43:09.961330  6824 net.cpp:434] drop4 <- relu4
I0217 18:43:09.961330  6824 net.cpp:395] drop4 -> relu4 (in-place)
I0217 18:43:09.961330  6824 net.cpp:150] Setting up drop4
I0217 18:43:09.961330  6824 net.cpp:157] Top shape: 100 256 8 8 (1638400)
I0217 18:43:09.961330  6824 net.cpp:165] Memory required for data: 1082574000
I0217 18:43:09.961330  6824 layer_factory.cpp:58] Creating layer conv4_1
I0217 18:43:09.961330  6824 net.cpp:100] Creating Layer conv4_1
I0217 18:43:09.961330  6824 net.cpp:434] conv4_1 <- relu4
I0217 18:43:09.961330  6824 net.cpp:408] conv4_1 -> conv4_1
I0217 18:43:09.968349  6824 net.cpp:150] Setting up conv4_1
I0217 18:43:09.968349  6824 net.cpp:157] Top shape: 100 256 8 8 (1638400)
I0217 18:43:09.968349  6824 net.cpp:165] Memory required for data: 1089127600
I0217 18:43:09.968349  6824 layer_factory.cpp:58] Creating layer bn4_1
I0217 18:43:09.968349  6824 net.cpp:100] Creating Layer bn4_1
I0217 18:43:09.968349  6824 net.cpp:434] bn4_1 <- conv4_1
I0217 18:43:09.968349  6824 net.cpp:408] bn4_1 -> bn4_1
I0217 18:43:09.968845  6824 net.cpp:150] Setting up bn4_1
I0217 18:43:09.968845  6824 net.cpp:157] Top shape: 100 256 8 8 (1638400)
I0217 18:43:09.968845  6824 net.cpp:165] Memory required for data: 1095681200
I0217 18:43:09.968845  6824 layer_factory.cpp:58] Creating layer scale4_1
I0217 18:43:09.968845  6824 net.cpp:100] Creating Layer scale4_1
I0217 18:43:09.968845  6824 net.cpp:434] scale4_1 <- bn4_1
I0217 18:43:09.968845  6824 net.cpp:408] scale4_1 -> scale4_1
I0217 18:43:09.968845  6824 layer_factory.cpp:58] Creating layer scale4_1
I0217 18:43:09.968845  6824 net.cpp:150] Setting up scale4_1
I0217 18:43:09.968845  6824 net.cpp:157] Top shape: 100 256 8 8 (1638400)
I0217 18:43:09.968845  6824 net.cpp:165] Memory required for data: 1102234800
I0217 18:43:09.968845  6824 layer_factory.cpp:58] Creating layer relu4_1
I0217 18:43:09.968845  6824 net.cpp:100] Creating Layer relu4_1
I0217 18:43:09.968845  6824 net.cpp:434] relu4_1 <- scale4_1
I0217 18:43:09.968845  6824 net.cpp:408] relu4_1 -> relu4_1
I0217 18:43:09.968845  6824 net.cpp:150] Setting up relu4_1
I0217 18:43:09.969346  6824 net.cpp:157] Top shape: 100 256 8 8 (1638400)
I0217 18:43:09.969346  6824 net.cpp:165] Memory required for data: 1108788400
I0217 18:43:09.969346  6824 layer_factory.cpp:58] Creating layer drop4_1
I0217 18:43:09.969346  6824 net.cpp:100] Creating Layer drop4_1
I0217 18:43:09.969346  6824 net.cpp:434] drop4_1 <- relu4_1
I0217 18:43:09.969346  6824 net.cpp:395] drop4_1 -> relu4_1 (in-place)
I0217 18:43:09.969346  6824 net.cpp:150] Setting up drop4_1
I0217 18:43:09.969346  6824 net.cpp:157] Top shape: 100 256 8 8 (1638400)
I0217 18:43:09.969346  6824 net.cpp:165] Memory required for data: 1115342000
I0217 18:43:09.969346  6824 layer_factory.cpp:58] Creating layer conv4_2
I0217 18:43:09.969346  6824 net.cpp:100] Creating Layer conv4_2
I0217 18:43:09.969346  6824 net.cpp:434] conv4_2 <- relu4_1
I0217 18:43:09.969346  6824 net.cpp:408] conv4_2 -> conv4_2
I0217 18:43:09.975358  6824 net.cpp:150] Setting up conv4_2
I0217 18:43:09.975358  6824 net.cpp:157] Top shape: 100 256 8 8 (1638400)
I0217 18:43:09.975358  6824 net.cpp:165] Memory required for data: 1121895600
I0217 18:43:09.975358  6824 layer_factory.cpp:58] Creating layer bn4_2
I0217 18:43:09.975358  6824 net.cpp:100] Creating Layer bn4_2
I0217 18:43:09.975358  6824 net.cpp:434] bn4_2 <- conv4_2
I0217 18:43:09.975358  6824 net.cpp:408] bn4_2 -> bn4_2
I0217 18:43:09.975358  6824 net.cpp:150] Setting up bn4_2
I0217 18:43:09.975358  6824 net.cpp:157] Top shape: 100 256 8 8 (1638400)
I0217 18:43:09.975358  6824 net.cpp:165] Memory required for data: 1128449200
I0217 18:43:09.975358  6824 layer_factory.cpp:58] Creating layer scale4_2
I0217 18:43:09.975358  6824 net.cpp:100] Creating Layer scale4_2
I0217 18:43:09.975358  6824 net.cpp:434] scale4_2 <- bn4_2
I0217 18:43:09.975358  6824 net.cpp:408] scale4_2 -> scale4_2
I0217 18:43:09.975831  6824 layer_factory.cpp:58] Creating layer scale4_2
I0217 18:43:09.975831  6824 net.cpp:150] Setting up scale4_2
I0217 18:43:09.975831  6824 net.cpp:157] Top shape: 100 256 8 8 (1638400)
I0217 18:43:09.975831  6824 net.cpp:165] Memory required for data: 1135002800
I0217 18:43:09.975831  6824 layer_factory.cpp:58] Creating layer relu4_2
I0217 18:43:09.975831  6824 net.cpp:100] Creating Layer relu4_2
I0217 18:43:09.975831  6824 net.cpp:434] relu4_2 <- scale4_2
I0217 18:43:09.975831  6824 net.cpp:408] relu4_2 -> relu4_2
I0217 18:43:09.975831  6824 net.cpp:150] Setting up relu4_2
I0217 18:43:09.975831  6824 net.cpp:157] Top shape: 100 256 8 8 (1638400)
I0217 18:43:09.975831  6824 net.cpp:165] Memory required for data: 1141556400
I0217 18:43:09.975831  6824 layer_factory.cpp:58] Creating layer drop4_2
I0217 18:43:09.975831  6824 net.cpp:100] Creating Layer drop4_2
I0217 18:43:09.975831  6824 net.cpp:434] drop4_2 <- relu4_2
I0217 18:43:09.976341  6824 net.cpp:395] drop4_2 -> relu4_2 (in-place)
I0217 18:43:09.976341  6824 net.cpp:150] Setting up drop4_2
I0217 18:43:09.976341  6824 net.cpp:157] Top shape: 100 256 8 8 (1638400)
I0217 18:43:09.976341  6824 net.cpp:165] Memory required for data: 1148110000
I0217 18:43:09.976341  6824 layer_factory.cpp:58] Creating layer pool4_2
I0217 18:43:09.976341  6824 net.cpp:100] Creating Layer pool4_2
I0217 18:43:09.976341  6824 net.cpp:434] pool4_2 <- relu4_2
I0217 18:43:09.976341  6824 net.cpp:408] pool4_2 -> pool4_2
I0217 18:43:09.976341  6824 net.cpp:150] Setting up pool4_2
I0217 18:43:09.976341  6824 net.cpp:157] Top shape: 100 256 4 4 (409600)
I0217 18:43:09.976341  6824 net.cpp:165] Memory required for data: 1149748400
I0217 18:43:09.976341  6824 layer_factory.cpp:58] Creating layer conv4_0
I0217 18:43:09.976341  6824 net.cpp:100] Creating Layer conv4_0
I0217 18:43:09.976341  6824 net.cpp:434] conv4_0 <- pool4_2
I0217 18:43:09.976341  6824 net.cpp:408] conv4_0 -> conv4_0
I0217 18:43:09.986937  6824 net.cpp:150] Setting up conv4_0
I0217 18:43:09.986937  6824 net.cpp:157] Top shape: 100 512 4 4 (819200)
I0217 18:43:09.986937  6824 net.cpp:165] Memory required for data: 1153025200
I0217 18:43:09.986937  6824 layer_factory.cpp:58] Creating layer bn4_0
I0217 18:43:09.986937  6824 net.cpp:100] Creating Layer bn4_0
I0217 18:43:09.986937  6824 net.cpp:434] bn4_0 <- conv4_0
I0217 18:43:09.986937  6824 net.cpp:408] bn4_0 -> bn4_0
I0217 18:43:09.986937  6824 net.cpp:150] Setting up bn4_0
I0217 18:43:09.986937  6824 net.cpp:157] Top shape: 100 512 4 4 (819200)
I0217 18:43:09.987445  6824 net.cpp:165] Memory required for data: 1156302000
I0217 18:43:09.987445  6824 layer_factory.cpp:58] Creating layer scale4_0
I0217 18:43:09.987445  6824 net.cpp:100] Creating Layer scale4_0
I0217 18:43:09.987445  6824 net.cpp:434] scale4_0 <- bn4_0
I0217 18:43:09.987445  6824 net.cpp:408] scale4_0 -> scale4_0
I0217 18:43:09.987445  6824 layer_factory.cpp:58] Creating layer scale4_0
I0217 18:43:09.987445  6824 net.cpp:150] Setting up scale4_0
I0217 18:43:09.987445  6824 net.cpp:157] Top shape: 100 512 4 4 (819200)
I0217 18:43:09.987445  6824 net.cpp:165] Memory required for data: 1159578800
I0217 18:43:09.987445  6824 layer_factory.cpp:58] Creating layer relu4_0
I0217 18:43:09.987445  6824 net.cpp:100] Creating Layer relu4_0
I0217 18:43:09.987445  6824 net.cpp:434] relu4_0 <- scale4_0
I0217 18:43:09.987445  6824 net.cpp:408] relu4_0 -> relu4_0
I0217 18:43:09.987936  6824 net.cpp:150] Setting up relu4_0
I0217 18:43:09.987936  6824 net.cpp:157] Top shape: 100 512 4 4 (819200)
I0217 18:43:09.987936  6824 net.cpp:165] Memory required for data: 1162855600
I0217 18:43:09.987936  6824 layer_factory.cpp:58] Creating layer drop4_0
I0217 18:43:09.987936  6824 net.cpp:100] Creating Layer drop4_0
I0217 18:43:09.987936  6824 net.cpp:434] drop4_0 <- relu4_0
I0217 18:43:09.987936  6824 net.cpp:395] drop4_0 -> relu4_0 (in-place)
I0217 18:43:09.987936  6824 net.cpp:150] Setting up drop4_0
I0217 18:43:09.987936  6824 net.cpp:157] Top shape: 100 512 4 4 (819200)
I0217 18:43:09.987936  6824 net.cpp:165] Memory required for data: 1166132400
I0217 18:43:09.987936  6824 layer_factory.cpp:58] Creating layer cccp4
I0217 18:43:09.987936  6824 net.cpp:100] Creating Layer cccp4
I0217 18:43:09.987936  6824 net.cpp:434] cccp4 <- relu4_0
I0217 18:43:09.987936  6824 net.cpp:408] cccp4 -> cccp4
I0217 18:43:09.996438  6824 net.cpp:150] Setting up cccp4
I0217 18:43:09.996438  6824 net.cpp:157] Top shape: 100 2048 4 4 (3276800)
I0217 18:43:09.996438  6824 net.cpp:165] Memory required for data: 1179239600
I0217 18:43:09.996438  6824 layer_factory.cpp:58] Creating layer relu_cccp4
I0217 18:43:09.996438  6824 net.cpp:100] Creating Layer relu_cccp4
I0217 18:43:09.996438  6824 net.cpp:434] relu_cccp4 <- cccp4
I0217 18:43:09.996438  6824 net.cpp:395] relu_cccp4 -> cccp4 (in-place)
I0217 18:43:09.996438  6824 net.cpp:150] Setting up relu_cccp4
I0217 18:43:09.996438  6824 net.cpp:157] Top shape: 100 2048 4 4 (3276800)
I0217 18:43:09.996438  6824 net.cpp:165] Memory required for data: 1192346800
I0217 18:43:09.996438  6824 layer_factory.cpp:58] Creating layer drop4_3
I0217 18:43:09.996438  6824 net.cpp:100] Creating Layer drop4_3
I0217 18:43:09.996438  6824 net.cpp:434] drop4_3 <- cccp4
I0217 18:43:09.996438  6824 net.cpp:395] drop4_3 -> cccp4 (in-place)
I0217 18:43:09.996438  6824 net.cpp:150] Setting up drop4_3
I0217 18:43:09.996438  6824 net.cpp:157] Top shape: 100 2048 4 4 (3276800)
I0217 18:43:09.996438  6824 net.cpp:165] Memory required for data: 1205454000
I0217 18:43:09.996438  6824 layer_factory.cpp:58] Creating layer cccp5
I0217 18:43:09.996947  6824 net.cpp:100] Creating Layer cccp5
I0217 18:43:09.996947  6824 net.cpp:434] cccp5 <- cccp4
I0217 18:43:09.996947  6824 net.cpp:408] cccp5 -> cccp5
I0217 18:43:10.001436  6824 net.cpp:150] Setting up cccp5
I0217 18:43:10.001436  6824 net.cpp:157] Top shape: 100 256 4 4 (409600)
I0217 18:43:10.001436  6824 net.cpp:165] Memory required for data: 1207092400
I0217 18:43:10.001436  6824 layer_factory.cpp:58] Creating layer relu_cccp5
I0217 18:43:10.001436  6824 net.cpp:100] Creating Layer relu_cccp5
I0217 18:43:10.001436  6824 net.cpp:434] relu_cccp5 <- cccp5
I0217 18:43:10.001436  6824 net.cpp:395] relu_cccp5 -> cccp5 (in-place)
I0217 18:43:10.001436  6824 net.cpp:150] Setting up relu_cccp5
I0217 18:43:10.001436  6824 net.cpp:157] Top shape: 100 256 4 4 (409600)
I0217 18:43:10.001436  6824 net.cpp:165] Memory required for data: 1208730800
I0217 18:43:10.001436  6824 layer_factory.cpp:58] Creating layer poolcp5
I0217 18:43:10.001436  6824 net.cpp:100] Creating Layer poolcp5
I0217 18:43:10.001436  6824 net.cpp:434] poolcp5 <- cccp5
I0217 18:43:10.001436  6824 net.cpp:408] poolcp5 -> poolcp5
I0217 18:43:10.001436  6824 net.cpp:150] Setting up poolcp5
I0217 18:43:10.001436  6824 net.cpp:157] Top shape: 100 256 2 2 (102400)
I0217 18:43:10.001436  6824 net.cpp:165] Memory required for data: 1209140400
I0217 18:43:10.001436  6824 layer_factory.cpp:58] Creating layer drop4_5
I0217 18:43:10.001946  6824 net.cpp:100] Creating Layer drop4_5
I0217 18:43:10.001946  6824 net.cpp:434] drop4_5 <- poolcp5
I0217 18:43:10.001946  6824 net.cpp:395] drop4_5 -> poolcp5 (in-place)
I0217 18:43:10.001946  6824 net.cpp:150] Setting up drop4_5
I0217 18:43:10.001946  6824 net.cpp:157] Top shape: 100 256 2 2 (102400)
I0217 18:43:10.001946  6824 net.cpp:165] Memory required for data: 1209550000
I0217 18:43:10.001946  6824 layer_factory.cpp:58] Creating layer cccp6
I0217 18:43:10.001946  6824 net.cpp:100] Creating Layer cccp6
I0217 18:43:10.001946  6824 net.cpp:434] cccp6 <- poolcp5
I0217 18:43:10.001946  6824 net.cpp:408] cccp6 -> cccp6
I0217 18:43:10.007947  6824 net.cpp:150] Setting up cccp6
I0217 18:43:10.007947  6824 net.cpp:157] Top shape: 100 256 2 2 (102400)
I0217 18:43:10.007947  6824 net.cpp:165] Memory required for data: 1209959600
I0217 18:43:10.007947  6824 layer_factory.cpp:58] Creating layer relu_cccp6
I0217 18:43:10.007947  6824 net.cpp:100] Creating Layer relu_cccp6
I0217 18:43:10.007947  6824 net.cpp:434] relu_cccp6 <- cccp6
I0217 18:43:10.007947  6824 net.cpp:395] relu_cccp6 -> cccp6 (in-place)
I0217 18:43:10.008445  6824 net.cpp:150] Setting up relu_cccp6
I0217 18:43:10.008946  6824 net.cpp:157] Top shape: 100 256 2 2 (102400)
I0217 18:43:10.008946  6824 net.cpp:165] Memory required for data: 1210369200
I0217 18:43:10.008946  6824 layer_factory.cpp:58] Creating layer poolcp6
I0217 18:43:10.008946  6824 net.cpp:100] Creating Layer poolcp6
I0217 18:43:10.008946  6824 net.cpp:434] poolcp6 <- cccp6
I0217 18:43:10.008946  6824 net.cpp:408] poolcp6 -> poolcp6
I0217 18:43:10.008946  6824 net.cpp:150] Setting up poolcp6
I0217 18:43:10.008946  6824 net.cpp:157] Top shape: 100 256 1 1 (25600)
I0217 18:43:10.008946  6824 net.cpp:165] Memory required for data: 1210471600
I0217 18:43:10.008946  6824 layer_factory.cpp:58] Creating layer ip1
I0217 18:43:10.008946  6824 net.cpp:100] Creating Layer ip1
I0217 18:43:10.008946  6824 net.cpp:434] ip1 <- poolcp6
I0217 18:43:10.008946  6824 net.cpp:408] ip1 -> ip1
I0217 18:43:10.008946  6824 net.cpp:150] Setting up ip1
I0217 18:43:10.008946  6824 net.cpp:157] Top shape: 100 10 (1000)
I0217 18:43:10.008946  6824 net.cpp:165] Memory required for data: 1210475600
I0217 18:43:10.008946  6824 layer_factory.cpp:58] Creating layer ip1_ip1_0_split
I0217 18:43:10.008946  6824 net.cpp:100] Creating Layer ip1_ip1_0_split
I0217 18:43:10.008946  6824 net.cpp:434] ip1_ip1_0_split <- ip1
I0217 18:43:10.008946  6824 net.cpp:408] ip1_ip1_0_split -> ip1_ip1_0_split_0
I0217 18:43:10.008946  6824 net.cpp:408] ip1_ip1_0_split -> ip1_ip1_0_split_1
I0217 18:43:10.008946  6824 net.cpp:150] Setting up ip1_ip1_0_split
I0217 18:43:10.008946  6824 net.cpp:157] Top shape: 100 10 (1000)
I0217 18:43:10.008946  6824 net.cpp:157] Top shape: 100 10 (1000)
I0217 18:43:10.008946  6824 net.cpp:165] Memory required for data: 1210483600
I0217 18:43:10.008946  6824 layer_factory.cpp:58] Creating layer accuracy_training
I0217 18:43:10.008946  6824 net.cpp:100] Creating Layer accuracy_training
I0217 18:43:10.008946  6824 net.cpp:434] accuracy_training <- ip1_ip1_0_split_0
I0217 18:43:10.008946  6824 net.cpp:434] accuracy_training <- label_cifar_1_split_0
…
I0217 18:43:10.010946  6824 net.cpp:322] The NetState phase (1) differed from the phase (0) specified by a rule in layer bn4_0
I0217 18:43:10.010946  6824 net.cpp:322] The NetState phase (1) differed from the phase (0) specified by a rule in layer accuracy_training
I0217 18:43:10.011435  6824 net.cpp:58] Initializing net from parameters: 
name: "CIFAR10_full"
state {
  phase: TEST
}
layer {
  name: "cifar"
  type: "Data"
  top: "data"
  top: "label"
  include {
    phase: TEST
  }
  transform_param {
    crop_size: 32
  }
  data_param {
    source: "examples/cifar10/cifar10_test_leveldb_padding"
    batch_size: 25
    backend: LEVELDB
  }
}
layer {
  name: "conv1"
  type: "Convolution"
  bottom: "data"
  top: "conv1"
  param {
    lr_mult: 1
  }
  convolution_param {
    num_output: 64
    bias_term: true
    pad: 1
    kernel_size: 3
    stride: 1
    weight_filler {
      type: "xavier"
    }
  }
}
layer {
  name: "bn1"
  type: "BatchNorm"
  bottom: "conv1"
  top: "bn1"
  include {
    phase: TEST
  }
  batch_norm_param {
    use_global_stats: true
    moving_average_fraction: 0.95
  }
}
layer {
  name: "scale1"
  type: "Scale"
  bottom: "bn1"
  top: "scale1"
  scale_param {
    bias_term: true
  }
}
layer {
  name: "relu1"
  type: "ReLU"
  bottom: "scale1"
  top: "relu1"
}
layer {
  name: "drop2_1"
  type: "Dropout"
  bottom: "relu1"
  top: "relu1"
  dropout_param {
    dropout_ratio: 0.2
  }
}
layer {
  name: "conv1_0"
  type: "Convolution"
  bottom: "relu1"
  top: "conv1_0"
  param {
    lr_mult: 1
  }
  convolution_param {
    num_output: 128
    bias_term: true
    pad: 1
    kernel_size: 3
    stride: 1
    weight_filler {
      type: "xavier"
    }
  }
}
layer {
  name: "bn1_0"
  type: "BatchNorm"
  bottom: "conv1_0"
  top: "bn1_0"
  include {
    phase: TEST
  }
  batch_norm_param {
    use_global_stats: true
    moving_average_fraction: 0.95
  }
}
layer {
  name: "scale1_0"
  type: "Scale"
  bottom: "bn1_0"
  top: "scale1_0"
  scale_param {
    bias_term: true
  }
}
layer {
  name: "relu1_0"
  type: "ReLU"
  bottom: "scale1_0"
  top: "relu1_0"
}
layer {
  name: "drop1_0"
  type: "Dropout"
  bottom: "relu1_0"
  top: "relu1_0"
  dropout_param {
    dropout_ratio: 0.2
  }
}
layer {
  name: "conv2"
  type: "Convolution"
  bottom: "relu1_0"
  top: "conv2"
  param {
    lr_mult: 1
  }
  convolution_param {
    num_output: 128
    bias_term: true
    pad: 1
    kernel_size: 3
    stride: 1
    weight_filler {
      type: "gaussian"
      std: 0.01
    }
  }
}
layer {
  name: "bn2"
  type: "BatchNorm"
  bottom: "conv2"
  top: "bn2"
  include {
    phase: TEST
  }
  batch_norm_param {
    use_global_stats: true
    moving_average_fraction: 0.95
  }
}
layer {
  name: "scale2"
  type: "Scale"
  bottom: "bn2"
  top: "scale2"
  scale_param {
    bias_term: true
  }
}
layer {
  name: "relu2"
  type: "ReLU"
  bottom: "scale2"
  top: "relu2"
}
layer {
  name: "drop2_0"
  type: "Dropout"
  bottom: "relu2"
  top: "relu2"
  dropout_param {
    dropout_ratio: 0.2
  }
}
layer {
  name: "conv2_1"
  type: "Convolution"
  bottom: "relu2"
  top: "conv2_1"
  param {
    lr_mult: 1
  }
  convolution_param {
    num_output: 128
    bias_term: true
    pad: 1
    kernel_size: 3
    stride: 1
    weight_filler {
      type: "gaussian"
      std: 0.01
    }
  }
}
layer {
  name: "bn2_1"
  type: "BatchNorm"
  bottom: "conv2_1"
  top: "bn2_1"
  include {
    phase: TEST
  }
  batch_norm_param {
    use_global_stats: true
    moving_average_fraction: 0.95
  }
}
layer {
  name: "scale2_1"
  type: "Scale"
  bottom: "bn2_1"
  top: "scale2_1"
  scale_param {
    bias_term: true
  }
}
layer {
  name: "relu2_1"
  type: "ReLU"
  bottom: "scale2_1"
  top: "relu2_1"
}
layer {
  name: "pool2_1"
  type: "Pooling"
  bottom: "relu2_1"
  top: "pool2_1"
  pooling_param {
    pool: MAX
    kernel_size: 2
    stride: 2
  }
}
layer {
  name: "drop2_1"
  type: "Dropout"
  bottom: "pool2_1"
  top: "pool2_1"
  dropout_param {
    dropout_ratio: 0.2
  }
}
layer {
  name: "conv2_2"
  type: "Convolution"
  bottom: "pool2_1"
  top: "conv2_2"
  param {
    lr_mult: 1
  }
  convolution_param {
    num_output: 128
    bias_term: true
    pad: 1
    kernel_size: 3
    stride: 1
    weight_filler {
      type: "gaussian"
      std: 0.01
    }
  }
}
layer {
  name: "bn2_2"
  type: "BatchNorm"
  bottom: "conv2_2"
  top: "bn2_2"
  include {
    phase: TEST
  }
  batch_norm_param {
    use_global_stats: true
    moving_average_fraction: 0.95
  }
}
layer {
  name: "scale2_2"
  type: "Scale"
  bottom: "bn2_2"
  top: "scale2_2"
  scale_param {
    bias_term: true
  }
}
layer {
  name: "relu2_2"
  type: "ReLU"
  bottom: "scale2_2"
  top: "relu2_2"
}
layer {
  name: "drop2_2"
  type: "Dropout"
  bottom: "relu2_2"
  top: "relu2_2"
  dropout_param {
    dropout_ratio: 0.2
  }
}
layer {
  name: "conv3"
  type: "Convolution"
  bottom: "relu2_2"
  top: "conv3"
  param {
    lr_mult: 1
  }
  convolution_param {
    num_output: 128
    bias_term: true
    pad: 1
    kernel_size: 3
    stride: 1
    weight_filler {
      type: "xavier"
    }
  }
}
layer {
  name: "bn3"
  type: "BatchNorm"
  bottom: "conv3"
  top: "bn3"
  include {
    phase: TEST
  }
  batch_norm_param {
    use_global_stats: true
    moving_average_fraction: 0.95
  }
}
layer {
  name: "scale3"
  type: "Scale"
  bottom: "bn3"
  top: "scale3"
  scale_param {
    bias_term: true
  }
}
layer {
  name: "relu3"
  type: "ReLU"
  bottom: "scale3"
  top: "relu3"
}
layer {
  name: "drop3"
  type: "Dropout"
  bottom: "relu3"
  top: "relu3"
  dropout_param {
    dropout_ratio: 0.2
  }
}
layer {
  name: "conv4"
  type: "Convolution"
  bottom: "relu3"
  top: "conv4"
  param {
    lr_mult: 1
  }
  convolution_param {
    num_output: 256
    bias_term: true
    pad: 1
    kernel_size: 3
    stride: 1
    weight_filler {
      type: "xavier"
    }
  }
}
layer {
  name: "pool4"
  type: "Pooling"
  bottom: "conv4"
  top: "pool4"
  pooling_param {
    pool: MAX
    kernel_size: 2
    stride: 2
  }
}
layer {
  name: "bn4"
  type: "BatchNorm"
  bottom: "pool4"
  top: "bn4"
  include {
    phase: TEST
  }
  batch_norm_param {
    use_global_stats: true
    moving_average_fraction: 0.95
  }
}
layer {
  name: "scale4"
  type: "Scale"
  bottom: "bn4"
  top: "scale4"
  scale_param {
    bias_term: true
  }
}
layer {
  name: "relu4"
  type: "ReLU"
  bottom: "scale4"
  top: "relu4"
}
layer {
  name: "drop4"
  type: "Dropout"
  bottom: "relu4"
  top: "relu4"
  dropout_param {
    dropout_ratio: 0.2
  }
}
layer {
  name: "conv4_1"
  type: "Convolution"
  bottom: "relu4"
  top: "conv4_1"
  param {
    lr_mult: 1
  }
  convolution_param {
    num_output: 256
    bias_term: true
    pad: 1
    kernel_size: 3
    stride: 1
    weight_filler {
      type: "xavier"
    }
  }
}
layer {
  name: "bn4_1"
  type: "BatchNorm"
  bottom: "conv4_1"
  top: "bn4_1"
  include {
    phase: TEST
  }
  batch_norm_param {
    use_global_stats: true
    moving_average_fraction: 0.95
  }
}
layer {
  name: "scale4_1"
  type: "Scale"
  bottom: "bn4_1"
  top: "scale4_1"
  scale_param {
    bias_term: true
  }
}
layer {
  name: "relu4_1"
  type: "ReLU"
  bottom: "scale4_1"
  top: "relu4_1"
}
layer {
  name: "drop4_1"
  type: "Dropout"
  bottom: "relu4_1"
  top: "relu4_1"
  dropout_param {
    dropout_ratio: 0.2
  }
}
layer {
  name: "conv4_2"
  type: "Convolution"
  bottom: "relu4_1"
  top: "conv4_2"
  param {
    lr_mult: 1
  }
  convolution_param {
    num_output: 256
    bias_term: true
    pad: 1
    kernel_size: 3
    stride: 1
    weight_filler {
      type: "xavier"
    }
  }
}
layer {
  name: "bn4_2"
  type: "BatchNorm"
  bottom: "conv4_2"
  top: "bn4_2"
  include {
    phase: TEST
  }
  batch_norm_param {
    use_global_stats: true
    moving_average_fraction: 0.95
  }
}
layer {
  name: "scale4_2"
  type: "Scale"
  bottom: "bn4_2"
  top: "scale4_2"
  scale_param {
    bias_term: true
  }
}
layer {
  name: "relu4_2"
  type: "ReLU"
  bottom: "scale4_2"
  top: "relu4_2"
}
layer {
  name: "drop4_2"
  type: "Dropout"
  bottom: "relu4_2"
  top: "relu4_2"
  dropout_param {
    dropout_ratio: 0.2
  }
}
layer {
  name: "pool4_2"
  type: "Pooling"
  bottom: "relu4_2"
  top: "pool4_2"
  pooling_param {
    pool: MAX
    kernel_size: 2
    stride: 2
  }
}
layer {
  name: "conv4_0"
  type: "Convolution"
  bottom: "pool4_2"
  top: "conv4_0"
  param {
    lr_mult: 1
  }
  convolution_param {
    num_output: 512
    bias_term: true
    pad: 1
    kernel_size: 3
    stride: 1
    weight_filler {
      type: "xavier"
    }
  }
}
layer {
  name: "bn4_0"
  type: "BatchNorm"
  bottom: "conv4_0"
  top: "bn4_0"
  include {
    phase: TEST
  }
  batch_norm_param {
    use_global_stats: true
    moving_average_fraction: 0.95
  }
}
layer {
  name: "scale4_0"
  type: "Scale"
  bottom: "bn4_0"
  top: "scale4_0"
  scale_param {
    bias_term: true
  }
}
layer {
  name: "relu4_0"
  type: "ReLU"
  bottom: "scale4_0"
  top: "relu4_0"
}
layer {
  name: "drop4_0"
  type: "Dropout"
  bottom: "relu4_0"
  top: "relu4_0"
  dropout_param {
    dropout_ratio: 0.2
  }
}
layer {
  name: "cccp4"
  type: "Convolution"
  bottom: "relu4_0"
  top: "cccp4"
  param {
    lr_mult: 1
    decay_mult: 1
  }
  param {
    lr_mult: 2
    decay_mult: 0
  }
  convolution_param {
    num_output: 2048
    kernel_size: 1
    group: 1
    weight_filler {
      type: "xavier"
    }
    bias_filler {
      type: "constant"
      value: 0
    }
  }
}
layer {
  name: "relu_cccp4"
  type: "ReLU"
  bottom: "cccp4"
  top: "cccp4"
}
layer {
  name: "drop4_3"
  type: "Dropout"
  bottom: "cccp4"
  top: "cccp4"
  dropout_param {
    dropout_ratio: 0.2
  }
}
layer {
  name: "cccp5"
  type: "Convolution"
  bottom: "cccp4"
  top: "cccp5"
  param {
    lr_mult: 1
    decay_mult: 1
  }
  param {
    lr_mult: 2
    decay_mult: 0
  }
  convolution_param {
    num_output: 256
    kernel_size: 1
    group: 1
    weight_filler {
      type: "xavier"
    }
    bias_filler {
      type: "constant"
      value: 0
    }
  }
}
layer {
  name: "relu_cccp5"
  type: "ReLU"
  bottom: "cccp5"
  top: "cccp5"
}
layer {
  name: "poolcp5"
  type: "Pooling"
  bottom: "cccp5"
  top: "poolcp5"
  pooling_param {
    pool: MAX
    kernel_size: 2
    stride: 2
  }
}
layer {
  name: "drop4_5"
  type: "Dropout"
  bottom: "poolcp5"
  top: "poolcp5"
  dropout_param {
    dropout_ratio: 0.2
  }
}
layer {
  name: "cccp6"
  type: "Convolution"
  bottom: "poolcp5"
  top: "cccp6"
  param {
    lr_mult: 1
    decay_mult: 1
  }
  param {
    lr_mult: 2
    decay_mult: 0
  }
  convolution_param {
    num_output: 256
    pad: 1
    kernel_size: 3
    group: 1
    weight_filler {
      type: "xavier"
    }
    bias_filler {
      type: "constant"
      value: 0
    }
  }
}
layer {
  name: "relu_cccp6"
  type: "ReLU"
  bottom: "cccp6"
  top: "cccp6"
}
layer {
  name: "poolcp6"
  type: "Pooling"
  bottom: "cccp6"
  top: "poolcp6"
  pooling_param {
    pool: MAX
    kernel_size: 2
    stride: 2
  }
}
layer {
  name: "ip1"
  type: "InnerProduct"
  bottom: "poolcp6"
  top: "ip1"
  param {
    lr_mult: 1
    decay_mult: 0
  }
  param {
    lr_mult: 2
    decay_mult: 0
  }
  inner_product_param {
    num_output: 10
    weight_filler {
      type: "xavier"
    }
    bias_filler {
      type: "constant"
    }
  }
}
layer {
  name: "accuracy"
  type: "Accuracy"
  bottom: "ip1"
  bottom: "label"
  top: "accuracy"
  include {
    phase: TEST
  }
}
layer {
  name: "loss"
  type: "SoftmaxWithLoss"
  bottom: "ip1"
  bottom: "label"
  top: "loss"
}
I0217 18:43:10.011942  6824 layer_factory.cpp:58] Creating layer cifar
I0217 18:43:10.012437  6824 net.cpp:100] Creating Layer cifar
I0217 18:43:10.012437  6824 net.cpp:408] cifar -> data
I0217 18:43:10.012437  6824 net.cpp:408] cifar -> label
I0217 18:43:10.013437 11576 common.cpp:36] System entropy source not available, using fallback algorithm to generate seed instead.
I0217 18:43:10.017436 11576 db_leveldb.cpp:18] Opened leveldb examples/cifar10/cifar10_test_leveldb_padding
I0217 18:43:10.017936  6824 data_layer.cpp:41] output data size: 25,3,32,32
I0217 18:43:10.020936  6824 net.cpp:150] Setting up cifar
I0217 18:43:10.020936  6824 net.cpp:157] Top shape: 25 3 32 32 (76800)
I0217 18:43:10.020936  6824 net.cpp:157] Top shape: 25 (25)
I0217 18:43:10.020936  6824 net.cpp:165] Memory required for data: 307300
I0217 18:43:10.020936  6824 layer_factory.cpp:58] Creating layer label_cifar_1_split
I0217 18:43:10.020936  6824 net.cpp:100] Creating Layer label_cifar_1_split
I0217 18:43:10.020936  6824 net.cpp:434] label_cifar_1_split <- label
I0217 18:43:10.020936  6824 net.cpp:408] label_cifar_1_split -> label_cifar_1_split_0
I0217 18:43:10.020936  6824 net.cpp:408] label_cifar_1_split -> label_cifar_1_split_1
I0217 18:43:10.021435  6824 net.cpp:150] Setting up label_cifar_1_split
I0217 18:43:10.021435  6824 net.cpp:157] Top shape: 25 (25)
I0217 18:43:10.021435  6824 net.cpp:157] Top shape: 25 (25)
I0217 18:43:10.021435  6824 net.cpp:165] Memory required for data: 307500
I0217 18:43:10.021435  6824 layer_factory.cpp:58] Creating layer conv1
I0217 18:43:10.021435  6824 net.cpp:100] Creating Layer conv1
I0217 18:43:10.021435  6824 net.cpp:434] conv1 <- data
I0217 18:43:10.021435  6824 net.cpp:408] conv1 -> conv1
I0217 18:43:10.021939  8500 common.cpp:36] System entropy source not available, using fallback algorithm to generate seed instead.
I0217 18:43:10.023438  6824 net.cpp:150] Setting up conv1
I0217 18:43:10.023438  6824 net.cpp:157] Top shape: 25 64 32 32 (1638400)
I0217 18:43:10.023438  6824 net.cpp:165] Memory required for data: 6861100
I0217 18:43:10.023438  6824 layer_factory.cpp:58] Creating layer bn1
I0217 18:43:10.023438  6824 net.cpp:100] Creating Layer bn1
I0217 18:43:10.023438  6824 net.cpp:434] bn1 <- conv1
I0217 18:43:10.023438  6824 net.cpp:408] bn1 -> bn1
I0217 18:43:10.023438  6824 net.cpp:150] Setting up bn1
I0217 18:43:10.023438  6824 net.cpp:157] Top shape: 25 64 32 32 (1638400)
I0217 18:43:10.023438  6824 net.cpp:165] Memory required for data: 13414700
I0217 18:43:10.023438  6824 layer_factory.cpp:58] Creating layer scale1
I0217 18:43:10.023438  6824 net.cpp:100] Creating Layer scale1
I0217 18:43:10.023438  6824 net.cpp:434] scale1 <- bn1
I0217 18:43:10.023438  6824 net.cpp:408] scale1 -> scale1
I0217 18:43:10.023936  6824 layer_factory.cpp:58] Creating layer scale1
I0217 18:43:10.023936  6824 net.cpp:150] Setting up scale1
I0217 18:43:10.023936  6824 net.cpp:157] Top shape: 25 64 32 32 (1638400)
I0217 18:43:10.023936  6824 net.cpp:165] Memory required for data: 19968300
I0217 18:43:10.023936  6824 layer_factory.cpp:58] Creating layer relu1
I0217 18:43:10.023936  6824 net.cpp:100] Creating Layer relu1
I0217 18:43:10.023936  6824 net.cpp:434] relu1 <- scale1
I0217 18:43:10.023936  6824 net.cpp:408] relu1 -> relu1
I0217 18:43:10.024435  6824 net.cpp:150] Setting up relu1
I0217 18:43:10.024435  6824 net.cpp:157] Top shape: 25 64 32 32 (1638400)
I0217 18:43:10.024435  6824 net.cpp:165] Memory required for data: 26521900
I0217 18:43:10.024435  6824 layer_factory.cpp:58] Creating layer drop2_1
I0217 18:43:10.024435  6824 net.cpp:100] Creating Layer drop2_1
I0217 18:43:10.024435  6824 net.cpp:434] drop2_1 <- relu1
I0217 18:43:10.024435  6824 net.cpp:395] drop2_1 -> relu1 (in-place)
I0217 18:43:10.024435  6824 net.cpp:150] Setting up drop2_1
I0217 18:43:10.024435  6824 net.cpp:157] Top shape: 25 64 32 32 (1638400)
I0217 18:43:10.024435  6824 net.cpp:165] Memory required for data: 33075500
I0217 18:43:10.024435  6824 layer_factory.cpp:58] Creating layer conv1_0
I0217 18:43:10.024435  6824 net.cpp:100] Creating Layer conv1_0
I0217 18:43:10.024435  6824 net.cpp:434] conv1_0 <- relu1
I0217 18:43:10.024435  6824 net.cpp:408] conv1_0 -> conv1_0
I0217 18:43:10.026950  6824 net.cpp:150] Setting up conv1_0
I0217 18:43:10.026950  6824 net.cpp:157] Top shape: 25 128 32 32 (3276800)
I0217 18:43:10.026950  6824 net.cpp:165] Memory required for data: 46182700
I0217 18:43:10.026950  6824 layer_factory.cpp:58] Creating layer bn1_0
I0217 18:43:10.026950  6824 net.cpp:100] Creating Layer bn1_0
I0217 18:43:10.026950  6824 net.cpp:434] bn1_0 <- conv1_0
I0217 18:43:10.026950  6824 net.cpp:408] bn1_0 -> bn1_0
I0217 18:43:10.027451  6824 net.cpp:150] Setting up bn1_0
I0217 18:43:10.027451  6824 net.cpp:157] Top shape: 25 128 32 32 (3276800)
I0217 18:43:10.027451  6824 net.cpp:165] Memory required for data: 59289900
I0217 18:43:10.027451  6824 layer_factory.cpp:58] Creating layer scale1_0
I0217 18:43:10.027451  6824 net.cpp:100] Creating Layer scale1_0
I0217 18:43:10.027451  6824 net.cpp:434] scale1_0 <- bn1_0
I0217 18:43:10.027451  6824 net.cpp:408] scale1_0 -> scale1_0
I0217 18:43:10.027451  6824 layer_factory.cpp:58] Creating layer scale1_0
I0217 18:43:10.027451  6824 net.cpp:150] Setting up scale1_0
I0217 18:43:10.027451  6824 net.cpp:157] Top shape: 25 128 32 32 (3276800)
I0217 18:43:10.027451  6824 net.cpp:165] Memory required for data: 72397100
I0217 18:43:10.027451  6824 layer_factory.cpp:58] Creating layer relu1_0
I0217 18:43:10.027451  6824 net.cpp:100] Creating Layer relu1_0
I0217 18:43:10.027451  6824 net.cpp:434] relu1_0 <- scale1_0
I0217 18:43:10.027451  6824 net.cpp:408] relu1_0 -> relu1_0
I0217 18:43:10.027951  6824 net.cpp:150] Setting up relu1_0
I0217 18:43:10.027951  6824 net.cpp:157] Top shape: 25 128 32 32 (3276800)
I0217 18:43:10.027951  6824 net.cpp:165] Memory required for data: 85504300
I0217 18:43:10.027951  6824 layer_factory.cpp:58] Creating layer drop1_0
I0217 18:43:10.027951  6824 net.cpp:100] Creating Layer drop1_0
I0217 18:43:10.027951  6824 net.cpp:434] drop1_0 <- relu1_0
I0217 18:43:10.027951  6824 net.cpp:395] drop1_0 -> relu1_0 (in-place)
I0217 18:43:10.027951  6824 net.cpp:150] Setting up drop1_0
I0217 18:43:10.028447  6824 net.cpp:157] Top shape: 25 128 32 32 (3276800)
I0217 18:43:10.028447  6824 net.cpp:165] Memory required for data: 98611500
I0217 18:43:10.028447  6824 layer_factory.cpp:58] Creating layer conv2
I0217 18:43:10.028447  6824 net.cpp:100] Creating Layer conv2
I0217 18:43:10.028447  6824 net.cpp:434] conv2 <- relu1_0
I0217 18:43:10.028447  6824 net.cpp:408] conv2 -> conv2
I0217 18:43:10.031436  6824 net.cpp:150] Setting up conv2
I0217 18:43:10.031436  6824 net.cpp:157] Top shape: 25 128 32 32 (3276800)
I0217 18:43:10.031436  6824 net.cpp:165] Memory required for data: 111718700
I0217 18:43:10.031436  6824 layer_factory.cpp:58] Creating layer bn2
I0217 18:43:10.031436  6824 net.cpp:100] Creating Layer bn2
I0217 18:43:10.031436  6824 net.cpp:434] bn2 <- conv2
I0217 18:43:10.031436  6824 net.cpp:408] bn2 -> bn2
I0217 18:43:10.031436  6824 net.cpp:150] Setting up bn2
I0217 18:43:10.031436  6824 net.cpp:157] Top shape: 25 128 32 32 (3276800)
I0217 18:43:10.031436  6824 net.cpp:165] Memory required for data: 124825900
I0217 18:43:10.031436  6824 layer_factory.cpp:58] Creating layer scale2
I0217 18:43:10.031946  6824 net.cpp:100] Creating Layer scale2
I0217 18:43:10.031946  6824 net.cpp:434] scale2 <- bn2
I0217 18:43:10.031946  6824 net.cpp:408] scale2 -> scale2
I0217 18:43:10.031946  6824 layer_factory.cpp:58] Creating layer scale2
I0217 18:43:10.031946  6824 net.cpp:150] Setting up scale2
I0217 18:43:10.031946  6824 net.cpp:157] Top shape: 25 128 32 32 (3276800)
I0217 18:43:10.031946  6824 net.cpp:165] Memory required for data: 137933100
I0217 18:43:10.031946  6824 layer_factory.cpp:58] Creating layer relu2
I0217 18:43:10.031946  6824 net.cpp:100] Creating Layer relu2
I0217 18:43:10.031946  6824 net.cpp:434] relu2 <- scale2
I0217 18:43:10.031946  6824 net.cpp:408] relu2 -> relu2
I0217 18:43:10.031946  6824 net.cpp:150] Setting up relu2
I0217 18:43:10.031946  6824 net.cpp:157] Top shape: 25 128 32 32 (3276800)
I0217 18:43:10.031946  6824 net.cpp:165] Memory required for data: 151040300
I0217 18:43:10.031946  6824 layer_factory.cpp:58] Creating layer drop2_0
I0217 18:43:10.031946  6824 net.cpp:100] Creating Layer drop2_0
I0217 18:43:10.031946  6824 net.cpp:434] drop2_0 <- relu2
I0217 18:43:10.031946  6824 net.cpp:395] drop2_0 -> relu2 (in-place)
I0217 18:43:10.032446  6824 net.cpp:150] Setting up drop2_0
I0217 18:43:10.032446  6824 net.cpp:157] Top shape: 25 128 32 32 (3276800)
I0217 18:43:10.032446  6824 net.cpp:165] Memory required for data: 164147500
I0217 18:43:10.032446  6824 layer_factory.cpp:58] Creating layer conv2_1
I0217 18:43:10.032446  6824 net.cpp:100] Creating Layer conv2_1
I0217 18:43:10.032446  6824 net.cpp:434] conv2_1 <- relu2
I0217 18:43:10.032446  6824 net.cpp:408] conv2_1 -> conv2_1
I0217 18:43:10.035946  6824 net.cpp:150] Setting up conv2_1
I0217 18:43:10.035946  6824 net.cpp:157] Top shape: 25 128 32 32 (3276800)
I0217 18:43:10.035946  6824 net.cpp:165] Memory required for data: 177254700
I0217 18:43:10.035946  6824 layer_factory.cpp:58] Creating layer bn2_1
I0217 18:43:10.035946  6824 net.cpp:100] Creating Layer bn2_1
I0217 18:43:10.035946  6824 net.cpp:434] bn2_1 <- conv2_1
I0217 18:43:10.035946  6824 net.cpp:408] bn2_1 -> bn2_1
I0217 18:43:10.035946  6824 net.cpp:150] Setting up bn2_1
I0217 18:43:10.035946  6824 net.cpp:157] Top shape: 25 128 32 32 (3276800)
I0217 18:43:10.035946  6824 net.cpp:165] Memory required for data: 190361900
I0217 18:43:10.035946  6824 layer_factory.cpp:58] Creating layer scale2_1
I0217 18:43:10.035946  6824 net.cpp:100] Creating Layer scale2_1
I0217 18:43:10.035946  6824 net.cpp:434] scale2_1 <- bn2_1
I0217 18:43:10.035946  6824 net.cpp:408] scale2_1 -> scale2_1
I0217 18:43:10.035946  6824 layer_factory.cpp:58] Creating layer scale2_1
I0217 18:43:10.035946  6824 net.cpp:150] Setting up scale2_1
I0217 18:43:10.035946  6824 net.cpp:157] Top shape: 25 128 32 32 (3276800)
I0217 18:43:10.035946  6824 net.cpp:165] Memory required for data: 203469100
I0217 18:43:10.035946  6824 layer_factory.cpp:58] Creating layer relu2_1
I0217 18:43:10.035946  6824 net.cpp:100] Creating Layer relu2_1
I0217 18:43:10.036447  6824 net.cpp:434] relu2_1 <- scale2_1
I0217 18:43:10.036447  6824 net.cpp:408] relu2_1 -> relu2_1
I0217 18:43:10.036447  6824 net.cpp:150] Setting up relu2_1
I0217 18:43:10.036947  6824 net.cpp:157] Top shape: 25 128 32 32 (3276800)
I0217 18:43:10.036947  6824 net.cpp:165] Memory required for data: 216576300
I0217 18:43:10.036947  6824 layer_factory.cpp:58] Creating layer pool2_1
I0217 18:43:10.036947  6824 net.cpp:100] Creating Layer pool2_1
I0217 18:43:10.036947  6824 net.cpp:434] pool2_1 <- relu2_1
I0217 18:43:10.036947  6824 net.cpp:408] pool2_1 -> pool2_1
I0217 18:43:10.036947  6824 net.cpp:150] Setting up pool2_1
I0217 18:43:10.036947  6824 net.cpp:157] Top shape: 25 128 16 16 (819200)
I0217 18:43:10.036947  6824 net.cpp:165] Memory required for data: 219853100
I0217 18:43:10.036947  6824 layer_factory.cpp:58] Creating layer drop2_1
I0217 18:43:10.036947  6824 net.cpp:100] Creating Layer drop2_1
I0217 18:43:10.036947  6824 net.cpp:434] drop2_1 <- pool2_1
I0217 18:43:10.036947  6824 net.cpp:395] drop2_1 -> pool2_1 (in-place)
I0217 18:43:10.036947  6824 net.cpp:150] Setting up drop2_1
I0217 18:43:10.036947  6824 net.cpp:157] Top shape: 25 128 16 16 (819200)
I0217 18:43:10.036947  6824 net.cpp:165] Memory required for data: 223129900
I0217 18:43:10.036947  6824 layer_factory.cpp:58] Creating layer conv2_2
I0217 18:43:10.036947  6824 net.cpp:100] Creating Layer conv2_2
I0217 18:43:10.036947  6824 net.cpp:434] conv2_2 <- pool2_1
I0217 18:43:10.036947  6824 net.cpp:408] conv2_2 -> conv2_2
I0217 18:43:10.040446  6824 net.cpp:150] Setting up conv2_2
I0217 18:43:10.040446  6824 net.cpp:157] Top shape: 25 128 16 16 (819200)
I0217 18:43:10.040446  6824 net.cpp:165] Memory required for data: 226406700
I0217 18:43:10.040446  6824 layer_factory.cpp:58] Creating layer bn2_2
I0217 18:43:10.040446  6824 net.cpp:100] Creating Layer bn2_2
I0217 18:43:10.040446  6824 net.cpp:434] bn2_2 <- conv2_2
I0217 18:43:10.040446  6824 net.cpp:408] bn2_2 -> bn2_2
I0217 18:43:10.040446  6824 net.cpp:150] Setting up bn2_2
I0217 18:43:10.040446  6824 net.cpp:157] Top shape: 25 128 16 16 (819200)
I0217 18:43:10.040446  6824 net.cpp:165] Memory required for data: 229683500
I0217 18:43:10.040446  6824 layer_factory.cpp:58] Creating layer scale2_2
I0217 18:43:10.040446  6824 net.cpp:100] Creating Layer scale2_2
I0217 18:43:10.040446  6824 net.cpp:434] scale2_2 <- bn2_2
I0217 18:43:10.040446  6824 net.cpp:408] scale2_2 -> scale2_2
I0217 18:43:10.040446  6824 layer_factory.cpp:58] Creating layer scale2_2
I0217 18:43:10.040946  6824 net.cpp:150] Setting up scale2_2
I0217 18:43:10.040946  6824 net.cpp:157] Top shape: 25 128 16 16 (819200)
I0217 18:43:10.040946  6824 net.cpp:165] Memory required for data: 232960300
I0217 18:43:10.040946  6824 layer_factory.cpp:58] Creating layer relu2_2
I0217 18:43:10.040946  6824 net.cpp:100] Creating Layer relu2_2
I0217 18:43:10.040946  6824 net.cpp:434] relu2_2 <- scale2_2
I0217 18:43:10.040946  6824 net.cpp:408] relu2_2 -> relu2_2
I0217 18:43:10.041437  6824 net.cpp:150] Setting up relu2_2
I0217 18:43:10.041437  6824 net.cpp:157] Top shape: 25 128 16 16 (819200)
I0217 18:43:10.041437  6824 net.cpp:165] Memory required for data: 236237100
I0217 18:43:10.041437  6824 layer_factory.cpp:58] Creating layer drop2_2
I0217 18:43:10.041437  6824 net.cpp:100] Creating Layer drop2_2
I0217 18:43:10.041437  6824 net.cpp:434] drop2_2 <- relu2_2
I0217 18:43:10.041437  6824 net.cpp:395] drop2_2 -> relu2_2 (in-place)
I0217 18:43:10.041437  6824 net.cpp:150] Setting up drop2_2
I0217 18:43:10.041437  6824 net.cpp:157] Top shape: 25 128 16 16 (819200)
I0217 18:43:10.041437  6824 net.cpp:165] Memory required for data: 239513900
I0217 18:43:10.041437  6824 layer_factory.cpp:58] Creating layer conv3
I0217 18:43:10.041437  6824 net.cpp:100] Creating Layer conv3
I0217 18:43:10.041437  6824 net.cpp:434] conv3 <- relu2_2
I0217 18:43:10.041437  6824 net.cpp:408] conv3 -> conv3
I0217 18:43:10.044436  6824 net.cpp:150] Setting up conv3
I0217 18:43:10.044436  6824 net.cpp:157] Top shape: 25 128 16 16 (819200)
I0217 18:43:10.044436  6824 net.cpp:165] Memory required for data: 242790700
I0217 18:43:10.044436  6824 layer_factory.cpp:58] Creating layer bn3
I0217 18:43:10.044436  6824 net.cpp:100] Creating Layer bn3
I0217 18:43:10.044436  6824 net.cpp:434] bn3 <- conv3
I0217 18:43:10.044436  6824 net.cpp:408] bn3 -> bn3
I0217 18:43:10.044436  6824 net.cpp:150] Setting up bn3
I0217 18:43:10.044436  6824 net.cpp:157] Top shape: 25 128 16 16 (819200)
I0217 18:43:10.044436  6824 net.cpp:165] Memory required for data: 246067500
I0217 18:43:10.044436  6824 layer_factory.cpp:58] Creating layer scale3
I0217 18:43:10.044436  6824 net.cpp:100] Creating Layer scale3
I0217 18:43:10.044436  6824 net.cpp:434] scale3 <- bn3
I0217 18:43:10.044436  6824 net.cpp:408] scale3 -> scale3
I0217 18:43:10.044436  6824 layer_factory.cpp:58] Creating layer scale3
I0217 18:43:10.044935  6824 net.cpp:150] Setting up scale3
I0217 18:43:10.044935  6824 net.cpp:157] Top shape: 25 128 16 16 (819200)
I0217 18:43:10.044935  6824 net.cpp:165] Memory required for data: 249344300
I0217 18:43:10.044935  6824 layer_factory.cpp:58] Creating layer relu3
I0217 18:43:10.044935  6824 net.cpp:100] Creating Layer relu3
I0217 18:43:10.044935  6824 net.cpp:434] relu3 <- scale3
I0217 18:43:10.044935  6824 net.cpp:408] relu3 -> relu3
I0217 18:43:10.044935  6824 net.cpp:150] Setting up relu3
I0217 18:43:10.044935  6824 net.cpp:157] Top shape: 25 128 16 16 (819200)
I0217 18:43:10.044935  6824 net.cpp:165] Memory required for data: 252621100
I0217 18:43:10.044935  6824 layer_factory.cpp:58] Creating layer drop3
I0217 18:43:10.044935  6824 net.cpp:100] Creating Layer drop3
I0217 18:43:10.044935  6824 net.cpp:434] drop3 <- relu3
I0217 18:43:10.044935  6824 net.cpp:395] drop3 -> relu3 (in-place)
I0217 18:43:10.044935  6824 net.cpp:150] Setting up drop3
I0217 18:43:10.044935  6824 net.cpp:157] Top shape: 25 128 16 16 (819200)
I0217 18:43:10.045436  6824 net.cpp:165] Memory required for data: 255897900
I0217 18:43:10.045436  6824 layer_factory.cpp:58] Creating layer conv4
I0217 18:43:10.045436  6824 net.cpp:100] Creating Layer conv4
I0217 18:43:10.045436  6824 net.cpp:434] conv4 <- relu3
I0217 18:43:10.045436  6824 net.cpp:408] conv4 -> conv4
I0217 18:43:10.048936  6824 net.cpp:150] Setting up conv4
I0217 18:43:10.048936  6824 net.cpp:157] Top shape: 25 256 16 16 (1638400)
I0217 18:43:10.048936  6824 net.cpp:165] Memory required for data: 262451500
I0217 18:43:10.048936  6824 layer_factory.cpp:58] Creating layer pool4
I0217 18:43:10.048936  6824 net.cpp:100] Creating Layer pool4
I0217 18:43:10.048936  6824 net.cpp:434] pool4 <- conv4
I0217 18:43:10.048936  6824 net.cpp:408] pool4 -> pool4
I0217 18:43:10.048936  6824 net.cpp:150] Setting up pool4
I0217 18:43:10.048936  6824 net.cpp:157] Top shape: 25 256 8 8 (409600)
I0217 18:43:10.048936  6824 net.cpp:165] Memory required for data: 264089900
I0217 18:43:10.048936  6824 layer_factory.cpp:58] Creating layer bn4
I0217 18:43:10.048936  6824 net.cpp:100] Creating Layer bn4
I0217 18:43:10.048936  6824 net.cpp:434] bn4 <- pool4
I0217 18:43:10.048936  6824 net.cpp:408] bn4 -> bn4
I0217 18:43:10.049437  6824 net.cpp:150] Setting up bn4
I0217 18:43:10.049437  6824 net.cpp:157] Top shape: 25 256 8 8 (409600)
I0217 18:43:10.049437  6824 net.cpp:165] Memory required for data: 265728300
I0217 18:43:10.049437  6824 layer_factory.cpp:58] Creating layer scale4
I0217 18:43:10.049437  6824 net.cpp:100] Creating Layer scale4
I0217 18:43:10.049437  6824 net.cpp:434] scale4 <- bn4
I0217 18:43:10.049437  6824 net.cpp:408] scale4 -> scale4
I0217 18:43:10.049437  6824 layer_factory.cpp:58] Creating layer scale4
I0217 18:43:10.049437  6824 net.cpp:150] Setting up scale4
I0217 18:43:10.049437  6824 net.cpp:157] Top shape: 25 256 8 8 (409600)
I0217 18:43:10.049437  6824 net.cpp:165] Memory required for data: 267366700
I0217 18:43:10.049437  6824 layer_factory.cpp:58] Creating layer relu4
I0217 18:43:10.049437  6824 net.cpp:100] Creating Layer relu4
I0217 18:43:10.049437  6824 net.cpp:434] relu4 <- scale4
I0217 18:43:10.049437  6824 net.cpp:408] relu4 -> relu4
I0217 18:43:10.049937  6824 net.cpp:150] Setting up relu4
I0217 18:43:10.049937  6824 net.cpp:157] Top shape: 25 256 8 8 (409600)
I0217 18:43:10.049937  6824 net.cpp:165] Memory required for data: 269005100
I0217 18:43:10.049937  6824 layer_factory.cpp:58] Creating layer drop4
I0217 18:43:10.049937  6824 net.cpp:100] Creating Layer drop4
I0217 18:43:10.049937  6824 net.cpp:434] drop4 <- relu4
I0217 18:43:10.049937  6824 net.cpp:395] drop4 -> relu4 (in-place)
I0217 18:43:10.049937  6824 net.cpp:150] Setting up drop4
I0217 18:43:10.049937  6824 net.cpp:157] Top shape: 25 256 8 8 (409600)
I0217 18:43:10.049937  6824 net.cpp:165] Memory required for data: 270643500
I0217 18:43:10.049937  6824 layer_factory.cpp:58] Creating layer conv4_1
I0217 18:43:10.050436  6824 net.cpp:100] Creating Layer conv4_1
I0217 18:43:10.050436  6824 net.cpp:434] conv4_1 <- relu4
I0217 18:43:10.050436  6824 net.cpp:408] conv4_1 -> conv4_1
I0217 18:43:10.055937  6824 net.cpp:150] Setting up conv4_1
I0217 18:43:10.055937  6824 net.cpp:157] Top shape: 25 256 8 8 (409600)
I0217 18:43:10.055937  6824 net.cpp:165] Memory required for data: 272281900
I0217 18:43:10.056435  6824 layer_factory.cpp:58] Creating layer bn4_1
I0217 18:43:10.056435  6824 net.cpp:100] Creating Layer bn4_1
I0217 18:43:10.056435  6824 net.cpp:434] bn4_1 <- conv4_1
I0217 18:43:10.056435  6824 net.cpp:408] bn4_1 -> bn4_1
I0217 18:43:10.056435  6824 net.cpp:150] Setting up bn4_1
I0217 18:43:10.056435  6824 net.cpp:157] Top shape: 25 256 8 8 (409600)
I0217 18:43:10.056435  6824 net.cpp:165] Memory required for data: 273920300
I0217 18:43:10.056435  6824 layer_factory.cpp:58] Creating layer scale4_1
I0217 18:43:10.056435  6824 net.cpp:100] Creating Layer scale4_1
I0217 18:43:10.056435  6824 net.cpp:434] scale4_1 <- bn4_1
I0217 18:43:10.056435  6824 net.cpp:408] scale4_1 -> scale4_1
I0217 18:43:10.056435  6824 layer_factory.cpp:58] Creating layer scale4_1
I0217 18:43:10.056435  6824 net.cpp:150] Setting up scale4_1
I0217 18:43:10.056435  6824 net.cpp:157] Top shape: 25 256 8 8 (409600)
I0217 18:43:10.056435  6824 net.cpp:165] Memory required for data: 275558700
I0217 18:43:10.056435  6824 layer_factory.cpp:58] Creating layer relu4_1
I0217 18:43:10.056435  6824 net.cpp:100] Creating Layer relu4_1
I0217 18:43:10.056435  6824 net.cpp:434] relu4_1 <- scale4_1
I0217 18:43:10.056435  6824 net.cpp:408] relu4_1 -> relu4_1
I0217 18:43:10.056936  6824 net.cpp:150] Setting up relu4_1
I0217 18:43:10.056936  6824 net.cpp:157] Top shape: 25 256 8 8 (409600)
I0217 18:43:10.056936  6824 net.cpp:165] Memory required for data: 277197100
I0217 18:43:10.056936  6824 layer_factory.cpp:58] Creating layer drop4_1
I0217 18:43:10.056936  6824 net.cpp:100] Creating Layer drop4_1
I0217 18:43:10.056936  6824 net.cpp:434] drop4_1 <- relu4_1
I0217 18:43:10.056936  6824 net.cpp:395] drop4_1 -> relu4_1 (in-place)
I0217 18:43:10.056936  6824 net.cpp:150] Setting up drop4_1
I0217 18:43:10.057436  6824 net.cpp:157] Top shape: 25 256 8 8 (409600)
I0217 18:43:10.057436  6824 net.cpp:165] Memory required for data: 278835500
I0217 18:43:10.057436  6824 layer_factory.cpp:58] Creating layer conv4_2
I0217 18:43:10.057436  6824 net.cpp:100] Creating Layer conv4_2
I0217 18:43:10.057436  6824 net.cpp:434] conv4_2 <- relu4_1
I0217 18:43:10.057436  6824 net.cpp:408] conv4_2 -> conv4_2
I0217 18:43:10.063936  6824 net.cpp:150] Setting up conv4_2
I0217 18:43:10.063936  6824 net.cpp:157] Top shape: 25 256 8 8 (409600)
I0217 18:43:10.063936  6824 net.cpp:165] Memory required for data: 280473900
I0217 18:43:10.063936  6824 layer_factory.cpp:58] Creating layer bn4_2
I0217 18:43:10.063936  6824 net.cpp:100] Creating Layer bn4_2
I0217 18:43:10.063936  6824 net.cpp:434] bn4_2 <- conv4_2
I0217 18:43:10.063936  6824 net.cpp:408] bn4_2 -> bn4_2
I0217 18:43:10.063936  6824 net.cpp:150] Setting up bn4_2
I0217 18:43:10.063936  6824 net.cpp:157] Top shape: 25 256 8 8 (409600)
I0217 18:43:10.063936  6824 net.cpp:165] Memory required for data: 282112300
I0217 18:43:10.063936  6824 layer_factory.cpp:58] Creating layer scale4_2
I0217 18:43:10.063936  6824 net.cpp:100] Creating Layer scale4_2
I0217 18:43:10.063936  6824 net.cpp:434] scale4_2 <- bn4_2
I0217 18:43:10.063936  6824 net.cpp:408] scale4_2 -> scale4_2
I0217 18:43:10.064436  6824 layer_factory.cpp:58] Creating layer scale4_2
I0217 18:43:10.064436  6824 net.cpp:150] Setting up scale4_2
I0217 18:43:10.064436  6824 net.cpp:157] Top shape: 25 256 8 8 (409600)
I0217 18:43:10.064436  6824 net.cpp:165] Memory required for data: 283750700
I0217 18:43:10.064436  6824 layer_factory.cpp:58] Creating layer relu4_2
I0217 18:43:10.064436  6824 net.cpp:100] Creating Layer relu4_2
I0217 18:43:10.064436  6824 net.cpp:434] relu4_2 <- scale4_2
I0217 18:43:10.064436  6824 net.cpp:408] relu4_2 -> relu4_2
I0217 18:43:10.064936  6824 net.cpp:150] Setting up relu4_2
I0217 18:43:10.064936  6824 net.cpp:157] Top shape: 25 256 8 8 (409600)
I0217 18:43:10.064936  6824 net.cpp:165] Memory required for data: 285389100
I0217 18:43:10.064936  6824 layer_factory.cpp:58] Creating layer drop4_2
I0217 18:43:10.064936  6824 net.cpp:100] Creating Layer drop4_2
I0217 18:43:10.064936  6824 net.cpp:434] drop4_2 <- relu4_2
I0217 18:43:10.064936  6824 net.cpp:395] drop4_2 -> relu4_2 (in-place)
I0217 18:43:10.064936  6824 net.cpp:150] Setting up drop4_2
I0217 18:43:10.064936  6824 net.cpp:157] Top shape: 25 256 8 8 (409600)
I0217 18:43:10.064936  6824 net.cpp:165] Memory required for data: 287027500
I0217 18:43:10.064936  6824 layer_factory.cpp:58] Creating layer pool4_2
I0217 18:43:10.064936  6824 net.cpp:100] Creating Layer pool4_2
I0217 18:43:10.064936  6824 net.cpp:434] pool4_2 <- relu4_2
I0217 18:43:10.064936  6824 net.cpp:408] pool4_2 -> pool4_2
I0217 18:43:10.064936  6824 net.cpp:150] Setting up pool4_2
I0217 18:43:10.064936  6824 net.cpp:157] Top shape: 25 256 4 4 (102400)
I0217 18:43:10.064936  6824 net.cpp:165] Memory required for data: 287437100
I0217 18:43:10.064936  6824 layer_factory.cpp:58] Creating layer conv4_0
I0217 18:43:10.064936  6824 net.cpp:100] Creating Layer conv4_0
I0217 18:43:10.064936  6824 net.cpp:434] conv4_0 <- pool4_2
I0217 18:43:10.064936  6824 net.cpp:408] conv4_0 -> conv4_0
I0217 18:43:10.075951  6824 net.cpp:150] Setting up conv4_0
I0217 18:43:10.075951  6824 net.cpp:157] Top shape: 25 512 4 4 (204800)
I0217 18:43:10.075951  6824 net.cpp:165] Memory required for data: 288256300
I0217 18:43:10.075951  6824 layer_factory.cpp:58] Creating layer bn4_0
I0217 18:43:10.075951  6824 net.cpp:100] Creating Layer bn4_0
I0217 18:43:10.075951  6824 net.cpp:434] bn4_0 <- conv4_0
I0217 18:43:10.075951  6824 net.cpp:408] bn4_0 -> bn4_0
I0217 18:43:10.075951  6824 net.cpp:150] Setting up bn4_0
I0217 18:43:10.076436  6824 net.cpp:157] Top shape: 25 512 4 4 (204800)
I0217 18:43:10.076436  6824 net.cpp:165] Memory required for data: 289075500
I0217 18:43:10.076436  6824 layer_factory.cpp:58] Creating layer scale4_0
I0217 18:43:10.076436  6824 net.cpp:100] Creating Layer scale4_0
I0217 18:43:10.076436  6824 net.cpp:434] scale4_0 <- bn4_0
I0217 18:43:10.076436  6824 net.cpp:408] scale4_0 -> scale4_0
I0217 18:43:10.076436  6824 layer_factory.cpp:58] Creating layer scale4_0
I0217 18:43:10.076436  6824 net.cpp:150] Setting up scale4_0
I0217 18:43:10.076436  6824 net.cpp:157] Top shape: 25 512 4 4 (204800)
I0217 18:43:10.076436  6824 net.cpp:165] Memory required for data: 289894700
I0217 18:43:10.076436  6824 layer_factory.cpp:58] Creating layer relu4_0
I0217 18:43:10.076436  6824 net.cpp:100] Creating Layer relu4_0
I0217 18:43:10.076436  6824 net.cpp:434] relu4_0 <- scale4_0
I0217 18:43:10.076436  6824 net.cpp:408] relu4_0 -> relu4_0
I0217 18:43:10.076936  6824 net.cpp:150] Setting up relu4_0
I0217 18:43:10.076936  6824 net.cpp:157] Top shape: 25 512 4 4 (204800)
I0217 18:43:10.076936  6824 net.cpp:165] Memory required for data: 290713900
I0217 18:43:10.076936  6824 layer_factory.cpp:58] Creating layer drop4_0
I0217 18:43:10.076936  6824 net.cpp:100] Creating Layer drop4_0
I0217 18:43:10.076936  6824 net.cpp:434] drop4_0 <- relu4_0
I0217 18:43:10.076936  6824 net.cpp:395] drop4_0 -> relu4_0 (in-place)
I0217 18:43:10.076936  6824 net.cpp:150] Setting up drop4_0
I0217 18:43:10.076936  6824 net.cpp:157] Top shape: 25 512 4 4 (204800)
I0217 18:43:10.076936  6824 net.cpp:165] Memory required for data: 291533100
I0217 18:43:10.076936  6824 layer_factory.cpp:58] Creating layer cccp4
I0217 18:43:10.076936  6824 net.cpp:100] Creating Layer cccp4
I0217 18:43:10.076936  6824 net.cpp:434] cccp4 <- relu4_0
I0217 18:43:10.076936  6824 net.cpp:408] cccp4 -> cccp4
I0217 18:43:10.084936  6824 net.cpp:150] Setting up cccp4
I0217 18:43:10.084936  6824 net.cpp:157] Top shape: 25 2048 4 4 (819200)
I0217 18:43:10.084936  6824 net.cpp:165] Memory required for data: 294809900
I0217 18:43:10.085436  6824 layer_factory.cpp:58] Creating layer relu_cccp4
I0217 18:43:10.085436  6824 net.cpp:100] Creating Layer relu_cccp4
I0217 18:43:10.085436  6824 net.cpp:434] relu_cccp4 <- cccp4
I0217 18:43:10.085436  6824 net.cpp:395] relu_cccp4 -> cccp4 (in-place)
I0217 18:43:10.085937  6824 net.cpp:150] Setting up relu_cccp4
I0217 18:43:10.085937  6824 net.cpp:157] Top shape: 25 2048 4 4 (819200)
I0217 18:43:10.085937  6824 net.cpp:165] Memory required for data: 298086700
I0217 18:43:10.085937  6824 layer_factory.cpp:58] Creating layer drop4_3
I0217 18:43:10.085937  6824 net.cpp:100] Creating Layer drop4_3
I0217 18:43:10.085937  6824 net.cpp:434] drop4_3 <- cccp4
I0217 18:43:10.085937  6824 net.cpp:395] drop4_3 -> cccp4 (in-place)
I0217 18:43:10.085937  6824 net.cpp:150] Setting up drop4_3
I0217 18:43:10.085937  6824 net.cpp:157] Top shape: 25 2048 4 4 (819200)
I0217 18:43:10.085937  6824 net.cpp:165] Memory required for data: 301363500
I0217 18:43:10.085937  6824 layer_factory.cpp:58] Creating layer cccp5
I0217 18:43:10.085937  6824 net.cpp:100] Creating Layer cccp5
I0217 18:43:10.085937  6824 net.cpp:434] cccp5 <- cccp4
I0217 18:43:10.085937  6824 net.cpp:408] cccp5 -> cccp5
I0217 18:43:10.090936  6824 net.cpp:150] Setting up cccp5
I0217 18:43:10.090936  6824 net.cpp:157] Top shape: 25 256 4 4 (102400)
I0217 18:43:10.090936  6824 net.cpp:165] Memory required for data: 301773100
I0217 18:43:10.090936  6824 layer_factory.cpp:58] Creating layer relu_cccp5
I0217 18:43:10.090936  6824 net.cpp:100] Creating Layer relu_cccp5
I0217 18:43:10.090936  6824 net.cpp:434] relu_cccp5 <- cccp5
I0217 18:43:10.090936  6824 net.cpp:395] relu_cccp5 -> cccp5 (in-place)
I0217 18:43:10.090936  6824 net.cpp:150] Setting up relu_cccp5
I0217 18:43:10.090936  6824 net.cpp:157] Top shape: 25 256 4 4 (102400)
I0217 18:43:10.090936  6824 net.cpp:165] Memory required for data: 302182700
I0217 18:43:10.090936  6824 layer_factory.cpp:58] Creating layer poolcp5
I0217 18:43:10.091435  6824 net.cpp:100] Creating Layer poolcp5
I0217 18:43:10.091435  6824 net.cpp:434] poolcp5 <- cccp5
I0217 18:43:10.091435  6824 net.cpp:408] poolcp5 -> poolcp5
I0217 18:43:10.091435  6824 net.cpp:150] Setting up poolcp5
I0217 18:43:10.091435  6824 net.cpp:157] Top shape: 25 256 2 2 (25600)
I0217 18:43:10.091435  6824 net.cpp:165] Memory required for data: 302285100
I0217 18:43:10.091435  6824 layer_factory.cpp:58] Creating layer drop4_5
I0217 18:43:10.091435  6824 net.cpp:100] Creating Layer drop4_5
I0217 18:43:10.091435  6824 net.cpp:434] drop4_5 <- poolcp5
I0217 18:43:10.091435  6824 net.cpp:395] drop4_5 -> poolcp5 (in-place)
I0217 18:43:10.091435  6824 net.cpp:150] Setting up drop4_5
I0217 18:43:10.091435  6824 net.cpp:157] Top shape: 25 256 2 2 (25600)
I0217 18:43:10.091435  6824 net.cpp:165] Memory required for data: 302387500
I0217 18:43:10.091435  6824 layer_factory.cpp:58] Creating layer cccp6
I0217 18:43:10.091435  6824 net.cpp:100] Creating Layer cccp6
I0217 18:43:10.091435  6824 net.cpp:434] cccp6 <- poolcp5
I0217 18:43:10.091435  6824 net.cpp:408] cccp6 -> cccp6
I0217 18:43:10.097936  6824 net.cpp:150] Setting up cccp6
I0217 18:43:10.098436  6824 net.cpp:157] Top shape: 25 256 2 2 (25600)
I0217 18:43:10.098436  6824 net.cpp:165] Memory required for data: 302489900
I0217 18:43:10.098436  6824 layer_factory.cpp:58] Creating layer relu_cccp6
I0217 18:43:10.098436  6824 net.cpp:100] Creating Layer relu_cccp6
I0217 18:43:10.098436  6824 net.cpp:434] relu_cccp6 <- cccp6
I0217 18:43:10.098436  6824 net.cpp:395] relu_cccp6 -> cccp6 (in-place)
I0217 18:43:10.098436  6824 net.cpp:150] Setting up relu_cccp6
I0217 18:43:10.098436  6824 net.cpp:157] Top shape: 25 256 2 2 (25600)
I0217 18:43:10.098937  6824 net.cpp:165] Memory required for data: 302592300
I0217 18:43:10.098937  6824 layer_factory.cpp:58] Creating layer poolcp6
I0217 18:43:10.098937  6824 net.cpp:100] Creating Layer poolcp6
I0217 18:43:10.098937  6824 net.cpp:434] poolcp6 <- cccp6
I0217 18:43:10.098937  6824 net.cpp:408] poolcp6 -> poolcp6
I0217 18:43:10.098937  6824 net.cpp:150] Setting up poolcp6
I0217 18:43:10.098937  6824 net.cpp:157] Top shape: 25 256 1 1 (6400)
I0217 18:43:10.098937  6824 net.cpp:165] Memory required for data: 302617900
I0217 18:43:10.098937  6824 layer_factory.cpp:58] Creating layer ip1
I0217 18:43:10.098937  6824 net.cpp:100] Creating Layer ip1
I0217 18:43:10.098937  6824 net.cpp:434] ip1 <- poolcp6
I0217 18:43:10.098937  6824 net.cpp:408] ip1 -> ip1
I0217 18:43:10.098937  6824 net.cpp:150] Setting up ip1
I0217 18:43:10.098937  6824 net.cpp:157] Top shape: 25 10 (250)
I0217 18:43:10.098937  6824 net.cpp:165] Memory required for data: 302618900
I0217 18:43:10.098937  6824 layer_factory.cpp:58] Creating layer ip1_ip1_0_split
I0217 18:43:10.098937  6824 net.cpp:100] Creating Layer ip1_ip1_0_split
I0217 18:43:10.098937  6824 net.cpp:434] ip1_ip1_0_split <- ip1
I0217 18:43:10.098937  6824 net.cpp:408] ip1_ip1_0_split -> ip1_ip1_0_split_0
I0217 18:43:10.098937  6824 net.cpp:408] ip1_ip1_0_split -> ip1_ip1_0_split_1
I0217 18:43:10.098937  6824 net.cpp:150] Setting up ip1_ip1_0_split
I0217 18:43:10.098937  6824 net.cpp:157] Top shape: 25 10 (250)
I0217 18:43:10.098937  6824 net.cpp:157] Top shape: 25 10 (250)
I0217 18:43:10.098937  6824 net.cpp:165] Memory required for data: 302620900
I0217 18:43:10.098937  6824 layer_factory.cpp:58] Creating layer accuracy
I0217 18:43:10.098937  6824 net.cpp:100] Creating Layer accuracy
I0217 18:43:10.098937  6824 net.cpp:434] accuracy <- ip1_ip1_0_split_0
I0217 18:43:10.098937  6824 net.cpp:434] accuracy <- label_cifar_1_split_0
I0217 18:43:10.099436  6824 net.cpp:408] accuracy -> accuracy
…
